project1-banana-collector/models/dqn_ddqn_qnetwork_target.pth (torch_old, 307268 bytes, 6 tensors)

_fc1.weight f4 [256, 37]
-0.07177076 -0.046216007 -0.07478885 -0.1808694 -0.2506039 -0.21010251 -0.008097164 0.19829985
-0.08373171 0.055966333 -0.14648202 -0.10841308 -0.37483892 0.14208184 -0.45886207 0.0328518
-0.24939853 0.28293517 -0.21947172 -0.44573843 -0.15947813 0.13926223 -0.29704037 0.3263145
-0.11194187 -0.0002602827 0.10863411 -0.16904992 -0.1783447 -0.07493429 -0.17535354 0.16673093
-0.06130759 -0.24231574 -0.21656325 0.084302574 0.0108427685 0.20503002 0.24135193 -0.18053986
-0.17552072 -0.19208811 0.10114439 -0.30661085 -0.18354186 -0.18069068 -0.45819116 -0.0057925526
-0.12532015 0.057915717 0.21054173 0.10673227 -0.017869113 -0.045783803 0.23057403 -0.061819904
-0.10879372 -0.2224077 -0.057537224 -0.04115156 0.1068629 0.19784665 -0.088294804 -0.0015667999
0.08620985 0.12041773 0.041402984 -0.047022 0.069571674 0.19544137 0.17852038 -0.046764705
0.042285796 -0.018366009 0.24679466 0.12983409 -0.064395905 -0.33066806 -0.008449565 -0.6767301
-0.15002328 0.27404845 0.08238509 -0.43608597 0.15518574 0.056500938 -0.18716836 -0.09324775
0.19687954 -0.27076435 0.011577001 0.16314533 0.25573057 0.011107228 -0.23087619 -0.11609571
0.10648188 0.03861553 -0.5575506 -0.15869804 0.091733664 0.1482927 -0.065740734 -0.12432889
-0.25472814 -0.13093409 -0.05418637 -0.14027707 -0.24579868 0.015060053 -0.021832816 0.3781483
-0.6940473 0.15098989 -0.1678532 -1.2869942 0.024799753 -0.036905248 0.15991966 0.20387512
0.07866422 0.015455852 -0.059950758 0.055969976 0.000668652 -0.022971185 -0.07133542 0.12696311
0.05047871 -0.20397988 -0.15923572 0.085716575 0.07688396 -0.05960271 0.062926695 -0.014110449
-0.03758079 0.011503353 0.21765059 0.17822601 0.3151962 0.10444693 0.26201013 0.081498176
-0.123390816 -0.21941462 0.035753626 -0.02260025 -0.049132317 -0.16023275 -0.08919406 -0.10815798
-0.11263683 0.24412224 0.020900888 -0.21727885 -0.2188533 -0.7882281 -0.028138349 -0.04169322
0.0071790996 -0.03621884 -0.12476218 -0.1570653 -0.10838544 0.088367134 0.09530583 0.14790265
-0.10968207 -0.14945123 0.17602721 0.08223903 0.33800405 0.09830575 -0.061645314 0.12837417
-0.07404568 0.02782074 0.043050222 -0.107568875 0.18610224 0.14219198 0.38184878 -0.015531207
0.0071236948 0.060205948 -0.15692855 0.06627522 -0.2093284 0.18102966 0.17737462 0.12752578
-0.22841653 -0.121976264 -0.9230142 -0.20959438 0.07741548 0.027678283 -0.17271808 -0.0902545
-0.04395627 0.104591675 -0.08747316 -0.090429604 0.089983046 0.05993913 -0.0049536414 0.2090654
-0.06887111 0.1037503 -0.04562218 -0.17057869 0.0760267 0.12933354 0.07738567 0.17230895
-0.22927745 -0.27095264 0.0014787946 -0.15103026 0.0020934637 0.0046482976 -0.01916529 0.13968858
-0.1418344 0.016644292 -0.14182788 0.0012691139 -0.16845831 0.07983601 -0.003592476 0.003990448
0.0037220907 0.030514117 0.18516062 -0.19682537 -0.035267353 -0.15415719 -0.033800725 -0.07389048
0.18802693 0.07923547 0.013566022 -0.017123677 0.0847083 -0.24256529 0.25675982 -0.17409395
0.13608521 -0.15648961 -0.24309888 0.1492243 0.17175399 -0.45303538 0.09997371 -0.29479846
00000000: 8cfc 92bd ff4c 3dbd e62a 99bd d435 39be
00000010: 284f 80be 1d25 57be f8a9 04bc 1e0f 4b3e
00000020: 887b abbd f43c 653d 62ff 15be ad07 debd
00000030: e3ea bfbe e77d 113e f8ef eabe 9c8f 063d
00000040: 5462 7fbe e1dc 903e 32bd 60be d437 e4be
00000050: 3c4e 23be c29a 0e3e ad15 98be b212 a73e
00000060: c741 e5bd 8d76 88b9 8f7b de3d 6c1b 2dbe
00000070: fe9f 36be 2677 99bd e18f 33be 83bb 2a3e
00000080: ab1d 7bbd 9e21 78be c2c2 5dbe d4a6 ac3d
00000090: dea5 313c 64f3 513e f624 773e 71df 38be
000000a0: b4bb 33be bfb2 44be ca24 cf3d 19fc 9cbe
000000b0: 66f2 3bbe fa06 39be 0898 eabe 74cf bdbb
000000c0: ed53 00be 0839 6d3d 4098 573e 7396 da3d
000000d0: 3f62 92bc cc87 3bbd 991b 6c3e de36 7dbd
000000e0: 3ecf debd d8be 63be 27ac 6bbd 8a8e 28bd
000000f0: f0da da3d 5098 4a3e e8d3 b4bd 155d cdba
00000100: ca8e b03d 929d f63d 2d96 293d 249a 40bd
00000110: 987b 8e3d c821 483e 0cce 363e 598c 3fbd
00000120: df33 2d3d 5074 96bc bdb7 7c3e 3af3 043e
00000130: 00e2 83bd 534d a9be 0b70 0abc 2f3e 2dbf
00000140: b49f 19be 1450 8c3e 84b9 a83d a946 dfbe
00000150: 03e9 1e3e 876d 673d 10a9 3fbe adf8 bebd
00000160: ca9a 493e a0a1 8abe 76ad 3d3c 920f 273e
00000170: 1eef 823e 17fb 353c cf6a 6cbe 96c3 edbd
00000180: 2c13 da3d 512b 1e3d a3bb 0ebf bd81 22be
00000190: dcde bb3d 0bda 173e 14a3 86bd 25a0 febd
000001a0: ba6b 82be 9613 06be 87f2 5dbd cba4 0fbe
000001b0: a6b2 7bbe 71be 763c bcda b2bc a79c c13e
000001c0: 15ad 31bf 189d 1a3e b6e1 2bbe 3abc a4bf
000001d0: da28 cb3c f529 17bd fbc1 233e a4c4 503e
000001e0: b51a a13d 8b3a 7d3c ed8e 75bd c640 653d
000001f0: 7a48 2f3a 112e bcbc 4e18 92bd 9e02 023e
00000200: c4c2 4e3d 1ae0 50be b00e 23be 2c8c af3d
00000210: 5675 9d3d f921 74bd b6df 803d 832f 67bc
00000220: 51ee 19bd 8f78 3c3c ccdf 5e3e e180 363e
00000230: 6561 a13e 46e8 d53d 3126 863e 84e8 a63d
00000240: 53b4 fcbd 3aae 60be 6572 123d 2924 b9bc
00000250: f83e 49bd 0e14 24be 60ab b6bd ee81 ddbd
00000260: 23ae e6bd 2efb 793e 5738 ab3c 597e 5ebe
00000270: 141b 60be 51c9 49bf 6582 e6bc 83c6 2abd
00000280: a73e eb3b 355a 14bd 5083 ffbd bad5 20be
00000290: 30f9 ddbd d4f9 b43d b42f c33d cb73 173e
000002a0: fea0 e0bd be09 19be 7a40 343e f06c a83d
000002b0: de0e ad3e 8654 c93d cc7f 7cbd 8574 033e
000002c0: 43a5 97bd 52e8 e33c 6e55 303d 124d dcbd
000002d0: 9691 3e3e c69a 113e af81 c33e 9b76 7ebc
000002e0: e26d e93b 839a 763d e1b1 20be 4dbb 873d
000002f0: 2f5a 56be d75f 393e b1a1 353e 1e96 023e
00000300: 06e6 69be b1ce f9bd a94a 6cbf e99f 56be
00000310: 028c 9e3d 91bd e23c 02dd 30be 5ad7 b8bd
00000320: 7d0b 34bd 2934 d63d 2125 b3bd 2833 b9bd
00000330: 0849 b83d bc82 753d 2852 a2bb 3d15 563e
00000340: 4c0c 8dbd 0a7b d43d 53de 3abd 2eac 2ebe
00000350: e3b3 9b3d 0370 043e 617c 9e3d c271 303e
00000360: b5c7 6abe 4eba 8abe 1dd4 c13a ada7 1abe
00000370: 7e32 093b bf50 983b 8700 9dbc 860a 0f3e
00000380: 093d 11be 9c59 883c 543b 11be 6558 a63a
00000390: 5680 2cbe 1081 a33d bf6f 6bbb 4ec2 823b
000003a0: 52ee 733b bef8 f93c bf9a 3d3e 978c 49be
000003b0: 8074 10bd 62db 1dbe a172 0abd e453 97bd
000003c0: 228a 403e 3546 a23d 0544 5e3c f446 8cbc
000003d0: 8c7b ad3d 0963 78be 0676 833e af45 32be
000003e0: ec59 0b3e d03e 20be eaee 78be 41ce 183e
000003f0: 47e0 2f3e 41f4 e7be 04bf cc3d d3ef 96be

_fc1.bias f4 [256]
-0.04763142 0.06998934 -0.017040063 0.023002038 0.06828071 0.012827947 -0.14513282 -0.053089693
-0.28652227 -0.12321466 0.08837353 0.13104585 -0.124637544 -0.14567758 -0.092928335 0.110033154
0.08412153 -0.100781485 -0.041621726 -0.1534943 -0.096303925 0.037621245 0.08531782 -0.07599214
-0.07877091 0.05745363 0.10951368 0.1946584 0.061749626 0.16154428 0.0986815 -0.00028132932
-0.14068814 -0.043379452 -0.013009394 0.09417382 -0.027468888 0.0033606172 -0.074895546 0.14629301
-0.16440538 -0.087479346 0.076861896 0.010037805 0.00085198897 -0.026202518 -0.20210993 -0.108309835
0.0047191177 -0.008248183 -0.06474193 0.042694576 -0.09728215 0.03796564 -0.042349074 -0.05567328
0.035632078 -0.0029112957 0.08176992 0.063455716 0.16966538 0.028823715 0.121264644 -0.01699539
0.019913077 -0.14326835 -0.21283002 -0.1489276 -0.071724184 -0.11753392 -0.23815413 0.057734553
-0.15937513 0.15472919 -0.03637963 -0.054449283 0.1280078 -0.08842077 -0.03464397 0.091046
-0.21148604 0.07639605 -0.101724476 -0.10354662 0.0641956 -0.0052525313 0.013697032 0.22297487
0.027207073 -0.025145039 0.1754465 -0.09775597 -0.10586446 0.11510831 -0.0445772 0.16019858
0.02850835 -0.17102325 -0.003813537 0.14201768 0.0032318078 -0.21528107 -0.15026966 -0.06540648
-0.11675468 -0.2035485 0.10058107 -0.15979625 -0.14751554 0.0955532 0.044414658 0.032119453
0.101027295 -0.085804746 0.09772234 -0.0458796 -0.1236643 0.041794796 -0.11584611 -0.17322677
-0.038350217 0.029647984 -0.123357035 -0.1599795 -0.1175906 -0.15452139 0.05679723 0.08645541
0.12797558 -0.05026337 -0.104374364 0.0227306 -0.03502805 -0.026583383 0.04424313 -0.13025157
-0.14425568 -0.2571744 -0.10164128 -0.15565747 0.010301978 0.02348904 0.012895644 -0.09606281
-0.053515207 -0.06354233 -0.19570379 0.12104483 -0.1755624 0.10665008 0.042552296 -0.18135959
-0.14795595 -0.11562871 0.123597555 -0.030753685 0.037090592 -0.1599623 0.06918149 0.050518855
0.07151133 0.12611027 0.12127229 -0.0643599 -0.015317137 -0.17372738 -0.04245732 -0.09939768
0.006202801 -0.14533594 0.08171551 -0.08757263 0.023785863 0.16087826 0.034926288 0.02872111
0.09388997 -0.12244196 0.17530347 -0.19562642 0.08602867 -0.07964513 -0.13356084 -0.036446106
-0.15370284 0.0519993 0.15446067 0.046737455 0.15299511 0.15689424 -0.20824642 0.115946345
0.02736264 0.08131556 0.06584903 -0.04940936 0.12852281 -0.13451418 -0.16252781 -0.031802755
0.029579835 -0.0018979191 -0.18218404 0.038222816 -0.05987527 -0.14104293 0.059101623 0.1391093
0.08972549 -0.08392562 -0.16932386 -0.21602815 0.009809088 -0.19248742 0.067650594 -0.17263056
-0.15896067 -0.03007517 0.03554192 -0.0780418 -0.028545834 -0.17261906 -0.08817155 0.01708745
-0.2540543 -0.051082183 -0.018295437 -0.03175481 0.14817537 -0.14298028 0.0068698814 0.0012283428
0.010780325 -0.06113511 0.049248956 -0.2435798 -0.106026985 0.006560863 0.0019777701 -0.21315502
0.11787968 0.101713695 -0.22701989 0.0024082717 -0.2289494 -0.06405771 -0.041562926 0.12360436
0.14239289 0.09881914 0.022704301 -0.19752276 -0.093746185 0.031218674 -0.07480536 -0.083152205
00000000: 2a19 43bd 9256 8f3d 9a97 8bbc c56e bc3c
00000010: c2d6 8b3d 4f2c 523c b39d 14be 9474 59bd
00000020: 0cb3 92be f857 fcbd 2efd b43d e230 063e
00000030: f841 ffbd 812c 15be 3651 bebd 1059 e13d
00000040: e947 ac3d 8666 cebd 8b7b 2abd 9c2d 1dbe
00000050: fe3a c5bd bc18 1a3d 1cbb ae3d c4a1 9bbd
00000060: a552 a1bd 7f54 6b3d b548 e03d 8854 473e
00000070: 2ded 7c3d dd6b 253e 8719 ca3d 627f 93b9
00000080: 8d10 10be a7ae 31bd 5a25 55bc 34de c03d
00000090: 6f06 e1bc cd3d 5c3b d662 99bd d6cd 153e
000000a0: e259 28be 5f28 b3bd c569 9d3d 9b75 243c
000000b0: 0358 5f3a aaa6 d6bc e8f5 4ebe 8cd1 ddbd
000000c0: d4a2 9a3b 6323 07bc 6b97 84bd 82e0 2e3d
000000d0: dd3b c7bd dc81 1b3d 3976 2dbd aa09 64bd
000000e0: f1f2 113d 70cb 3ebb fd76 a73d 12f5 813d
000000f0: c3bc 2d3e b61f ec3c 9959 f83d eb39 8bbc
00000100: c020 a33c f0b4 12be 1df0 59be 7a80 18be
00000110: 21e4 92bd a0b5 f0bd adde 73be 117b 6c3d
00000120: 3c33 23be 5471 1e3e cf02 15bd 3606 5fbd
00000130: 7a14 033e f315 b5bd d6e6 0dbd 5376 ba3d
00000140: cc8f 58be 8875 9c3d ec54 d0bd 4010 d4bd
00000150: fc78 833d 6d1d acbb 8469 603c 8653 643e
00000160: 5ee1 de3c f8fc cdbc 3fa8 333e 4834 c8bd
00000170: 77cf d8bd e8bd eb3d 9596 36bd 190b 243e
00000180: 588a e93c b820 2fbe 89ec 79bb 156d 113e
00000190: bdcc 533b a472 5cbe 4ae0 19be d5f3 85bd
000001a0: 141d efbd 056f 50be 73fd cd3d a1a1 23be
000001b0: 500e 17be 65b1 c33d 25ec 353d b08f 033d
000001c0: 66e7 ce3d 66ba afbd a622 c83d 3fec 3bbd
000001d0: b543 fdbd 0531 2b3d ba40 edbd 5c62 31be
000001e0: 1e15 1dbd 54e0 f23c 9da2 fcbd abd1 23be
000001f0: 57d3 f0bd db3a 1ebe 36a4 683d 890f b13d
00000200: 080c 033e f7e0 4dbd 3ac2 d5bd 8635 ba3c
00000210: 9379 0fbd 65c5 d9bc 4938 353d ab60 05be
00000220: c3b7 13be 5dac 83be 4e29 d0bd ac64 1fbe
00000230: a1c9 283c 166c c03c 4048 533c 94bc c4bd
00000240: c332 5bbd 7b22 82bd 9366 48be 5ae6 f73d
00000250: a1c6 33be 5b6b da3d 514b 2e3d 54b6 39be
00000260: c481 17be bfce ecbd b720 fd3d 27ef fbbc
00000270: 4eec 173d 28cd 23be 06af 8d3d dcec 4e3d
00000280: 8874 923d 0d23 013e 9b5d f83d 20cf 83bd
00000290: bbf4 7abc 97e5 31be bae7 2dbd 0391 cbbd
000002a0: de40 cb3b f2d2 14be 765a a73d 4759 b3bd
000002b0: 92da c23c 45bd 243e de0e 0f3d 8948 eb3c
000002c0: 6249 c03d dac2 fabd c182 333e 4b52 48be
000002d0: cd2f b03d fc1c a3bd 2cc4 08be 8348 15bd
000002e0: 4764 1dbe 38fd 543d f02a 1e3e c66f 3f3d
000002f0: c0aa 1c3e e2a8 203e 8d3e 55be 4775 ed3d
00000300: 9d27 e03c c688 a63d dbdb 863d 7861 4abd
00000310: 7c9b 033e 16be 09be b16d 26be 9b43 02bd
00000320: 6951 f23c 99c3 f8ba 748e 3abe 878f 1c3d
00000330: c53f 75bd 8f6d 10be 8b14 723d ab72 0e3e
00000340: ffc1 b73d 32e1 abbd 3c63 2dbe 7c36 5dbe
00000350: 4cb6 203c 6c1b 45be 658c 8a3d 11c6 30be
00000360: 96c6 22be 3460 f6bc 6894 113d 61d4 9fbd
00000370: f4d8 e9bc 0dc3 30be 4993 b4bd fbfa 8b3c
00000380: 6813 82be 8d3b 51bd 50e0 95bc 5511 02bd
00000390: 49bb 173e 6c69 12be be1c e13b 5800 a13a
000003a0: f69f 303c cf68 7abd 46b9 493d fc6c 79be
000003b0: ad24 d9bd 82fc d63b 7a9d 013b 4f45 5abe
000003c0: e76a f13d 454f d03d e777 68be 18d4 1d3b
000003d0: b671 6abe b030 83bd e33d 2abd 4824 fd3d
000003e0: 71cf 113e b061 ca3d 5ffe b93c 6843 4abe
000003f0: 00fe bfbd 4ebe ff3c 8d33 99bd b44b aabd

_fc2.weight f4 [256, 256]
-0.026819643 0.01049847 -0.024463367 -0.036808208 -0.017200818 0.029000826 0.055054914 0.032065846
0.01896104 0.023021659 -0.015746074 -0.10562452 -0.052309338 -0.056325253 -0.051415257 -0.039270654
-0.062857635 0.05773343 -0.07109808 -0.08910636 -0.060598217 -0.0035354623 -0.055859588 -0.08891264
0.0023612822 0.011130844 0.052260906 -0.07435403 -0.03202487 -0.03812325 -0.026132317 -0.006597807
0.039363787 -0.019523567 0.013599813 -0.011320838 -0.051292323 -0.027506968 -0.056049578 0.004460394
-0.052488156 0.022390215 -0.10072198 -0.023088714 -0.056913856 0.036148816 -0.020985764 0.024269646
-0.08145452 -0.011088936 -0.075501435 -0.04549197 0.058016557 -0.07945774 -0.048319496 -0.07114278
-0.03600726 -0.02429386 -0.075076744 -0.00699409 0.014608448 -0.030062549 0.024081517 -0.09566297
0.095066905 0.023761138 -0.0039164945 0.052283257 -0.032222316 -0.08538848 0.04237386 -0.057495005
-0.062255993 0.09141607 -0.054142207 -0.05949924 -0.016306736 -0.011898265 -0.044799056 -0.014717415
0.032244664 -0.06440738 0.031957813 -0.03092869 -0.09915733 -0.009854917 -0.08200587 0.017359143
-0.04388262 -0.07269998 -0.074160315 -0.0023121545 -0.08916598 0.008337773 -0.006405021 0.013584911
-0.036763504 -0.05796813 0.004010094 -0.032103103 0.036200978 -0.06562184 -0.12269402 -0.024111321
-0.044802777 -0.036074314 -0.035314344 0.014207975 0.01109918 -0.04815186 -0.026123004 -0.036454294
-0.006488375 -0.017111411 -0.13645914 -0.013687359 0.010830023 -0.008611586 -0.01690838 0.025888307
-0.06610613 -0.06634455 -0.049839437 -0.09452301 0.004205674 0.0017806534 -0.057364624 -0.035362776
-0.026298095 -0.04039943 -0.05601605 -0.0005520195 -0.058307134 -0.084717914 -0.074540295 -0.041498408
-0.017580803 -0.020516368 0.01141397 -0.013989111 -0.072238036 0.006043663 0.044910815 -0.0373074
-0.09374069 -0.010076575 -0.031622536 -0.0045423512 -0.05352007 0.009199257 -0.07661904 -0.067596264
0.0035408174 0.006081848 -0.123938285 0.028803386 -0.042955015 -0.020220203 -0.027475301 0.036577232
-0.024338568 0.043200888 0.04152821 -0.0019373506 -0.05704797 -0.077013925 0.0054368987 -0.018396653
-0.07867541 -0.058187924 -0.03640214 -0.02711767 -0.03241976 -0.03614882 -0.025355585 -0.058545556
-0.046888974 0.010969724 -0.037557 0.014632663 0.033388343 -0.016398007 -0.06459364 -0.019475138
-0.046803284 -0.09704133 0.040183358 0.061347008 -0.102033295 -0.042656988 -0.008444876 0.064481884
-0.09875499 0.0458645 -0.031298432 0.0074928193 -0.039211046 0.019121232 -0.06974206 -0.042124264
-0.13732342 0.0017474747 -0.0669108 -0.007104919 -0.07975577 -0.028957985 -0.061428968 -0.032702886
0.050256677 -0.06006922 -0.011307799 -0.0679986 0.0055174585 -0.04423653 0.0121944295 -0.07607514
0.024623554 0.0323676 -0.041554287 -0.08578337 0.019463962 -0.051541917 0.016664369 -0.048662234
-0.10689113 0.0062187538 -0.012168352 -0.08701272 0.0029529128 0.025482247 0.022554127 0.0519368
0.0013237174 -0.03406263 -0.025042655 0.025906933 -0.097369164 0.024958834 0.022462858 -0.013920193
-0.0019353715 -0.07854876 -0.031749196 -0.039915137 -0.016651332 -0.10798638 0.024748353 -0.020924294
0.013013071 -0.11631624 -0.018966628 -0.06895974 0.08577592 -0.00535401 -0.046054494 -0.10801618
00000000: deb4 dbbc c601 2c3c 6667 c8bc 34c4 16bd
00000010: bbe8 8cbc 2493 ed3c 4381 613d 7a57 033d
00000020: 2f54 9b3c eb97 bc3c e9fd 80bc ab51 d8bd
00000030: 5142 56bd 4fb5 66bd ce98 52bd 44da 20bd
00000040: 81bb 80bd e479 6c3d df9b 91bd 657d b6bd
00000050: d635 78bd 37b3 67bb 06cd 64bd d517 b6bd
00000060: bebf 1a3b 255e 363c 880f 563d ed46 98bd
00000070: 832c 03bd 2027 1cbd 7113 d6bc 6b32 d8bb
00000080: ec3b 213d e3ef 9fbc c0d1 5e3c 097b 39bc
00000090: e617 52bd 4b56 e1bc 3e94 65bd 7f28 923b
000000a0: d2fd 56bd af6b b73c 5347 cebd 8b24 bdbc
000000b0: 811e 69bd c810 143d 56ea abbc 23d1 c63c
000000c0: a1d1 a6bd 5eae 35bc 7fa0 9abd ca55 3abd
000000d0: c5a2 6d3d bdba a2bd aaea 45bd 4eb3 91bd
000000e0: 597c 13bd eb03 c7bc d6c1 99bd ae2e e5bb
000000f0: 4658 6f3c bc45 f6bc 9a46 c53c f2ea c3bd
00000100: 70b2 c23d b8a6 c23c f055 80bb f826 563d
00000110: 8cfb 03bd 28e0 aebd 3690 2d3d e27f 6bbd
00000120: 2400 7fbd 5938 bb3d 38c4 5dbd 7ab5 73bd
00000130: b495 85bc f1f0 42bc 377f 37bd 5021 71bc
00000140: fb12 043d 04e8 83bd 32e6 023d 2a5e fdbc
00000150: 0013 cbbd 8576 21bc b2f2 a7bd c334 8e3c
00000160: 43be 33bd bae3 94bd 5de1 97bd 8487 17bb
00000170: a79c b6bd 289b 083c 36e1 d1bb 3f93 5e3c
00000180: 5495 16bd fd6f 6dbd 1b67 833b 8b7e 03bd
00000190: 7a47 143d be64 86bd 0147 fbbd 1b85 c5bc
000001a0: 1e83 37bd a9c2 13bd c6a5 10bd 91c8 683c
000001b0: 56d9 353c e23a 45bd e9ff d5bc 1951 15bd
000001c0: 6f9c d4bb 3b2d 8cbc f2bb 0bbe f240 60bc
000001d0: 6970 313c 9c17 0dbc 7183 8abc b713 d43c
000001e0: a762 87bd a7df 87bd 7024 4cbd 4895 c1bd
000001f0: c0cf 893b d064 e93a 2bf7 6abd 8fd8 10bd
00000200: 1a6f d7bc df79 25bd 1671 65bd 67b5 10ba
00000210: 76d3 6ebd 9680 adbd 95a8 98bd 3cfa 29bd
00000220: 9e05 90bc f111 a8bc a901 3b3c 9632 65bc
00000230: 89f1 93bd eb09 c63b 67f4 373d a5cf 18bd
00000240: 1efb bfbd 3818 25bc a286 01bd 01d8 94bb
00000250: dc37 5bbd 7bb8 163c 71ea 9cbd e96f 8abd
00000260: 0f0d 683b 3d4a c73b 5bd3 fdbd 14f5 eb3c
00000270: 99f1 2fbd d7a4 a5bc e213 e1bc 02d2 153d
00000280: ad61 c7bc 6af3 303d 7c19 2a3d b3ee fdba
00000290: 22ab 69bd 7ab9 9dbd 0328 b23b 94b4 96bc
000002a0: 9320 a1bd 7656 6ebd 691a 15bd e025 debc
000002b0: 95ca 04bd c910 14bd 84b6 cfbc 77cd 6fbd
000002c0: a70e 40bd 5bba 333c 5ed5 19bd d6bd 6f3c
000002d0: 37c2 083d 1d55 86bc ac49 84bd 538a 9fbc
000002e0: cdb4 3fbd 9bbd c6bd 4e97 243d 0047 7b3d
000002f0: d5f6 d0bd 18b9 2ebd 615c 0abc 140f 843d
00000300: 0e40 cabd 6adc 3b3d c932 00bd 5386 f53b
00000310: c39b 20bd 21a4 9c3c edd4 8ebd 7e8a 2cbd
00000320: 839e 0cbe 850b e53a 8808 89bd 61d0 e8bb
00000330: fe56 a3bd 4c39 edbc f19c 7bbd 76f3 05bd
00000340: f2d9 4d3d 240b 76bd 5944 39bc da42 8bbd
00000350: cccb b43b 5d31 35bd 25cb 473c 48cd 9bbd
00000360: 56b7 c93c e393 043d d434 2abd 31af afbd
00000370: e372 9f3c 9e1d 53bd b783 883c 0d52 47bd
00000380: bde9 dabd b0c6 cb3b c45d 47bc ba33 b2bd
00000390: a885 413b 25c0 d03c 6fc3 b83c afbb 543d
000003a0: 9680 ad3a 4285 0bbd 4126 cdbc c73a d43c
000003b0: 7c69 c7bd 7876 cc3c 0704 b83c 8511 64bc
000003c0: 4bac fdba 2cde a0bd 720b 02bd 0e7e 23bd
000003d0: 6068 88bc f727 ddbd 0fbd ca3c 6d69 abbc
000003e0: c734 553c 3537 eebd e75f 9bbc c43a 8dbd
000003f0: 49ab af3d b170 afbb a3a3 3cbd 9637 ddbd

_fc2.bias f4 [256]
-0.050945867 -0.086252764 0.014296377 0.047103826 -0.06508539 0.4772525 -0.24622072 -0.00584341
0.033759706 -0.09313717 -0.045397162 -0.10121277 0.109896086 -0.019057242 0.016340805 0.020714939
0.17330445 0.080506176 0.020010706 -0.038617667 0.14312586 -0.033537585 0.1996905 0.0573059
-0.079174615 -0.06324712 -0.0057846117 0.045703154 -0.09349433 0.041063584 -0.010081232 0.10039124
-0.05891809 -0.027505364 0.055441458 -0.047488753 -0.06768322 0.14699721 0.051170323 -0.023467297
-0.06440255 -0.17354263 0.0006300829 0.09807709 -0.10961083 -0.00719333 -0.040791396 -0.06332756
-0.016310303 -0.0061666034 -0.004219029 -0.14070025 -0.05532584 -0.032368015 -0.06327067 -0.01119697
-0.082438014 0.049416877 0.058610465 0.11750027 0.059519485 -0.049597684 -0.03977744 -0.032254126
-0.0644436 0.3066678 -0.0024501916 0.10050758 -0.059430715 -0.10493161 -0.036002185 -0.040182263
0.105351195 0.06326125 -0.041634038 -0.1255836 0.08491121 -0.012997494 0.0015398584 0.03916537
0.033987224 0.19125542 0.093465276 -0.0025698175 -0.106180266 0.05547327 0.020808915 -0.03087837
0.033230163 0.5129983 -0.0038631593 -0.044384073 -0.10429508 0.02217555 -0.009855359 -0.009491255
-0.07474892 -0.025705766 -0.017228205 0.020433825 -0.095484145 0.0545288 0.109356865 -0.053644132
-0.11388732 0.29345882 -0.07911113 0.07047372 0.010370981 -0.05773343 -0.036835626 0.044752114
-0.12170308 -0.00949398 -0.0019670718 -0.091572545 0.0094642 -0.0733112 0.49731618 0.26183155
0.04278944 -0.031308677 -0.054533366 -0.111845836 -0.14713797 -0.116410874 -0.05347537 0.000923651
-0.0720145 0.044813715 -0.09451556 0.071936935 -0.065157056 0.14406678 -0.14975497 -0.052118566
0.022447407 -0.11648457 -0.048248496 -0.092583016 -0.005483522 -0.05686629 -0.075867616 -0.059719037
0.19470342 -0.1433457 -0.07991969 -0.03749185 0.0030213657 0.11882776 -0.027664015 0.038773067
-0.10890091 0.11233519 -0.009229751 -0.0024628767 0.24189264 -0.19217505 0.052205235 -0.043589555
0.37144637 0.038388822 -0.050346084 -0.056641564 -0.09609511 0.09631037 -0.10410621 -0.09223015
-0.059642874 -0.020713467 0.03102859 -0.14013869 0.08206221 -0.07027295 0.0044873403 -0.041677225
-0.09973833 -0.053465575 0.17695436 -0.03889186 0.24144945 -0.05192154 0.066661626 -0.0044073085
-0.010307696 -0.0071728677 -0.052313063 0.101896964 -0.02215552 -0.14528136 0.0641067 0.017118184
0.029920423 0.11186685 0.004329108 -0.016369497 -0.13296576 0.07871634 -0.027748344 -0.07027101
-0.06797314 -0.20053044 0.016779704 -0.0657336 -0.08314904 -0.08948223 -0.04445603 0.06541524
0.048054934 -0.14247207 0.15461399 0.028136155 -0.08486227 -0.065515146 -0.040145103 -0.050691754
-0.05758955 0.10439656 -0.108522885 -0.17622928 -0.016219689 0.14737588 0.045626182 -0.033138942
0.05412705 -0.031719893 -0.024824422 -0.083678424 -0.20423248 0.03194925 -0.11411346 0.01673827
0.05477093 0.013488389 -0.011510973 -0.18305752 0.044812392 -0.038920313 0.01378754 0.11398956
0.13839704 -0.033001915 -0.044858664 -0.06562735 0.11545071 0.018366402 -0.0078904955 0.052972052
-0.046556573 0.06296504 0.021053726 0.43955314 -0.103894636 -0.100662366 0.065284915 0.24050348
00000000: 9dac 50bd 4aa5 b0bd 5a3b 6a3c f1ef 403d
00000010: 7d4b 85bd 715a f43e 4921 7cbe 137a bfbb
00000020: 9e47 0a3d b3be bebd 60f2 39bd a448 cfbd
00000030: 3311 e13d ef1d 9cbc 27dd 853c 60b2 a93c
00000040: b976 313e 6ce0 a43d 7eed a33c 8f2d 1ebd
00000050: 968f 123e b55e 09bd ab7b 4c3e 97b9 6a3d
00000060: 4d26 a2bd b587 81bd d78c bdbb 3b33 3b3d
00000070: f579 bfbd 4a32 283d c02b 25bc ec99 cd3d
00000080: 1854 71bd ee52 e1bc 9516 633d 9183 42bd
00000090: 809d 8abd 7086 163e f997 513d 7d3e c0bc
000000a0: 7ce5 83bd 29b5 31be 262c 253a a4dc c83d
000000b0: a57b e0bd 07b6 ebbb e114 27bd e1b1 81bd
000000c0: 2f9d 85bc 3811 cabb c83f 8abb ba13 10be
000000d0: 599d 62bd 5394 04bd 0e94 81bd 7f73 37bc
000000e0: 43d5 a8bd 5a69 4a3d 8711 703d fba3 f03d
000000f0: b4ca 733d f126 4bbd abed 22bd e71c 04bd
00000100: 02fb 83bd 9003 9d3e 6593 20bb ebd6 cd3d
00000110: 9f6d 73bd 62e6 d6bd 0777 13bd 2896 24bd
00000120: 5ec2 d73d 1d8f 813d 7488 2abd fd98 00be
00000130: eee5 ad3d 71f3 54bc 13d5 c93a de6b 203d
00000140: 3036 0b3d 76d8 433e b96a bf3d 626a 28bb
00000150: 0a75 d9bd f137 633d 7577 aa3c a3f4 fcbc
00000160: 5a1c 083d db53 033f 0f2d 7dbb 13cc 35bd
00000170: a998 d5bd 80a9 b53c 5f78 21bc 3581 1bbc
00000180: f615 99bd e694 d2bc 2a22 8dbc d664 a73c
00000190: 318d c3bd 9759 5f3d 7ef6 df3d f3b9 5bbd
000001a0: c13d e9bd 3c40 963e 0405 a2bd 8754 903d
000001b0: 0ceb 293c e479 6cbd f4e0 16bd fe4d 373d
000001c0: 773f f9bd a38c 1bbc fde9 00bb 638a bbbd
000001d0: bb0f 1b3c 2f24 96bd 3aa0 fe3e c90e 863e
000001e0: fb43 2f3d 873d 00bd 615e 5fbd 6e0f e5bd
000001f0: 56ab 16be d368 eebd fd08 5bbd 2b21 723a
00000200: 577c 93bd 968e 373d 6091 c1bd ac53 933d
00000210: 1071 85bd 3e86 133e 5e59 19be 477a 55bd
00000220: a0e3 b73c 768f eebd 37a0 45bd 2a9c bdbd
00000230: 1eaf b3bb a0ec 68bd 7b60 9bbd f39b 74bd
00000240: 5560 473e 37c9 12be efac a3bd 0e91 19bd
00000250: 1b02 463b f85b f33d a59f e2bc 82d0 1e3d
00000260: 7107 dfbd fe0f e63d 6238 17bc 3768 21bb
00000270: b4b2 773e 89c9 44be 28d5 553d f68a 32bd
00000280: 382e be3e 993d 1d3d b237 4ebd fc00 68bd
00000290: 83cd c4bd 5f3e c53d a335 d5bd 29e3 bcbd
000002a0: 164c 74bd 4aaf a9bc ab2f fe3c 8480 0fbe
000002b0: 3b10 a83d 44eb 8fbd 8a0a 933b bdb5 2abd
000002c0: 9c43 ccbd b8fe 5abd 8633 353e 124d 1fbd
000002d0: 863e 773e aeab 54bd e485 883d 2f6b 90bb
000002e0: 9ce1 28bc 600a ebbb 3946 56bd 5baf d03d
000002f0: 7e7f b5bc a3c4 14be 604a 833d 6f3b 8c3c
00000300: ad1b f53c 721a e53d 31db 8d3b 5319 86bc
00000310: 2d28 08be 0836 a13d 7f50 e3bc 3fea 8fbd
00000320: 8035 8bbd da57 4dbe 9775 893c 569f 86bd
00000330: 0b4a aabd 7642 b7bd 8717 36bd 6df8 853d
00000340: 40d5 443d 33e4 11be 2153 1e3e cb7d e63c
00000350: 45cc adbd ce2c 86bd 316f 24bd 28a2 4fbd
00000360: 05e3 6bbd ddcd d53d 3f41 debd 7375 34be
00000370: 27df 84bc b4e9 163e 85e2 3a3d b3bc 07bd
00000380: 53b4 5d3d b8ec 01bd 965c cbbc 985f abbd
00000390: 5222 51be 37dd 023d 51b4 e9bd b21e 893c
000003a0: 7c57 603d 67fe 5c3c 8598 3cbc 6e73 3bbe
000003b0: 338d 373d e86a 1fbd 22e5 613c 5c73 e93d
000003c0: f4b7 0d3e 042d 07bd b8bd 37bd a267 86bd
000003d0: 6c71 ec3d 2375 963c 2347 01bc 39f9 583d
000003e0: 1bb2 3ebd d1f3 803d dd78 ac3c 1c0d e13e
000003f0: b6c6 d4bd 1228 cebd 19b4 853d 8b46 763e

_fc3.weight f4 [4, 256]
-0.06567399 -0.044527102 -0.04692649 0.058441047 0.01478354 0.13892421 -0.078729026 0.13029993
-0.53271043 -0.07043419 -0.045663755 -0.012127367 0.022918312 0.052517142 -0.030869316 0.10057288
0.036735598 0.06103274 0.20993228 0.0049953526 0.08687858 -0.21086513 0.063091606 0.26156077
0.003248844 0.035293564 -0.36745015 -0.44217584 -0.025539845 -0.117269166 -0.011916891 0.06461249
0.009817664 -0.017397856 0.07205569 0.14639834 -0.22662267 0.1040455 0.47023726 -0.049174443
0.15713342 -0.095894605 -0.021807762 0.036658227 -0.23299608 0.027021943 -0.1750956 -0.019756267
0.16581197 -0.063817814 0.081253074 -0.33388093 -0.010064537 0.0419675 0.08358297 0.08916597
0.0051151225 0.3720063 0.23297913 0.047893614 0.12229073 0.11909558 0.10520956 0.11634347
-0.20633073 0.038996197 -0.25429183 0.10885058 -0.08092174 -0.12349869 -0.43068057 0.048396084
0.09658692 -0.00401071 -0.15982305 0.08453446 -0.4395675 0.006681293 -0.29405615 -0.025359623
0.0476904 0.010798893 -0.03759148 -0.012799746 -0.10592366 0.023171926 0.14240402 0.17284024
-0.13422196 0.12502837 0.022158327 0.01253297 -0.24268301 0.17000641 -0.20462196 0.094081566
0.02876613 0.023561832 0.18657699 -0.2531807 0.13784496 0.05463192 0.124795996 0.18478243
-0.11445356 0.058653302 -0.46357992 0.34574044 0.14846613 0.109610625 -0.047136325 0.16019149
-0.13763635 0.012791171 -0.06471118 -0.033995572 0.09043167 0.2395834 0.10209702 0.07221131
0.071509324 0.21303967 0.037571896 -0.03777307 -0.22704545 0.07526955 0.016634567 0.038365394
-0.0002508993 -0.12077043 -0.04218387 0.21159083 -0.20188883 0.07902457 -0.09472781 -0.56389695
-0.21714109 -0.15170068 0.16478603 0.1578725 0.035884432 -0.29467022 -0.010228525 -0.2351061
0.014044392 -0.07638387 -0.034118507 -0.10290648 -0.1713432 0.12961717 0.3249264 -0.22134812
0.10274429 0.11546036 0.18018545 -0.073182724 0.040695276 -0.13803099 0.1388306 -0.118462145
0.07263663 0.027391996 0.06873621 -0.07089378 -0.0005442777 0.16862369 -0.026473776 0.0015940142
-0.24878028 -0.19730012 -0.05429123 -0.1521421 0.050216302 -0.005779858 0.09091615 -0.2319172
-0.12781872 -0.3081613 0.042822998 -0.03742648 0.11192805 0.26995847 0.108693145 -0.008582356
-0.21667923 0.104217224 -0.029827852 0.12859935 0.037720915 -0.18446809 0.04514931 0.037779804
-0.33297637 0.035714995 0.16336891 0.19030967 -0.09445878 0.18565065 0.15377057 0.050327405
-0.22427945 -0.13429251 -0.38808516 0.008575263 -0.18323576 -0.027588923 0.0950955 -0.10056616
0.15728143 -0.24071032 0.06811335 -0.12938099 -0.09867197 0.2668898 0.265254 0.0416383
-0.26961687 0.21812586 -0.05689221 -0.1968294 0.08017577 0.11272351 0.22741917 0.30368495
-0.06374968 -0.033792727 0.075728826 0.06638237 -0.30897364 -0.1875857 -0.07888849 -0.18113019
0.030659586 -0.31553805 0.04911799 -0.1255679 0.18049638 -0.3212459 0.08069842 0.21362692
0.050498415 -0.041824576 0.03295248 -0.38497645 0.07375549 0.0028831162 -0.1535446 0.113386
0.26729476 -0.051041424 -0.10998975 0.08834268 -0.4075836 -0.04350636 0.081013985 0.021065056
00000000: 1680 86bd 0d62 36bd fe35 40bd e15f 6f3d
00000010: a936 723c 2642 0e3e af3c a1bd 586d 053e
00000020: b65f 08bf cd3f 90bd eb09 3bbd ddb1 46bc
00000030: 2fbf bb3c 371c 573d a6e1 fcbc 27f9 cd3d
00000040: 1178 163d 77fd 793d 7df8 563e 0eb0 a33b
00000050: 66ed b13d 07ed 57be 2c36 813d 4beb 853e
00000060: 8fea 543b fc8f 103d 6d22 bcbe df64 e2be
00000070: f038 d1bc d12a f0bd 103f 43bc 8e53 843d
00000080: 44da 203c f385 8ebc ef91 933d 72e9 153e
00000090: c60f 68be cf15 d53d f0c2 f03e 246b 49bd
000000a0: 95e7 203e 6464 c4bd 31a6 b2bc f026 163d
000000b0: 8696 6ebe 1f5d dd3c 434c 33be e5d7 a1bc
000000c0: 9dca 293e eab2 82bd 0368 a63d 71f2 aabe
000000d0: bae5 24bc 1de6 2b3d 8c2d ab3d a69c b63d
000000e0: c29c a73b 9c77 be3e 1592 6e3e 182c 443d
000000f0: 9073 fa3d 62e8 f33d 1c78 d73d 7c45 ee3d
00000100: 5d48 53be 7aba 1f3d 8a32 82be 0eed de3d
00000110: 4cba a5bd e2ec fcbd 2a82 dcbe f93a 463d
00000120: 5dcf c53d 466c 83bb a7a8 23be 6720 ad3d
00000130: fe0e e1be bfee da3b 878e 96be fcbe cfbc
00000140: 0257 433d d7ed 303c 86f9 19bd 07b6 51bc
00000150: 81ee d8bd 0dd3 bd3c 5cd2 113e 08fd 303e
00000160: 7b71 09be 7007 003e 6185 b53c 1657 4d3c
00000170: e581 78be 2916 2e3e 6b88 51be d6ad c03d
00000180: f2a6 eb3c be04 c13c 0a0e 3f3e e7a0 81be
00000190: 3b27 0d3e b8c5 5f3d 0b95 ff3d 9b37 3d3e
000001a0: a166 eabd 723e 703d 595a edbe e404 b13e
000001b0: 8107 183e 897b e03d 0512 41bd 3d09 243e
000001c0: 8bf0 0cbe 0f92 513c 4c87 84bd f13e 0bbd
000001d0: 3d34 b93d 5a55 753e 3e18 d13d 86e3 933d
000001e0: 7b73 923d 1227 5a3e fde4 193d efb7 1abd
000001f0: 9a7e 68be ec26 9a3d 3745 883c 0825 1d3d
00000200: 228b 83b9 7d56 f7bd fec8 2cbd 44ab 583e
00000210: f2bb 4ebe a2d7 a13d a700 c2bd 8d5b 10bf
00000220: 3c5a 5ebe 6c57 1bbe abbd 283e 54a9 213e
00000230: 8efb 123d 04df 96be 8b95 27bc a7bf 70be
00000240: 731a 663c 256f 9cbd d9bf 0bbd a2c0 d2bd
00000250: 9874 2fbe 5dba 043e c15c a63e 15a9 62be
00000260: 996b d23d 7b76 ec3d 8982 383e d3e0 95bd
00000270: 17b0 263d ff57 0dbe 9c29 0e3e 489c f2bd
00000280: 83c2 943d 2e65 e03c 92c5 8c3d c230 91bd
00000290: dcad 0eba b0ab 2c3e 88df d8bc 3eee d03a
000002a0: 42c0 7ebe 0b09 4abe 7b60 5ebd 23cb 1bbe
000002b0: 9caf 4d3d f764 bdbb 3f32 ba3d b47b 6dbe
000002c0: e9e2 02be 51c7 9dbe 2b67 2f3d 824c 19bd
000002d0: 893a e53d ff37 8a3e 839a de3d 039d 0cbc
000002e0: 29e1 5dbe d76f d53d 8a59 f4bc 8caf 033e
000002f0: 3f81 1a3d 34e5 3cbe 7cee 383d ffbe 1a3d
00000300: e17b aabe e349 123d 2e4a 273e 8ae0 423e
00000310: 9b73 c1bd 341b 3e3e 0876 1d3e 1c24 4e3d
00000320: 83a9 65be fa83 09be 19b3 c6be 437f 0c3c
00000330: 28a2 3bbe 2a02 e2bc 6ec1 c23d a2f5 cdbd
00000340: 620e 213e c47c 76be 037f 8b3d 737c 04be
00000350: 8814 cabd c8a5 883e 5fcf 873e ec8c 2a3d
00000360: 390b 8abe 635c 5f3e ce07 69bd a58d 49be
00000370: 3233 a43d 95db e63d 92e0 683e 987c 9b3e
00000380: 318f 82bd 3e6a 0abd b717 9b3d 7bf3 873d
00000390: cb31 9ebe 7716 40be 4a90 a1bd 317a 39be
000003a0: d029 fb3c 348e a1be f22f 493d df94 00be
000003b0: 0bd4 383e 587a a4be 3745 a53d 04c1 5a3e
000003c0: 6dd7 4e3d 3f50 2bbd 2ef9 063d a21b c5be
000003d0: 1e0d 973d aaf2 3c3b cc3a 1dbe eb36 e83d
000003e0: dcda 883e d010 51bd 4e42 e1bd 02ed b43d
000003f0: ccae d0be ba33 32bd a9ea a53d a090 ac3c

_fc3.bias f4 [4]
0.43683523 0.19063282 0.27801722 0.25654203
00000000: dea8 df3e 4035 433e 4658 8e3e 7a59 833e
