project1-banana-collector/models/dqn_per_qnetwork_target.pth (torch_old, 307268 bytes, 6 tensors)

_fc1.weight f4 [256, 37]
0	0xbd96a153	-0.07354989
1	0x3e013c3a	0.12620631
2	0xbda2b1d4	-0.07944074
3	0xbee6baf2	-0.45064503
4	0xbce0de64	-0.027449794
5	0xbdd23013	-0.10263076
6	0xbe012f58	-0.12615716
7	0x3e6ff48f	0.23433135
8	0xbe795187	-0.24347506
9	0xbcbc9670	-0.023020953
10	0x3db698ec	0.08915886
11	0xbe3cb074	-0.18426687
12	0xbe8a3600	-0.26994324
13	0xbeb5f762	-0.355403
14	0xbe5c237b	-0.2149791
15	0xbe1fe813	-0.15615873
16	0xbe0a6d27	-0.13518201
17	0x3e633634	0.22188646
18	0xbda73ca0	-0.0816586
19	0xbe4f5280	-0.20246315
20	0x3df8a70d	0.121412374
21	0xbdc0b6a7	-0.09409838
22	0xbd9f242e	-0.077705726
23	0xbe965cc1	-0.2936764
24	0xbe9972c4	-0.29970372
25	0xbcda80bd	-0.026672715
26	0x3b99c697	0.004692863
27	0x3c848e1b	0.016181042
28	0xbec703af	-0.38869998
29	0xbc29e823	-0.010370287
30	0xbd97e8d8	-0.07417458
31	0x3da9b47c	0.08286378
32	0xbeb5dc22	-0.3551951
33	0x3d972541	0.073801525
34	0xbe89e920	-0.26935673
35	0xbe581b24	-0.21104103
36	0xbd2bebd0	-0.041972935
37	0x3db1fccc	0.08690795
38	0x3d9c01d9	0.0761754
39	0x3d30a0f0	0.043122232
40	0x3ac22466	0.0014811873
41	0xbebf8fca	-0.3741439
42	0xbd9026c0	-0.07038641
43	0xbe5b4db0	-0.21416354
44	0xbcfb9728	-0.030711725
45	0xbe055309	-0.13019957
46	0x3ee48bfb	0.44638047
47	0x3d39d9c8	0.045373708
48	0xbdcd62df	-0.10028624
49	0xbd91cc22	-0.07119013
50	0x3e36f26a	0.17865911
51	0x3eb26751	0.3484445
52	0x3db70b7e	0.08937739
53	0x3cd596f1	0.026072951
54	0x3d29941a	0.041401006
55	0xbe033f73	-0.12817173
56	0xbeb7d8e0	-0.3590765
57	0xbe4529f6	-0.19254288
58	0xbd2b2a86	-0.0417886
59	0xbda44443	-0.080208324
60	0xbd0a97d0	-0.033836186
61	0x3e2392ad	0.15973921
62	0xbdda2125	-0.10650853
63	0x3c1e5630	0.009664103
64	0x3d8fea34	0.070270926
65	0xbd6fcd51	-0.058545414
66	0x3e695b4c	0.22788733
67	0x3c10ec90	0.008845463
68	0x3e6984d1	0.22804572
69	0x3d1b913f	0.037980314
70	0xbe4043f5	-0.18775924
71	0xbec9458c	-0.39310873
72	0xbd3b535f	-0.045733806
73	0x3c43019f	0.011902242
74	0x3e8d7935	0.27631536
75	0x3e3e8497	0.18605267
76	0xbcc2018a	-0.023682375
77	0xbda62d28	-0.081140816
78	0x3d4832bd	0.048876513
79	0xbf588b0d	-0.84587175
80	0xbd80199d	-0.06254885
81	0x3e5de94b	0.21671025
82	0x3e5ed7f0	0.21762061
83	0xbe422468	-0.189592
84	0xbd4962bd	-0.04916643
85	0x3d6a84b9	0.05725548
86	0x3d82aa31	0.06380118
87	0xbe24ba4c	-0.16086692
88	0x3e7fd278	0.24982631
89	0xbd67da83	-0.056604873
90	0x3cbf2c88	0.023336664
91	0x3b966e22	0.0045907656
92	0x3ea2e40a	0.31814605
93	0x3be5304c	0.006994283
94	0xbed954de	-0.4244756
95	0x3e1d92d0	0.15388036
96	0xbc6755a1	-0.014119537
97	0x3e395a9c	0.18100971
98	0xbe5c23fc	-0.21498102
99	0xbf10f6c4	-0.56626534
100	0x3e917b87	0.28414556
101	0x3debd9bb	0.11516138
102	0x3e9010c8	0.28137803
103	0xbe7c3720	-0.24630404
104	0xbd1206af	-0.035650905
105	0x3d8594c2	0.06522514
106	0xbe52f669	-0.2060181
107	0xbe6f9590	-0.23396897
108	0x3e269704	0.16268545
109	0xbcdd2e12	-0.026999507
110	0xbd78e203	-0.060762417
111	0x3ea127e3	0.31475744
112	0xbe8640d9	-0.2622135
113	0x3e14b0ac	0.1452052
114	0xbdadac1d	-0.08480094
115	0xbf329f46	-0.6977428
116	0xbc13b168	-0.009014465
117	0xbc475fe3	-0.012168857
118	0x3dc250b0	0.09488046
119	0x3e52f42a	0.20600954
120	0x3e5934f7	0.2121161
121	0x3d0d8416	0.034549795
122	0x3b642833	0.0034814
123	0x3e32e7e4	0.17471272
124	0xbe7aba7c	-0.244852
125	0xbdee550f	-0.116373174
126	0x3ddf8d26	0.10915594
127	0xbbbb23df	-0.0057110633
128	0xbdee3ecd	-0.11633072
129	0xbe853f49	-0.26024845
130	0xbeec0012	-0.46093804
131	0x3da7072d	0.081556655
132	0xbdcd9366	-0.1003788
133	0x3dbd9ed0	0.09258807
134	0x3dd42a48	0.10359627
135	0x3dcbbbef	0.09947955
136	0xba8eb1fc	-0.0010886784
137	0x3da1299f	0.07869267
138	0x3e1a8bad	0.15092345
139	0x3e11e375	0.14246924
140	0x3e6f8ee0	0.23394346
141	0xbcba65c3	-0.022753602
142	0x3e7d77e6	0.24752769
143	0x3df22924	0.11824253
144	0x3dc56029	0.09637482
145	0x3df4c3b3	0.11951389
146	0xbd1bedf0	-0.03806871
147	0x3bf32ae7	0.007420886
148	0xbd802713	-0.06257453
149	0xbda01c93	-0.0781795
150	0xbd6eddcd	-0.058316994
151	0xbdd27f72	-0.102782145
152	0xbd437bad	-0.04772537
153	0x3e58b4d9	0.21162738
154	0xbea74e9b	-0.3267716
155	0xbe0fc9a4	-0.14041764
156	0xbeb72304	-0.35768902
157	0xbfdecd85	-1.740647
158	0x3d1bd4a9	0.038044605
159	0x3d6d00f0	0.057862222
160	0xbb360b2d	-0.0027777657
161	0x3d05a4ac	0.032627746
162	0xbdead109	-0.114656515
163	0xbdb017c8	-0.08598286
164	0x3d459968	0.048242003
165	0x3d0084fc	0.031376824
166	0x3cc535d7	0.024073524
167	0x3df96f3c	0.121794194
168	0xbc8132ec	-0.015771352
169	0x3d47ab4f	0.048747357
170	0x3d92b0be	0.07162617
171	0x3dc563be	0.09638165
172	0x3ea4fcd0	0.3222413
173	0xbbec3d60	-0.007209465
174	0x3d9fd666	0.07804565
175	0x3e53fe5e	0.20702502
176	0x3db0fd88	0.08642107
177	0x3d18d47d	0.03731202
178	0x3e2c05e3	0.1679912
179	0xbc51697b	-0.012781496
180	0x3da944bc	0.08265063
181	0x3de7c68e	0.11317168
182	0x3e446ac4	0.19181353
183	0x3c2b91c4	0.010471765
184	0x3b238eab	0.0024956863
185	0xbd801cce	-0.06255494
186	0xbe5b3a02	-0.21408847
187	0x3e1f8ef7	0.1558188
188	0xbe687884	-0.22702223
189	0x3e0bdd8e	0.13658735
190	0x3e123138	0.14276588
191	0x3db6e438	0.08930248
192	0xbe867fc5	-0.26269355
193	0xbe43137a	-0.19050398
194	0xbf5878f5	-0.84559566
195	0xbe73939b	-0.23786776
196	0xbdab1023	-0.08352687
197	0x3cda3585	0.026636848
198	0xbd890710	-0.066908
199	0xbdc5ca1d	-0.09657691
200	0xbde81bf9	-0.1133346
201	0x3d9f7657	0.077862434
202	0xbc976685	-0.018481502
203	0xbe3e8bdd	-0.18608041
204	0xbe045287	-0.12922107
205	0xbc3e982d	-0.011632961
206	0xbbec69e1	-0.00721477
207	0x3e4efa95	0.20212777
208	0xbd46c350	-0.04852611
209	0x3e4fae73	0.20281391
210	0xbd821246	-0.06351142
211	0xbd0c2ae8	-0.034220606
212	0x3df9f6d2	0.1220528
213	0xbe984c09	-0.2974551
214	0x3e3a5e2f	0.1819999
215	0xbcb623af	-0.022233812
216	0xbe987237	-0.2977464
217	0xbdaf7e88	-0.08569056
218	0x3e61d102	0.22052386
219	0xbea92a25	-0.33039966
220	0x3db247ab	0.08705076
221	0x3cd849ca	0.026402373
222	0x3e820034	0.2539078
223	0xbc794c93	-0.015216011
224	0xbe84f395	-0.25967088
225	0xbc37a60e	-0.011209024
226	0xbdc4dac3	-0.09612038
227	0xbe6f3633	-0.23360519
228	0xbe0e7df6	-0.13915238
229	0x3ea968d6	0.33087796
230	0xbdaf3ceb	-0.08556541
231	0x3cacef85	0.021110306
232	0x3e0b4c5c	0.13603348
233	0x3ba1cd0c	0.0049377736
234	0x3e52761e	0.2055287
235	0xbe5b60f1	-0.21423699
236	0x3e326fd0	0.17425466
237	0x3d517912	0.051140852
238	0xbe610123	-0.2197309
239	0xbdb30955	-0.08742014
240	0x3dd99ead	0.10625968
241	0xbd798c92	-0.060925074
242	0x3dc28cd5	0.09499518
243	0xbe006a5b	-0.12540571
244	0x3da37a8f	0.079823606
245	0xbecfcf9c	-0.4058808
246	0x3e7ad2a8	0.24494421
247	0xbc6e08f0	-0.014528498
248	0xbe145174	-0.14484197
249	0xbd8d6ab2	-0.06905116
250	0xbe2538d9	-0.16134967
251	0xbdd8ccdb	-0.10585948
252	0x3e87d913	0.26532802
253	0x3da760a1	0.081727274
254	0xbe44a6fe	-0.19204327
255	0xbed84406	-0.42239398

_fc1.bias f4 [256]
0	0xbb6058e3	-0.0034232668
1	0x3d5119b3	0.0510499
2	0x3af6d20d	0.001883091
3	0x3cee7061	0.02910632
4	0x3e1c4e3a	0.15264216
5	0xbc81f4ed	-0.01586386
6	0xbdaa909a	-0.08328362
7	0xbdbd06d5	-0.09229819
8	0xbe8c8e25	-0.27452198
9	0xbdfa0ea1	-0.122098215
10	0x38f1bae5	0.00011526587
11	0x3e1fa65a	0.15590802
12	0xbe0016d7	-0.12508713
13	0xbdb60544	-0.08887723
14	0xbdea6d67	-0.11446648
15	0xbc8f6132	-0.017502401
16	0x3db1be8f	0.08678924
17	0xbd203bea	-0.03911964
18	0xbe5f5c50	-0.21812558
19	0xbe44d9e3	-0.19223742
20	0xbdac0b2f	-0.084005706
21	0x3cc952d6	0.024575632
22	0x3da680de	0.08130048
23	0xbe3c1e13	-0.18370847
24	0xbd9cdcbd	-0.0765929
25	0x3d58fc65	0.052975077
26	0x3dfc8ddf	0.12331747
27	0x3e6f12e7	0.23347054
28	0x3da1a050	0.07891905
29	0x3e5a80b6	0.21338162
30	0x3e1ec273	0.15503864
31	0xbccb8ded	-0.024847949
32	0xbdfe5de3	-0.12420251
33	0x3d61e7db	0.055152755
34	0xbd2e7894	-0.04259546
35	0x3dad4e2f	0.08462178
36	0x3d192640	0.037389994
37	0xbc8ba64e	-0.017047074
38	0xbd99c9f6	-0.07509224
39	0x3e077478	0.13228023
40	0xbd6eed12	-0.058331557
41	0x3a58999e	0.0008262637
42	0x3dd99e9c	0.106259555
43	0xbcc56662	-0.024096671
44	0xbcaebba2	-0.021329705
45	0xbaa021fa	-0.0012217157
46	0xbe35515b	-0.17706816
47	0xbdc1042e	-0.09424625
48	0xbd6c119a	-0.057633974
49	0xbd10bc02	-0.03533555
50	0xbdd0b431	-0.10190619
51	0x3e0a4652	0.13503388
52	0xbdd2bd6e	-0.10290037
53	0x3bc18d58	0.005906742
54	0xbc861beb	-0.016370734
55	0xbdf7a51b	-0.12092038
56	0x3e00d5f6	0.1258162
57	0x3c217ef2	0.009856926
58	0x3dc4f08b	0.096161924
59	0x3d85b8e0	0.06529403
60	0x3e152355	0.1456426
61	0xbcc99e1e	-0.024611529
62	0x3e077a0c	0.13230151
63	0x3cd717d7	0.026256485
64	0x3dabe1d8	0.08392686
65	0xbe17383f	-0.1476755
66	0xbe454608	-0.19264996
67	0xbe48b9a4	-0.19602066
68	0xbe0976ec	-0.13424271
69	0xbd95e781	-0.073195465
70	0xbe6fc2b2	-0.23414114
71	0x3d96e51d	0.07367919
72	0xbe6f0885	-0.23343094
73	0x3db479d3	0.088122986
74	0x3d03aa54	0.03214486
75	0xbdefa5fc	-0.11701581
76	0x3e44995b	0.19199125
77	0xbd5a7f3b	-0.053343993
78	0xbd576694	-0.05258806
79	0x3d9fcf93	0.078032635
80	0xbdc1ca04	-0.094623595
81	0x3d4e9125	0.05043139
82	0xbda32d10	-0.07967579
83	0xbd95d08c	-0.07315168
84	0x3d9da128	0.07696754
85	0xbda072ad	-0.07834373
86	0x3c9713b9	0.018442022
87	0x3e0a2c43	0.13493447
88	0x3e2b19b9	0.16709031
89	0xbcee634f	-0.029100088
90	0x3e0de11a	0.138554
91	0xbe10b5f2	-0.14131907
92	0xbd9003f8	-0.07032007
93	0x3e4f3bfa	0.20237723
94	0xbdaae99c	-0.08345339
95	0x3d647610	0.055776656
96	0xbd2ee9f2	-0.042703576
97	0xbe5a6627	-0.2132803
98	0x3ce6d089	0.02817561
99	0x3da0f0b8	0.078584135
100	0xbd90b5c8	-0.07065922
101	0xbe36b713	-0.17843275
102	0xbe079211	-0.13239314
103	0xbd85ab9f	-0.06526875
104	0xbdcb0f14	-0.09914985
105	0xbe2ba011	-0.16760279
106	0x3d91a5f8	0.07111734
107	0xbe5cc684	-0.21560103
108	0xbe158de5	-0.1460491
109	0x3db0b236	0.08627741
110	0x3e336099	0.17517318
111	0x3d85d60e	0.06534968
112	0x3dff246d	0.124581195
113	0x3d31b0ee	0.043381624
114	0x3d83c76c	0.06434521
115	0xbd9310b3	-0.071809195
116	0xbdb1b620	-0.08677316
117	0xbd4e8422	-0.05041898
118	0xbdd1f04d	-0.10250912
119	0xbdc68f48	-0.096952975
120	0xbc49b9bf	-0.012312352
121	0xbd4699b7	-0.048486438
122	0xbe37011b	-0.17871515
123	0xbe091899	-0.1338829
124	0xbe00b702	-0.12569812
125	0xbe0aca2c	-0.13553685
126	0x3de9dd45	0.11419157
127	0x3e3661ec	0.17810792
128	0x3e1dd203	0.15412144
129	0xbd6fd8b4	-0.058556274
130	0xbdee6c6a	-0.11641772
131	0x3dd36670	0.10322273
132	0xbc41c160	-0.011825889
133	0x3c0f89a0	0.00876084
134	0x3d25272a	0.040320553
135	0xbe0a56f2	-0.1350973
136	0xbd852000	-0.06500244
137	0xbe74b079	-0.23895444
138	0xbd5872da	-0.052843906
139	0xbe428aa4	-0.189982
140	0x3cb792ad	0.022408808
141	0x3daf5408	0.085609496
142	0x3c4c1804	0.012456898
143	0xbe62710e	-0.2211344
144	0xbdc23676	-0.09483044
145	0xbdc00546	-0.09376006
146	0xbe1d34d0	-0.15352178
147	0x3adc318a	0.0016799432
148	0xbe1fb90b	-0.15597932
149	0x3dfd6cc2	0.123742595
150	0xbd832ae0	-0.06404662
151	0xbdf50e8a	-0.11965664
152	0xbe275e00	-0.16344452
153	0xbe154265	-0.14576109
154	0x3dcfdc68	0.10149461
155	0x3ddf5189	0.109042235
156	0x3ca98fde	0.020698484
157	0xbe611fb1	-0.21984746
158	0x3d5b7058	0.053573936
159	0x3da8d287	0.0824328
160	0x3c0984e2	0.008393498
161	0x3dd025c1	0.10163451
162	0x3e03a7ce	0.12856981
163	0xbd88e875	-0.06684963
164	0xbcc98e26	-0.024603914
165	0xbe1ad08a	-0.15118614
166	0xbd82f81e	-0.06394981
167	0xbdc89279	-0.097935624
168	0xbb10e055	-0.0022106369
169	0xbe71d92c	-0.23618001
170	0x3dd0f522	0.102030054
171	0xbd428cf6	-0.047497712
172	0x3da69f45	0.08135847
173	0x3e1af9f3	0.1513441
174	0x3da45b12	0.08025183
175	0xbd1b07ec	-0.03784935
176	0x3df26f62	0.11837651
177	0xbe782fbc	-0.24236959
178	0x3d5bd647	0.053671148
179	0xbe1b6c0a	-0.15177932
180	0x3d8d08dd	0.06886456
181	0xbd485894	-0.0489126
182	0xbd68d5a9	-0.056844387
183	0xbd88cffe	-0.06680296
184	0xbe021049	-0.12701525
185	0x3d8cf361	0.06882358
186	0x3d8b616a	0.0680569
187	0x3d8d20a5	0.06890992
188	0x3de0f880	0.109848976
189	0x3dec05b6	0.11524527
190	0xbe0c7bea	-0.13719144
191	0x3d60863e	0.054815523
192	0x3cce35cd	0.025172139
193	0x3da5ce06	0.080959365
194	0x3ab9e5fe	0.0014182923
195	0xbd01b549	-0.031667028
196	0x3db07ab5	0.086171545
197	0xbe17d378	-0.14826763
198	0xbd93d063	-0.07217481
199	0x3cc5ff56	0.024169605
200	0x3c910ac7	0.017705334
201	0xbc84e73d	-0.016223544
202	0xbd22d5eb	-0.03975479
203	0xbc9ef887	-0.019405616
204	0xbdd074a7	-0.101785
205	0xbd8924d7	-0.0669648
206	0x3d1b54e9	0.037922774
207	0x3df4c849	0.11952264
208	0x3dd4600c	0.10369882
209	0xbcdb3c62	-0.026762191
210	0xbe5aba5d	-0.21360154
211	0xbe2cbe0d	-0.16869374
212	0xbcb07d76	-0.0215442
213	0xbd265e86	-0.04061749
214	0xbcf9cabb	-0.030492177
215	0xbe63dbda	-0.22251835
216	0xbe3bcfc6	-0.18340978
217	0x3c451e46	0.0120311435
218	0x3d8badc1	0.0682025
219	0xbe04c6a0	-0.12966394
220	0x3b86f055	0.0041180053
221	0xbd979b87	-0.07402711
222	0xbd7e7256	-0.062120758
223	0xbd1ae2dd	-0.03781401
224	0xbe2e79c5	-0.17038639
225	0xbb9dd868	-0.0048170574
226	0xbcaaa6ec	-0.020831548
227	0xbce2aa18	-0.027668998
228	0x3e28cc68	0.16484225
229	0xbe38c0f4	-0.18042356
230	0xbd864322	-0.06555773
231	0x3cff85f0	0.031191796
232	0xbac7aa11	-0.0015233179
233	0xbd97d5da	-0.07413836
234	0x3cc4c854	0.024021305
235	0xbe338104	-0.17529684
236	0xbe04744c	-0.12934989
237	0xbd1a7208	-0.037706405
238	0xbd60a2a1	-0.054842595
239	0xbe73a825	-0.23794611
240	0x3e148066	0.14502105
241	0x3e0bfa29	0.13669647
242	0xbe57f364	-0.2108894
243	0xbb4fd0c7	-0.0031710134
244	0xbe392d1c	-0.18083614
245	0xbda40105	-0.08008007
246	0xbdf34726	-0.11878805
247	0x3e095227	0.13410245
248	0x3dca8f40	0.09890604
249	0x3d999bbd	0.07500408
250	0x3b9967e8	0.004681576
251	0xbe6c5d51	-0.23082472
252	0xbdaa636d	-0.08319745
253	0x3e20f6b0	0.15719104
254	0xbd4b64a6	-0.049656533
255	0xbd0d3c89	-0.03448156

_fc2.weight f4 [256, 256]
0	0xbe4a6967	-0.1976677
1	0x3dc9efc8	0.09860188
2	0x3e052326	0.1300169
3	0xbddf30f6	-0.108980104
4	0x3dca2d00	0.09871864
5	0x3d02229e	0.031771295
6	0x3c6d099c	0.014467623
7	0x3c8978ee	0.016781297
8	0x3e20375e	0.15646121
9	0xbde1c135	-0.110231794
10	0xbe7ca6ca	-0.24673
11	0xbe929ba5	-0.28634372
12	0x3d3197b9	0.043357585
13	0xbe2d9e4e	-0.1695492
14	0x3df58c86	0.11989693
15	0x3de26d6d	0.110560276
16	0x3d8e8ced	0.06960473
17	0x3d4609df	0.048349258
18	0xbe14d2e3	-0.14533572
19	0x3b42e0fb	0.002973615
20	0xbe257358	-0.16157281
21	0xbd0210cf	-0.03175431
22	0x3d17b48e	0.037037425
23	0xbe195fc1	-0.14977933
24	0x3ccdb0ea	0.025108773
25	0x3cf9eb47	0.030507697
26	0x3e49b9a2	0.1969972
27	0xbe29aaf4	-0.1656912
28	0x3d1c1838	0.038109034
29	0xbc1c7640	-0.009549677
30	0xbe99d420	-0.3004465
31	0xbea9a49b	-0.33133397
32	0x3c6ab870	0.0143262
33	0xbdf6faa6	-0.12059526
34	0x3e885ee8	0.26634908
35	0xbdf5d18e	-0.1200286
36	0xbdee0d55	-0.11623637
37	0xbe771285	-0.24128158
38	0xbdf4cb09	-0.119527884
39	0x3d91862b	0.07105669
40	0xbe0e6580	-0.13905907
41	0xbd45309d	-0.048142064
42	0xbd487c6b	-0.04894678
43	0x3d708284	0.05871822
44	0xbe25875b	-0.16164915
45	0x3e26848e	0.16261503
46	0xbdac4c5d	-0.08413003
47	0x3d9f2b1a	0.07771893
48	0x3ded7e31	0.11596335
49	0xbdf85de8	-0.12127286
50	0xbe8ab26e	-0.27089256
51	0xbd4cd44a	-0.050007142
52	0xbc0264e0	-0.007958621
53	0xbea5c0e5	-0.3237373
54	0xbe8860ad	-0.26636258
55	0x3da90e0f	0.082546346
56	0xbdc6faf4	-0.09715834
57	0x3d8d4f97	0.06899946
58	0xbe0185bd	-0.12648673
59	0x3dfacf2d	0.12246547
60	0x3c97f3ce	0.018548872
61	0xbd52cc55	-0.051464397
62	0x3d93a2e0	0.072088
63	0xbe59c8d9	-0.21268024
64	0x3e24746c	0.16060036
65	0xbdc99184	-0.09842208
66	0xbe23754b	-0.15962712
67	0xbd908178	-0.07055944
68	0x3e07c43a	0.13258448
69	0xbeaa1678	-0.33220267
70	0x3e3dfc5d	0.185533
71	0xbe5cade6	-0.21550712
72	0x3a898bec	0.001049397
73	0x3d4f2b13	0.05057819
74	0xbd74083b	-0.05957816
75	0xbd98f3e1	-0.07468391
76	0x3e86518e	0.26234096
77	0x3e2dc514	0.1696971
78	0xbe802154	-0.25025427
79	0x3e0eef5d	0.13958497
80	0x3da6add7	0.08138626
81	0xbdb657b9	-0.089034505
82	0x3da35353	0.07974877
83	0x3e1ed4b9	0.15510835
84	0xbdb77cb0	-0.08959329
85	0xbd7b7e09	-0.061399493
86	0xbe42f917	-0.19040333
87	0x3d5d78b7	0.0540702
88	0xbdaa5e4d	-0.08318768
89	0xbeac3f1a	-0.33641893
90	0xbe81d917	-0.2536094
91	0xbe848444	-0.2588216
92	0xbd5b1ed8	-0.05349621
93	0x3e89a54f	0.26883933
94	0xbdeb3bae	-0.11485992
95	0x3c7f3ba4	0.015578184
96	0xbd35fac8	-0.044428617
97	0xbd24221e	-0.0400716
98	0xbd0cd150	-0.034379303
99	0xbe6a686f	-0.22891401
100	0x3e506056	0.20349249
101	0xbe1fbd95	-0.15599664
102	0x3dfbd861	0.122971304
103	0x3d141c59	0.036159847
104	0x3e15f9c1	0.14646055
105	0xbe13d990	-0.14438462
106	0xbea5a334	-0.32351077
107	0x3d5cfbdf	0.05395114
108	0xbe909fbf	-0.28246877
109	0xbe421304	-0.18952566
110	0xbdbec428	-0.093147576
111	0x3ec09c06	0.37619036
112	0xbd816dd6	-0.06319778
113	0x3b9a894f	0.0047160755
114	0xbe0398c6	-0.12851247
115	0xbe34dcb7	-0.17662321
116	0xbe51199e	-0.20419928
117	0xbecb2529	-0.39676788
118	0x3e8ad993	0.2711912
119	0x3e1038c0	0.14084148
120	0xbd4b4ea4	-0.049635544
121	0xbe5e4e96	-0.21709666
122	0xbe303d48	-0.17210877
123	0x3d881b6c	0.06645855
124	0x3e200543	0.15627007
125	0xbd96cb4e	-0.07362996
126	0xbe5800c0	-0.21094036
127	0xbd3ca61b	-0.046056848
128	0xbe861f1d	-0.26195613
129	0x3d07686a	0.03305856
130	0xbd2c850c	-0.04211907
131	0xbe396f78	-0.18108928
132	0xbe89aafb	-0.2688826
133	0xbe77bd3a	-0.24193278
134	0xbb3d0b98	-0.0028846022
135	0xbe2117b4	-0.15731698
136	0xbd4641c3	-0.04840256
137	0xbe83f76a	-0.257747
138	0x3e444325	0.19166239
139	0x3db667bb	0.08906504
140	0xbd1790c6	-0.0370033
141	0xbdedbbfd	-0.116081215
142	0x3e26d8e5	0.16293676
143	0xbe835d42	-0.25657088
144	0xbea8b30e	-0.32949108
145	0x3d62f528	0.05540958
146	0xbe08a4d9	-0.13344134
147	0x3d0817d5	0.033225853
148	0xbe136bc9	-0.14396586
149	0x3c802053	0.015640413
150	0xbe3afb57	-0.18259941
151	0xbdfd36a0	-0.123639345
152	0xbd84cc5b	-0.0648429
153	0x3d13d51a	0.0360919
154	0xbcb37adc	-0.02190917
155	0x3ddba2fd	0.10724447
156	0xbdbdd75e	-0.09269594
157	0xbeb75347	-0.35805723
158	0xbe73f733	-0.23824768
159	0x3c6094b9	0.013707333
160	0x3e176a1e	0.14786574
161	0x3df338ad	0.118760444
162	0x3df1f354	0.11813989
163	0x3dce39af	0.10069596
164	0xbdd16c54	-0.1022574
165	0xbeaa7cb1	-0.33298257
166	0x3e267042	0.1625376
167	0xbde01d3a	-0.109430745
168	0xbe4be368	-0.19910967
169	0x3bf1ca68	0.007378865
170	0xbd461b2f	-0.048365768
171	0x3a8b5353	0.0010629691
172	0x3e21f4bf	0.1581602
173	0xbd8d58db	-0.069017135
174	0x3de20cab	0.110375725
175	0xbe457af9	-0.19285192
176	0xbd77079d	-0.060309995
177	0xbd1fdb9f	-0.039027806
178	0xbe996c52	-0.29965454
179	0x3eb1a7aa	0.3469823
180	0x3e39ca75	0.18143637
181	0x3e63ac54	0.22233707
182	0xbe1e7929	-0.15475906
183	0x3da1fdfb	0.07909771
184	0x3daf1e7b	0.085507356
185	0xbe72fa64	-0.23728329
186	0xbd2df432	-0.04246921
187	0xbda14c79	-0.07875914
188	0xbe261552	-0.1621907
189	0x3e11b845	0.1423045
190	0xbe6f70d3	-0.23382883
191	0xbdc3e3c0	-0.09564924
192	0xbe81cef0	-0.25353193
193	0xbbea4fc1	-0.0071506207
194	0x3dee265e	0.11628412
195	0x3da379ee	0.079822406
196	0x3dcb1cfa	0.09917636
197	0xbcfd79b1	-0.030941816
198	0x3de5daa5	0.11223344
199	0xbe3af5f1	-0.18257882
200	0xbe4e8c5a	-0.20170727
201	0x3d908b09	0.07057769
202	0xbe7d726b	-0.24750678
203	0xbd595fd4	-0.053069904
204	0xbe273a22	-0.1633077
205	0x3d3c50d8	0.045975536
206	0xbd140ab5	-0.036143024
207	0xbd2180d6	-0.03942951
208	0xbdc1021f	-0.09424233
209	0xbbb87cd7	-0.0056301164
210	0xbe9be07c	-0.30444705
211	0x3c0bd929	0.008535662
212	0x3c30795e	0.010771124
213	0x3e688f87	0.22711001
214	0x3bb3ae14	0.005483398
215	0xbe27a0ca	-0.1636993
216	0x3d33c641	0.04389024
217	0xbe710c0d	-0.23539753
218	0x3d2d8247	0.04236057
219	0xbe0ae9a3	-0.13565688
220	0x3e5b940b	0.21443193
221	0x3d266d8f	0.040631827
222	0xbee54c0b	-0.4478458
223	0xbd97d2bb	-0.074132405
224	0xbdab90ea	-0.083772495
225	0x3d0be8dd	0.034157623
226	0xbe90aaeb	-0.282554
227	0xbd702ff1	-0.05863947
228	0xbdd0c91d	-0.10194609
229	0x3d9772af	0.07394921
230	0x3d9064dd	0.07050488
231	0xbd7cf73d	-0.061759222
232	0x3e054d84	0.13017851
233	0x3e00bd71	0.12572266
234	0xbe0cd40d	-0.13752766
235	0xbe851381	-0.25991443
236	0xbd535a69	-0.051599894
237	0x3d8e56b4	0.06950131
238	0x3ea314f1	0.31851915
239	0x3c81bde2	0.015837613
240	0x3dba137a	0.09085746
241	0x3bf20f4d	0.007387078
242	0x3d09d009	0.033645663
243	0xbe2e413a	-0.1701707
244	0x3e166187	0.14685641
245	0xbd817b78	-0.06322378
246	0xbe84d47d	-0.25943366
247	0x3d830ac9	0.063985415
248	0x3e2eb879	0.17062558
249	0xbe953daa	-0.29148608
250	0x3d2100f8	0.039307564
251	0xbe8c16c5	-0.27361122
252	0x3e455a34	0.19272691
253	0xbecd5e3c	-0.40110958
254	0xbd4f0671	-0.050543252
255	0xbd39e28b	-0.045382064

_fc2.bias f4 [256]
0	0xbd8ba639	-0.06818814
1	0xbe61a68d	-0.2203619
2	0xbd593cde	-0.053036563
3	0x3d71fee0	0.05908096
4	0xbd61da74	-0.055139974
5	0x3ef8de6b	0.4860719
6	0xbdfbdc32	-0.12297858
7	0xbbaebc1d	-0.0053324834
8	0xbd71df19	-0.059050653
9	0x3c47b6e6	0.0121896025
10	0xbcd513e3	-0.02601046
11	0xbdbb0558	-0.091318786
12	0x3e228bb2	0.15873602
13	0xbdd87dd5	-0.105708756
14	0x3d825834	0.0636448
15	0x3de8615f	0.11346697
16	0x3e0532ea	0.13007703
17	0x3d38fb95	0.045161802
18	0x3d1947b5	0.0374219
19	0xbd8472eb	-0.06467231
20	0x3debe4ac	0.11518225
21	0xbde46542	-0.11152126
22	0x3e7680e6	0.24072608
23	0x3d2ed073	0.04267926
24	0xbd8b67d2	-0.068069115
25	0xbc4e034a	-0.012574026
26	0x3bd2707f	0.006422102
27	0xbcb23f73	-0.02175877
28	0xbda6b649	-0.08140237
29	0xbdba37ff	-0.09092712
30	0x3bc80793	0.0061044185
31	0x3c9ef812	0.019405399
32	0xbd9b4968	-0.075823605
33	0xbdbb75ea	-0.0915335
34	0xbc910685	-0.017703304
35	0xbc7909ab	-0.015200059
36	0xbd5db479	-0.05412719
37	0x3e62c2dd	0.22144647
38	0xbba86b39	-0.005139735
39	0x3d1e5a67	0.038660433
40	0xbd70c452	-0.058780976
41	0xbdb40d7f	-0.08791637
42	0x3c8f9236	0.017525773
43	0x3e52ec07	0.2059785
44	0xbe2798da	-0.16366902
45	0xbdac17bb	-0.08402964
46	0x3d1ad88e	0.03780418
47	0xbd5e66ff	-0.054297443
48	0x3d09a147	0.03360107
49	0x3c9364e8	0.017992452
50	0xbc887c9c	-0.01666098
51	0xbda938ce	-0.08262788
52	0xbdfaa2f0	-0.12238109
53	0xbbf01c31	-0.0073275794
54	0xbe54bafe	-0.20774457
55	0x3e21988c	0.15780848
56	0xbdb6df0f	-0.08929264
57	0x3dc5fce8	0.09667379
58	0x3c84c0cf	0.01620522
59	0x3d103c52	0.035213776
60	0x3cf26927	0.029591156
61	0xbddd899f	-0.10817265
62	0xbcfc67f0	-0.03081128
63	0x3cf61339	0.030038463
64	0x3d234564	0.039861098
65	0x3ed9f522	0.42569834
66	0xbd524be7	-0.051341917
67	0x3d0fdeaa	0.03512446
68	0xbd7bbc55	-0.061458904
69	0xbd524036	-0.051330768
70	0x3d89038b	0.06690129
71	0xbdad6452	-0.084664
72	0xbd430479	-0.047611687
73	0x3bd2e60a	0.006436114
74	0xbaed3cbd	-0.0018099766
75	0xbd517ecc	-0.051146314
76	0xbd0c29e9	-0.034219656
77	0xbda28fc6	-0.07937579
78	0x3c55b1f0	0.013042912
79	0x3de49bf3	0.111625575
80	0x3d6e94e0	0.058247447
81	0x3e8446d3	0.25835285
82	0x3c77f6db	0.0151345385
83	0x3db72893	0.08943286
84	0xbd81ac3a	-0.06331678
85	0xbc4f9b2c	-0.012671273
86	0x3df7a8c2	0.12092735
87	0xbcd02e5c	-0.02541273
88	0xbd143e50	-0.03619224
89	0x3f07086f	0.52747244
90	0xbd2ce683	-0.04221202
91	0xbd44fc45	-0.048092145
92	0xbcc10f83	-0.023566967
93	0xbdc1ad7e	-0.09456919
94	0xbc98e481	-0.018663647
95	0x3cf38602	0.029726986
96	0x3d3d394c	0.04619722
97	0xbc1028c6	-0.008798784
98	0xbd9fd9f7	-0.07805245
99	0xbb6a5385	-0.0035755348
100	0xbdffcf45	-0.124907054
101	0x3d2e485f	0.042549487
102	0x3d9e8b77	0.077414446
103	0xbe01f1c8	-0.12689888
104	0xbcfa7c16	-0.030576747
105	0x3e86704e	0.26257557
106	0xbd930527	-0.07178717
107	0xbcc58ceb	-0.024115046
108	0x3dc7aafd	0.0974941
109	0xbc591572	-0.013249742
110	0x3e133133	0.14374237
111	0x3d172ab1	0.036905948
112	0xbd423de3	-0.0474223
113	0xbd5b3424	-0.053516522
114	0xbd7ce2a0	-0.061739564
115	0xbd7b39e1	-0.061334495
116	0xbdf524ab	-0.119698845
117	0x3d57a90f	0.05265146
118	0x3e2e3236	0.17011341
119	0x3ee2480d	0.44195595
120	0xbd2ad08c	-0.041702792
121	0x3c904fe9	0.01761623
122	0xbd4f2386	-0.050570987
123	0xbd9b9691	-0.07597078
124	0xbdaf60a1	-0.085633524
125	0xbdca0210	-0.09863675
126	0xbe1892ae	-0.14899704
127	0xbd58483b	-0.05280326
128	0xbcd632c1	-0.026147248
129	0x3d8a7fce	0.06762658
130	0xbe0c3d4a	-0.13695255
131	0x3c606c4d	0.013697696
132	0xbda5d415	-0.08097092
133	0x3e586a6a	0.21134344
134	0xbd38eff0	-0.045150697
135	0x3b4ec7cf	0.00315522
136	0xbd9c0677	-0.076184206
137	0xbdaab1d5	-0.083347
138	0xbbb141e9	-0.0054094684
139	0xbdce0e97	-0.100613765
140	0xbd58cdb8	-0.052930564
141	0xbd4fea71	-0.05076069
142	0xbd0c5722	-0.034262784
143	0xbda84c8b	-0.082177244
144	0x3c8a9ed5	0.01692144
145	0xbdcd35e2	-0.10020043
146	0xbdd0ef05	-0.10201839
147	0x3cf4ff35	0.029906848
148	0xba0620fc	-0.00051166094
149	0x3dbd90c4	0.092561275
150	0xbdd4b3e0	-0.10385871
151	0xbd16c81c	-0.036811933
152	0xbdbe54c5	-0.09293512
153	0xbd0562af	-0.032564815
154	0xbdb15bca	-0.086600855
155	0x3c0b7ec6	0.008514112
156	0x3de0b6a5	0.10972337
157	0xbe612e58	-0.21990335
158	0xbdbf0ced	-0.09328637
159	0xbc9cc202	-0.019135479
160	0x3ed2fde1	0.4120932
161	0xbca2dde6	-0.0198812
162	0x3b952a01	0.0045521264
163	0xbdc21a18	-0.09477633
164	0xbdc37d91	-0.09545434
165	0x3d85efa5	0.06539849
166	0xbe0ff719	-0.14059104
167	0xbda751ae	-0.08169876
168	0x3cde85f8	0.02716349
169	0x3be7ef1e	0.0070780655
170	0x3d814b3d	0.06313179
171	0xbc350de4	-0.011050675
172	0xbb8f0ae8	-0.004365314
173	0xbdf3a06d	-0.11895833
174	0xbdaf277b	-0.08552452
175	0xbd59bcf4	-0.053158715
176	0xbdaed20a	-0.085361555
177	0xbca909f6	-0.020634633
178	0x3c9d37b4	0.0191916
179	0xbdc647d1	-0.09681667
180	0x3deebb34	0.116568
181	0xbb8a0839	-0.004212406
182	0x3d91a323	0.07111194
183	0xbd7602ff	-0.06006145
184	0xbd95d16b	-0.07315334
185	0xbdd075ec	-0.10178742
186	0x3bcb15fa	0.006197688
187	0x3d1480c9	0.03625563
188	0xbd937c59	-0.07201452
189	0xbd9567f0	-0.07295215
190	0x3d542901	0.051796917
191	0xbe0f4e26	-0.13994655
192	0x3d8063a3	0.06269004
193	0x3da442a0	0.0802052
194	0x3d8fb4b8	0.07016891
195	0xbb953f56	-0.0045546694
196	0x3d16934a	0.03676156
197	0xbd2fab82	-0.042888172
198	0x3d5ef1b3	0.05442972
199	0x3dc1a3be	0.094550595
200	0xbc7c2dd3	-0.015391785
201	0xbe1496c2	-0.14510635
202	0xbd12490b	-0.03571419
203	0xbd383f7f	-0.04498243
204	0xbc23372a	-0.009961883
205	0x3cc274fe	0.023737427
206	0xbd05a05b	-0.03262363
207	0x3bd51731	0.006503009
208	0xbc98d38d	-0.018655563
209	0xbc4172c3	-0.0118071465
210	0x3e4cfdeb	0.20018737
211	0xbafd2251	-0.0019312595
212	0xbcc97406	-0.024591457
213	0xbd7b44cc	-0.061344907
214	0x3dad369e	0.08457683
215	0xbc97b737	-0.01851998
216	0xbc12993f	-0.0089476695
217	0x3cc6355f	0.024195371
218	0x3e07d79a	0.13265839
219	0xbd449021	-0.047989015
220	0xbc908a6e	-0.017644133
221	0x3dca8f0a	0.09890564
222	0x3d869ad3	0.06572499
223	0x3d0ae7fc	0.033912644
224	0x3c83d807	0.01609422
225	0x3e70417c	0.2346248
226	0x3cb37545	0.021906504
227	0xbd3e2867	-0.04642525
228	0xbc8a345f	-0.016870676
229	0xbcc3fa92	-0.023923192
230	0x3d8e852c	0.06958994
231	0xbc4d5b5a	-0.012533987
232	0xbc07f18b	-0.008297334
233	0x3d2c33ee	0.04204171
234	0xbcd713ad	-0.0262545
235	0xbdccfcbf	-0.10009145
236	0x3e026fec	0.12738007
237	0x3d8d8b88	0.06911379
238	0xbc785fba	-0.015159542
239	0xbbbe840f	-0.0058140825
240	0xbc2575f8	-0.010098927
241	0xbd8d6c43	-0.06905415
242	0xbdbf08ee	-0.09327875
243	0x3da1a397	0.078925304
244	0x3e071077	0.13189875
245	0xbd91371e	-0.07090591
246	0x3d903358	0.07041043
247	0xbdd302a2	-0.103032365
248	0x3b1927dd	0.0023369708
249	0x3d93222c	0.07184252
250	0xbcac9172	-0.021065447
251	0x3ea6c39b	0.3257111
252	0xbd879da1	-0.06621862
253	0xbd4005cf	-0.04688054
254	0xbbc8587b	-0.0061140633
255	0xbd67ab68	-0.05655995

_fc3.weight f4 [4, 256]
0	0xbeafb8a4	-0.34320557
1	0xbe10ef4b	-0.14153783
2	0xbde09a35	-0.10966913
3	0x3ea030e1	0.31287292
4	0x3ca6b7ae	0.020351257
5	0x3e11ccb9	0.14238252
6	0xbe466f7b	-0.19378464
7	0x3ebf27a7	0.3733494
8	0x3c597376	0.013272157
9	0x3d218e0b	0.039442103
10	0xbe155501	-0.14583208
11	0xbf0474f3	-0.5174095
12	0x3da89c17	0.08232897
13	0xbe1f29f4	-0.15543348
14	0x3d8894f0	0.066690326
15	0x3d8177b7	0.06321662
16	0xbb4fc666	-0.0031703948
17	0x3d96b934	0.073595434
18	0xbe2a2e84	-0.16619307
19	0xbe2a8ac3	-0.16654496
20	0x3d970184	0.07373336
21	0xbe5e2218	-0.21692693
22	0x3d515243	0.05110384
23	0x3e183016	0.14862093
24	0x3d40ea0c	0.047098204
25	0x3d56314a	0.0522931
26	0x3d6f87ee	0.058479242
27	0xbe23669d	-0.15957113
28	0xbc840f13	-0.01612047
29	0xbe68b8c5	-0.22726734
30	0x3d07eca3	0.03318466
31	0xbce2d844	-0.027691014
32	0xbe24b3d6	-0.16084227
33	0x3d8dc456	0.06922214
34	0xbeb4c564	-0.35306847
35	0x3db68fca	0.08914144
36	0x3d44dda6	0.048062943
37	0x3d3bbf9b	0.045837026
38	0x3e5f9b45	0.21836574
39	0x3dcfb7be	0.10142468
40	0xbe469498	-0.19392622
41	0x3dc3c031	0.09558142
42	0x3d4093f8	0.047016114
43	0x3d971966	0.07377891
44	0xbde41184	-0.11136153
45	0x3c1cac82	0.009562613
46	0x3dc9b403	0.09848788
47	0x3e41e0d8	0.18933427
48	0x3cc9c6eb	0.024630984
49	0x3ce43894	0.02785901
50	0xbea31b6c	-0.3185686
51	0xbe3d6cf9	-0.18498601
52	0xbcd9cc93	-0.026586806
53	0xbbd45bbf	-0.0064806635
54	0xbdd79ddc	-0.10528156
55	0x3e0d8aa8	0.13822424
56	0xbd0cf85a	-0.034416534
57	0x3d286a36	0.041116916
58	0xbe83421e	-0.2563638
59	0x3cf74864	0.030185886
60	0x3d36bbad	0.044612575
61	0x3b25e73f	0.0025314835
62	0x3e213268	0.15741885
63	0x3d7ba77b	0.06143902
64	0x3d84bfd4	0.06481901
65	0x3daa0620	0.083019495
66	0xbe94ee93	-0.29088268
67	0xbd9c6b71	-0.0763768
68	0xbe9086d6	-0.28227872
69	0xbc43c2ad	-0.01194827
70	0xbeba93ec	-0.3644098
71	0xbd40968a	-0.047018565
72	0xbe4ceba8	-0.2001177
73	0x3dc883fe	0.097908005
74	0x3d18f93e	0.03734707
75	0x3e2c214c	0.16809577
76	0xbe272c6f	-0.16325544
77	0xbcdd1c3e	-0.026991006
78	0xbc987932	-0.018612478
79	0x3c8f650e	0.017504241
80	0x3d283b8e	0.04107242
81	0x3d7bd0f0	0.061478555
82	0xbe5abc97	-0.21361004
83	0x3c97692f	0.018482773
84	0x3e02c815	0.12771638
85	0xbe08f8e8	-0.133762
86	0x3dbcfb4e	0.0922762
87	0x3d34694a	0.044045724
88	0x3dcb9c5b	0.09941932
89	0x3dedb725	0.11607198
90	0xbe3db67b	-0.18526642
91	0xbe11f750	-0.14254498
92	0x3e334e57	0.17510353
93	0xbe59d406	-0.21272287
94	0xbec70715	-0.3887259
95	0xbef7cb8d	-0.48397484
96	0x3d5f3f6e	0.05450385
97	0x3be66b17	0.007031809
98	0xbe1d796e	-0.15378353
99	0x3dabccf8	0.08388704
100	0xbead4c31	-0.33847192
101	0x3dad3873	0.084580325
102	0x3d85bfbe	0.065307125
103	0xbe908d8a	-0.28232986
104	0x3d7748c2	0.06037212
105	0x3d328e8d	0.04359298
106	0xbebf4823	-0.37359723
107	0xbd0dded3	-0.03463633
108	0x3d875c98	0.06609458
109	0x3ec1e2cb	0.37868342
110	0x3d521819	0.051292513
111	0x3dafc67d	0.085827805
112	0x3d5416c9	0.051779542
113	0x3d533a81	0.051569466
114	0xbd9e982c	-0.07743868
115	0x3e0ff39c	0.14057773
116	0xbce88a11	-0.028386148
117	0x3d06bf77	0.03289744
118	0x3d2b26a8	0.041784912
119	0x3d8aa40a	0.06769569
120	0xbde25679	-0.110516496
121	0x3e444183	0.19165616
122	0x3cccef9b	0.025016597
123	0x3d0af241	0.033922438
124	0xbc36efed	-0.011165601
125	0x3e831044	0.25598347
126	0xbe153992	-0.14572743
127	0xbd86b0e0	-0.06576705
128	0x3e6259ac	0.2210452
129	0x3ecca769	0.39971474
130	0xbe999edc	-0.30004013
131	0x3e6e9492	0.23298863
132	0xbe6d53d2	-0.23176506
133	0x3e2c0768	0.167997
134	0x3e0a01b2	0.13477209
135	0x3d9b92e7	0.07596379
136	0xbe1f7112	-0.15570477
137	0xbd261620	-0.040548444
138	0x3da501bd	0.08056972
139	0x3dbc149a	0.09183617
140	0x3e320a2b	0.17386691
141	0x3d333773	0.043754052
142	0xbe9849c4	-0.2974378
143	0x3da64119	0.08117885
144	0xba9b44d1	-0.001184607
145	0xbd8b71b9	-0.068088
146	0xb9c2aaa0	-0.0003712969
147	0x3d9ab809	0.07554633
148	0xbe823d67	-0.2543747
149	0x3db76342	0.08954479
150	0xb9c788bc	-0.00038058113
151	0x3d249b36	0.040187083
152	0xbe8c2587	-0.2737238
153	0xbde399de	-0.11113332
154	0xbdc6d2cd	-0.09708176
155	0x3df1b8a0	0.118027925
156	0x3dabddef	0.0839194
157	0xbd25c80a	-0.040473975
158	0xbe0ef47e	-0.13960454
159	0xbdfdd364	-0.12393835
160	0x3dc5dc95	0.09661213
161	0x3ca94a72	0.020665381
162	0x3e7f5c05	0.24937446
163	0xbd040b2c	-0.032237217
164	0xbc2f12f0	-0.010685667
165	0x3dbd3bdf	0.09239935
166	0xbd4eb0dc	-0.050461635
167	0xbdd2113b	-0.10257193
168	0x3e02ce7f	0.12774085
169	0xbcf5d0e9	-0.030006843
170	0x3d622e68	0.055220038
171	0xbd903864	-0.07042006
172	0x3e35d421	0.17756702
173	0xbe6b936a	-0.23005453
174	0x3c932e59	0.017966436
175	0xbd811d28	-0.06304389
176	0xbd95f058	-0.073212326
177	0xbe64e7c0	-0.2235403
178	0xbda45388	-0.08023745
179	0x3be858fc	0.007090686
180	0x3dd7d41c	0.105385035
181	0x3ed2df31	0.41185907
182	0x3dde169d	0.10844157
183	0xbe655094	-0.2239402
184	0xb850c55d	-4.9774873e-05
185	0x3de47714	0.11155525
186	0x3b8ea858	0.004353564
187	0x3e57392e	0.21017906
188	0x3dc2cdc8	0.09511906
189	0x3d817ec6	0.06323008
190	0x3dee996d	0.116503574
191	0xbeaadedb	-0.3337315
192	0xbe9a7b12	-0.3017202
193	0x3deae923	0.114702486
194	0x3d63c848	0.055610925
195	0x3ce5df56	0.028060596
196	0x3bafef95	0.0053691366
197	0x3e44b1c9	0.19208445
198	0x3d3c9c34	0.046047404
199	0x3d0cd970	0.034387052
200	0x3deebb1c	0.11656782
201	0xbe4173e5	-0.18891867
202	0xbe229616	-0.15877566
203	0xbd38b178	-0.045091122
204	0xbcc86119	-0.024460362
205	0xbf2d4593	-0.67684287
206	0xbee39458	-0.44449115
207	0xbe2e154d	-0.17000313
208	0xba87956e	-0.0010344216
209	0x3d8d14af	0.06888711
210	0x3c446e45	0.011989181
211	0xbe0ec54c	-0.1394245
212	0x3cbe5ffb	0.023239126
213	0x3c27f252	0.010250645
214	0x3db84cb9	0.08999009
215	0x3e600e00	0.2188034
216	0x3e2144b5	0.15748866
217	0x3e7e93d2	0.24861076
218	0x3cde1934	0.027111627
219	0x3dc98012	0.098388806
220	0xbc14c47a	-0.009080047
221	0x3dae5009	0.08511359
222	0x3dcbe57e	0.099558815
223	0x3daa7b2d	0.08324275
224	0xbebcc2a7	-0.36867258
225	0x3d4c37cb	0.049857896
226	0x3cc3812c	0.023865305
227	0xbe719f77	-0.23595987
228	0xbd9d992e	-0.07695232
229	0xbdf26970	-0.11836517
230	0x3ccf14fa	0.025278557
231	0xbe150324	-0.1455198
232	0x3e7712f7	0.24128328
233	0x3ddd03c3	0.10791733
234	0x3d10917a	0.035294987
235	0xbedadc32	-0.4274612
236	0x3d4c4781	0.04987288
237	0x3e67f2b6	0.2265118
238	0x3cfea015	0.031082192
239	0x3e815164	0.2525741
240	0xbbcec06a	-0.0063095586
241	0xbdc6870c	-0.09693727
242	0x3e079d3e	0.13243577
243	0x3d438a57	0.047739353
244	0x3dd643cf	0.10462152
245	0x3e51a7d8	0.20474184
246	0x3e8eabd5	0.27865472
247	0x3e94afed	0.2904047
248	0x3dc4b47d	0.09604738
249	0x3b30e75e	0.0026993374
250	0xbd88f5d8	-0.06687516
251	0x3d6df7ea	0.058097757
252	0xbd6e51a0	-0.058183312
253	0x3e82b63b	0.25529656
254	0xbe727c20	-0.23680162
255	0x3e2f64f7	0.17128359

_fc3.bias f4 [4]
0	0x3edef495	0.43545976
1	0x3e689b9c	0.2271561
2	0x3e8e3947	0.27778074
3	0x3e978059	0.2959011
