project1-banana-collector/models/dqn_ddqn_qnetwork_local.pth (torch_old, 307268 bytes, 6 tensors)

_fc1.weight f4 [256, 37]
0	0xbd7c1d08	-0.061551124
1	0xbd680803	-0.056648266
2	0xbda7f099	-0.08200187
3	0xbe325d4c	-0.17418402
4	0xbe7e3b8a	-0.248274
5	0xbe6ca4c3	-0.23109727
6	0xbc15de7c	-0.009147283
7	0x3e528036	0.20556721
8	0xbdcf9d55	-0.101374306
9	0x3d7bc24d	0.061464597
10	0xbe1560e2	-0.14587739
11	0xbdd8dc4c	-0.10588893
12	0xbec32543	-0.38114366
13	0x3e08ca56	0.13358435
14	0xbee98617	-0.45610115
15	0x3cfe5bff	0.031049727
16	0xbe8165bd	-0.25272933
17	0x3e8edf3e	0.27904695
18	0xbe55b34f	-0.20869182
19	0xbedfb928	-0.4369595
20	0xbe2adc5b	-0.16685621
21	0x3e143ba2	0.14475873
22	0xbe9de7ae	-0.3084082
23	0x3ea178ae	0.31537384
24	0xbde6e565	-0.11274222
25	0xb8de042e	-0.000105865634
26	0x3dd43582	0.10361768
27	0xbe34f6c3	-0.17672257
28	0xbe272455	-0.16322453
29	0xbda16969	-0.078814335
30	0xbe1db7ad	-0.15402098
31	0x3e256c1d	0.16154523
32	0xbd9b0ef8	-0.075712144
33	0xbe7a9f5b	-0.24474852
34	0xbe620acb	-0.2207443
35	0x3dd45e2b	0.103695236
36	0x3c1d7675	0.009610762
37	0x3e4777c5	0.19479282
38	0x3e843bb9	0.25826815
39	0xbe400539	-0.18751992
40	0xbe499cd0	-0.19688725
41	0xbe3f3de7	-0.18675958
42	0x3dc1f4c9	0.09470517
43	0xbea31a59	-0.3185604
44	0xbe2e2cfc	-0.17009348
45	0xbe3f564c	-0.18685263
46	0xbef1b698	-0.4720962
47	0xbcc87bc5	-0.02447308
48	0xbdeb549f	-0.114907496
49	0x3d8772cb	0.06613692
50	0x3e560d5c	0.20903534
51	0x3dde6d6b	0.108607136
52	0xbc85659c	-0.016283803
53	0xbd4c0665	-0.049810786
54	0x3e70b869	0.23507847
55	0xbd9dda4e	-0.07707654
56	0xbdd4c0e9	-0.10388357
57	0xbe69ed67	-0.22844468
58	0xbd499732	-0.049216457
59	0xbcf011f2	-0.029305432
60	0x3db56e70	0.08858955
61	0x3e50494c	0.2034046
62	0xbdb255c2	-0.08707763
63	0xbbd14d0e	-0.0063873595
64	0x3dcd9250	0.100376725
65	0x3dca2e22	0.098720804
66	0x3d3ffc07	0.04687121
67	0xbd3affe7	-0.045654204
68	0x3d36ff68	0.044677168
69	0x3e546da4	0.2074495
70	0x3e312a52	0.173013
71	0xbd85af46	-0.065275714
72	0x3cd1b641	0.0255996
73	0xbc8a9373	-0.016916012
74	0x3e8985b1	0.2685981
75	0x3e05367e	0.13009068
76	0xbd93ef89	-0.07223422
77	0xbeb042c7	-0.34425947
78	0xbba92734	-0.005162144
79	0xbf2d3dda	-0.67672503
80	0xbe1dbbf4	-0.1540373
81	0x3e90f5b5	0.2831246
82	0x3da99584	0.08280471
83	0xbee6bf21	-0.45067695
84	0x3e341c05	0.17588814
85	0x3d6962ef	0.056979116
86	0xbe4bb24c	-0.19892234
87	0xbdcaf352	-0.09909691
88	0x3e52cfcd	0.20587082
89	0xbe89470c	-0.26812017
90	0x3c39a45e	0.011330692
91	0x3e306864	0.17227322
92	0x3e84c4cd	0.25931397
93	0x3cbcab66	0.023030948
94	0xbe54acb3	-0.20769005
95	0xbdf40016	-0.11914079
96	0x3dd3c7d1	0.10340846
97	0x3d4cb2f6	0.049975358
98	0xbf0f4021	-0.5595723
99	0xbe23fe3d	-0.16014953
100	0x3db76927	0.08955603
101	0x3e1d772f	0.15377496
102	0xbd2f2678	-0.042761296
103	0xbe021b7c	-0.12705797
104	0xbe84f1f5	-0.2596585
105	0xbe08f89e	-0.1337609
106	0xbd2951da	-0.041337825
107	0xbe0fe47b	-0.14052002
108	0xbe8325fa	-0.2561491
109	0x3c8b5e6b	0.017012795
110	0xbc26b33e	-0.010174571
111	0x3ec11bd6	0.3771655
112	0xbf28ce01	-0.65939337
113	0x3e1e2fad	0.15447874
114	0xbe359863	-0.17733912
115	0xbfa6bb4c	-1.3025908
116	0x3ce1d5f9	0.02756785
117	0xbd1de916	-0.038552366
118	0x3e239c31	0.15977551
119	0x3e4a5fc8	0.197631
120	0x3d96a8ab	0.073563896
121	0x3c724502	0.014786961
122	0xbd8939b4	-0.06700459
123	0x3d79dd3d	0.061002005
124	0x3b1531c1	0.0022765251
125	0xbcac3b55	-0.021024385
126	0xbd9dcfbb	-0.07705637
127	0x3df9ffc8	0.122069895
128	0x3d61a2d0	0.05508691
129	0xbe4d8c12	-0.20072964
130	0xbe23591e	-0.15951964
131	0x3db909a9	0.09035046
132	0x3d91c339	0.07117314
133	0xbd810f3d	-0.063017346
134	0x3d857f6f	0.06518447
135	0xbc76d3a1	-0.015065105
136	0xbd38a8a6	-0.04508271
137	0x3c56596d	0.013082844
138	0x3e6deaa3	0.23234038
139	0x3e22420c	0.15845507
140	0x3ea50ab2	0.32234722
141	0x3dd273c0	0.10275984
142	0x3e87b597	0.2650573
143	0x3dad630e	0.08466159
144	0xbe0bb23c	-0.1364221
145	0xbe5fe554	-0.21864825
146	0x3d212c30	0.03934878
147	0xbcc84431	-0.024446579
148	0xbd46f79e	-0.04857599
149	0xbe1dc7fa	-0.15408316
150	0xbdb91195	-0.09036557
151	0xbdd5de03	-0.10442736
152	0xbddfaeae	-0.109219894
153	0x3e7bd942	0.24594596
154	0xbb3073ba	-0.0026924447
155	0xbe43edae	-0.19133636
156	0xbe69df02	-0.22838977
157	0xbf4bfe0b	-0.79684514
158	0xbccb3036	-0.024803262
159	0xbd0eb86f	-0.03484386
160	0x3b388abe	0.0028158869
161	0xbd0cb542	-0.03435255
162	0xbdf41284	-0.11917594
163	0xbe2012e7	-0.1563221
164	0xbde03286	-0.109471366
165	0x3db37efe	0.08764456
166	0x3ddc9e01	0.10772324
167	0x3e18abae	0.1490924
168	0xbddb9d01	-0.107233055
169	0xbe18c382	-0.1491833
170	0x3e345e69	0.1761414
171	0x3db2b061	0.08725048
172	0x3eab6111	0.33472493
173	0x3dcce904	0.10005382
174	0xbd3c07a9	-0.045905743
175	0x3e01b106	0.12665185
176	0xbda68756	-0.08131282
177	0x3d0e6189	0.034760986
178	0x3d3e3ce3	0.046444785
179	0xbde9628f	-0.11395752
180	0x3e41db2d	0.18931265
181	0x3e16d334	0.14729005
182	0x3ec55c7f	0.3854713
183	0xbcaadb2f	-0.020856468
184	0x3bcfd121	0.006342069
185	0x3d525e7d	0.051359642
186	0xbe1d26e7	-0.15346871
187	0x3d73f90b	0.059563678
188	0xbe4a7e89	-0.19774832
189	0x3e33bf63	0.17553477
190	0x3e2d8e59	0.16948833
191	0x3e0505eb	0.12990539
192	0xbe6d6e8a	-0.23186699
193	0xbdf63cfa	-0.12023349
194	0xbf6f67fe	-0.93518054
195	0xbe5cb250	-0.21552396
196	0x3d8df15b	0.069308005
197	0x3d13c6be	0.036078207
198	0xbe3bec3f	-0.1835184
199	0xbdbb3d3b	-0.09142538
200	0xbd4304a3	-0.047611844
201	0x3de22575	0.110423006
202	0xbde0269a	-0.10944863
203	0xbdaef2f5	-0.08542434
204	0x3dc406f3	0.09571638
205	0x3d46acb1	0.048504535
206	0xb830b423	-4.2129435e-05
207	0x3e580b49	0.21098055
208	0xbdaa2340	-0.08307505
209	0x3ddada07	0.10686117
210	0xbd47904f	-0.048721608
211	0xbe399e1b	-0.18126719
212	0x3da7d3cd	0.08194695
213	0x3df6b797	0.12046736
214	0x3d83d4d9	0.06437082
215	0x3e2f13d3	0.17097406
216	0xbe73bba7	-0.23802052
217	0xbe897ce4	-0.26853096
218	0xbbece46a	-0.0072293775
219	0xbe2625d3	-0.16225366
220	0xbb7055a4	-0.003667214
221	0xba7f3fdc	-0.0009736994
222	0xbd067f5d	-0.032836307
223	0x3e18ee76	0.14934716
224	0xbe0f008a	-0.1396505
225	0xbb1e6f18	-0.0024175104
226	0xbe1742a4	-0.14771515
227	0xbbfdbb72	-0.0077432925
228	0xbe250016	-0.16113314
229	0x3da4425e	0.08020471
230	0xbc538f72	-0.012912618
231	0xbb35ba38	-0.0027729403
232	0x3a29cd64	0.0006477444
233	0x3cd35863	0.025798982
234	0x3e3f9361	0.18708564
235	0xbe5c4239	-0.21509637
236	0xbd07ecb6	-0.03318473
237	0xbe249a90	-0.16074586
238	0xbcdaeecd	-0.026725197
239	0xbdb4ec59	-0.08834142
240	0x3e3c2895	0.18374856
241	0x3da3b9b6	0.07994406
242	0x3ba0e91c	0.0049106013
243	0xbcaa85d3	-0.020815765
244	0x3da5abb4	0.080893904
245	0xbe69f87d	-0.22848697
246	0x3e86716d	0.26258412
247	0xbe3eb4bf	-0.18623637
248	0x3e085972	0.1331537
249	0xbe20ba5d	-0.15696092
250	0xbe5e282c	-0.21695012
251	0x3e0d5bce	0.13804552
252	0x3e226764	0.15859753
253	0xbeecf66e	-0.4628176
254	0x3de68c3e	0.11257218
255	0xbe991ff8	-0.29907203

_fc1.bias f4 [256]
0	0xbd586596	-0.052831255
1	0x3d8c8ae0	0.06862426
2	0xbc123acd	-0.008925152
3	0x3cb09b6d	0.021558488
4	0x3d9294f8	0.0715732
5	0x3bc2e654	0.0059478674
6	0xbe1cf615	-0.15328248
7	0xbd6ae320	-0.05734551
8	0xbe927837	-0.28607342
9	0xbe03c215	-0.12867005
10	0x3db317fa	0.087448075
11	0x3e07029a	0.13184586
12	0xbdf8033c	-0.12109992
13	0xbe1a6b2d	-0.15079947
14	0xbdbffa6b	-0.09373935
15	0x3de33fa6	0.11096124
16	0x3dabbae9	0.0838526
17	0xbdd09d0f	-0.101862065
18	0xbd4130d1	-0.047165696
19	0xbe259509	-0.16170134
20	0xbdbe46f3	-0.09290876
21	0x3d3320e7	0.04373255
22	0x3daa1f9c	0.0830681
23	0xbda20f93	-0.07913127
24	0xbda7c9c1	-0.081927784
25	0x3d612224	0.0549642
26	0x3de26c80	0.11055851
27	0x3e456648	0.19277298
28	0x3d7637b2	0.06011171
29	0x3e269e92	0.16271427
30	0x3dd2f6d7	0.10300987
31	0x3bd00634	0.0063483957
32	0xbe12fd62	-0.1435447
33	0xbd259b4f	-0.040431317
34	0xbc29fdb7	-0.010375432
35	0x3dc3e11d	0.09564421
36	0xbce9f145	-0.02855743
37	0x3bab3c13	0.0052256673
38	0xbd942597	-0.07233732
39	0x3e123532	0.14278105
40	0xbe2bc437	-0.16774069
41	0xbdbcd3d0	-0.092200875
42	0x3d8aa468	0.06769639
43	0x3c1be20f	0.009514346
44	0xbbd1a896	-0.006398271
45	0xbcd96809	-0.026538866
46	0xbe51db07	-0.20493709
47	0xbde3705f	-0.111054175
48	0xba6d19c8	-0.0009044674
49	0xb9a97b21	-0.0003232593
50	0xbd6ebcf2	-0.05828566
51	0x3d393a3d	0.045221556
52	0xbdc68500	-0.096933365
53	0x3d1e0015	0.038574297
54	0xbd3bc21f	-0.045839425
55	0xbd6609d7	-0.056161728
56	0x3d197d1a	0.03747282
57	0xbb683c91	-0.003543649
58	0x3d97a912	0.074052945
59	0x3d8bdb71	0.068289645
60	0x3e30483b	0.17215054
61	0x3ce816e8	0.028331235
62	0x3df4c218	0.11951083
63	0xbc8e9716	-0.017406028
64	0x3ce54736	0.027988058
65	0xbe13b2fb	-0.14423744
66	0xbe5a3e6d	-0.21312876
67	0xbe12f990	-0.14353013
68	0xbd82e85f	-0.063919775
69	0xbdeea5c6	-0.116527125
70	0xbe784bb0	-0.24247622
71	0x3d52df90	0.051482737
72	0xbe21898f	-0.1577513
73	0x3e21bc0d	0.15794392
74	0xbd107e5b	-0.035276752
75	0xbd58ebc5	-0.052959222
76	0x3e0a8832	0.13528517
77	0xbdc4dad9	-0.096120544
78	0xbd310c80	-0.04322481
79	0x3dae9032	0.08523597
80	0xbe582dc7	-0.21111213
81	0x3d9ad1a1	0.07559515
82	0xbdd9af91	-0.1062919
83	0xbdc326cf	-0.095288865
84	0x3d875976	0.0660886
85	0xbafe5feb	-0.0019407248
86	0x3c8084f3	0.015688395
87	0x3e689288	0.22712147
88	0x3d08e75d	0.03342377
89	0xbcc5b0f1	-0.024132224
90	0x3e31e634	0.17372972
91	0xbdc24c84	-0.094872504
92	0xbdd7b054	-0.10531679
93	0x3deb85a1	0.11500097
94	0xbd504b82	-0.05085326
95	0x3e25d58c	0.16194743
96	0x3cf5fcdc	0.0300278
97	0xbe2cbbb6	-0.16868481
98	0x3c3202dc	0.01086494
99	0x3e14885a	0.14505139
100	0x3a1d01fe	0.00059893716
101	0xbe620f0b	-0.22076051
102	0xbe1ea7a0	-0.15493631
103	0xbd885ba0	-0.06658101
104	0xbde95d17	-0.113947086
105	0xbe540d4f	-0.20708202
106	0x3dd62ffd	0.10458372
107	0xbe261374	-0.16218358
108	0xbe154d06	-0.14580163
109	0x3dbe532c	0.092932075
110	0x3d3f3a7c	0.046686634
111	0x3d1daf82	0.038497455
112	0x3dca25c2	0.09870483
113	0xbdbf1123	-0.093294404
114	0x3dc65de6	0.096858785
115	0xbd235506	-0.039876007
116	0xbdf56193	-0.119815014
117	0x3d310e4b	0.04322652
118	0xbdf234f0	-0.11826503
119	0xbe33b822	-0.1755071
120	0xbd15f910	-0.036614478
121	0x3d00aa23	0.031412255
122	0xbdfdde9a	-0.123959735
123	0xbe239d39	-0.15977944
124	0xbdeef6eb	-0.116681896
125	0xbe2162b8	-0.15760314
126	0x3d49d080	0.049271107
127	0x3dba3100	0.09091377
128	0x3dff225f	0.12457728
129	0xbd3f5f15	-0.046721537
130	0xbdc97191	-0.09836114
131	0x3cb58093	0.022156036
132	0xbd153d86	-0.036435626
133	0xbce15307	-0.02750541
134	0x3d40b357	0.04704603
135	0xbe00cc60	-0.12577963
136	0xbe17ccf1	-0.14824273
137	0xbe877685	-0.2645761
138	0xbdd83f44	-0.10558942
139	0xbe1be632	-0.15224531
140	0x3c5773c2	0.013150157
141	0x3cc7de87	0.024398101
142	0x3c3b76ea	0.011441926
143	0xbdcaf8b9	-0.09910721
144	0xbd728778	-0.059211224
145	0xbd8a58fd	-0.067552544
146	0xbe465a41	-0.19370367
147	0x3de915b6	0.11381094
148	0xbe317026	-0.17327937
149	0x3ddcd125	0.10782079
150	0x3d3d4528	0.04620853
151	0xbe37d00e	-0.1795046
152	0xbe1775dc	-0.14791054
153	0xbdea3dac	-0.11437544
154	0x3dff7a40	0.12474489
155	0xbced5d45	-0.028975138
156	0x3d33112c	0.04371755
157	0xbe1bb14b	-0.1520435
158	0x3d859ab9	0.06523652
159	0x3d292f40	0.041304827
160	0x3d91ba50	0.071156144
161	0x3dfc8533	0.12330093
162	0x3df8b996	0.12144773
163	0xbd823e07	-0.06359487
164	0xbc2ace9b	-0.010425235
165	0xbe364b61	-0.17802192
166	0xbd5bba3d	-0.053644408
167	0xbddda219	-0.10821933
168	0x3c485ee1	0.012229652
169	0xbe17a6b6	-0.14809689
170	0x3da3475e	0.079725966
171	0xbdb90675	-0.09034435
172	0x3cd4c145	0.025971064
173	0x3e25f7bf	0.16207789
174	0x3d1ed592	0.038777895
175	0x3cf63d47	0.030058516
176	0x3dbbce66	0.09170227
177	0xbdeaa6f8	-0.11457628
178	0x3e3372ac	0.17524213
179	0xbe48d82a	-0.1961371
180	0x3dac2a00	0.08406448
181	0xbd9a6861	-0.0753944
182	0xbe082a27	-0.1329733
183	0xbd1572ae	-0.03648632
184	0xbe1dc14b	-0.15405767
185	0x3d4b9b68	0.049708754
186	0x3e1ca48c	0.15297145
187	0x3d3c3a69	0.04595414
188	0x3e20dfce	0.15710375
189	0x3e2597ac	0.1617114
190	0xbe4f70dd	-0.20257898
191	0x3de458e4	0.11149767
192	0x3ce880e7	0.028381778
193	0x3dac47e9	0.08412153
194	0x3d91c02e	0.071167335
195	0xbd636896	-0.055519663
196	0x3dfcf268	0.12350923
197	0xbe02cc1c	-0.12773174
198	0xbe2aee2a	-0.16692415
199	0xbd030179	-0.031983826
200	0x3cd1399b	0.025540164
201	0xbab230ee	-0.0013594904
202	0xbe39132e	-0.18073723
203	0x3d242315	0.04007252
204	0xbd67ec3b	-0.05662177
205	0xbe0dd5bb	-0.13851063
206	0x3d5cd080	0.05390978
207	0x3e0e5099	0.13897933
208	0x3daecfbb	0.08535715
209	0xbda38c0a	-0.07985695
210	0xbe2c260d	-0.1681139
211	0xbe5dd921	-0.2166486
212	0x3c2ad6a7	0.010427154
213	0xbe4f2709	-0.20229734
214	0x3d958bb8	0.0730204
215	0xbe2a8576	-0.16652474
216	0xbe1ebd83	-0.1550198
217	0xbd0b8a83	-0.034067642
218	0x3cfb7c19	0.030698823
219	0xbda6381f	-0.08116173
220	0xbcce9a0f	-0.025219945
221	0xbe31a178	-0.17346752
222	0xbdc0ec37	-0.094200544
223	0x3ba83d68	0.0051342733
224	0xbe8205a2	-0.25394922
225	0xbd3c22e6	-0.04593172
226	0xbcb08f68	-0.021552756
227	0xbd084349	-0.033267293
228	0x3e198713	0.14992933
229	0xbe153fb7	-0.14575087
230	0x3c8ad806	0.016948711
231	0x3b18c4da	0.0023310692
232	0x3bfc1224	0.007692592
233	0xbd838e9a	-0.064236835
234	0x3d5f6742	0.054541834
235	0xbe7e8ccf	-0.24858402
236	0xbdd69623	-0.10477855
237	0x3be120a9	0.0068703485
238	0xbb85c051	-0.004081764
239	0xbe5c925a	-0.21540204
240	0x3df879f9	0.121326394
241	0x3dccad12	0.09993948
242	0xbe679a22	-0.22617391
243	0x394a14c9	0.00019271964
244	0xbe6898f2	-0.22714594
245	0xbd7d03dc	-0.06177126
246	0xbd3664df	-0.044529792
247	0x3dfb61e7	0.12274533
248	0x3e148104	0.1450234
249	0x3dcb8ce2	0.09938981
250	0x3c91b162	0.017784778
251	0xbe4c9f81	-0.19982721
252	0xbdc246ea	-0.09486182
253	0x3ce77e3d	0.028258437
254	0xbd9d3f8a	-0.07678135
255	0xbda844b2	-0.082162276

_fc2.weight f4 [256, 256]
0	0xbcdbb4d9	-0.026819633
1	0x3c2c04fc	0.010499235
2	0xbcc8692a	-0.024464209
3	0xbd16c67b	-0.03681038
4	0xbc8cea38	-0.017201528
5	0x3ced90c0	0.028999686
6	0x3d6181cb	0.05505542
7	0x3d03555d	0.03206383
8	0x3c9b5255	0.018960157
9	0x3cbc9652	0.023020897
10	0xbc80ff89	-0.015746849
11	0xbdd852e6	-0.105626866
12	0xbd564475	-0.05231138
13	0xbd66b624	-0.056326047
14	0xbd529a1f	-0.051416513
15	0xbd20daf1	-0.0392713
16	0xbd80bc0f	-0.06285869
17	0x3d6c7b93	0.057735037
18	0xbd919f33	-0.07110443
19	0xbdb67965	-0.08909873
20	0xbd78386a	-0.060600676
21	0xbb67ae8e	-0.0035351845
22	0xbd64cd8e	-0.055860095
23	0xbdb61651	-0.08890975
24	0x3b1abd23	0.002361127
25	0x3c365a93	0.011129993
26	0x3d560d29	0.052258644
27	0xbd984952	-0.0743586
28	0xbd032dc5	-0.03202607
29	0xbd1c26a9	-0.038122807
30	0xbcd6137d	-0.02613234
31	0xbbd83451	-0.0065980335
32	0x3d213aa3	0.03936256
33	0xbc9ff0d8	-0.019524023
34	0x3c5ecf6e	0.01359926
35	0xbc397da9	-0.011321464
36	0xbd521a50	-0.051294625
37	0xbce15772	-0.027507517
38	0xbd659671	-0.056051675
39	0x3b9225a0	0.0044600517
40	0xbd56fe05	-0.052488346
41	0x3cb76eb5	0.022391656
42	0xbdce4949	-0.10072572
43	0xbcbd203a	-0.023086656
44	0xbd6920de	-0.05691611
45	0x3d140c84	0.03614475
46	0xbcabec21	-0.020986618
47	0x3cc6cdd0	0.02426806
48	0xbda6d208	-0.08145529
49	0xbc35b131	-0.011089609
50	0xbd9aa2eb	-0.075506054
51	0xbd3a56a1	-0.045492772
52	0x3d6da2a6	0.05801644
53	0xbda2b98c	-0.079455465
54	0xbd45e97c	-0.04831837
55	0xbd91af92	-0.071135655
56	0xbd137ec1	-0.036009554
57	0xbcc70294	-0.024293222
58	0xbd99c391	-0.075080045
59	0xbbe52ecf	-0.0069941054
60	0x3c6f5a2d	0.014608902
61	0xbcf6459d	-0.030062491
62	0x3cc545b3	0.024081087
63	0xbdc3edef	-0.095668666
64	0x3dc2b095	0.095063366
65	0x3cc2a327	0.023759438
66	0xbb8053c2	-0.0039162347
67	0x3d562609	0.052282367
68	0xbd03fb2b	-0.032221954
69	0xbdaee05c	-0.08538887
70	0x3d2d8c77	0.042370286
71	0xbd6b7c34	-0.057491496
72	0xbd7f00d6	-0.062256657
73	0x3dbb35ef	0.091411464
74	0xbd5dc3f5	-0.054141957
75	0xbd73b7e5	-0.059501547
76	0xbc859266	-0.01630516
77	0xbc42f350	-0.0118988305
78	0xbd377ed9	-0.044798706
79	0xbc71236a	-0.014717916
80	0x3d040f4c	0.03224115
81	0xbd83ead3	-0.064412735
82	0x3d02e549	0.031956945
83	0xbcfd610f	-0.03093007
84	0xbdcb13a6	-0.09915857
85	0xbc21769a	-0.009854937
86	0xbda7f42d	-0.0820087
87	0x3c8e3126	0.01735742
88	0xbd33bb3b	-0.04387973
89	0xbd94e601	-0.07270432
90	0xbd97e1c6	-0.0741611
91	0xbb17882b	-0.0023121934
92	0xbdb69f2e	-0.0891708
93	0x3c089d0f	0.008338227
94	0xbbd1e352	-0.0064052725
95	0x3c5e9054	0.013584215
96	0xbd169604	-0.03676416
97	0xbd6d724f	-0.05797034
98	0x3b8369cf	0.004010416
99	0xbd037ed8	-0.03210339
100	0x3d144953	0.03620274
101	0xbd866642	-0.06562473
102	0xbdfb469c	-0.12269327
103	0xbcc586c5	-0.024112115
104	0xbd3781f4	-0.044801667
105	0xbd13c265	-0.03607406
106	0xbd10a39f	-0.03531229
107	0x3c68c9b6	0.014208248
108	0x3c35d97e	0.011099217
109	0xbd4536ab	-0.04814784
110	0xbcd6008c	-0.026123308
111	0xbd154d6f	-0.0364508
112	0xbbd498f8	-0.006487962
113	0xbc8c2ea1	-0.017112078
114	0xbe0bbcf1	-0.13646294
115	0xbc6041c3	-0.013687554
116	0x3c316cb7	0.010829142
117	0xbc0d1b04	-0.008612398
118	0xbc8a86cc	-0.01690998
119	0x3cd414f5	0.0258889
120	0xbd876261	-0.06610561
121	0xbd87e0de	-0.06634687
122	0xbd4c2102	-0.049836166
123	0xbdc1971c	-0.0945265
124	0x3b89cdf7	0.004205461
125	0x3ae963aa	0.0017806191
126	0xbd6af7c0	-0.05736518
127	0xbd10d973	-0.035363626
128	0xbcd771c2	-0.026299361
129	0xbd25792e	-0.04039877
130	0xbd65716d	-0.056016374
131	0xba10b53d	-0.00055201707
132	0xbd6ed440	-0.058307886
133	0xbdad7f67	-0.08471566
134	0xbd98aa42	-0.07454349
135	0xbd29fd33	-0.041501235
136	0xbc900620	-0.017581046
137	0xbca810d1	-0.020515831
138	0x3c3afee6	0.011413312
139	0xbc6534b5	-0.013989617
140	0xbd93f11b	-0.072237216
141	0x3bc60595	0.006043146
142	0x3d37f309	0.04490951
143	0xbd18d09a	-0.037308313
144	0xbdbffb29	-0.09374077
145	0xbc251b91	-0.010077373
146	0xbd0186dc	-0.031622753
147	0xbb94d4a1	-0.004541949
148	0xbd5b35ca	-0.053518094
149	0x3c16b685	0.0091987895
150	0xbd9cea22	-0.07661845
151	0xbd8a7191	-0.06759942
152	0x3b680a30	0.0035406463
153	0x3bc74c09	0.006082062
154	0xbdfdd413	-0.123939656
155	0x3cebf604	0.028803833
156	0xbd2ff19a	-0.04295502
157	0xbca5a15e	-0.020218547
158	0xbce11453	-0.027475512
159	0x3d15cdc3	0.036573183
160	0xbcc7630a	-0.024339218
161	0x3d30f532	0.043202586
162	0x3d2a1c19	0.041530702
163	0xbafdee23	-0.0019373338
164	0xbd69ad6a	-0.057050146
165	0xbd9dbc69	-0.07701952
166	0x3bb22add	0.0054372386
167	0xbc96b6d5	-0.018397728
168	0xbda11c90	-0.07866776
169	0xbd6e5945	-0.058190603
170	0xbd151638	-0.036398143
171	0xbcde28fa	-0.027119149
172	0xbd04cbb3	-0.032420825
173	0xbd1412a8	-0.036150604
174	0xbccfb6d3	-0.025355732
175	0xbd6fce18	-0.058546156
176	0xbd400fa3	-0.046889912
177	0x3c33b681	0.010968805
178	0xbd19d637	-0.037557807
179	0x3c6fb974	0.014631618
180	0x3d08c174	0.033387616
181	0xbc865457	-0.016397638
182	0xbd8449de	-0.064594015
183	0xbc9f8d47	-0.019476546
184	0xbd3fb3af	-0.04680222
185	0xbdc6bc45	-0.09703878
186	0x3d2494fb	0.04018114
187	0x3d7b43ba	0.061343886
188	0xbdd0f7b0	-0.10203493
189	0xbd2eb932	-0.042657085
190	0xbc0a5c67	-0.008444882
191	0x3d840f6b	0.06448253
192	0xbdca3bf0	-0.098747134
193	0x3d3bdba3	0.04586376
194	0xbd0035ed	-0.031301428
195	0x3bf581d3	0.007492283
196	0xbd209989	-0.039208923
197	0x3c9ca60f	0.019122152
198	0xbd8ed6ff	-0.06974601
199	0xbd2c8c70	-0.04212612
200	0xbe0c9f5a	-0.13732663
201	0x3ae5086a	0.0017473821
202	0xbd8909e9	-0.06691343
203	0xbbe8d175	-0.0071050473
204	0xbda357e9	-0.07975752
205	0xbced34f0	-0.028955907
206	0xbd7b9f5d	-0.061431278
207	0xbd05f4ed	-0.032704283
208	0x3d4ddb67	0.050258067
209	0xbd760adf	-0.06006896
210	0xbc394526	-0.01130799
211	0xbd8b4502	-0.068002716
212	0x3bb4ca8d	0.00551731
213	0xbd3532c9	-0.044237886
214	0x3c47cafb	0.01219439
215	0xbd9bcfd3	-0.07607999
216	0x3cc9b5d0	0.024622828
217	0x3d0491de	0.032365672
218	0xbd2a3630	-0.041555583
219	0xbdafb1b7	-0.08578818
220	0x3c9f75c8	0.019465342
221	0xbd531caa	-0.051541008
222	0x3c8882cc	0.016663931
223	0xbd4752fe	-0.048663132
224	0xbddaea9a	-0.10689278
225	0x3bcbc89f	0.0062189843
226	0xbc475a3a	-0.012167508
227	0xbdb23064	-0.08700636
228	0x3b418792	0.002953027
229	0x3cd0c307	0.025483621
230	0x3cb8bf06	0.022552025
231	0x3d54b91a	0.05193434
232	0x3aad7c74	0.0013235942
233	0xbd0b8701	-0.034064297
234	0xbccd22b2	-0.025040958
235	0x3cd437fb	0.0259056
236	0xbdc7677f	-0.09736537
237	0x3ccc7579	0.02495836
238	0x3cb7ff91	0.02246073
239	0xbc6412f8	-0.013920538
240	0xbafdadcf	-0.0019354167
241	0xbda0e10e	-0.07855426
242	0xbd020c2f	-0.0317499
243	0xbd23810f	-0.039918
244	0xbc886af6	-0.016652565
245	0xbddd29c1	-0.107989796
246	0x3ccab8ef	0.024746386
247	0xbcab6c49	-0.020925658
248	0x3c5530b3	0.013012099
249	0xbdee3a46	-0.116322085
250	0xbc9b5ced	-0.018965209
251	0xbd8d3d78	-0.0689649
252	0x3dafac2b	0.0857776
253	0xbbaf72f8	-0.0053542815
254	0xbd3ca260	-0.04605329
255	0xbddd36a9	-0.10801441

_fc2.bias f4 [256]
0	0xbd50afa2	-0.050948747
1	0xbdb0a7c1	-0.086257465
2	0x3c4863ce	0.012230827
3	0x3d4789c1	0.048715357
4	0xbd854c81	-0.065087326
5	0x3ef856f5	0.48503843
6	0xbe81587a	-0.25262815
7	0xbbfa96ec	-0.007647386
8	0x3d239837	0.039940085
9	0xbdbcede9	-0.09225065
10	0xbd389ebb	-0.045073252
11	0xbdcf518d	-0.101229765
12	0x3dee418f	0.11633598
13	0xbc39d75c	-0.01134285
14	0x3ccd9547	0.025095595
15	0x3ca2f5cf	0.019892601
16	0x3e329c55	0.17442448
17	0x3dab8e56	0.08376758
18	0x3c92106c	0.017830096
19	0xbd24581f	-0.0401231
20	0x3e121c8d	0.14268704
21	0xbd2df3a1	-0.04246867
22	0x3e4efb92	0.20213154
23	0x3d74d5fa	0.059774376
24	0xbda22720	-0.07917619
25	0xbd6ca2e6	-0.05777254
26	0x3c39fef0	0.011352286
27	0x3d52bb3a	0.051448084
28	0xbdc33703	-0.09531977
29	0x3d322d76	0.043500386
30	0xbc252dbb	-0.010081704
31	0x3dcb9946	0.09941344
32	0xbd71551e	-0.058919065
33	0xbd0ef9a8	-0.03490606
34	0x3d7281e5	0.05920591
35	0xbd42847f	-0.04748964
36	0xbd834a2f	-0.06410634
37	0x3e18fa2f	0.14939187
38	0x3d6235cf	0.055227097
39	0xbcdd82da	-0.027039934
40	0xbd95b0de	-0.07309125
41	0xbe3876ff	-0.18014143
42	0xbb19ad31	-0.0023449177
43	0x3dd0623d	0.101749875
44	0xbdf5372e	-0.11973415
45	0xbbc0014c	-0.0058595296
46	0xbd22d8b0	-0.03975743
47	0xbd815c8a	-0.063164786
48	0xbc7f5b38	-0.015585713
49	0xbb9c834d	-0.0047763945
50	0xbbf17b73	-0.0073694526
51	0xbe1358dd	-0.14389367
52	0xbd5f780e	-0.054557852
53	0xbd131577	-0.035909142
54	0xbd809639	-0.06278653
55	0xbc37750c	-0.01119734
56	0xbda8d752	-0.08244194
57	0x3d57f436	0.052723132
58	0x3d571aa5	0.052515645
59	0x3df2103d	0.118195035
60	0x3d727c20	0.059200406
61	0xbd43c23b	-0.047792654
62	0xbd281895	-0.04103907
63	0xbcca3d7a	-0.024687517
64	0xbd8e3aab	-0.06944784
65	0x3ea0088b	0.31256518
66	0xbc21d620	-0.009877712
67	0x3dd49f30	0.10381925
68	0xbd7ae5aa	-0.06125418
69	0xbdd6e8c9	-0.10493619
70	0xbd1a2b51	-0.037638966
71	0xbd20c008	-0.039245635
72	0x3dd8e957	0.10591381
73	0x3d6cdca9	0.057827625
74	0xbd272adc	-0.04081236
75	0xbde9f27c	-0.11423203
76	0x3db8898a	0.090106085
77	0xbc8fbcfa	-0.017546166
78	0x3a1f0552	0.00060661614
79	0x3d2b6e16	0.041853033
80	0x3d19fc4c	0.037594125
81	0x3e46b094	0.19403297
82	0x3dbbfe30	0.09179342
83	0x3b9d760c	0.004805332
84	0xbddf9983	-0.10917952
85	0x3d6d56c6	0.05794408
86	0x3c8d2a61	0.017232122
87	0xbd2655b3	-0.040609073
88	0x3cd1b60f	0.025599508
89	0x3f055692	0.5208522
90	0xbba038d3	-0.0048895865
91	0xbd556df9	-0.05210683
92	0xbde37c7e	-0.111077294
93	0x3cf92832	0.030414674
94	0xbc4e9e43	-0.012610975
95	0xbc47b3f8	-0.012188904
96	0xbd9916b2	-0.07475032
97	0xbcd2970a	-0.025706787
98	0xbce6f744	-0.028194077
99	0x3caa7f56	0.020812672
100	0xbdc38e3c	-0.095486134
101	0x3d4c021e	0.049806707
102	0x3de800a6	0.11328249
103	0xbd64d9ef	-0.0558719
104	0xbde93ead	-0.113889076
105	0x3e9932fe	0.29921716
106	0xbda69acc	-0.08134994
107	0x3d915e5d	0.070980765
108	0x3c4f2b22	0.012644561
109	0xbd6c7947	-0.057732847
110	0xbd1fce7c	-0.03901528
111	0x3d2483f4	0.040164903
112	0xbdf94274	-0.12170878
113	0xbc7e4535	-0.01551943
114	0x39cb3668	0.00038759713
115	0xbdbb8c78	-0.09157652
116	0x3c2a0222	0.010376485
117	0xbd8a28bb	-0.0674605
118	0x3f014701	0.5049897
119	0x3e8760c6	0.2644102
120	0x3d11f5bf	0.035634752
121	0xbd0772cc	-0.033068463
122	0xbd5f5fce	-0.054534726
123	0xbde50ebe	-0.111844525
124	0xbe1c403b	-0.15258877
125	0xbde56e05	-0.11202625
126	0xbd5b0953	-0.05347569
127	0x3a58618e	0.0008254283
128	0xbd893122	-0.066988245
129	0x3d4dc98e	0.050241046
130	0xbdc19261	-0.09451748
131	0x3d91bf28	0.07116538
132	0xbd830f47	-0.06399398
133	0x3e16cf09	0.14727415
134	0xbe1936fb	-0.1496238
135	0xbd55a063	-0.05215491
136	0x3c58c6ba	0.013230974
137	0xbdeeaf8b	-0.11654576
138	0xbd3e5485	-0.046467323
139	0xbdc21fdd	-0.09478734
140	0xbb3934ac	-0.0028260155
141	0xbd65aeb5	-0.056074817
142	0xbda13060	-0.07870555
143	0xbd749b2d	-0.0597183
144	0x3e45daa0	0.1932168
145	0xbe138476	-0.14405999
146	0xbda3ad6f	-0.07992064
147	0xbd39fce3	-0.045407187
148	0x3b45fdd5	0.003021111
149	0x3df6eaea	0.12056525
150	0xbcd2ac6e	-0.025716987
151	0x3cf5957d	0.029978508
152	0xbdce50be	-0.10073994
153	0x3deda8bd	0.1160445
154	0xb99e8de4	-0.00030241825
155	0x3aaf2061	0.001336109
156	0x3e7bd436	0.24592671
157	0xbe4537b5	-0.19259532
158	0x3d53aa47	0.05167606
159	0xbd3be2cc	-0.045870587
160	0x3ec1ac68	0.37826848
161	0x3d3861aa	0.045015015
162	0xbd4e3885	-0.05034687
163	0xbd4e1e9c	-0.05032216
164	0xbdc4cd13	-0.09609427
165	0x3dd4405a	0.103638366
166	0xbdd656bd	-0.10465763
167	0xbdbd0c4c	-0.09230861
168	0xbd69ce11	-0.057081286
169	0xbce236f6	-0.027614098
170	0x3ced8a5e	0.028996643
171	0xbe10f4e3	-0.14155917
172	0x3db3e228	0.0878337
173	0xbd90ccff	-0.0707035
174	0xbb478d31	-0.0030449147
175	0xbd2ab54e	-0.041676812
176	0xbdd5f36b	-0.10446819
177	0xbd4f5773	-0.050620507
178	0x3e38fda6	0.18065509
179	0xbd215d5c	-0.039395675
180	0x3e7bd678	0.24593532
181	0xbd58b6c8	-0.05290869
182	0x3d8b2b36	0.06795351
183	0x3acb46ef	0.0015508811
184	0xbbd22bec	-0.0064139273
185	0xbb81dfaa	-0.0039634304
186	0xbd56461f	-0.052312966
187	0x3dd25e2b	0.10271867
188	0xbcb57eee	-0.022155251
189	0xbe18663b	-0.14882748
190	0x3d8194ee	0.06327234
191	0x3c9332f9	0.017968642
192	0x3d0a0d56	0.033704124
193	0x3dea7268	0.114476025
194	0x3b690c31	0.0035560245
195	0xbc7c97e1	-0.01541707
196	0xbe0fddd3	-0.14049463
197	0x3da8e660	0.082470655
198	0xbcbc9a3f	-0.023022769
199	0xbd93db13	-0.072195195
200	0xbd948c03	-0.072532676
201	0xbe515e10	-0.20446038
202	0x3c8e48f9	0.01736878
203	0xbd86a207	-0.06573873
204	0xbda3ce33	-0.07998314
205	0xbdb8fb0e	-0.0903226
206	0xbd3ce402	-0.046115883
207	0x3d91e4af	0.07123696
208	0x3d4e6abe	0.050394766
209	0xbe1345e9	-0.14382137
210	0x3e1bfc5b	0.15232985
211	0x3cd96361	0.026536645
212	0xbdaf2828	-0.08552581
213	0xbd856661	-0.06513668
214	0xbd2efb4f	-0.042720135
215	0xbd6c4daa	-0.057691254
216	0xbd862f6f	-0.06552016
217	0x3dd86ce4	0.10567644
218	0xbdcbb18f	-0.09945976
219	0xbe33cf47	-0.17559539
220	0xbc8dc6f6	-0.017306786
221	0x3e1a4070	0.15063643
222	0x3d27c7b0	0.04096192
223	0xbcd6fca4	-0.026243515
224	0x3d6bebb9	0.05759785
225	0xbd101698	-0.035177797
226	0xbccce1a2	-0.025009934
227	0xbda584a1	-0.080819376
228	0xbe5171ec	-0.20453614
229	0x3ce6355c	0.028101616
230	0xbdf5148f	-0.11966812
231	0x3c640c98	0.013919018
232	0x3d5e21c9	0.05423144
233	0x3cb07200	0.021538734
234	0xbb649439	-0.0034878387
235	0xbe399177	-0.18121897
236	0x3d23cb8c	0.03998904
237	0xbd141590	-0.036153376
238	0x3c82dce9	0.015974479
239	0x3de880f8	0.11352724
240	0x3e126488	0.14296162
241	0xbd0bab03	-0.034098636
242	0xbd37c06f	-0.044861253
243	0xbd866865	-0.065628804
244	0x3deedc36	0.11663096
245	0x3c87d6f1	0.016581984
246	0xbc340816	-0.010988256
247	0x3d618165	0.05505504
248	0xbd421909	-0.047387157
249	0x3d75bf46	0.059996866
250	0x3ccca789	0.02498223
251	0x3ee4d723	0.44695386
252	0xbdd42a79	-0.103596635
253	0xbdce2b2d	-0.10066829
254	0x3d80c11b	0.06286832
255	0x3e7cfa61	0.24704887

_fc3.weight f4 [4, 256]
0	0xbd867feb	-0.06567367
1	0xbd365fb4	-0.044524863
2	0xbd7b7295	-0.06138857
3	0x3d6007ae	0.054694824
4	0x3c72374a	0.01478369
5	0x3e1021d8	0.1407541
6	0xbda88a71	-0.082295306
7	0x3df356d5	0.11881796
8	0xbf0e957c	-0.55696845
9	0xbd8fa343	-0.070135616
10	0xbd36baa1	-0.044611577
11	0xbc4717a7	-0.012151635
12	0x3ccd39ad	0.025051916
13	0x3cd8aa1b	0.0264483
14	0xbd3315f6	-0.043722115
15	0x3dc9b66c	0.09849247
16	0x3d153707	0.03642943
17	0x3d7d113f	0.061784025
18	0x3e4a99be	0.1978521
19	0x3c9c733f	0.019097922
20	0x3db73273	0.08945169
21	0xbe44751e	-0.19185302
22	0x3d7b4634	0.061346248
23	0x3e87f799	0.2655609
24	0x3b54e6e6	0.003248626
25	0x3d09d58d	0.033650924
26	0xbeb6186f	-0.35565516
27	0xbedcffcf	-0.43163916
28	0xbd06c735	-0.032904822
29	0xbddc78d8	-0.107652366
30	0xbc433d05	-0.011916404
31	0x3d874610	0.0660516
32	0x3c20dcef	0.0098183
33	0xbcd205c7	-0.02563752
34	0x3d8a1fdb	0.06744357
35	0x3e15e6b5	0.14638789
36	0xbe6d6c05	-0.23185737
37	0x3dd63c7e	0.10460757
38	0x3eeec952	0.4663797
39	0xbd7bbac8	-0.061457425
40	0x3e212b4b	0.15739171
41	0xbdb8737a	-0.090064004
42	0xbc53df9b	-0.01293173
43	0x3d179b2b	0.037013214
44	0xbe72907c	-0.23687929
45	0x3c3d8320	0.011566907
46	0xbe259136	-0.16168675
47	0xbc554064	-0.01301584
48	0x3e2cf0e6	0.1688877
49	0xbd925e86	-0.07146935
50	0x3d85b748	0.06529099
51	0xbeb1ac89	-0.34701946
52	0xbc21647b	-0.009850617
53	0x3d2368f5	0.039895017
54	0x3dd10658	0.10206288
55	0x3db69ad8	0.08916253
56	0x3ba79e3e	0.0051152995
57	0x3ebdbb58	0.37056994
58	0x3e716456	0.23573431
59	0x3d5c86d5	0.053839523
60	0x3dfd934b	0.123816095
61	0x3df162f4	0.11786452
62	0x3dd69060	0.10476756
63	0x3e00aa05	0.12564857
64	0xbe4893a1	-0.19587566
65	0x3d208231	0.03918666
66	0xbe8211ce	-0.2540421
67	0x3dd69273	0.10477152
68	0xbd8eb069	-0.06967241
69	0xbdfcec4a	-0.12349756
70	0xbee0296a	-0.43781596
71	0x3d2bf9ac	0.041986153
72	0x3da7a884	0.08186439
73	0xbae161c4	-0.0017195274
74	0xbe29b3be	-0.16572472
75	0x3d9ffc51	0.078117974
76	0xbee915e0	-0.45524502
77	0x38401ae3	4.5801407e-05
78	0xbea0c669	-0.31401375
79	0xbcb964a4	-0.022630997
80	0x3d528b3f	0.051402327
81	0x3c337e3e	0.010955391
82	0xbd202d6a	-0.03910581
83	0x3a8102c1	0.000984274
84	0xbddeb3ed	-0.10874162
85	0x3d00fcdf	0.031491157
86	0x3e14d977	0.14536081
87	0x3e3c4b9e	0.1838822
88	0xbe12f323	-0.14350562
89	0x3e01ea88	0.12687123
90	0x3cc90528	0.024538592
91	0x38e34b04	0.00010838176
92	0xbe7a0275	-0.24415
93	0x3e2b0893	0.1670249
94	0xbe488941	-0.19583608
95	0x3dba7ab0	0.09105432
96	0x3ceba584	0.028765447
97	0x3cc10401	0.02356148
98	0x3e3f7a8e	0.18699095
99	0xbe842c8d	-0.2581524
100	0x3e0d2377	0.1378306
101	0x3d8c8633	0.06861534
102	0x3dfe4341	0.124151714
103	0x3e3c48f8	0.1838721
104	0xbdea6266	-0.11444549
105	0x3d77c30e	0.060488753
106	0xbef1159f	-0.47086808
107	0x3ea7ccab	0.32773337
108	0x3e27d34a	0.16389194
109	0x3de076f4	0.109601885
110	0xbd4713c8	-0.04860285
111	0x3e231e30	0.15929484
112	0xbe0cf216	-0.13764223
113	0x3c12befa	0.008956665
114	0xbdbf9b37	-0.09355777
115	0xbd0b3e49	-0.033994947
116	0x3dc4c37d	0.09607599
117	0x3e7039d6	0.23459563
118	0x3dd46ee9	0.10372717
119	0x3da47e6c	0.080319256
120	0x3d8a5f67	0.06756478
121	0x3e69ae5d	0.2282042
122	0x3d19e412	0.03757102
123	0xbd1aba9e	-0.03777563
124	0xbe7303a5	-0.23731859
125	0x3dbbe28f	0.09174072
126	0x3c8845e3	0.016634887
127	0x3d1d2319	0.03836355
128	0x3ba1a869	0.004933406
129	0xbe0c89e7	-0.1372448
130	0xbd2ccaf3	-0.042185735
131	0x3e5abbc2	0.21360686
132	0xbe4d62c6	-0.2005721
133	0x3d9331d8	0.07187241
134	0xbdc76551	-0.097361214
135	0xbf10576e	-0.5638341
136	0xbe438ed5	-0.19097455
137	0xbe1b4796	-0.15164027
138	0x3e2b637f	0.16737173
139	0x3e2370e7	0.15961038
140	0x3d3608ed	0.044442106
141	0xbe9091d3	-0.28236255
142	0xbc5a13d4	-0.013310391
143	0xbe70bc11	-0.23509242
144	0x3c571d82	0.013129594
145	0xbd9b4538	-0.07581562
146	0xbd0bbde3	-0.034116637
147	0xbdcec326	-0.10095815
148	0xbe2f719d	-0.17133184
149	0x3e0625ea	0.131004
150	0x3ea446db	0.32085308
151	0xbe67374f	-0.22579692
152	0x3de01efa	0.10943408
153	0x3de7c852	0.11317505
154	0x3e3a3b68	0.18186724
155	0xbda2edb0	-0.079554915
156	0x3d222aa3	0.039591443
157	0xbe0c4d75	-0.13701423
158	0x3e08bdf9	0.13353719
159	0xbdfb2a05	-0.12263874
160	0x3d97fe9d	0.074216105
161	0x3cc39cde	0.023878511
162	0x3d8cc3d2	0.06873287
163	0xbdbfb314	-0.09360328
164	0xba0eacb3	-0.00054426043
165	0x3e28e381	0.16493036
166	0xbca2374e	-0.019801762
167	0x3ad91e84	0.001656488
168	0xbe72fffa	-0.2373046
169	0xbe4daf54	-0.20086414
170	0xbd70f285	-0.058825035
171	0xbe104ba6	-0.14091358
172	0x3d4771ed	0.048692632
173	0x3a3015b6	0.00067171024
174	0x3db2a3c3	0.08722641
175	0xbe6d7848	-0.23190415
176	0xbdfad8f6	-0.12248413
177	0xbe9ef343	-0.3104497
178	0x3d2b5127	0.04182544
179	0xbd29ce41	-0.041456465
180	0x3ddc6931	0.10762251
181	0x3e95e8a3	0.2927905
182	0x3dea8af2	0.11452283
183	0x3c869d16	0.016432326
184	0xbe5be964	-0.2147575
185	0x3dc7f0be	0.09762715
186	0xbcf4556d	-0.02982589
187	0x3de7c039	0.113159604
188	0x3d1a845a	0.037723877
189	0xbe38b7c1	-0.18038847
190	0x3cfa607c	0.030563585
191	0x3cf2744f	0.029596476
192	0xbeabc77a	-0.33550626
193	0x3cc84c94	0.024450578
194	0x3e2852d6	0.1643785
195	0x3e44a991	0.1920531
196	0xbdc9f2b4	-0.09860745
197	0x3e3eb424	0.18623406
198	0x3e0a1277	0.13483606
199	0x3d78e325	0.060763497
200	0xbe621910	-0.22079873
201	0xbe06620c	-0.1312334
202	0xbecb3c9b	-0.39694676
203	0x3c0c7f43	0.008575263
204	0xbe40f84d	-0.18844719
205	0xbce1fee1	-0.027587356
206	0x3d99803f	0.07495164
207	0xbdcf4e18	-0.10122317
208	0x3e109294	0.14118415
209	0xbe7b6b1f	-0.24552582
210	0x3dad68c7	0.0846725
211	0xbe0479f0	-0.1293714
212	0xbdc63b72	-0.09679307
213	0x3e86199b	0.2619141
214	0x3e8ab2d3	0.27089557
215	0x3d34c157	0.044129696
216	0xbe8749c2	-0.2642346
217	0x3e60126f	0.21882032
218	0xbd25d909	-0.040490184
219	0xbe4e981f	-0.20175217
220	0x3db815f5	0.08988563
221	0x3de98aa3	0.11403396
222	0x3e62bf61	0.22143318
223	0x3e99ce37	0.30040142
224	0xbd7265e2	-0.059179194
225	0xbd109995	-0.035302717
226	0x3d97b890	0.074082494
227	0x3d948931	0.0725273
228	0xbe9dd98c	-0.30830038
229	0xbe37c5dd	-0.17946573
230	0xbda83f4d	-0.08215199
231	0xbe2df09c	-0.16986316
232	0x3cf3b737	0.02975045
233	0xbea095e0	-0.31364346
234	0x3d8aad32	0.06771316
235	0xbe184bdb	-0.14872687
236	0x3e390e2f	0.18071817
237	0xbea09906	-0.31366748
238	0x3da4a413	0.08039107
239	0x3e582c6b	0.21110694
240	0x3d300967	0.042977717
241	0xbd26ff87	-0.040771034
242	0x3d06fc86	0.03295567
243	0xbec519b6	-0.38496178
244	0x3d9497cd	0.07255516
245	0x3bc6baa9	0.006064732
246	0xbe2aa827	-0.16665708
247	0x3de08e5f	0.10964655
248	0x3e81ff03	0.2538987
249	0xbcd9fd7b	-0.026610127
250	0xbde0b080	-0.10971165
251	0x3db87723	0.090070985
252	0xbed1448e	-0.40872616
253	0xbd3232e5	-0.043505568
254	0x3d96ad39	0.07357258
255	0x3cb47704	0.022029407

_fc3.bias f4 [4]
0	0x3ee2c85c	0.44293487
1	0x3e47f55f	0.19527195
2	0x3e90eaae	0.28304046
3	0x3e867170	0.2625842
