project1-banana-collector/models/dqn_plain_qnetwork_target.pth (torch_old, 307268 bytes, 6 tensors)

_fc1.weight f4 [256, 37]
0.035054956 0.010306889 -0.311901 0.10362549 -0.1709783 -0.0053473306 -0.030325197 0.16273297
-0.10784766 -0.043819822 -0.18505085 -0.11306623 -0.21545595 0.28605062 -0.46664608 0.15520228
-0.07311463 0.16301401 -0.6439955 0.07242457 -0.058025956 0.08092454 0.111715555 0.3110016
-0.15237011 0.18581705 0.07334012 -0.27785093 -0.36923406 0.12446867 -0.20748109 0.19411336
-0.12591799 -0.054221306 -0.16172825 -0.14652741 -0.15169227 0.19006154 -0.00091793033 0.100415565
0.039687447 -0.4182624 -0.04917212 -0.08736403 -0.08791922 -0.040029917 -0.04533943 0.0614392
-0.030791193 -0.025912056 0.16548271 0.15070212 0.26406276 -0.3489592 0.021569155 -0.17462301
-0.7096016 -0.13488051 -0.092495486 -0.1165251 0.15006077 0.15987322 -0.11465403 0.03366044
0.11106341 0.085999474 0.14822808 0.12424803 0.12680408 -0.0156164905 0.006662048 -0.18133163
-0.06482787 0.022077994 0.25736034 0.26343274 -0.40650907 -0.09404067 -0.32352653 0.1812751
-0.24816702 0.1047536 -0.046765584 -0.090147175 0.16272925 0.06057538 -0.3432417 0.076695904
0.015843507 -0.17556475 0.12372445 -0.07974783 0.32057157 -0.018535497 -0.14607744 -0.30730975
0.21256754 0.019045405 -0.07728883 -0.17928876 0.13369624 0.158056 0.02163157 -0.121691115
-0.05269517 0.10349006 -0.3549621 -0.19063894 0.038228925 -0.090303965 -0.075317085 0.25044668
-0.25186095 0.021795942 0.0706996 -0.5320149 0.035275087 0.009302832 -0.12525767 0.2960062
0.14887442 0.133249 -0.35413152 0.08632034 -0.20500866 -0.4490943 0.023832478 -0.1084822
-0.22772993 0.023244834 -0.28391778 0.044769447 -0.17930457 0.20424502 -0.0179829 -0.27358994
0.07632197 0.024004566 -0.16632599 0.2501524 0.2314608 0.023424549 0.23256984 -0.061592873
0.086045384 -0.15916261 0.07318359 -0.016332611 -0.05022968 -0.15415317 -0.0980173 -0.20218411
-0.07452222 0.11275794 0.17056492 -0.23490486 -0.049442172 -0.36142302 0.03720886 -0.08363315
-0.11135691 -0.01904853 -0.39355072 -0.16982712 -0.054264665 0.016781338 0.032997392 -0.020613512
-0.07151264 -0.1375488 0.12958051 4.121732e-05 0.24143274 0.16533041 -0.023092436 -0.08905295
-0.3298631 -0.10087109 0.08615487 -0.23173763 0.14343034 0.026341304 0.36324772 0.027744314
0.038240425 -0.0017879285 -0.05966176 0.015862137 -0.17691469 -0.003410516 0.2235869 0.1310124
-0.31377187 -0.3622259 -1.3554083 -0.15797399 -0.15542446 0.07596653 -0.0682923 -0.1156716
-0.078066304 0.1828541 -0.08451251 -0.26400483 -0.12502168 0.12882215 -0.076490805 0.024735944
0.14950438 0.10399837 -0.071384855 0.035799105 0.07374541 -0.12117642 0.050952625 0.0056422814
-0.13279533 -0.079238154 0.063007094 -0.42469642 0.21157835 0.03161833 0.14489943 -0.14579202
-0.29632288 0.26579255 -0.41680852 -0.17401135 0.09370772 0.0049407487 0.07322042 0.02651688
-0.08377339 0.24849638 0.0019363102 -0.01763167 0.083591014 -0.36397576 -0.042918768 -0.14102109
0.45307118 0.09037122 0.010092934 0.036046654 -0.19572356 0.09523758 0.20635177 -0.16619036
-0.03562451 -0.056667548 0.10452044 0.1335707 -0.062055986 -0.018451953 0.06942832 -0.056327023
00000000: c995 0f3d 3ade 283c 7db1 9fbe 9a39 d43d
00000010: ef14 2fbe a938 afbb 8c6c f8bc 79a3 263e
00000020: 3cdf dcbd 6a7c 33bd f87d 3dbe 458f e7bd
00000030: 7ca0 5cbe 3a75 923e 3cec eebe 59ed 1e3e
00000040: 20bd 95bd 25ed 263e e4dc 24bf 5553 943d
00000050: a0ac 6dbd c4bb a53d 20cb e43d 9a3b 9f3e
00000060: e906 1cbe d346 3e3e 5833 963d 7a42 8ebe
00000070: 3f0c bdbe 6ee9 fe3d ec75 54be a7c5 463e
00000080: a5f0 00be 2917 5ebd 179c 25be 480b 16be
00000090: 3855 1bbe 7e9f 423e 43a1 70ba ada6 cd3d
000000a0: 4e8f 223d 7d26 d6be b468 49bd eaeb b2bd
000000b0: fe0e b4bd 69f6 23bd d7b5 39bd aca7 7b3d
000000c0: d03d fcbc 8545 d4bc 4d74 293e a851 1a3e
000000d0: 3c33 873e c8aa b2be ccb1 b03c 60d0 32be
000000e0: 73a8 35bf 1e1e 0abe 466e bdbd b6a4 eebd
000000f0: 88a9 193e ceb5 233e bbcf eabd 88df 093d
00000100: 3775 e33d 7e20 b03d 1ac9 173e c075 fe3d
00000110: eed8 013e 4fdc 7fbc 4f4d da3b 00af 39be
00000120: 79c4 84bd e9dc b43c bcc4 833e a8e0 863e
00000130: f521 d0be 6598 c0bd 45a5 a5be 2ea0 393e
00000140: 7f1f 7ebe 0e89 d63d 458d 3fbd 159f b8bd
00000150: 7fa2 263e e41d 783d 60bd afbe be12 9d3d
00000160: 3eca 813c 3fc7 33be 3f63 fd3d d552 a3bd
00000170: f521 a43e c1d7 97bc 5395 15be b457 9dbe
00000180: 4eab 593e 1c05 9c3c 9b49 9ebd 7997 37be
00000190: abe7 083e 6fd9 213e b134 b13c 3139 f9bd
000001a0: e4d6 57bd 99f2 d33d 98bd b5be db36 43be
000001b0: ef95 1c3d 49f1 b8bd d83f 9abd 8c3a 803e
000001c0: ebf3 80be 678d b23c f4ca 903d 2132 08bf
000001d0: 9c7c 103d e86a 183c 8c43 00be 208e 973e
000001e0: 8972 183e 6d72 083e ba50 b5be b8c8 b03d
000001f0: caed 51be b0ef e5be 543c c33c ea2b debd
00000200: 0932 69be f36b be3c ac5d 91be 2b60 373d
00000210: 9e9b 37be 9b25 513e e050 93bc fb13 8cbe
00000220: b14e 9c3d 39a5 c43c 5c51 2abe fa13 803e
00000230: 0f04 6d3e d7e4 bf3c ca26 6e3e cf48 7cbd
00000240: 9038 b03d 86fb 22be 47e1 953d f8cb 85bc
00000250: a3bd 4dbd 54da 1dbe 4bbd c8bd 5a09 4fbe
00000260: 1b9f 98bd a3ed e63d 92a8 2e3e e68a 70be
00000270: e083 4abd 700c b9be 5168 183d db47 abbd
00000280: 170f e4bd aa0b 9cbc 7b7f c9be 29e7 2dbe
00000290: a044 5ebd 0479 893c 4628 073d abdd a8bc
000002a0: 3875 92bd 98d9 0cbe c1b0 043e c3e0 2c38
000002b0: 253a 773e 604c 293e 592c bdbc 6561 b6bd
000002c0: d1e3 a8be 8195 cebd f771 b03d a14c 6dbe
000002d0: 67df 123e b8c9 d73c 9bfb b93e 0b48 e33c
000002e0: fea1 1c3d ed58 eaba e45f 74bd 50f1 813c
000002f0: 2029 35be f782 5fbb f7f3 643e 1d28 063e
00000300: b5a6 a0be ac75 b9be 057e adbf efc3 21be
00000310: 9727 1fbe 5794 9b3d d5dc 8bbd 3be5 ecbd
00000320: 3ae1 9fbd 1b3e 3b3e e514 adbd a42b 87be
00000330: af05 00be f4e9 033e 36a7 9cbd 09a3 ca3c
00000340: ad17 193e 19fd d43d 3932 92bd 15a2 123d
00000350: d507 973d 582b f8bd b3b3 503d e3e2 b83b
00000360: 80fb 07be 9d47 a2bd dd09 813d cf71 d9be
00000370: ffa7 583e 3982 013d 8460 143e 814a 15be
00000380: a2b7 97be f615 883e ed67 d5be 0830 32be
00000390: d5e9 bf3d 01e6 a13b 96f4 953d ee39 d93c
000003a0: 6291 abbd d675 7e3e cacb fd3a 4b70 90bc
000003b0: c431 ab3d 085b babe 97cb 2fbd d567 10be
000003c0: f2f8 e73e 8c14 b93d d55c 253c a8a5 133d
000003d0: c26b 48be ec0b c33d e14d 533e ce2d 2abe
000003e0: 02eb 11bd 3b1c 68bd d00e d63d c2c6 083e
000003f0: 6b2e 7ebd 8d28 97bc 6f30 8e3d 2ab7 66bd

_fc1.bias f4 [256]
0.042287406 0.104364865 -0.0063942913 -0.025774432 0.04101758 0.013867206 -0.11712086 -0.08145486
-0.32556167 -0.003538563 0.04244368 0.14009805 -0.07291516 -0.15815622 -0.18925598 -0.007510659
0.12793212 -0.00034122955 -0.09904462 -0.16708769 -0.08041647 0.100728236 -0.010409997 -0.09111976
-0.121386126 0.008263732 0.111972995 0.20492409 0.041463405 0.22782247 0.14412133 -0.07458183
-0.13944958 0.048176914 -0.03744253 0.12112061 -0.02567472 -0.012310621 -0.037279602 0.17395882
-0.10154967 -0.07152195 0.05293732 0.10336575 -0.054739438 -0.03202263 -0.19893487 -0.13213085
0.0049071414 -0.021805786 -0.13609077 0.12286017 -0.04868253 -0.004364814 -0.029274466 -0.16184713
0.12621963 -0.03483932 0.13105822 0.06428266 0.14493045 0.06393166 0.066023506 0.03234713
0.041871782 -0.10680533 -0.11072328 -0.17745478 -0.10888679 -0.099821635 -0.22503589 0.08160334
-0.20129973 0.124476 -0.0258958 -0.036690284 0.120594665 -0.1092965 -0.070708714 0.08296161
-0.18936972 0.05754224 -0.056332685 0.015890762 0.0506848 -0.054425117 0.038098663 0.026267221
0.1433384 -0.0007165029 0.23589396 -0.1531974 -0.006751931 0.15579368 -0.07523302 0.13487394
0.061709587 -0.14012858 -0.067091346 0.09059458 -0.059709378 -0.22221035 -0.085381985 -0.009455958
-0.121390216 -0.09314508 0.17013597 -0.216193 -0.16683836 0.04112101 0.08254886 0.07479875
0.10819495 0.018805034 0.14101283 -0.12150642 -0.116416484 0.026757484 -0.064216755 -0.008990981
-0.012346946 -0.06058431 -0.17120199 -0.106701575 -0.1947119 -0.10865307 0.04909539 0.14289193
0.15557703 -0.04111289 -0.08694913 0.06825752 0.09622172 -0.008719794 0.046799395 -0.10856901
-0.15930338 -0.2049867 -0.080103174 -0.15459788 -0.041949812 0.06045689 0.07800515 -0.098350234
0.0031335305 -0.08988034 -0.08730157 0.07482937 -0.22548147 0.08936217 -0.03618795 -0.098027274
-0.14988811 -0.21229783 0.08442583 0.0436172 0.100949645 -0.12220621 0.069084264 0.07356493
0.04441582 0.119459815 0.09914013 -0.103509285 -0.0049169105 -0.06262613 0.01411966 -0.17937475
-0.03933314 -0.09705873 0.11471174 -0.091862366 0.05587706 0.14186788 0.046631943 -0.09313843
0.10918445 -0.12394548 0.10472849 -0.14915241 0.10542818 -0.03132622 -0.113454305 -0.10406842
-0.051888462 0.021821946 0.1782952 0.095298804 0.14998543 0.09805761 -0.18868077 0.14332968
-0.01925788 0.16209863 0.022052703 -0.047908757 0.065907195 -0.1492976 -0.13404565 0.026457442
0.1117502 -0.024612095 -0.07286701 -0.00053887273 -0.1064978 -0.10425207 0.09829846 0.0757102
0.071087286 -0.12510252 -0.21026933 -0.17305838 -0.0015004502 -0.13864696 0.09719 -0.15676874
-0.15643407 0.015091439 -0.018429613 -0.09000275 -0.075650305 -0.10917427 -0.07430482 -0.008910684
-0.22313939 0.024949238 0.0070755915 -0.0030383149 0.17844138 -0.11397242 0.043486547 -0.012522134
-0.004931273 -0.08332976 0.10194212 -0.24601588 -0.16136818 0.012287592 0.0026213406 -0.23305647
0.11889737 0.101487644 -0.19213314 -0.057931647 -0.1564425 -0.021730019 -0.09649403 0.13195075
0.11210805 0.040958893 -0.059443645 -0.26606637 -0.014671652 0.24873713 -0.003256707 -0.017052436
00000000: 8f35 2d3d 3fbd d53d 3487 d1bb e724 d3bc
00000010: 0d02 283d 4733 633c 10dd efbd ced1 a6bd
00000020: 05b0 a6be 3ce7 67bb 6dd9 2d3d dd75 0f3e
00000030: 8b54 95bd b4f3 21be 52cc 41be f91b f6bb
00000040: a300 033e 0ee7 b2b9 e8d7 cabd 0919 2bbe
00000050: 64b1 a4bd 9b4a ce3d b18e 2abc ff9c babd
00000060: 4a99 f8bd 9b64 073c 1952 e53d 9fd7 513e
00000070: 88d5 293d 4b4a 693e 8b94 133e 5cbe 98bd
00000080: dfcb 0ebe 2855 453d 575d 19bd 150e f83d
00000090: ca53 d2bc 7db2 49bc 7fb2 18bd 4322 323e
000000a0: 46f9 cfbd 1a7a 92bd ced4 583d 6cb1 d33d
000000b0: 7636 60bd 292a 03bd 95b5 4bbe 4f4d 07be
000000c0: 16cc a03b 0ca2 b2bc 615b 0bbe 1d9e fb3d
000000d0: 5567 47bd b706 8fbb 01d1 efbc 41bb 25be
000000e0: b83f 013e adb3 0ebd 2034 063e a1a6 833d
000000f0: a668 143e 9aee 823d 5537 873d 6d7e 043d
00000100: bf81 2b3d c1bc dabd e3c2 e2bd b5b6 35be
00000110: 0a00 dfbd 496f ccbd cf6f 66be a71f a73d
00000120: 8421 4ebe 46ed fe3d 6e23 d4bc 8d48 16bd
00000130: 56fa f63d d8d6 dfbd bbcf 90bd c7e7 a93d
00000140: 23ea 41be 69b1 6b3d 1abd 66bd 582d 823c
00000150: dd9a 4f3d dfec 5ebd 580d 1c3d 5b2e d73c
00000160: 4dc7 123e b2d3 3bba 308e 713e c7df 1cbe
00000170: 4d3f ddbb 6188 1f3e c513 9abd 651c 0a3e
00000180: 31c3 7c3d de7d 0fbe 3067 89bd a789 b93d
00000190: d291 74bd 1c8b 63be c0dc aebd 2aed 1abc
000001a0: 6f9b f8bd d9c2 bebd 2038 2e3e b361 5dbe
000001b0: add7 2abe 816e 283d 600f a93d 1630 993d
000001c0: 5095 dd3d 040d 9a3c ab65 103e 5cd8 f8bd
000001d0: c46b eebd 8332 db3c 1384 83bd e84e 13bc
000001e0: d84a 4abc 4127 78bd 934f 2fbe 5b86 dabd
000001f0: 8e62 47be 8085 debd 3f18 493d 4352 123e
00000200: 964f 1f3e fd65 28bd 6312 b2bd 99ca 8b3d
00000210: e50f c53d 78dd 0ebc b9b0 3f3d 6e59 debd
00000220: 6d20 23be 09e8 51be 220d a4bd e84e 1ebe
00000230: 91d3 2bbd a5a1 773d 2ac1 9f3d d96b c9bd
00000240: eb5b 4d3b 2f13 b8bd 2acb b2bd 2440 993d
00000250: 9de4 66be 8303 b73d d139 14bd 86c2 c8bd
00000260: 457c 19be 9a64 59be 73e7 ac3d f3a7 323d
00000270: b0be ce3d 4047 fabd 0d7c 8d3d 36a9 963d
00000280: 5ded 353d 59a7 f43d fb09 cb3d adfc d3bd
00000290: 091e a1bb 2142 80bd 2556 673c 04ae 37be
000002a0: c91b 21bd bac6 c6bd fded ea3d 5622 bcbd
000002b0: 58df 643d d045 113e 2301 3f3d 5cbf bebd
000002c0: 199c df3d 21d7 fdbd e47b d63d 69bb 18be
000002d0: bbea d73d ec4f 00bd bb5a e8bd d321 d5bd
000002e0: ff88 54bd f0c3 b23c 0493 363e 052c c33d
000002f0: c895 193e 6ed2 c83d 8835 41be 04c5 123e
00000300: b4c2 9dbc 2ffd 253e dfa7 b43c f93b 44bd
00000310: 5afa 863d 78e1 18be 4343 09be 47bd d83c
00000320: 4add e43d 4e9f c9bc 4d3b 95bd 2343 0dba
00000330: 851b dabd 1c82 d5bd b450 c93d f30d 9b3d
00000340: 3696 913d e01a 00be d850 57be 3736 31be
00000350: c1aa c4ba 78f9 0dbe 8d0b c73d fc87 20be
00000360: 4130 20be 1542 773c b3f9 96bc 5d53 b8bd
00000370: 8cee 9abd c296 dfbd 202d 98bd 1efe 11bc
00000380: a77e 64be 5862 cc3c 5dda e73b 771e 47bb
00000390: 56b9 363e 5f6a e9bd f31e 323d a329 4dbc
000003a0: 8496 a1bb cba8 aabd 08c7 d03d 96eb 7bbe
000003b0: b33d 25be e551 493c ccca 2b3b 5ba6 6ebe
000003c0: 7780 f33d c1d8 cf3d 8dbe 44be bc49 6dbd
000003d0: 7632 20be 2703 b2bc a99e c5bd 191e 073e
000003e0: e898 e53d 83c4 273d 2e7b 73bd da39 88be
000003f0: 5e61 70bc f2b4 7e3e 7a6e 55bb 8db1 8bbc

_fc2.weight f4 [256, 256]
-0.2397722 0.13734643 0.04314978 -0.003030697 -0.06502571 0.1472279 0.093498446 0.098433614
-0.11320558 0.08890936 0.0076607056 0.021324657 -0.31935936 -0.3514284 0.07014809 -0.15874572
-0.2906837 0.07319428 -0.16657339 -0.07279858 -0.24069357 -0.011162755 -0.037434872 -0.30208609
0.07555761 -0.23284954 -0.03731195 -0.38184568 0.048347615 -0.19136074 -0.116904885 -0.2085073
0.056282092 0.10793336 -0.11518247 -0.2728802 -0.3250139 0.09963101 -0.049030364 -0.065157235
0.20632233 0.11021632 0.035719525 0.22256757 0.24905136 -0.024044212 -0.082950115 0.00949288
-0.055362433 0.13385919 -0.22234501 0.23331162 0.010351987 -0.30399856 0.035936065 -0.12222075
0.14745867 0.014995934 -0.09666524 -0.054999165 0.019291222 0.24959193 -0.026421253 -0.019502131
0.013486373 0.01419855 -0.14117816 -0.13170032 -0.026834263 0.074528314 0.025165886 0.031438284
-0.011177897 -0.16535953 0.0057625114 0.013087554 0.07892272 -0.08439941 -0.040964026 0.002220551
-0.13203841 0.061742026 -0.05483467 -0.16734484 -0.15445825 -0.11697182 0.103981026 -0.18274516
0.1906037 0.00876142 0.07536888 0.09595931 -0.22495912 -0.029243898 -0.19610836 -0.054653674
0.08807431 -0.417442 0.10829784 0.13600388 0.06671079 -0.16506962 0.16475144 -0.10658711
-0.22593567 -0.070295595 0.028274015 0.19913904 -0.08852045 -0.047367502 -0.02523734 0.17511258
-0.0530545 -0.05534558 -0.080596514 0.08939474 0.09504418 -0.017445344 0.13541225 0.13794619
-0.10556359 -0.21748787 -0.012507289 -0.18636201 0.102125995 0.08368736 -0.2777059 0.08028174
-0.017883677 -0.13009092 -0.202216 0.27468726 0.04540168 -0.19990838 -0.0066013993 0.035291404
0.006619633 0.081850655 0.08199559 -0.10694042 -0.039592747 -0.44850078 0.29362676 0.12563011
-0.0839052 -0.11810988 -0.051592607 0.20386067 0.18225332 -0.09107301 -0.32118812 -0.086814895
-0.19622648 -0.22669184 -0.3812051 0.053267546 0.2176155 -0.06097693 -0.16452011 0.1506844
0.0126709 0.085913025 0.12963384 0.046267144 -0.15760067 0.012600079 0.046680324 -0.04284105
0.11434117 -0.1439759 -0.10252751 0.037276622 -0.0010735214 -0.15813252 0.08080317 -0.018896723
0.0549688 -0.38415012 0.08045373 -0.055700473 0.018588921 -0.15277477 -0.09367938 -0.041967962
0.23927514 -0.017128643 0.14354369 -0.23727751 -0.06711703 -0.25052628 -0.16791643 0.026650315
0.081043325 -0.015678851 -0.17290074 0.18084927 -0.14956933 0.008230992 0.10055955 -0.16113043
-0.12259484 0.15198559 0.038271 -0.112366974 -0.2003897 -0.059392948 -0.0072556725 0.09594346
0.11029365 -0.2610674 -0.018830203 -0.1818038 0.0046584443 0.020424739 -0.009914835 -0.1909429
0.07235557 -0.23676555 -0.14286542 -0.0860536 -0.04514189 -0.17130071 -0.25611553 0.17042185
-0.19490395 -0.23162171 -0.05473623 -0.29654896 -0.03836648 0.115218356 0.09033022 -0.2014659
0.095180586 -0.02726399 -0.021336952 -0.2121492 -0.15904124 0.13380286 0.019413337 0.14162745
0.10749129 -0.06643987 0.111075945 -0.20522094 0.015806817 -0.09210548 0.21824715 -0.18993798
0.074635886 -0.27069443 -0.19403662 -0.1849179 -0.003790667 -0.14192908 -0.2662224 0.010324092
00000000: d886 75be 8ba4 0c3e d3bd 303d a89e 46bb
00000010: 332c 85bd e9c2 163e 1d7c bf3d 9097 c93d
00000020: 54d8 e7bd 1c16 b63d a806 fb3b 0cb1 ae3c
00000030: 1283 a3be 6cee b3be cda9 8f3d 3d8e 22be
00000040: 7ed4 94be e2e6 953d 3792 2abe 6c17 95bd
00000050: 6078 76be fde3 36bc 4f55 19bd 07ab 9abe
00000060: f3bd 9a3d 1c70 6ebe 6ad4 18bd 4781 c3be
00000070: 2608 463d 12f4 43be d46b efbd f082 55be
00000080: 0d88 663d 2a0c dd3d c9e4 ebbd f4b6 8bbe
00000090: 3968 a6be 580b cc3d 10d4 48bd 2871 85bd
000000a0: 2946 533e 18b9 e13d a34e 123d c1e8 633e
000000b0: 5207 7f3e 5ef8 c4bc c0e1 a9bd 0688 1b3c
000000c0: b8c3 62bd 6212 093e 69ae 63be 3ee9 6e3e
000000d0: 619b 293c b3a5 9bbe b231 133d df4e fabd
000000e0: 68ff 163e 82b1 753c 6df8 c5bd ce46 61bd
000000f0: a008 9e3c 0795 7f3e 6271 d8bc efc2 9fbc
00000100: f3f5 5c3c 09a1 683c 0291 10be 73dc 06be
00000110: 87d3 dbbc 4da2 983d b028 ce3c 6ec5 003d
00000120: 8023 37bc 0254 29be 73d3 bc3b 2e6d 563c
00000130: 3ca2 a13d 99d9 acbd e5c9 27bd aa86 113b
00000140: 1435 07be 35e5 7c3d 529a 60bd 725c 2bbe
00000150: 4e2a 1ebe ec8e efbd 01f4 d43d 8c21 3bbe
00000160: 9e2d 433e 0f8c 0f3c 005b 9a3d 5186 c43d
00000170: af5b 66be e690 efbc a1d0 48be 88dc 5fbd
00000180: 4e60 b43d f5ba d5be 42cb dd3d 9a44 0b3e
00000190: ab9f 883d 0308 29be 9ab4 283e 584a dabd
000001a0: ae5b 67be 23f7 8fbd e89e e73c 1beb 4b3e
000001b0: 364a b5bd 6d04 42bd 8abe cebc b650 333e
000001c0: ad4f 59bd 0cb2 62bd c90f a5bd 9714 b73d
000001d0: 86a6 c23d 8ae9 8ebc 82a9 0a3e c441 0d3e
000001e0: b931 d8bd 24b5 5ebe 5feb 4cbc afd5 3ebe
000001f0: 6f27 d13d 4764 ab3d 782f 8ebe c16a a43d
00000200: ca80 92bc 8e36 05be b611 4fbe cfa3 8c3e
00000210: 1df7 393d c8b4 4cbe 8d50 d8bb b88d 103d
00000220: 82e9 d83b 51a1 a73d 4eed a73d 9403 dbbd
00000230: 012c 22bd e5a1 e5be 3f56 963e 2ea5 003e
00000240: 7dd6 abbd 98e3 f1bd c552 53bd dac0 503e
00000250: 9da0 3a3e 7c84 babd c572 a4be 02cc b1bd
00000260: 98ef 48be e821 68be 512d c3be 122f 5a3d
00000270: 99d6 5e3e f2c2 79bd f677 28be 034d 1a3e
00000280: 9b99 4f3c 2bf3 af3d bcbe 043e 9e82 3d3d
00000290: 1262 21be 9070 4e3c de33 3f3d 197a 2fbd
000002a0: b42b ea3d 6b6e 13be f1f9 d1bd 5faf 183d
000002b0: 67b5 8cba 7eed 21be 227c a53d 4dcd 9abc
000002c0: f726 613d 53af c4be edc4 a43d 2e26 64bd
000002d0: cb47 983c fd70 1cbe fada bfbd 99e6 2bbd
000002e0: 8b04 753e 5e51 8cbc 1efd 123e e0f8 72be
000002f0: a774 89bd fb44 80be 49f2 2bbe c351 da3c
00000300: 0bfa a53d ef70 80bc e40c 31be 8d30 393e
00000310: b428 19be 48db 063c 2af2 cd3d 60ff 24be
00000320: 0113 fbbd 1ca2 1b3e 0dc2 1c3d a820 e6bd
00000330: f532 4dbe 0546 73bd fec0 edbb 017e c43d
00000340: a3e1 e13d a0aa 85be cc41 9abc c62a 3abe
00000350: dda5 983b c851 a73c d571 22bc 8986 43be
00000360: 282f 943d ab72 72be 504b 12be df3c b0bd
00000370: b4e6 38bd 7469 2fbe 9321 83be 1183 2e3e
00000380: e794 47be 3e2e 6dbe 1933 60bd 44d5 97be
00000390: 2c26 1dbd 9af7 eb3d 0dff b83d 144d 4ebe
000003a0: 0aee c23d bb58 dfbc d5ca aebc a43d 59be
000003b0: b5db 22be 9e03 093e b808 9f3c c906 113e
000003c0: 6524 dc3d a011 88bd c97b e33d 7025 52be
000003d0: 4c7d 813c cca1 bcbd 2e7c 5f3e 1a7f 42be
000003e0: b3da 983d 7698 8abe 89b1 46be 1e5b 3dbe
000003f0: d76c 78bb db55 11be 4d4e 88be 6126 293c

_fc2.bias f4 [256]
-0.09961003 -0.12477276 0.062224314 0.22339766 -0.05814371 0.4265805 -0.08290805 -0.010423857
-0.039309535 -0.084200926 0.11624209 -0.11265213 0.054992028 0.0691006 0.019571146 0.07236613
0.1767399 -0.05723502 0.025205104 0.16571705 0.031499263 -0.032665517 0.28162694 -0.03610886
-0.11244934 0.004927947 0.025389373 0.03542058 -0.07888404 -0.08521913 -0.021939449 -0.008714169
-0.043394603 -0.052064355 -0.019957568 0.039186906 -0.09077532 0.14058559 0.115136445 0.045077723
-0.05386653 -0.15488711 -0.034024876 -0.08638874 -0.07350845 -0.030728167 0.056636635 -0.042209126
0.10898383 0.17994042 -0.04989532 -0.090603955 -0.19324496 -0.008570127 0.07033234 -0.013152087
0.070300005 -0.062423117 0.03683128 0.056518305 -0.031335544 -0.05410842 0.03361584 -0.031949863
0.038134832 0.3402536 -0.0490668 0.012324501 -0.028255312 -0.091184534 -0.020046076 -0.08740812
-0.06190581 -0.053151265 -0.043363124 -0.115391076 0.023232836 -0.06829368 -0.020000193 -0.07611984
0.010138042 0.14822823 -0.0064812656 0.041639354 -0.11331393 -0.022610525 0.023983741 0.011403125
0.0028934388 0.48119342 0.073711835 -0.06487372 -0.08845071 -0.036428653 0.036504027 -0.04363974
0.004917022 -0.046822242 0.08267112 0.02266525 -0.030987415 -0.010494867 -0.0071729277 -0.04586419
-0.08838687 0.19426435 -0.09152784 0.014889756 -0.07847601 -0.08218714 0.041197434 0.054090466
-0.029407814 0.14058687 0.049392864 -0.085544944 -0.040621817 -0.11048457 0.24488689 0.12285048
-0.044893816 -0.015367703 0.012301669 -0.09708607 0.027670722 0.024916679 -0.056512598 0.113276385
-0.041123655 0.04657177 -0.13668203 0.03536675 -0.041423902 0.044430185 -0.06325814 -0.012190673
-0.025148671 -0.07788565 -0.022590354 -0.095230825 -0.009665289 -0.010157085 0.008391483 -0.08942621
0.03118778 -0.091300726 -0.061695006 -0.044866774 0.09770715 -0.043368526 0.013375146 0.09688665
-0.08364391 -0.11435079 -0.105889514 0.0019055986 0.047934987 -0.10561933 -0.05392155 -0.016766641
0.36808613 -0.012212124 -0.032805745 -0.041312095 -0.07153822 -0.028893536 -0.034033354 -0.013300722
-0.0082157245 0.029859006 0.05586331 -0.004846337 -0.0042239786 -0.052788783 -0.07354936 -0.04007987
-0.059125602 -0.100936614 0.018745925 -0.07080006 0.06519981 0.0023558708 0.2770576 0.05523054
-0.092965 -0.03473062 -0.1615766 0.12126189 -0.032788567 -0.1241171 0.055434406 -0.050808985
-0.001683596 0.09713475 0.07286235 0.10270869 -0.10753971 -0.0374423 -0.1230591 -0.0017491402
0.048411798 -0.14975205 -0.013009592 -0.06390818 -0.11177146 -0.08442734 0.052169017 0.01833739
-0.036234904 -0.012235533 0.047474813 0.009015445 -0.08357052 -0.11271756 0.0028663415 -0.0411445
0.004591541 -0.00091124646 -0.03828324 -0.08745977 -0.015246393 -0.024320085 0.01998708 -0.06107471
0.0073600705 0.12286351 -0.023155617 -0.044690065 -0.04889105 -0.0026958645 -0.06664216 0.018733794
0.009468328 0.05598431 -0.04907834 -0.059164554 -0.012127373 -0.073448956 0.1646531 -0.014823569
0.052116394 -0.006309083 -0.086414374 -0.06323762 0.029470643 0.014099517 -0.06366509 -0.051081873
-0.028197417 0.0353632 -0.0150806755 0.4173897 -0.06547606 -0.057720575 0.0373868 0.073568836
00000000: 5800 ccbd dc88 ffbd ecde 7e3d 5bc2 643e
00000010: 1928 6ebd c268 da3e b2cb a9bd d3c8 2abc
00000020: 0903 21bd 8971 acbd 5510 ee3d 29b6 e6bd
00000030: 523f 613d 9e84 8d3d ab53 a03c b234 943d
00000040: 4efb 343e 456f 6abd ef7a ce3c bbb1 293e
00000050: 5f05 013d 47cc 05bd 6831 903e e2e6 13bd
00000060: d74b e6bd 9e7a a13b 60fd cf3c 2c15 113d
00000070: f58d a1bd 5e87 aebd 5cba b3bc e0c5 0ebc
00000080: 8abe 31bd 6f41 55bd 0e7e a3bc 7382 203d
00000090: 69e8 b9bd abf5 0f3e a8cc eb3d 6ba3 383d
000000a0: 27a3 5cbd ba9a 1ebe ab5d 0bbd 94ec b0bd
000000b0: 998b 96bd a3b9 fbbc d1fb 673d 7ae3 2cbd
000000c0: ea32 df3d 4d42 383e 095f 4cbd 918e b9bd
000000d0: 02e2 45be b869 0cbc 670a 903d da7b 57bc
000000e0: 73f9 8f3d 62af 7fbd 65dc 163d bd7f 673d
000000f0: b359 00bd caa0 5dbd c3b0 093d dcdd 02bd
00000100: 4533 1c3d b835 ae3e 45fa 48bd b4ec 493c
00000110: af77 e7bc f5be babd ab37 a4bc 0703 b3bd
00000120: f290 7dbd 24b5 59bd 889d 31bd 2852 ecbd
00000130: ca52 be3c 8fdd 8bbd 72d7 a3bc b8e4 9bbd
00000140: 081a 263c 24c9 173e cc60 d4bb 078e 2a3d
00000150: 2211 e8bd b539 b9bc 8d79 c43c 2cd4 3a3c
00000160: d99f 3d3b fc5e f63e 3bf6 963d 83dc 84bd
00000170: a525 b5bd 3636 15bd 3f85 153d 96bf 32bd
00000180: f81e a13b aec8 3fbd 7a4f a93d 79ac b93c
00000190: 52d9 fdbc aaf2 2bbc e10a ebbb 17dc 3bbd
000001a0: 2d04 b5bd 3ced 463e f372 bbbd 2af4 733c
000001b0: 08b8 a0bd bb51 a8bd a4be 283d f78d 5d3d
000001c0: a8e8 f0bc 01f6 0f3e 2c50 4a3d 3032 afbd
000001d0: 1063 26bd bc45 e2bd a1c3 7a3e 0899 fb3d
000001e0: 94e2 37bd d1c8 7bbc f18c 493c 10d5 c6bd
000001f0: b6ad e23c 101e cc3c c179 67bd 73fd e73d
00000200: 4771 28bd 0ac2 3e3d 60f6 0bbe badc 103d
00000210: 1cac 29bd 6dfc 353d 7c8d 81bd 63bb 47bc
00000220: 9604 cebc 8382 9fbd 680f b9bc 6108 c3bd
00000230: 295b 1ebc e769 26bc 6e7c 093c 1725 b7bd
00000240: 847d ff3c e0fb babd e7b3 7cbd 39c6 37bd
00000250: b01a c83d 32a3 31bd 6e23 5b3c 826c c63d
00000260: 804d abbd bf30 eabd 9adc d8bd 47c5 f93a
00000270: 7a57 443d f34e d8bd d8dc 5cbd 325a 89bc
00000280: c975 bc3e 5c15 48bc 515f 06bd df36 29bd
00000290: a182 92bd 23b2 ecbc 8f66 0bbd 46eb 59bc
000002a0: 3f9b 06bc e09a f43c edd0 643d 05ce 9ebb
000002b0: 4d69 8abb 0d39 58bd 0ca1 96bd ca2a 24bd
000002c0: b02d 72bd dbb7 cebd 0e91 993c 9fff 90bd
000002d0: 7a87 853d f464 1a3b 7eda 8d3e 6b39 623d
000002e0: 6f64 bebd b241 0ebd 5674 25be 2758 f83d
000002f0: 4e4d 06bd 1b31 febd 300f 633d 151d 50bd
00000300: 1cac dcba 95ee c63d db38 953d ef58 d23d
00000310: c83d dcbd 195d 19bd 6906 fcbd 6843 e5ba
00000320: 734b 463d 9a58 19be 2f26 55bc 4be2 82bd
00000330: 6fe8 e4bd 3ee8 acbd 2eaf 553d 4b38 963c
00000340: 0d6b 14bd 8c77 48bc f374 423d 84b5 133c
00000350: 0527 abbd 77d8 e6bd 3bd9 3b3b 2387 28bd
00000360: a374 963b b7e0 6eba e3ce 1cbd 1c1e b3bd
00000370: 02cc 79bc ea3a c7bc f2bb a33c 7a29 7abd
00000380: bf2c f13b dd9f fb3d d9b0 bdbc ee0c 37bd
00000390: fb41 48bd 1aad 30bb af7b 88bd 9d77 993c
000003a0: 0c21 1b3c ce4f 653d 5f06 49bd 8856 72bd
000003b0: e4b1 46bc 686c 96bd d29a 283e 8ede 72bc
000003c0: 0078 553d 6dbc cebb 05fa b0bd ba82 81bd
000003d0: 6b6c f13c a901 673c d862 82bd 3a3b 51bd
000003e0: 45fe e6bc 01d9 103d f014 77bc 1ab4 d53e
000003f0: 5018 86bd 696c 6cbd e722 193d 42ab 963d

_fc3.weight f4 [4, 256]
-0.16698536 0.009174111 0.035371296 0.012014498 -0.25852355 0.1332961 0.042684462 0.22992422
0.071470365 -0.14476806 -0.7294824 -0.35474542 0.0766099 0.06476672 -0.13574143 0.13550952
0.09786829 0.09285445 0.062014498 0.094851725 -0.08717409 -0.17821099 0.050658915 0.09519196
-0.120220385 0.10822317 -0.012164703 0.05338578 -0.041241355 -0.1246297 -0.12046626 0.07120314
-0.012156244 0.07344134 -0.0028807342 0.3947097 -0.015744211 0.101369776 0.07322744 0.0070900773
0.015333958 -0.13975796 -0.10595847 -0.15613309 -0.4679604 0.3154724 -0.4390473 -0.046815798
0.031119175 0.08950005 -0.040052973 -0.03975867 -0.074918024 0.18049753 0.07735717 0.08063432
0.065713465 -0.036212236 -0.005282489 0.12271676 0.3162671 0.014616521 0.2036017 0.07336052
0.03743069 0.06379467 -0.1418499 0.012046897 -0.28719878 -0.059976626 -0.124042585 -0.15115768
-0.020976447 -0.20680843 0.10164516 -0.042201422 -0.056703225 0.08418162 -0.02963743 0.06659043
0.08629001 0.099673145 0.18840271 0.19712624 -0.20983633 0.005494339 0.012750212 0.0011779873
-0.030070001 0.114157215 0.14360234 0.12810269 -0.06845309 -0.1817514 -0.026766676 -0.1670852
0.11161319 0.2429987 0.035046186 0.0061854115 0.18326989 -0.11337728 -0.05588739 0.08154312
0.052059792 0.050656002 -0.37991002 0.25643468 0.13879758 0.22572766 0.016853478 -0.11506636
0.12162202 0.08472892 -0.1975509 -0.076179445 -0.25158858 -0.029318536 0.05032981 0.07629536
-0.24175298 0.09647861 0.15209012 -0.2223066 0.25161785 0.07315634 -0.10248712 0.13267589
-0.06516839 -0.21777721 -0.14947115 0.10569703 -0.061283674 -0.051939122 0.10578498 -0.3207891
-0.04146159 -0.04966807 0.12068819 -0.1130901 0.03534929 -0.14692275 -0.10347223 -0.2075474
0.10646458 -0.035796605 -0.022724623 0.19501144 -0.34510076 0.08614844 0.015169811 0.05917229
-0.024828918 -0.080511495 -0.0002729829 -0.2520026 -0.0136301685 -0.038781464 -0.12791951 -0.4570316
0.089275315 0.24319504 0.05555107 0.15740642 -0.09645124 0.04164864 0.050214417 0.1461051
0.17206778 0.0070817745 -0.4307236 0.08330711 -0.012485087 -0.15374534 0.046445653 0.07891725
-0.2146376 -0.22017153 -0.3003388 -0.09635587 0.0019395624 0.08768098 0.007452356 0.15369366
0.045402557 -0.02776872 -0.16348934 0.050799962 0.011508968 -0.11177132 -0.013677318 -0.43417275
-0.22954798 -0.019657254 0.014529849 0.026699964 -0.07687823 -0.04504092 0.11749345 0.0051905843
0.042334713 -0.048687957 0.054142814 0.012970231 -0.06719834 -0.17138791 -0.026443718 -0.18631884
0.08694567 -0.030644082 0.049281616 -0.09890696 0.07680529 0.0037506009 0.2531857 0.077788785
0.05304092 0.08448609 0.11739794 0.009657473 -0.048940744 0.26867685 0.14835933 -0.061514296
-0.2420938 0.060502935 0.08272495 0.047599174 0.015372667 -0.17825745 -0.024359664 -0.21887852
-0.26880053 0.22121917 -0.14686823 -0.33493352 0.09444105 -0.11522997 0.077066496 0.020891665
0.29421583 0.18049042 -0.108724 -0.09382265 0.04352277 0.07501775 -0.11183359 0.029503189
0.034587782 0.51627463 0.043699335 0.09611879 0.030374387 0.0018723259 0.104768954 0.05537372
00000000: 36fe 2abe 034f 163c 7ee1 103d 75d8 443c
00000010: 335d 84be c67e 083e e7d5 2e3d 4171 6b3e
00000020: 0e5f 923d 143e 14be 5cbf 3abf 31a1 b5be
00000030: a7e5 9c3d 6aa4 843d cdff 0abe 02c3 0a3e
00000040: 2c6f c83d 792a be3d ea02 7e3d 9f41 c23d
00000050: 5488 b2bd f17c 36be b97f 4f3d 01f4 c23d
00000060: 1b36 f6bd 1ca4 dd3d 764e 47bc 0cab 5a3d
00000070: b2ec 28bd db3d ffbd 04b7 f6bd f4d2 913d
00000080: fc2a 47bc 6a68 963d b3ca 3cbb 6417 ca3e
00000090: 01fa 80bc f59a cf3d 45f8 953d e153 e83b
000000a0: 483b 7b3c b61c 0fbe c100 d9bd 5ae1 1fbe
000000b0: 8198 efbe 9985 a13e cfca e0be ecc1 3fbd
000000c0: a4ed fe3c cd4b b73d 960e 24bd fdd9 22bd
000000d0: 9f6e 99bd 58d4 383e 706d 9e3d 9b23 a53d
000000e0: c894 863d 4853 14bd bb18 adbb ed52 fb3d
000000f0: c3ed a13e 227a 6f3c f77c 503e 0a3e 963d
00000100: ec50 193d c8a6 823d 1a41 11be 5960 453c
00000110: b80b 93be 0daa 75bd 0a0a febd 14c9 1abe
00000120: ccd6 abbc 97c5 53be 562b d03d 66db 2cbd
00000130: a441 68bd 6a67 ac3d 32ca f2bc 9060 883d
00000140: d1b8 b03d 6f21 cc3d a4ec 403e 76db 493e
00000150: 56df 56be db09 b43b 44e6 503c b266 9a3a
00000160: 5d55 f6bc 42cb e93d 7e0c 133e 5a2d 033e
00000170: 2231 8cbd 0a1d 3abe ca45 dbbc 6218 2bbe
00000180: 7595 e43d a7d4 783e 978c 0f3d feae ca3b
00000190: 1aab 3b3e 5932 e8bd 2dea 64bd 1400 a73d
000001a0: a63c 553d ab7c 4f3d 9183 c2be 684b 833e
000001b0: f420 0e3e 2725 673e 4e10 8a3c e9a7 ebbd
000001c0: f714 f93d 5b86 ad3d c84a 4abe f803 9cbd
000001d0: 38d0 80be 6d2d f0bc a126 4e3d be40 9c3d
000001e0: 188e 77be 9496 c53d 83bd 1b3e 57a4 63be
000001f0: 0ed4 803e fed2 953d c4e4 d1bd 30dc 073e
00000200: 0177 85bd fd00 5fbe f70e 19be af77 d83d
00000210: 9704 7bbd 1ebe 54bd cca5 d83d 783e a4be
00000220: a1d3 29bd bf70 4bbd 5f2b f73d c89b e7bd
00000230: 6bca 103d eb72 16be 40e9 d3bd 4e87 54be
00000240: 1a0a da3d 769f 12bd fd28 babc 14b1 473e
00000250: 0cb1 b0be 986e b03d cd8a 783c a55e 723d
00000260: 0466 cbbc 36e3 a4bd 251f 8fb9 7c06 81be
00000270: 1251 5fbc 50d9 1ebd 55fd 02be 0c00 eabe
00000280: fad5 b63d 1f08 793e 8589 633d 262f 213e
00000290: 3a88 c5bd c497 2a3d a2ad 4d3d 939c 153e
000002a0: 8932 303e 3b0e e83b ce87 dcbe eb9c aa3d
000002b0: 408e 4cbc 6b6f 1dbe cc3d 3e3d 5e9f a13d
000002c0: f6c9 5bbe a574 61be 02c6 99be 3a56 c5bd
000002d0: ea38 fe3a 1692 b33d e532 f43b df61 1d3e
000002e0: 08f8 393d 3a7b e3bc c069 27be 9f13 503d
000002f0: 1c90 3c3c 5de8 e4bd d416 60bc e44b debe
00000300: a00e 6bbe 4008 a1bc 9b0e 6e3c e2b9 da3c
00000310: 5572 9dbd d47c 38bd 68a0 f03d c715 aa3b
00000320: 2a67 2d3d 066d 47bd dbc4 5d3d 1781 543c
00000330: 499f 89bd 5080 2fbe 7fa0 d8bc 5eca 3ebe
00000340: 9210 b23d 4c09 fbbc 85db 493d bb8f cabd
00000350: 184c 9d3d a4cc 753b 8ea1 813e ba4f 9f3d
00000360: 7041 593d 0b07 ad3d 556e f03d 613a 1e3c
00000370: 1776 48bd 0390 893e 82eb 173e 6af6 7bbd
00000380: 70e7 77be edd1 773d b36b a93d 5af7 423d
00000390: a4dd 7b3c 1f89 36be eb8d c7bc b121 60be
000003a0: 39a0 89be 4787 623e a064 16be 687c abbe
000003b0: 4f6a c13d b1fd ebbd 0ad5 9d3d ff24 ab3c
000003c0: 75a3 963e 7bd2 383e b0aa debd 1726 c0bd
000003d0: ef44 323d e8a2 993d 0209 e5bd acb0 f13c
000003e0: ebab 0d3d 932a 043f 13fe 323d eed9 c43d
000003f0: b5d3 f83c d568 f53a 1b91 d63d 8ecf 623d

_fc3.bias f4 [4]
0.39528963 0.21235181 0.23972106 0.28501707
00000000: 6763 ca3e c172 593e 7079 753e c2ed 913e
