project1-banana-collector/models/dqn_plain_qnetwork_local.pth (torch_old, 307268 bytes, 6 tensors)

_fc1.weight f4 [256, 37]
000000 29 4c b9 3c 84 36 f5 3b 18 01 a9 be 15 7a 0d 3e
       0.022619324 0.0074833054 -0.33008647 0.13816102
000010 03 b0 37 be 57 dd cf bb 11 f2 f7 bc c8 7a 1d 3e
       -0.17938237 -0.0063435244 -0.030266793 0.15378869
000020 a7 0d 9b bd e3 b3 47 bd 54 7d 42 be d6 f4 d3 bd
       -0.07570963 -0.048755538 -0.18993121 -0.10349433
000030 cf b5 68 be c7 98 97 3e c3 43 ee be 2c e6 30 3e
       -0.22725604 0.29608747 -0.46536073 0.17275304
000040 b3 fb a1 bd 65 cb 1d 3e 9e 11 29 bf 19 4e ac 3d
       -0.07909336 0.1540962 -0.66042507 0.084133334
000050 38 ce 36 bd 16 48 9f 3d 77 9e cb 3d f6 1d a3 3e
       -0.04463026 0.07777421 0.09942334 0.31858796
000060 72 2a 22 be 9c fa 52 3e df e2 77 3d 4c a9 95 be
       -0.15836504 0.20603412 0.060519096 -0.29230726
000070 e5 1b c2 be d4 86 f8 3d 14 b9 52 be 66 3e 4a 3e
       -0.37911907 0.121350914 -0.20578414 0.19750366
000080 39 9c 0b be 2c 94 38 bd e4 01 2b be 48 b9 07 be
       -0.13633813 -0.045063183 -0.1669994 -0.13254273
000090 62 7d 10 be 07 43 3e 3e 74 98 b9 bb f9 c3 d4 3d
       -0.1411033 0.18580256 -0.005663926 0.10388941
0000a0 ec 2a 47 3d 78 c1 d7 be 92 d2 49 bd 11 09 aa bd
       0.048624918 -0.42139792 -0.04927308 -0.083025105
0000b0 47 d1 be bd 6b 93 26 bd f2 bb 51 bd 23 81 6e 3d
       -0.0931726 -0.040667932 -0.05120463 0.058228623
0000c0 01 ea f8 bc b4 96 c6 bc 27 de 2a 3e 59 05 19 3e
       -0.03038502 -0.024241783 0.16686307 0.14943446
0000d0 93 54 87 3e 9a 07 ad be 3b f6 a0 3c 55 53 34 be
       0.26431713 -0.33794862 0.019648662 -0.17609914
0000e0 e4 ff 32 bf d9 b2 06 be ce 74 b8 bd 5b bd ed bd
       -0.6992171 -0.13154162 -0.09006654 -0.11608382
0000f0 fe 66 0f 3e c6 e4 2c 3e 63 27 ef bd e4 d6 16 3d
       0.14004132 0.16884145 -0.11677434 0.03682603
000100 f6 77 df 3d 29 da b3 3d 03 8a 1e 3e e1 4a fb 3d
       0.109115526 0.08781845 0.15482335 0.122701414
000110 96 1d 0a 3e a0 2b bd bc fd 5d 9c 3b 86 29 3c be
       0.13487849 -0.023092091 0.0047719465 -0.18375215
000120 3e cd 80 bd 63 47 b8 3c 54 d7 7c 3e ec 09 8d 3e
       -0.06289147 0.022494977 0.24691516 0.27546632
000130 fa 59 cd be 64 11 bf bd f1 e8 a6 be dd 47 30 3e
       -0.4010771 -0.09329489 -0.32599595 0.17214914
000140 d6 92 7c be b8 5c 00 3e 07 95 80 bd 3b ac b1 bd
       -0.24665388 0.1253537 -0.06278425 -0.086754285
000150 70 5a 2f 3e 54 7e 63 3d 92 a7 b2 be 04 d7 a0 3d
       0.17124343 0.055540398 -0.3489347 0.07853511
000160 2a 41 65 3c eb 7f 39 be 86 5d 09 3e 79 59 95 bd
       0.013992587 -0.18115203 0.13414583 -0.07292456
000170 b3 12 a0 3e 94 87 1a bc 30 72 20 be e0 43 9e be
       0.31264266 -0.009431738 -0.15668559 -0.3091116
000180 0d 43 5b 3e 70 42 33 3d 63 db a4 bd a4 92 38 be
       0.21412297 0.04376453 -0.08049657 -0.18024689
000190 43 60 0c 3e 96 53 21 3e f7 90 b1 3c 2c 68 07 be
       0.13708596 0.15754542 0.02167557 -0.13223332
0001a0 01 d4 71 bd cf 13 ce 3d f6 95 ac be b5 65 48 be
       -0.059040073 0.10062372 -0.3370816 -0.19570048
0001b0 37 a0 16 3d 0f 5c be bd c6 61 aa bd 80 f6 80 3e
       0.036773887 -0.092949025 -0.0831943 0.25188065
0001c0 88 93 80 be f6 ef 83 3c 8f ac 98 3d 45 86 0b bf
       -0.25112557 0.016105633 0.07454788 -0.54501754
0001d0 56 86 18 3d f2 dc 5b 3b 30 ab 0c be 7d 0f a0 3e
       0.037237488 0.0033548442 -0.13737178 0.31261817
0001e0 bf 5a 15 3e b4 16 11 3e 73 b4 c3 be ae b9 a4 3d
       0.14585398 0.14168817 -0.3822361 0.08043228
0001f0 47 e7 4d be 80 71 ea be a1 6e ec 3c 0a bf f5 bd
       -0.20107757 -0.4578972 0.028861346 -0.119993284
000200 50 fc 75 be b3 3b 0b 3d 61 69 94 be 06 3a 3e 3d
       -0.24022031 0.03399248 -0.28986648 0.046442054
000210 9e a6 40 be 25 72 58 3e 95 55 cc bc 78 c0 89 be
       -0.1881356 0.21137293 -0.024943152 -0.26904655
000220 e5 87 a1 3d 60 09 a5 3c 93 3c 39 be fc ac 86 3e
       0.07887248 0.020146072 -0.18089513 0.26303852
000230 20 e5 6f 3e ae e9 91 3c aa 43 70 3e e2 c4 40 bd
       0.23427248 0.017811622 0.23463312 -0.047062762
000240 ea d8 a9 3d 91 b5 17 be fb bd 81 3d ad 84 81 bc
       0.08293326 -0.14815356 0.06335064 -0.015810335
000250 0b fa 38 bd ab 15 21 be 82 6c c9 bd 4b 18 46 be
       -0.045160335 -0.15730922 -0.09835149 -0.19345205
000260 df 31 9a bd bb 2e f3 3d 11 dd 33 3e e6 81 7a be
       -0.075290434 0.118741475 0.17564799 -0.24463615
000270 ae ae 4c bd aa b8 b6 be 1d f8 16 3d 14 54 c2 bd
       -0.049971275 -0.35687762 0.036857713 -0.09488693
000280 50 18 e9 bd ce f5 d8 3a 30 67 cd be f2 81 26 be
       -0.1138159 0.0016552748 -0.40117788 -0.16260508
000290 cc 41 57 bd e9 13 ba 3c 75 9b a2 3c c3 64 68 bc
       -0.052552983 0.022714572 0.019849518 -0.01418418
0002a0 e8 2d 8e bd a5 8a 0d be db 88 01 3e 84 b0 55 3c
       -0.0694235 -0.1382242 0.12649862 0.013042573
0002b0 3c 62 77 3e 5f 25 26 3e af 94 9c bc 17 42 ad bd
       0.24158567 0.16225193 -0.019113867 -0.08459871
0002c0 80 3a a3 be 5d 96 db bd 68 32 c0 3d 27 ee 6f be
       -0.3188057 -0.10722039 0.09384614 -0.23430692
0002d0 2a b7 0e 3e 12 a9 f7 3c 12 1d bd 3e a4 9d f6 3c
       0.13937059 0.030231986 0.3693624 0.030104466
0002e0 32 94 26 3d 9c 4e 70 ba 6f 58 82 bd d5 90 39 3c
       0.040668674 -0.0009166987 -0.063645236 0.011326035
0002f0 7c f8 2b be d7 d1 88 bc 00 e4 62 3e 6c 26 0f 3e
       -0.16794008 -0.016701622 0.22157288 0.139795
000300 69 c7 a0 be b6 7a c1 be 43 83 ae bf c8 aa 25 be
       -0.31402138 -0.37788934 -1.3633808 -0.16178429
000310 5f e8 23 be 5a 4d 9c 3d 90 7d 85 bd a7 74 eb bd
       -0.16006611 0.07631941 -0.0651809 -0.11496859
000320 cf 95 9f bd 76 61 3a 3e 5a e0 ad bd 7c 11 8b be
       -0.077922456 0.18201241 -0.08490057 -0.27161777
000330 38 af 05 be 11 b5 04 3e 33 8f 98 bd db 09 a9 3c
       -0.13055122 0.12959696 -0.07449188 0.020634582
000340 1e a7 11 3e 18 1e e7 3d f1 96 96 bd 0c 0a 2e 3d
       0.14223906 0.11285037 -0.073530085 0.04249005
000350 56 3e 89 3d 42 74 03 be 5b 95 42 3d 4c 32 a7 3a
       0.06701343 -0.12837318 0.047505718 0.0012756079
000360 85 42 f9 bd 8d d8 aa bd 24 21 7a 3d d2 ab da be
       -0.12170891 -0.08342085 0.06106676 -0.42709213
000370 20 6a 5c 3e 84 59 02 3d 44 63 12 3e 49 df 0f be
       0.21524858 0.03182365 0.1429568 -0.1405002
000380 21 ac 9b be 88 a7 88 3e d9 17 d9 be aa 82 39 be
       -0.3040476 0.26690316 -0.42401007 -0.1811625
000390 30 37 d6 3d 63 56 b2 3b 5a e6 84 3d 4c f8 cb 3c
       0.10459745 0.005442427 0.064892486 0.02489867
0003a0 45 3f b5 bd 08 03 83 3e f0 48 1b bc 92 8f 9f bc
       -0.08849958 0.2558825 -0.009477839 -0.01947764
0003b0 0e 90 92 3d 33 82 bb be a9 bb 5c bd aa a6 0e be
       0.071563825 -0.36622772 -0.053889904 -0.13930765
0003c0 d5 d4 e9 3e e8 3a b1 3d 5a 91 1b 3c d9 36 17 3d
       0.4567019 0.086538136 0.009495104 0.03691754
0003d0 77 18 42 be 00 0f ab 3d c7 4d 4d 3e 7f 3d 2a be
       -0.18954645 0.083524704 0.20049201 -0.16625021
0003e0 a9 11 d7 bc 9e 65 6a bd eb 67 bf 3d f9 b2 0b 3e
       -0.026253538 -0.057225816 0.09345993 0.13642491
0003f0 9d 1a 86 bd 2a 3b 12 bc 9f 5d 87 3d 6f b1 82 bd
       -0.06548045 -0.008925239 0.06609654 -0.06381499

_fc1.bias f4 [256]
000000 53 2d 2d 3d 45 73 d5 3d 98 aa b6 bb a9 6e cd bc
       0.042279553 0.104223765 -0.0055745356 -0.025077181
000010 8e 0e 35 3d d3 d1 37 3c 8d 2f f3 bd f2 55 ae bd
       0.044203334 0.01121946 -0.11874304 -0.085124865
000020 52 45 a5 be 26 7b 2c b8 19 a9 31 3d 7d 30 0b 3e
       -0.3227945 -4.1122687e-05 0.043374155 0.13592716
000030 d2 bc 94 bd 33 f7 1c be f5 be 40 be 44 68 f1 bb
       -0.07262577 -0.15328674 -0.18822844 -0.0073671658
000040 b8 bb 06 3e e6 e3 ef 39 9e 18 c7 bd a6 ce 27 be
       0.13157547 0.0004575543 -0.09721492 -0.16387424
000050 ad ec ad bd 37 53 d2 3d 65 56 5d bb 92 c5 b4 bd
       -0.08492408 0.10269778 -0.003377342 -0.08826746
000060 75 14 ee bd aa 31 35 3c 4c de e2 3d 70 8a 53 3e
       -0.116249956 0.011059204 0.11077556 0.20658278
000070 fb 20 26 3d 3a 64 6c 3e 19 da 13 3e c3 8c 89 bd
       0.040558796 0.23085108 0.14438666 -0.06716301
000080 2b 3f 12 be 7b 29 48 3d c0 f8 1c bd 73 7f fb 3d
       -0.14281909 0.048867684 -0.038323164 0.122801684
000090 0b 32 04 bd 94 64 53 bc 94 bf 22 bd 77 66 32 3e
       -0.032274287 -0.012902398 -0.039733484 0.174219
0000a0 d1 30 d5 bd 08 c7 86 bd 3f bd 72 3d 19 fb d3 3d
       -0.104097016 -0.06580931 0.05926251 0.103506275
0000b0 97 db 49 bd d1 aa 0e bd 47 26 4f be 3a e9 09 be
       -0.049281683 -0.034830872 -0.20229445 -0.13467875
0000c0 2b 37 6a 3b 4b ab 8c bc 91 85 10 be 31 ff fc 3d
       0.003573845 -0.017171523 -0.14113452 0.123533614
0000d0 3f cc 13 bd 52 f3 05 bb c5 f8 b2 bc 52 d7 20 be
       -0.036083456 -0.002043922 -0.021847138 -0.15707138
0000e0 2b d1 03 3e 73 d6 e2 bc ba 1a 08 3e 21 c6 86 3d
       0.1287276 -0.027690148 0.13291445 0.06580759
0000f0 be 7a 15 3e 8e 44 69 3d 57 87 87 3d 21 a2 f0 3c
       0.14597604 0.056950144 0.06617611 0.029374184
000100 8b d3 23 3d d8 ca dd bd 7f c5 eb bd 9f c5 36 be
       0.039996665 -0.10829705 -0.11512279 -0.17848824
000110 61 cb c7 bd 10 57 cd bd b7 52 65 be 87 89 a3 3d
       -0.09755588 -0.100263715 -0.22394834 0.07985216
000120 f0 e9 4e be 91 d4 ef 3d 08 54 d7 bc 93 ae 0b bd
       -0.20206428 0.11710466 -0.026285186 -0.034102034
000130 35 e1 fb 3d 31 f3 de bd c1 49 90 bd b4 c4 98 3d
       0.12298814 -0.10886229 -0.070453174 0.07459393
000140 76 ad 3f be cd dd 60 3d 4a 8d 64 bd 95 77 3a 3c
       -0.18718514 0.054899026 -0.055798806 0.01138105
000150 c2 14 44 3d e3 d5 6b bd b2 c4 1f 3d 09 24 bb 3c
       0.04787136 -0.057577025 0.039005943 0.022844331
000160 e2 08 11 3e ef 15 b0 3b bf ca 76 3e e9 41 1b be
       0.14163545 0.0053737084 0.24100779 -0.15161861
000170 2e e1 38 bc e1 8b 1e 3e 69 b7 a9 bd 41 fa 08 3e
       -0.011284156 0.15483047 -0.08286936 0.13376714
000180 af 1f 82 3d d8 4f 0c be e0 a5 93 bd 7d ec a9 3d
       0.063536994 -0.13702333 -0.072093725 0.0829706
000190 94 fd 6c bd 2c 3c 5e be 4e 9b b5 bd da 28 30 bc
       -0.05785902 -0.21702641 -0.08867513 -0.010751927
0001a0 91 76 f5 bd 66 b7 c6 bd bc 1f 28 3e d3 27 5d be
       -0.11985505 -0.09702949 0.16418356 -0.21597223
0001b0 96 ee 27 be 6e 24 30 3d de 4c a4 3d 09 01 a4 3d
       -0.16399607 0.043003492 0.08022474 0.0800801
0001c0 2b 5a dc 3d 88 44 b4 3c b9 c8 0f 3e f9 f9 ee bd
       0.10759386 0.022005334 0.14041413 -0.11668772
0001d0 63 66 f2 bd 57 b5 b5 3c a2 8c 89 bd e1 16 39 bc
       -0.11835935 0.022181196 -0.06716277 -0.011296959
0001e0 c8 7b 73 bc ee a5 72 bd e8 0a 2f be 7d 40 dd bd
       -0.014861055 -0.059240274 -0.17094004 -0.10803316
0001f0 c8 78 47 be ae 8e df bd 05 12 36 3d 21 81 12 3e
       -0.19479668 -0.10915886 0.04445078 0.14307071
000200 6c d7 1b 3e d9 b0 48 bd 54 1e b5 bd 95 17 8c 3d
       0.15218896 -0.04899678 -0.08843675 0.068404354
000210 0d 0c ce 3d 29 08 26 bc fc db 46 3d 3a 33 d4 bd
       0.10060892 -0.0101337815 0.048549637 -0.10361333
000220 b0 d3 21 be 4d 7c 4d be e9 30 ae bd fe b3 21 be
       -0.15803409 -0.20066948 -0.085054226 -0.15791318
000230 43 02 2f bd 8d fa 70 3d 92 3a a6 3d e2 bb c7 bd
       -0.042726766 0.058832694 0.0811664 -0.09752633
000240 32 7d cb 3b b7 5e ae bd 63 f7 c4 bd 61 76 91 3d
       0.006209993 -0.08514159 -0.09617498 0.07102657
000250 c5 59 66 be fd db ad 3d d6 cf 19 bd 1a 70 bd bd
       -0.22495182 0.08489225 -0.037551723 -0.09249897
000260 78 f2 1d be 50 e3 5b be f6 f9 ac 3d 36 78 32 3d
       -0.15424526 -0.21473432 0.08446114 0.043571673
000270 89 fe cf 3d 7f 4d fc bd 7f a3 8e 3d 26 43 93 3d
       0.101559706 -0.12319469 0.06964778 0.07190542
000280 a7 95 30 3d 61 b1 f7 3d 25 21 ce 3d b3 41 d4 bd
       0.04311147 0.12094379 0.100649156 -0.10364094
000290 22 2b 11 bc 9b 49 87 bd 6d 3a 81 3c d3 88 2b be
       -0.008860381 -0.06605836 0.01577493 -0.16751413
0002a0 26 68 1d bd 37 11 c3 bd c8 0d eb 3d 5a 83 c4 bd
       -0.0384294 -0.09524768 0.11477238 -0.09595366
0002b0 10 34 75 3d ba 59 11 3e 55 5e 32 3d 8c d4 c1 bd
       0.059864104 0.14194384 0.043546993 -0.09464368
0002c0 d9 b9 e5 3d 80 2e 04 be 45 87 eb 3d 6b 5b 18 be
       0.11217088 -0.12908363 0.1150041 -0.14878623
0002d0 c7 3c d8 3d 7c 46 0d bd 31 7c e9 bd d8 65 e5 bd
       0.10558467 -0.034491047 -0.11400641 -0.11201066
0002e0 11 a5 42 bd bb f3 81 3c ab e3 35 3e 2d 1b c0 3d
       -0.0475207 0.01586329 0.1776263 0.09380183
0002f0 6d e9 16 3e d4 41 c3 3d de 60 43 be 36 ca 12 3e
       0.14737482 0.0953404 -0.1907992 0.1433495
000300 81 be bc bc 74 b2 28 3e 64 3c 96 3c b3 21 42 bd
       -0.023040058 0.16474324 0.018339343 -0.04739542
000310 bb d0 a8 3d aa 99 1b be 23 f3 05 be f9 20 e1 3c
       0.08242937 -0.15195337 -0.1308103 0.027481543
000320 19 30 00 3e ba 8a c1 bc a2 74 90 bd f4 88 82 bb
       0.12518348 -0.02362572 -0.07053496 -0.0039836112
000330 3a ed de bd d0 f8 c9 bd 48 99 cb 3d 68 a0 9f 3d
       -0.10885091 -0.0986191 0.099413455 0.07794267
000340 7f 3e 91 3d 7c bd f9 bd b8 8f 50 be 8b d3 30 be
       0.07091998 -0.121943444 -0.20367324 -0.17268197
000350 15 01 af 3b bd 92 0c be f0 a5 c9 3d 2b de 26 be
       0.005340705 -0.13727851 0.09846103 -0.16295688
000360 a0 db 1f be c2 48 7e 3c 0a 29 9b bc 2f 8d b6 bd
       -0.15611124 0.0155202765 -0.018940467 -0.089136474
000370 2a 03 a5 bd 09 7a df bd a4 69 98 bd 23 e7 1e bc
       -0.08057244 -0.10911948 -0.07442024 -0.009698662
000380 40 42 64 be c0 30 eb 3c f3 a4 da 3b cf a5 27 ba
       -0.22290897 0.02870977 0.0066724955 -0.0006395252
000390 51 f6 39 3e e2 ae ee bd 56 76 31 3d 7b 3c 03 bc
       0.18160369 -0.1165445 0.043325745 -0.008010025
0003a0 9a 9f ea bb 44 c1 b3 bd 3c 8c ce 3d cd 17 80 be
       -0.0071601393 -0.08777097 0.10085341 -0.2501816
0003b0 04 fa 26 be 31 35 2e 3c 80 52 1f 3c 20 d3 6b be
       -0.16306311 0.010632799 0.009724259 -0.23029757
0003c0 e9 df f9 3d f5 c1 cf 3d d7 12 45 be 9f b7 6f bd
       0.122009106 0.10144416 -0.19245468 -0.058524724
0003d0 b0 f3 1e be a5 9c c3 bc 03 fe c7 bd 02 70 04 3e
       -0.15522647 -0.023878405 -0.09765246 0.12933353
0003e0 7f 2a de 3d db 76 1f 3d 99 39 52 bd 33 14 89 be
       0.10847949 0.03893171 -0.05132446 -0.26773223
0003f0 1b cd 77 bc 1c c9 80 3e c5 7d 90 3a 3b 12 9b bc
       -0.015124585 0.25153434 0.001102381 -0.018929591

_fc2.weight f4 [256, 256]
000000 c7 98 82 be 32 72 f8 3d ae 4e 27 3d 35 d9 b5 bb
       -0.25507185 0.12131156 0.04084652 -0.0055495747
000010 36 1b b3 bd 46 87 07 3e 2d 84 e4 3d 1f 75 bd 3d
       -0.087454244 0.13235196 0.11158023 0.09250855
000020 5b d4 ed bd d0 0a b5 3d e7 e8 6c bc cf 4a 5c 3c
       -0.11612769 0.08839953 -0.014459825 0.01344557
000030 37 66 a5 be d9 0d b9 be 9f 63 82 3d 1e df 23 be
       -0.32304546 -0.36143377 0.063666575 -0.16003081
000040 b1 fb 92 be b9 16 82 3d 46 8f 10 be 66 af 8a bd
       -0.2870765 0.0635199 -0.14117154 -0.06771736
000050 6e b6 7a be c9 cd 45 bc 88 ba cb bc 67 81 a3 be
       -0.24483654 -0.012072989 -0.024869218 -0.31934664
000060 49 b7 79 3d 58 c6 6e be ed 58 25 bd 50 99 cd be
       0.06096581 -0.2331785 -0.04036801 -0.4015603
000070 bf be 0a 3d 04 7b 50 be 4e fb 00 be 7c 55 56 be
       0.033873316 -0.20359427 -0.12595865 -0.20931047
000080 32 26 70 3d 4d f5 d1 3d 9d 84 eb bd d1 d4 91 be
       0.058630176 0.102518655 -0.11499903 -0.2848268
000090 0e bd a4 be 4d 13 00 3e a1 18 95 bd 52 89 94 bd
       -0.32175487 0.12507363 -0.07280088 -0.07252754
0000a0 f4 db 5e 3e 0d 8a 06 3e 3b 65 04 3d 2a dc 68 3e
       0.21763593 0.131386 0.032323103 0.22740236
0000b0 99 4d 7a 3e a0 a4 29 bc 69 1e b2 bd 9c 76 04 3c
       0.24443664 -0.010354191 -0.086972065 0.008084919
0000c0 f6 7a 49 bd b4 40 0f 3e 71 a7 52 be 04 20 61 3e
       -0.04918953 0.13989526 -0.20571686 0.21984869
0000d0 d8 31 e5 3b 00 bc a3 be 73 d9 14 3d f4 eb 01 be
       0.006994467 -0.3197937 0.03634019 -0.12687665
0000e0 35 8e 27 3e 36 b9 7a 3c 8a 82 ca bd 35 f4 84 bd
       0.16362841 0.015302947 -0.098881796 -0.06491891
0000f0 6d 79 c0 3c a1 c8 77 3e 1c 0f 1f bd 42 d7 bd bc
       0.0234954 0.24197628 -0.03883277 -0.023173932
000100 e0 d9 9f 3c d0 ad 29 3c f4 e2 23 be cc 49 05 be
       0.01951307 0.010356382 -0.16004544 -0.13016433
000110 95 c5 cd bc cb f0 9d 3d 34 8c 93 3c aa db 9b 3c
       -0.025118629 0.07711943 0.01801119 0.019025642
000120 73 d3 91 3b 95 93 39 be dd 6d 27 bb fa b1 a1 ba
       0.0044502555 -0.18122704 -0.0025547661 -0.0012336366
000130 b7 b7 a8 3d eb c2 b4 bd 58 2f 26 bd 7c 22 3c 3a
       0.08238166 -0.0882624 -0.040572494 0.00071767694
000140 eb 24 12 be b9 cd 82 3d 8e 87 5c bd fc 1f 3e be
       -0.14271896 0.06386895 -0.053840213 -0.18566889
000150 53 35 2d be 99 86 01 be b8 86 d7 3d 97 ff 41 be
       -0.16914873 -0.12649001 0.105237424 -0.18945156
000160 48 05 3a 3e af 97 07 3d 85 d0 80 3d bd 62 e4 3d
       0.18166077 0.03310364 0.06289772 0.11151645
000170 2a ac 73 be 8c e4 0a bd 97 4f 44 be 29 0b 94 bd
       -0.23796144 -0.033909366 -0.19170986 -0.07228691
000180 88 b9 b9 3d 21 2a d7 be 47 1c f1 3d 43 fd fb 3d
       0.090685904 -0.4202433 0.117729716 0.12304165
000190 b1 71 88 3d f4 ab 23 be ea c1 3a 3e 3c 66 d8 bd
       0.0666231 -0.15983564 0.18238035 -0.10566375
0001a0 19 71 66 be 43 d4 74 bd 3a 08 df 3c 99 43 4c 3e
       -0.22504081 -0.05977274 0.027225602 0.19947661
0001b0 02 cc 6a bd 9b 78 05 bd 71 72 b0 bc 10 1c 36 3e
       -0.057323463 -0.03258572 -0.021538945 0.17784142
0001c0 39 38 73 bd 69 a0 83 bd 80 6b ac bd f1 50 b3 3d
       -0.05937979 -0.0642708 -0.084189415 0.08755673
0001d0 07 19 c3 3d 4d 88 e3 bc 53 f9 0f 3e a2 1d 08 3e
       0.09526258 -0.027774954 0.14059953 0.13292554
0001e0 9a 83 f3 bd fc a8 5d be 81 20 44 bc 7f 24 4a be
       -0.118903354 -0.21646494 -0.01197064 -0.19740485
0001f0 5e 7a c8 3d f1 65 a3 3d a0 30 97 be 16 7c 83 3d
       0.09788965 0.07978428 -0.29529285 0.06420152
000200 b5 10 1f bc aa 98 f9 bd 82 aa 60 be 8b 1c 87 3e
       -0.009708573 -0.121873215 -0.21940044 0.26388964
000210 94 e7 1e 3d 29 82 52 be d8 53 9f ba fe 60 de 3c
       0.03879507 -0.20557465 -0.0012155725 0.027145859
000220 55 1a 3e 3c 62 b2 a9 3d 43 82 cd 3d 9f 55 e1 bd
       0.011602958 0.08285977 0.10034611 -0.11002659
000230 32 34 00 bd 9d ec e1 be ad b4 9b 3e cc 8d fc 3d
       -0.031299777 -0.44125834 0.30411282 0.12331733
000240 a3 6d af bd 09 28 f8 bd e1 4f 90 bd 6c 42 53 3e
       -0.085658334 -0.12117011 -0.07046486 0.20630807
000250 24 53 3a 3e 70 eb c4 bd 01 4f b0 be d5 be a8 bd
       0.18195778 -0.09615219 -0.34435275 -0.08239523
000260 ef c2 40 be 9f e8 63 be 99 c1 c9 be 02 3e 36 3d
       -0.18824361 -0.22256707 -0.39405516 0.04449273
000270 1a 3b 59 3e f1 4f 6e bd de 09 23 be 09 9d 31 3e
       0.21213952 -0.058181707 -0.15921733 0.1734506
000280 5e 0a e1 3b ab f4 a8 3d 65 67 07 3e 30 ac 5d 3d
       0.006867691 0.08249792 0.13223036 0.05411929
000290 8f c7 18 be 7d 92 57 3c 70 c7 50 3d f5 7f 2f bd
       -0.14919876 0.013157484 0.05097145 -0.04284664
0002a0 66 2d ef 3d 18 25 25 be de c4 f7 bd b8 45 3f 3d
       0.11678581 -0.16127431 -0.12098096 0.04669735
0002b0 04 8c 83 bc b7 42 2e be 55 5f ac 3d 40 67 2e bc
       -0.016057976 -0.17017637 0.08416621 -0.010644734
0002c0 d6 a9 5f 3d 71 17 c7 be f3 95 ce 3d 8b 04 7d bd
       0.054605328 -0.38885072 0.10087194 -0.06177191
0002d0 8c 08 92 bb 5d 05 18 be 0e 77 be bd 05 9d 37 bd
       -0.0044565853 -0.14845796 -0.09300052 -0.04482748
0002e0 3a c3 6c 3e 63 38 95 bc b5 a1 0c 3e c8 65 6b be
       0.23121348 -0.018215364 0.13733561 -0.22988045
0002f0 e1 bd 5a bd 22 f0 67 be 81 0e 2d be cf db e4 3c
       -0.05340374 -0.22650197 -0.16900064 0.027936844
000300 40 71 8d 3d 71 f3 7c bc b4 d1 31 be a1 52 43 3e
       0.06906366 -0.0154389 -0.17365152 0.19074489
000310 94 d8 1a be 66 15 d1 3c d6 be b6 3d 87 14 29 be
       -0.1512168 0.025522899 0.08923118 -0.16511737
000320 24 e2 07 be a7 8f 28 3e b3 65 9e 3c 52 14 ff bd
       -0.1326986 0.16461049 0.019335603 -0.12455048
000330 07 f4 43 be 4c ce a4 bd 8d 93 41 bc 2c 3f e8 3d
       -0.19136058 -0.080471605 -0.011814964 0.11340174
000340 b4 b6 ea 3d d0 81 85 be d7 f1 83 b8 a8 04 43 be
       0.11460629 -0.26075602 -6.291613e-05 -0.19044745
000350 82 76 8d bb 0c 9e b2 3c 35 48 8e bc e0 71 52 be
       -0.0043171057 0.021803878 -0.017368415 -0.20551252
000360 f3 40 83 3d 98 f3 72 be 85 3e 12 be 6c 02 c8 bd
       0.064088725 -0.23725736 -0.14281662 -0.09766087
000370 ef 0c 68 bd b0 f5 37 be bf 6b 83 be 5f 89 15 3e
       -0.05665296 -0.17964816 -0.2566814 0.14603184
000380 b4 3b 4c be 68 0b 7b be b4 69 16 bd 92 71 9c be
       -0.1994465 -0.2451607 -0.0367219 -0.30555397
000390 07 b8 52 bd 63 95 05 3e 1e f9 cc 3d e1 65 4d be
       -0.051445033 0.13045268 0.10008453 -0.20058395
0003a0 37 64 c1 3d ae 0c 76 bc c2 40 10 bd 11 15 55 be
       0.094429426 -0.0150176715 -0.035218008 -0.20808817
0003b0 9c 9d 34 be 84 50 11 3e a2 62 a4 3c 5f 50 24 3e
       -0.17638248 0.1419087 0.020066563 0.16046284
0003c0 db 6a cd 3d 8a fc 9f bd 46 d6 fb 3d e4 c7 5a be
       0.10030147 -0.0781184 0.12296729 -0.21365315
0003d0 08 06 a8 3c c9 14 b5 bd 79 fb 62 3e a2 a9 46 be
       0.020510688 -0.08841855 0.22166242 -0.19400647
0003e0 db 3f a1 3d f5 12 89 be ab 7d 51 be a8 21 2a be
       0.078735076 -0.26772276 -0.20458095 -0.16614401
0003f0 c8 6a 05 bb b2 28 18 be e3 37 8a be df 99 9d 3a
       -0.0020357836 -0.14859274 -0.26995763 0.0012024007

_fc2.bias f4 [256]
000000 52 67 d1 bd 8d 8a ff bd fb a3 7b 3d 47 2e 65 3e
       -0.10224785 -0.12477598 0.06143568 0.22380935
000010 3e 2d 6e bd 1d 96 dd 3e 72 3c 89 bd ee ba 4b bc
       -0.058148615 0.4327859 -0.06700982 -0.012434704
000020 e0 e8 27 bd 09 6b ac bd c6 64 de 3d dc 11 e3 bd
       -0.04099357 -0.08418853 0.10859065 -0.11087391
000030 b5 32 5b 3d fb b6 88 3d 1d 60 a2 3c e2 e5 9a 3d
       0.053515155 0.06675526 0.019821221 0.07563378
000040 8a 45 37 3e 47 ed 84 bd f3 4d c7 3c 5e 64 29 3e
       0.17897621 -0.064905696 0.024329161 0.16542193
000050 6a 2c db 3c db 3e f9 bc 91 ea 90 3e 1a 29 0e bd
       0.026754577 -0.03042548 0.2830396 -0.034707166
000060 97 4c e6 bd a9 83 a6 3b f7 ce ba 3c 8b 37 15 3d
       -0.11245077 0.005081613 0.022803767 0.036429923
000070 9f 8f a1 bd e2 94 ba bd c9 b9 b3 bc 6b 41 56 bb
       -0.07888722 -0.091104284 -0.021939175 -0.00326928
000080 e2 bf 31 bd 3e b7 73 bd bc 7d a3 bc 27 48 e1 3c
       -0.043395884 -0.059500925 -0.019957416 0.027500225
000090 06 eb b9 bd b1 0c 13 3e af 09 e4 3d 03 1a 45 3d
       -0.0907803 0.1436031 0.111346595 0.04812051
0000a0 db a3 5c bd c8 e0 21 be 48 88 0b bd 39 ee b7 bd
       -0.053867202 -0.15808403 -0.034065515 -0.08980984
0000b0 06 d6 a0 bd f1 a2 03 bd 4f 30 6b 3d 5e c8 40 bd
       -0.07853322 -0.032137815 0.057419118 -0.047066085
0000c0 26 6b e9 3d bc ff 3a 3e 70 5e 4c bd e8 8e b9 bd
       0.1139739 0.18261617 -0.04989475 -0.0906046
0000d0 c3 39 49 be 69 9d 0d bc 2e f2 98 3d 23 09 25 bc
       -0.1965094 -0.008643487 0.07468067 -0.010072979
0000e0 fa 3a 98 3d 3d ef 75 bd 21 a8 13 3d 86 d6 68 3d
       0.07433124 -0.06004261 0.036049012 0.05684521
0000f0 78 30 0a bd 3a df 57 bd d7 b2 e3 3c 51 e3 24 bd
       -0.03373763 -0.05270312 0.027795238 -0.04025585
000100 c7 70 0d 3d c4 1f b1 3e 01 b4 42 bd ca da 7f 3c
       0.03453138 0.34594548 -0.047534946 0.015616128
000110 09 26 11 bd 6e bf ba bd 5d 3a a4 bc 66 18 bf bd
       -0.035436664 -0.091185436 -0.020047361 -0.093308255
000120 73 92 7d bd 03 b8 59 bd f9 c9 1e bd 2d 4d f1 bd
       -0.061907243 -0.053154003 -0.038766835 -0.11782298
000130 3e 24 ba 3c 17 50 9d bd 9a 7d 93 bc dc e5 9b bd
       0.02272236 -0.076812916 -0.018004227 -0.076122016
000140 e9 18 26 3c 9c 5e 17 3e 08 f4 0d bc 05 09 33 3d
       0.010137775 0.14782184 -0.008664139 0.043709774
000150 0c 2c ec bd 74 b6 d7 bc 33 15 ee 3c 2b 40 c9 3b
       -0.11531839 -0.026332118 0.029062843 0.0061416826
000160 0b b8 85 b7 27 b9 f9 3e 8b 5b 99 3d 95 e9 8e bd
       -1.5940537e-05 0.48774073 0.074881636 -0.06978146
000170 c5 28 b5 bd bc 5b 02 bd e9 3a 2b 3d cf 04 3b bd
       -0.08845667 -0.031825766 0.041804228 -0.045658883
000180 b7 62 cf 3b 0f 07 4f bd a2 f4 a8 3d 4f 54 db 3c
       0.0063289064 -0.05054384 0.08249785 0.0267736
000190 85 1c e6 bc 16 33 83 bc 94 f6 14 bc d7 35 4c bd
       -0.028089771 -0.01601557 -0.009091992 -0.049856033
0001a0 f9 28 ba bd ba 21 4a 3e 3c 74 bb bd 02 54 2e 3c
       -0.09089846 0.19739428 -0.09153029 0.010640146
0001b0 8f e4 8f bd 3b 5c b1 bd d4 b1 32 3d 68 2e 57 3d
       -0.07026016 -0.0866017 0.04362662 0.05253449
0001c0 fc 49 12 bd 7e be 0e 3e e2 c2 4f 3d 74 33 af bd
       -0.03571509 0.13939855 0.050722964 -0.08554736
0001d0 a7 ba 24 bd a0 1a e5 bd a3 09 80 3e 2b a8 04 3e
       -0.040217068 -0.11186719 0.25007352 0.12954776
0001e0 33 c4 36 bd 40 e9 c1 bc 71 91 28 3c 10 19 c9 bd
       -0.044620704 -0.023670793 0.010288582 -0.098192334
0001f0 e1 c6 f3 3c d2 26 cb 3c 1d 83 59 bd 95 6b e6 3d
       0.029757919 0.024798784 -0.053103555 0.112509884
000200 eb ea 40 bd fc 84 3c 3d 7c 83 0f be e5 57 0f 3d
       -0.047099035 0.04602526 -0.14015001 0.034995932
000210 93 ad 29 bd 4a 8d 4b 3d e2 c2 7c bd 92 78 79 bc
       -0.0414253 0.04969529 -0.061709292 -0.0152265
000220 80 2d b8 bc c5 85 9f bd 63 51 ec bc ed 09 c3 bd
       -0.022482634 -0.077891864 -0.028847402 -0.095233776
000230 90 57 12 bc 9c 3b 23 bc 21 aa e0 3b d2 6d b6 bd
       -0.008932009 -0.009962942 0.0068562184 -0.08907665
000240 0b e5 ff 3c 1f 3d d2 bd d3 c2 6d bd a4 bb 4c bd
       0.031237146 -0.10265564 -0.058047127 -0.049983636
000250 3e 3d cc 3d 1a a3 31 bd 44 7e 5c 3c 4c 0f b2 3d
       0.099726185 -0.043368436 0.013457838 0.08694324
000260 81 e6 b7 bd c2 3c eb bd 55 a1 d9 bd 22 de 23 3b
       -0.08979512 -0.11486198 -0.10626475 0.0025004228
000270 2c f9 40 3d 53 d5 c9 bd f9 4b 52 bd 90 00 c5 bc
       0.04711263 -0.098551415 -0.051341984 -0.02404812
000280 62 88 bf 3e fd c8 22 bc 94 1e 18 bd d7 7f 05 bd
       0.3740874 -0.009935615 -0.037138537 -0.03259262
000290 29 f7 96 bd 39 06 01 bd b7 a2 09 bd 47 f9 85 bc
       -0.07371361 -0.031500075 -0.033602443 -0.016354216
0002a0 d2 a9 9b bb 78 fc f2 3c 67 ce 64 3d d1 b7 e2 bb
       -0.004750469 0.029661402 0.055860903 -0.0069188853
0002b0 ee 26 33 bb 23 b1 40 bd e1 a2 96 bd 88 fc 2b bd
       -0.0027336436 -0.04704393 -0.073552854 -0.04198888
0002c0 fe f6 5c bd 22 83 d1 bd 1d 71 8b 3c 2d 01 91 bd
       -0.053946488 -0.1023009 0.01702171 -0.070803024
0002d0 b2 94 87 3d 1b 9f 0f 37 0a cb 90 3e 13 b5 5f 3d
       0.06620158 8.560509e-06 0.28279907 0.054616045
0002e0 fd 6a be bd 15 c7 11 bd 65 46 25 be 12 85 f2 3d
       -0.0929775 -0.03559025 -0.16140135 0.118417874
0002f0 57 4f 06 bd 10 31 fe bd ca 53 5f 3d 98 88 5a bd
       -0.032790508 -0.12411702 0.054523267 -0.053352922
000300 ae cc ca ba d9 f8 be 3d 9a aa 92 3d 48 87 cd 3d
       -0.0015472376 0.09324808 0.07161446 0.100355685
000310 64 1f df bd 0f b2 00 bd f8 07 fc bd 13 2e 9e ba
       -0.10894659 -0.03141981 -0.123062074 -0.0012068175
000320 58 46 3e 3d a1 80 18 be f0 75 ae bb 97 e2 82 bd
       0.046453804 -0.14892818 -0.005324118 -0.06390875
000330 06 f5 e7 bd c6 ea ac bd e4 0f 7a 3d 92 32 96 3c
       -0.113260314 -0.08443217 0.06105031 0.01833466
000340 16 b2 0b bd 6e 4c 81 bc bb 53 49 3d 9b 4b f7 3b
       -0.034105383 -0.015783515 0.049152117 0.0075468547
000350 3c 29 ab bd 81 db e6 bd f6 a2 68 3b db 89 28 bd
       -0.08357474 -0.11272336 0.0035497523 -0.041147094
000360 8f 72 84 3b 5a ae a4 b8 87 43 23 bd 45 20 b3 bd
       0.0040419768 -7.852605e-05 -0.03985932 -0.08746389
000370 7d 07 96 bc 32 a1 e8 bc 0f 19 95 3c 64 b4 73 bd
       -0.018314118 -0.028397176 0.018200425 -0.059498206
000380 35 ec 9b 3b 6b 71 00 3e c6 29 b0 bc af be 2f bd
       0.0047583827 0.12543266 -0.021504294 -0.04290646
000390 4c 70 1a bd 3b af 30 bb 04 c2 90 bd f4 73 99 3c
       -0.03770475 -0.0026959914 -0.070682555 0.018732049
0003a0 dd 59 9c 3b f8 fa 73 3d 26 1a 52 bd 03 a5 72 bd
       0.0047714547 0.059565514 -0.05129447 -0.0592394
0003b0 6b b3 46 bc 2a d4 94 bd ef fd 2a 3e d2 0e 6b bc
       -0.0121277375 -0.072670296 0.1669843 -0.014346795
0003c0 9a 7c 30 3d 48 71 35 bc 51 65 b2 bd c6 83 81 bd
       0.04308758 -0.011074372 -0.08710731 -0.06323962
0003d0 0a 7c 0c 3d eb 01 93 3c 40 10 8b bd 34 97 3e bd
       0.03429798 0.01794525 -0.06790209 -0.046530917
0003e0 06 d6 da bc 17 54 15 3d 76 46 54 bc 8a c7 d8 3e
       -0.026713382 0.036457147 -0.012956252 0.42339736
0003f0 d7 99 63 bd 7c 94 85 bd ad 87 0d 3d 6c 76 98 3d
       -0.055566635 -0.06522462 0.03455322 0.07444462

_fc3.weight f4 [4, 256]
000000 d7 a7 4c be 8e 50 16 3c 2b 8a b2 3c 71 51 5b 3c
       -0.19985901 0.009174479 0.0217944 0.013386116
000010 be 59 84 be 77 47 0a 3e 89 71 ee 3c 26 30 6f 3e
       -0.25849718 0.13503824 0.029106872 0.23358211
000020 af 68 89 3d 36 81 1e be 0f 75 39 bf 6c 8c af be
       0.0670942 -0.15478978 -0.7244424 -0.3428682
000030 aa 32 a7 3d ac c1 55 3d 89 79 11 be 16 bd 1e 3e
       0.0816396 0.052186653 -0.14206518 0.15501818
000040 c5 91 c9 3d ac ed b9 3d c5 30 5f 3d ea 4d b5 3d
       0.098422565 0.090785354 0.05448987 0.088527516
000050 d9 97 cc bd 8d 2f 43 be 9a cb 54 3d f9 08 c6 3d
       -0.099899 -0.19061108 0.051951982 0.0966968
000060 a7 34 f6 bd 14 0c e9 3d e6 cd 03 ba 14 b4 6a 3d
       -0.120217614 0.11379257 -0.00050279347 0.057300642
000070 11 eb 28 bd 95 b3 f5 bd 86 b5 f6 bd 80 dc 83 3d
       -0.0412398 -0.11997143 -0.120463416 0.064385414
000080 f5 27 47 bc 0a bf ad 3d 84 c9 3c bb 1e f3 d0 3e
       -0.012155523 0.084837034 -0.0028806636 0.40810484
000090 f3 fb 80 bc f6 ae cf 3d d4 6f 90 3d e2 1a 36 3b
       -0.015745139 0.10140793 0.070525795 0.002778702
0000a0 c4 3b 7b 3c 15 d5 0e be d3 eb d8 bd eb 25 1f be
       0.015334073 -0.13948472 -0.10591855 -0.15541808
0000b0 1f bb ec be ab 92 9d 3e 66 03 e7 be fb 8b 70 bd
       -0.46236512 0.3077596 -0.4511978 -0.058727246
0000c0 20 cd dc 3c dd 15 ba 3d 02 0e 24 bd ac d7 22 bd
       0.02695328 0.09086201 -0.04005242 -0.039756462
0000d0 cf 23 b7 bd 52 2f 37 3e 9f fe 9d 3d f3 ed a1 3d
       -0.08942377 0.17889145 0.07714581 0.07906713
0000e0 b4 b8 87 3d b5 20 16 bd 90 5d 94 bc f4 ec 06 3e
       0.06627026 -0.036652286 -0.01811102 0.13176328
0000f0 a4 68 a5 3e 7f 85 82 3c bf b7 4a 3e 51 62 96 3d
       0.32306397 0.015932797 0.19796656 0.07342971
000100 7d 04 13 3d d0 3e 83 3d 75 a4 09 be 71 5a 1b 3c
       0.035892952 0.06408465 -0.13441642 0.009482012
000110 10 4b 93 be 36 a3 75 bd d0 05 fe bd f4 11 28 be
       -0.28768206 -0.059970103 -0.124034524 -0.16413099
000120 32 d6 ab bc 22 c7 53 be 03 5b dd 3d fe 30 49 bd
       -0.02097616 -0.20681432 0.10808375 -0.04911899
000130 fa 71 61 bd c7 73 9f 3d d4 6f f8 bc 3c 62 88 3d
       -0.055040337 0.07785755 -0.030326761 0.06659362
000140 30 b7 b0 3d c1 8a d5 3d 98 b0 4a 3e 2e 68 4c 3e
       0.0862869 0.10426856 0.19793928 0.19961616
000150 ce 9a 63 be 77 05 40 3c fe b5 6b 3b 88 38 6f 3b
       -0.22227022 0.011720053 0.003596663 0.00365022
000160 97 47 17 bd 31 bf ec 3d 00 88 18 3e 6d 60 fb 3d
       -0.036933508 0.11559904 0.1489563 0.12274251
000170 54 2e 8c bd e0 ff 43 be 32 0c 0e bd 0d 6a 33 be
       -0.06844774 -0.19140577 -0.0346796 -0.17520924
000180 c0 eb ff 3d 5b 12 74 3e e9 9b fd 3c 1c 16 a4 3b
       0.124961376 0.23835127 0.030958133 0.0050075185
000190 0a 25 4f 3e 19 eb db bd 35 dc 5f bd ff 51 b7 3d
       0.20228973 -0.10738201 -0.054653365 0.089511864
0001a0 52 f1 5f 3d f9 bc 48 3d 23 85 c2 be 30 04 87 3e
       0.0546735 0.049008343 -0.379922 0.26370382
0001b0 7f 1c 0f 3e 56 9e 60 3e ae 67 98 3c 07 b6 e8 bd
       0.13975714 0.219354 0.018604126 -0.11362844
0001c0 27 b5 fc 3d 7b 16 a1 3d 85 65 40 be c0 03 9c bd
       0.123392396 0.07865616 -0.18788727 -0.07617903
0001d0 58 76 79 be 85 ce 0b bd e5 b8 4d 3d 06 39 9f 3d
       -0.24361551 -0.0341325 0.050225157 0.07774548
0001e0 e9 c3 78 be 55 ba d2 3d 89 c8 1b 3e 53 87 69 be
       -0.24293484 0.10289446 0.15213217 -0.22805528
0001f0 db 8c 81 3e 3a 80 9a 3d 4f 97 cd bd cd d6 03 3e
       0.25302777 0.075439885 -0.100386254 0.12874909
000200 49 1b 96 bd 80 2a 5c be 5e 0c 19 be e7 f3 ca 3d
       -0.07329423 -0.21500587 -0.14946124 0.09909802
000210 51 01 7b bd b8 76 b4 bd 92 41 d7 3d eb de a2 be
       -0.061280552 -0.08811706 0.105105534 -0.31810698
000220 4a bd 41 bd 57 6e 4b bd 04 67 e9 3d 89 9c e7 bd
       -0.04729966 -0.049665775 0.11396602 -0.113091536
000230 a0 93 1f 3d d3 08 20 be df 82 d5 bd 7c d6 44 be
       0.038959146 -0.15628366 -0.10425352 -0.19222444
000240 55 fc e2 3d 78 53 cb bc 98 6d b7 bc 1f 68 4a 3e
       0.11083285 -0.024820074 -0.022391126 0.19766282
000250 bf 5e a7 be 2c 6c b0 3d 75 ad 25 ba 6b 8b 91 3d
       -0.32689473 0.08614382 -0.00063200976 0.0710667
000260 fa fa 4d bc 85 8e a3 bd 80 1f 8f b9 4d c2 85 be
       -0.0125720445 -0.07986168 -0.00027298555 -0.26124802
000270 1e 45 2a bc 58 64 2e bd b8 1c fd bd 52 90 eb be
       -0.010392455 -0.042576164 -0.12358993 -0.46008545
000280 c5 73 b9 3d 26 70 77 3e 5e 00 3d 3d 35 88 13 3e
       0.090552844 0.24163875 0.04614293 0.14407428
000290 38 d5 91 bd dc 5c 3b 3d 94 4c 4d 3d 78 f8 0c 3e
       -0.071207464 0.045742854 0.05012186 0.13766658
0002a0 97 fd 24 3e e0 7a 00 3c f9 83 dc be db d7 ab 3d
       0.16112362 0.007841796 -0.43069437 0.083907805
0002b0 60 a0 94 bc 73 90 14 be 39 3b 3e 3d a5 27 98 3d
       -0.018142879 -0.14508228 0.046443198 0.074294366
0002c0 36 68 72 be 55 40 5e be 0f c9 95 be b7 51 c5 bd
       -0.23672566 -0.21704228 -0.29254958 -0.096347265
0002d0 45 ce 39 3c 9d dd b6 3d 59 5f de 3b ec fd 19 3e
       0.011340682 0.08928988 0.0067862687 0.1503827
0002e0 30 f5 39 3d 2f eb 06 bd 30 b3 32 be 6c 76 4c 3d
       0.045399845 -0.032939132 -0.17451167 0.049917623
0002f0 5c 92 3c 3c f9 e5 e4 bd 1f ed 93 bc c7 0c e6 be
       0.011509504 -0.11176676 -0.018057404 -0.44931623
000300 21 07 6b be 57 0b ba bc 71 1e 26 3c 84 83 ee 3c
       -0.22951938 -0.022710485 0.010139094 0.029115446
000310 ca 2e 9d bd b6 18 24 bd d1 a1 f0 3d 21 46 c7 3c
       -0.0767494 -0.04006263 0.11749614 0.024325432
000320 b4 d5 21 3d 00 d6 5f bd d2 05 64 3d dc 7e 54 3c
       0.039510444 -0.054647446 0.055669613 0.012969699
000330 98 a6 85 bd 34 7e 2f be 30 17 9b bb 0f e4 3c be
       -0.06525916 -0.17137986 -0.004732989 -0.18446372
000340 a5 09 ad 3d 59 3f 1a bd f4 f0 3c 3d 65 25 c8 bd
       0.08449105 -0.03765807 0.04612823 -0.097727574
000350 9d 4a 9d 3d 63 cd 75 3b a1 ca 88 3e 55 4b 9f 3d
       0.07680247 0.0037506453 0.26717094 0.0777804
000360 3a 4d 5f 3d 81 6b a3 3d 3e 94 fd 3d 72 38 1e 3c
       0.05451701 0.07979489 0.123817906 0.009657012
000370 c4 c1 bc bc 98 e2 91 3e ee 6d 19 3e 52 bd 8d bd
       -0.023041613 0.2849319 0.14983341 -0.069208756
000380 b3 8c 77 be cc c1 77 3d 03 c6 a5 3d c6 62 2c 3d
       -0.24174766 0.060487553 0.08094408 0.042086385
000390 59 04 45 3c 6a 89 36 be 09 b3 93 bc 41 1d 60 be
       0.012024962 -0.17825857 -0.018029707 -0.2188616
0003a0 07 85 8f be 7f 2f 6a 3e a1 43 1e be 0c 72 ab be
       -0.2803118 0.22869681 -0.15455486 -0.33485448
0003b0 23 66 c1 3d 18 d9 ed bd 04 21 9f 3d ff b8 33 3c
       0.09443309 -0.11613673 0.07769969 0.0109693995
0003c0 05 e7 9a 3e fa 5c 41 3e fd a9 de bd af 28 c0 bd
       0.3025438 0.18883124 -0.108722664 -0.0938276
0003d0 52 d1 15 3d c5 e6 9d 3d 46 15 da bd 20 fb 14 3d
       0.036576577 0.077100314 -0.10648589 0.036372304
0003e0 0b a0 13 3d 05 ab 03 3f 35 d9 34 3d b4 c2 c7 3d
       0.0360413 0.5143283 0.044152457 0.097539335
0003f0 a5 e4 b7 3c f3 d0 a5 3a b5 bd fd 3d ae d6 77 3d
       0.022447893 0.0012650773 0.12389699 0.06050747

_fc3.bias f4 [4]
000000 8d 1e cd 3e 66 14 61 3e da 8b 7a 3e 34 c9 93 3e
       0.4006237 0.21980438 0.24467412 0.28864443
