project1-banana-collector/models/dqn_ddqn_per_qnetwork_target.pth (torch_old, 307268 bytes, 6 tensors)

_fc1.weight f4 [256, 37]
0.023247607 0.069081284 -0.2796739 -0.06585486 -0.10159157 0.059829112 -0.13055435 0.215398
-0.17973356 -0.07938741 0.11074459 -0.10137912 -0.13651027 -0.49176946 -0.01883302 -0.17671016
0.2149245 -0.031491704 0.023017235 -0.09632471 0.040664107 0.047385544 0.037613112 0.053347256
-0.16843946 -0.13732433 0.0648245 0.005419951 0.029197615 -0.36771643 -0.16424261 0.16155204
0.011249893 -0.20925143 -0.061994202 -0.30228496 -0.03574872 -0.04826676 0.19617237 0.11662551
-0.03340968 -0.26565722 0.08829087 -0.16093165 -0.119695455 -0.2969284 -1.4012325 -0.008398489
-0.082011096 0.03024011 0.24845609 0.18170953 -0.0008303501 0.0754225 0.07437944 0.04106759
-0.25206977 -0.0703877 -0.07775406 -0.069331065 -0.121711686 0.2768619 -0.1287967 0.17424268
0.06629158 -0.017009487 -0.3427119 -0.03166688 0.1354517 0.2202843 -0.10542533 0.01481263
0.0011649248 0.010895451 0.3002084 0.12690787 -0.05150179 -0.28944618 -0.23577099 0.058034476
0.020108834 0.046353426 0.03377889 -0.26667187 -0.007892184 0.21993442 0.033772383 -0.38692558
0.020256637 0.015976634 0.15562432 -0.10648315 0.12191347 0.2626758 -0.26043525 -0.024889909
0.2388955 -0.3770949 -0.40778416 -0.07864866 0.21742857 0.16640662 -0.5935545 -0.16463287
-0.040914103 0.136611 -0.1476445 -0.25509363 -0.18061368 0.013359948 -0.08139622 0.16240238
-0.0785992 0.12934875 0.18987043 -0.231807 0.039628197 0.06715606 0.081341386 0.0528385
0.022260824 0.09346471 -0.051440924 0.027632497 -0.10014789 -0.14606008 0.012506865 -0.051268328
0.012801191 -0.08228942 -0.17199796 0.11382599 0.006345822 -0.000692022 0.04885437 -0.26959488
0.13524501 0.024181016 0.11014031 0.08123827 0.23410386 0.33083132 0.13774006 -0.31158787
-0.34137237 -0.6918342 0.0011039806 0.0134872915 -0.12986048 -0.15982488 -0.031579714 -0.18393403
-0.040674746 0.24691057 0.082630515 -0.29636478 -0.23719405 -0.91985124 -0.051059898 -0.034462955
-0.086840786 0.024448205 -0.07363228 -0.08473147 -0.08295318 -0.06398274 -0.052264553 0.23805979
-0.17366387 -0.18619372 0.106170356 0.2767186 0.29910994 0.044410054 0.0014066892 0.051940072
-0.07799957 0.09571761 0.09547524 -0.15933767 0.095378466 0.13414626 0.47790286 -0.015415029
0.011592811 -0.08491154 -0.048900437 0.020111464 -0.007630676 0.028784564 0.26716778 -0.15842271
-0.21330996 -0.16196916 -0.8241697 -0.10631193 -0.076935984 0.034713816 -0.09870224 0.0048063
0.0003898929 0.0852089 -0.19348241 0.037838988 -0.10721124 0.09930206 -0.08653901 0.09311717
0.18631275 0.12173335 -0.0029402892 -0.093928136 0.105195925 -0.0220618 0.094963074 0.12726454
-0.2357854 -0.09891899 -0.051767956 -0.31846437 0.09717744 0.030687662 -0.09187749 0.1913474
-0.047430363 -0.042178754 0.14741488 -0.01356503 -0.18269846 0.049975265 0.101962425 0.16439636
-0.106770255 0.18437065 0.27340168 -0.23681344 0.1183394 0.05672506 -0.103407554 -0.124722615
0.11650908 0.12615575 0.028475747 -0.19990756 0.089342356 0.006991238 0.06525939 -0.3017788
0.045764063 0.13647044 -0.30137277 0.22137354 0.09154908 -0.052218873 -0.14248393 0.13274744
00000000: c471 be3c 7d7a 8d3d 6b31 8fbe eade 86bd
00000010: 3e0f d0bd 5f0f 753d 0ab0 05be 4b91 5c3e
00000020: 130c 38be de95 a2bd 0fce e23d db9f cfbd
00000030: 59c9 0bbe 35c9 fbbe b547 9abc 82f3 34be
00000040: 2b15 5c3e 72fd 00bd a48e bc3c e445 c5bd
00000050: 688f 263d 5817 423d 3510 1a3d a782 5a3d
00000060: 657b 2cbe c09e 0cbe b5c2 843d d899 b13b
00000070: d62f ef3c 5445 bcbe 372f 28be e66d 253e
00000080: 7951 383c 0246 56be a2ed 7dbd 18c5 9abe
00000090: 406d 12bd 5eb3 45bd 69e1 483e 5bd9 ee3d
000000a0: 97d8 08bd 3904 88be d8d1 b43d 44cb 24be
000000b0: e422 f5bd 0007 98be 965b b3bf d199 09bc
000000c0: 6ff5 a7bd 1bba f73c 466b 7e3e 1012 3a3e
000000d0: daab 59ba 1d77 9a3d 3f54 983d 7d36 283d
000000e0: 4a0f 81be 6d27 90bd 853d 9fbd 72fd 8dbd
000000f0: fa43 f9bd d8c0 8d3e 48e3 03be ac6c 323e
00000100: e1c3 873d 7b57 8bbc ef77 afbe 21b5 01bd
00000110: dab3 0a3e 3592 613e 3ce9 d7bd acb0 723c
00000120: 64b0 983a d582 323c eab4 993e 23f4 013e
00000130: 8af3 52bd 4a32 94be f36d 71be 8fb5 6d3d
00000140: 48bb a43c 17dd 3d3d bc5b 0a3d 3789 88be
00000150: 384e 01bc 7d36 613e e954 0a3d 1c1b c6be
00000160: 3ff1 a53c 6ee1 823c fb5b 1f3e d613 dabd
00000170: c5ad f93d 717d 863e c557 85be ece5 cbbc
00000180: 06a1 743e 9512 c1be 16c9 d0be 8c12 a1bd
00000190: 98a5 5e3e 7f66 2a3e 30f3 17bf 8595 28be
000001a0: 8c95 27bd c1e3 0b3e 1f30 17be a29b 82be
000001b0: cbf2 38be afe3 5a3c 10b3 a6bd cf4c 263e
000001c0: 9ef8 a0bd 0074 043e 656d 423e d05e 6dbe
000001d0: 2d51 223d 1e89 893d 5096 a63d 2f6d 583d
000001e0: 555c b63c 6d6a bf3d b8b3 52bd 8c5d e23c
000001f0: 561a cdbd c690 15be 98e9 4c3c bdfe 51bd
00000200: 16bc 513c 5b87 a8bd 3c20 30be 9a1d e93d
00000210: 9df0 cf3b cf68 35ba 851b 483d 5708 8abe
00000220: ab7d 0a3e 4417 c63c 3e91 e13d 4060 a63d
00000230: ecb8 6f3e b962 a93e bb0b 0d3e 7288 9fbe
00000240: 5cc8 aebe 0c1c 31bf 71b3 903a cdf9 5c3c
00000250: 25fa 04be 22a9 23be bb59 01bd 3459 3cbe
00000260: 909a 26bd 20d6 7c3e 303a a93d 20bd 97be
00000270: ffe2 72be 5f7b 6bbf 2f24 51bd 0729 0dbd
00000280: 95d9 b1bd 9a47 c83c 85cc 96bd b187 adbd
00000290: 5be3 a9bd 6209 83bd 5b13 56bd f2c5 733e
000002a0: f1d4 31be 91a9 3ebe d86f d93d 0fae 8d3e
000002b0: f024 993e 51e7 353d a860 b83a 1dbf 543d
000002c0: 3dbe 9fbd 9807 c43d 8688 c33d 6a29 23be
000002d0: c955 c33d a35d 093e afaf f43e 518f 7cbc
000002e0: c6ef 3d3c 1ae6 adbd d34b 48bd ccc0 a43c
000002f0: c00a fabb 9bcd eb3c 37ca 883e 9039 22be
00000300: ed6d 5abe 3edb 25be c9fc 52bf 12ba d9bd
00000310: 9d90 9dbd 1330 0e3d 6624 cabd 2b7e 9d3b
00000320: 8a6a cc39 0182 ae3d 4120 46be 0efd 1a3d
00000330: 9191 dbbd e15e cb3d 5d3b b1bd 37b4 be3d
00000340: c5c8 3e3e 564f f93d deb1 40bb 655d c0bd
00000350: f670 d73d f3ba b4bc 007c c23d a351 023e
00000360: ba71 71be 0a96 cabd a30a 54bd c30d a3be
00000370: f704 c73d b164 fb3c 442a bcbd 93f0 433e
00000380: 5746 42bd a1c3 2cbd edf3 163e dc3f 5ebc
00000390: 4e15 3bbe ddb2 4c3d add1 d03d 8557 283e
000003a0: 5daa dabd a9cb 3c3e 4efb 8b3e 397f 72be
000003b0: ed5b f23d 8958 683d 57c7 d3bd 926e ffbd
000003c0: 509c ee3d f92e 013e f845 e93c 91b4 4cbe
000003d0: 20f9 b63d c116 e53b b7a6 853d c082 9abe
000003e0: 1973 3b3d e8be 0b3e 884d 9abe bfaf 623e
000003f0: 167e bb3d 75e3 55bd 4fe7 11be f2ee 073e

_fc1.bias f4 [256]
-0.00039275602 0.08875328 0.040731087 0.017789843 0.03677605 0.025158651 -0.12192702 -0.084107466
-0.19107881 -0.0730152 0.058182053 0.16516899 -0.052607752 -0.16480874 -0.08744439 0.023860473
0.09706014 -0.070887886 -0.15316245 -0.18574625 -0.04214929 0.09645389 0.02853498 -0.04508905
-0.08949989 0.028964808 0.10378633 0.20954031 0.019663954 0.19561069 0.12615795 -0.03844009
-0.11301658 0.047119316 0.0023119377 0.13369043 0.031479403 0.12033184 -0.1084749 0.025385274
-0.020205464 -0.057280693 0.06401224 -0.026405957 -0.09775423 -0.05115749 -0.23034617 -0.17347886
-0.009915994 -0.016010307 -0.069097124 0.06560812 -0.06124225 -0.028236069 -0.0063588168 -0.1327311
0.019809615 0.049159914 0.11915771 0.045066565 0.13244724 0.043561235 0.13502797 0.095580414
0.06537285 -0.17846283 -0.15267906 -0.15304488 -0.17824113 -0.056946248 -0.179315 0.12918821
-0.22636423 0.07753692 0.008000989 -0.11417233 0.1671099 -0.09363719 -0.017003866 0.0037731302
-0.14614077 0.03391459 -0.052292842 -0.0011355216 0.07314647 -0.041655406 -0.02064602 0.09183782
0.054502297 0.02500664 0.18003793 -0.14309788 -0.0748014 0.1384803 -0.04098791 0.1680018
-0.035015274 -0.12907915 -0.04977285 0.047668416 -0.02993559 -0.15743648 -0.082742296 -0.04610915
-0.10698863 -0.16440381 0.13009007 -0.15210612 -0.1313907 0.08867068 0.07210768 0.037360735
0.11151368 -0.005003012 0.13375758 -0.056781027 -0.07821133 0.056521613 -0.09414133 -0.09579931
-0.03969198 -0.012730133 -0.1661739 -0.13826533 -0.17867602 -0.20154789 0.05697533 0.19043733
0.18418486 0.01698974 -0.072097674 0.044507552 0.093821324 -0.037699968 0.043853436 -0.0757423
-0.08441569 -0.20776132 -0.06657647 -0.121931754 -0.018801315 0.092635125 0.08609649 -0.086927086
-0.034679953 -0.0462697 -0.13408607 0.10318006 -0.17626792 0.06757281 -0.03629876 -0.108696304
-0.16146451 -0.16710365 0.105908625 0.07090251 -0.022195883 -0.15657271 0.054771926 0.07650818
0.09210558 0.103659846 0.11754399 0.012314205 0.043506548 -0.064963296 -0.03337183 -0.09227071
0.014602732 -0.13027997 0.056856852 -0.08269756 0.07248412 0.09790699 0.05870533 -0.07859499
0.13940059 -0.12400514 0.0787759 -0.12522292 0.08920295 0.032334175 -0.115516685 -0.09802399
-0.11469282 0.022133933 0.12965499 0.07503038 0.19536689 0.099878564 -0.1455656 0.09132098
0.08026554 0.075835004 -0.016568873 -0.04727601 0.050236207 -0.15733182 -0.041882705 -0.08250692
0.10268758 -0.0123249525 -0.10143295 0.10203986 -0.005688467 -0.013143228 0.11667628 0.18627009
0.11473807 -0.0122911455 -0.20709418 -0.12346932 0.06274068 -0.18872458 -0.015963688 -0.14932708
-0.14287764 0.012204917 -3.0340067e-05 -0.09847171 -0.024311824 -0.10995394 -0.021353511 -0.048613936
-0.20126912 -0.002809632 0.0019124032 -0.054631583 0.15694533 -0.22341165 -0.06789751 0.09294372
0.0040908474 0.0030408225 0.06812371 -0.21072711 -0.082885414 -0.09901008 -0.08960483 -0.23050837
0.036254305 0.14149469 -0.20070691 0.033773735 -0.14592065 -0.008806479 -0.038988613 0.19158342
0.0758755 0.070856765 -0.015227188 -0.23487444 -0.14159451 0.19026028 -0.03275589 -0.047366057
00000000: d2ea cdb9 48c4 b53d a4d5 263d 01bc 913c
00000010: 7ca2 163d 8419 ce3c e0b4 f9bd 8940 acbd
00000020: 2aaa 43be fe88 95bd 4e50 6e3d 0f22 293e
00000030: 3a7b 57bd 9fc3 28be 0b16 b3bd 0a77 c33c
00000040: 77c7 c63d ab2d 91bd 9ed6 1cbe 4434 3ebe
00000050: bca4 2cbd 9e89 c53d 31c2 e93c 4caf 38bd
00000060: b84b b7bd 9b47 ed3c ed8d d43d bc91 563e
00000070: 4d16 a13c 2b4e 483e 8d2f 013e 5b73 1dbd
00000080: 3d75 e7bd 2f00 413d e183 173b 25e6 083e
00000090: 8cf0 003d 8a70 f63d 1728 debd c7f4 cf3c
000000a0: ee85 a5bc 299f 6abd d918 833d 4e51 d8bc
000000b0: 5f33 c8bd 848a 51bd dedf 6bbe 71a4 31be
000000c0: b176 22bc 0c28 83bc cb82 8dbd 8d5d 863d
000000d0: 27d9 7abd 544f e7bc 9f5d d0bb a9ea 07be
000000e0: c647 a23c e85b 493d f508 f43d b897 383d
000000f0: 40a0 073e 446d 323d c644 0a3e aabf c33d
00000100: 33e2 853d f6be 36be e657 1cbe ccb7 1cbe
00000110: d884 36be 7840 69bd 5a9e 37be ea49 043e
00000120: 06cc 67be adcb 9e3d 9516 033c 2fd3 e9bd
00000130: dc1e 2b3e dbc4 bfbd b14b 8bbc 9f46 773b
00000140: eda5 15be 06ea 0a3d 0531 56bd c8d5 94ba
00000150: d1cd 953d dc9e 2abd d821 a9bc 7815 bc3d
00000160: cd3d 5f3d bada cc3c dd5b 383e 4088 12be
00000170: 7a31 99bd c8cd 0d3e f0e2 27bd aa08 2c3e
00000180: 2d6c 0fbd 532d 04be 9ede 4bbd f53f 433d
00000190: 7c3b f5bc 0737 21be cb74 a9bd f3dc 3cbd
000001a0: db1c dbbd 7959 28be 5536 053e b5c1 1bbe
000001b0: 498b 06be f998 b53d 31ad 933d 9207 193d
000001c0: 4961 e43d 4ef0 a3bb bff7 083e 3993 68bd
000001d0: 432d a0bd 3583 673d 2bcd c0bd 6e32 c4bd
000001e0: 0f94 22bd 0c92 50bc 7e29 2abe 6d95 0dbe
000001f0: d9f6 36be 9262 4ebe f75e 693d 0102 433e
00000200: f59a 3c3e 112e 8b3c f2a7 93bd 8d4d 363d
00000210: 6525 c03d 486b 1abd a99f 333d c71e 9bbd
00000220: 22e2 acbd 62bf 54be 3f59 88bd 5bb7 f9bd
00000230: 3705 9abc 7cb7 bd3d 5b53 b03d d406 b2bd
00000240: 910c 0ebd 4c85 3dbd dc4d 09be 1150 d33d
00000250: 947f 34be 9d63 8a3d 02ae 14bd 2b9c debd
00000260: f456 25be 381d 2bbe 9fe6 d83d 5635 913d
00000270: 24d4 b5bc 9954 20be 8758 603d 52b0 9c3d
00000280: daa1 bc3d 9d4b d43d e7ba f03d 85c1 493c
00000290: ec33 323d 7a0b 85bd e6b0 08bd 6df8 bcbd
000002a0: 4c40 6f3c 1d68 05be bbe2 683d 575d a9bd
000002b0: 8e72 943d 7683 c83d 0075 703d 69f6 a0bd
000002c0: 07bf 0e3e 68f6 fdbd 4255 a13d 703a 00be
000002d0: 09b0 b63d d770 043d 0394 ecbd cdc0 c8bd
000002e0: 12e4 eabd 3952 b53c 47c4 043e 87a9 993d
000002f0: 420e 483e 228d cc3d 260f 15be 7e06 bb3d
00000300: 4262 a43d 624f 9b3d 72bb 87bc 7da4 41bd
00000310: 7bc4 4d3d 981b 21be 338d 2bbd 63f9 a8bd
00000320: de4d d23d 99ee 49bc 14bc cfbd 46fa d03d
00000330: 5266 babb b256 57bc f9f3 ee3d 96bd 3e3e
00000340: cbfb ea3d cd60 49bc 7f10 54be 7cdd fcbd
00000350: 307e 803d 0441 41be 48c6 82bc 33e9 18be
00000360: 844e 12be 22f7 473c cc82 feb7 89ab c9bd
00000370: 9729 c7bc 882f e1bd 8fed aebc 681f 47bd
00000380: 7e19 4ebe ce21 38bb 9aa9 fa3a 5ec5 5fbd
00000390: 47b6 203e 06c6 64be da0d 8bbd 4759 be3d
000003a0: 840c 863b 8948 473b 7284 8b3d d9c8 57be
000003b0: d4bf a9bd ccc5 cabd bd82 b7bd 630a 6cbe
000003c0: 657f 143d fce3 103e 1d86 4dbe 5456 0a3d
000003d0: 396c 15be 0d49 10bc 86b2 1fbd 722e 443e
000003e0: 9d64 9b3d 5a1d 913d 757b 79bc ed82 70be
000003f0: 27fe 10be 97d3 423e 0a2b 06bd e902 42bd

_fc2.weight f4 [256, 256]
-0.26238084 0.06823707 0.1149902 0.026627569 -0.21945539 0.029105296 0.10300256 -0.10116513
0.15380657 0.1608233 -0.16031215 0.04861497 -0.05483759 -0.02422837 -0.1166214 -0.15717979
-0.3488285 0.042051416 0.12631507 -0.30735055 -0.35801902 0.035952963 -0.12176429 0.019758688
0.06484713 -0.07661676 0.091606 -0.00139698 0.13021722 -0.06687051 0.019865701 -0.262894
0.041257966 -0.092242755 0.12256394 -0.14604072 0.039909754 -0.066787615 0.10388458 -0.3103247
0.04022975 0.09310464 0.07768277 0.07255947 -0.11898893 -0.39122826 0.2237868 0.12956685
-0.007836347 -0.07096475 -0.3421199 -0.0019883811 -0.08255789 0.028622918 -0.13596337 -0.058846585
-0.10740155 0.08782355 -0.26740366 0.048133127 0.00363946 -0.077642806 0.06499246 -0.18982525
0.17336777 -0.0066606873 0.008062104 -0.08408588 -0.17812441 -0.14718634 0.09733922 -0.09569542
-0.01196431 0.12839071 -0.15074776 -0.18417178 0.20702395 -0.08672285 -0.033764377 0.09041487
0.16855939 0.14649062 0.09253169 0.016907057 -0.09082522 -0.11646055 -0.19688928 0.09000934
-0.08075722 -0.1430397 -0.12694922 -0.14181948 -0.25203407 0.019478863 -0.16585182 -0.16813767
-0.17535356 -0.2723299 0.04690846 -0.025688674 0.05744743 -0.014269442 -0.12979183 0.14612257
0.045180872 -0.2636306 -0.069658995 0.076896414 0.053495336 0.039810997 -0.024124831 0.014209329
-0.012544078 0.0574057 -0.3901758 0.0025520925 0.10126643 -0.31354666 -0.016260618 0.13310102
-0.07977418 -0.16682412 -0.009940877 -0.102670215 0.14464565 0.07286112 -0.28044772 -0.031751927
0.0060950406 -0.030213691 -0.15475084 -0.27306166 -0.14135735 -0.15430392 0.15429841 -0.11813921
0.05842337 -0.11857872 0.06471179 -0.099413484 -0.35156006 0.08337866 0.19980866 -0.12483521
-0.07595178 -0.050947797 0.16490176 -0.034272753 -0.38437706 0.049310982 -0.111444 -0.22869387
-0.0999911 -0.15283564 0.1889876 0.01869736 -0.011477766 -0.085224845 -0.07280379 0.10258638
0.048244458 -0.047388244 -0.043189183 -0.0034163354 0.050877985 -0.08089659 -0.08210074 -0.049419444
-0.24322876 -0.3843148 0.14109416 -0.14013964 -0.0006407936 0.011185334 0.07032405 -0.06687505
-0.18961512 0.13049309 -0.060448226 0.21384239 0.21295644 -0.23427649 -0.23227806 -0.03032572
-0.31311724 0.1422606 -0.07217307 -0.33028108 -0.07095905 -0.17061475 -0.21719413 0.14221627
-0.032963514 -0.11081039 0.021455484 -0.24644673 -0.2212116 -0.3233812 0.12151029 0.00899079
-0.06014686 -0.11630033 0.22749197 -0.16833921 -0.31116784 -0.064788915 -0.11477866 -0.11531337
0.09650485 -0.14045914 -0.002760369 -0.18187357 -0.08122938 0.066173874 -0.072152555 -0.17517677
0.06641273 0.049277928 0.18953821 -0.18289721 0.0059159775 -0.3184443 -0.18234415 -0.1316869
-0.2129494 0.015107728 0.19850478 -0.06973878 0.036350764 -0.14795728 0.1084857 -0.20899403
0.114472315 -0.23709957 -0.06693835 0.17044304 -0.20678626 -0.14270435 0.12794524 -0.107549615
-0.0062339646 0.057895042 -0.06782927 0.017301925 0.048618957 -0.024027832 -0.08918091 0.07979457
-0.034310136 -0.18362848 -0.06766457 -0.23663642 0.054596264 -0.28583243 0.17473155 0.07259335
00000000: c856 86be e1bf 8b3d fb7f eb3d 0f22 da3c
00000010: eab8 60be 3b6e ee3c 02f3 d23d aa2f cfbd
00000020: 787f 1d3e ddae 243e de28 24be 7e20 473d
00000030: 619d 60bd 937a c6bc 33d7 eebd bdf3 20be
00000040: a699 b2be 1b3e 2c3d bd58 013e 0d5d 9dbe
00000050: 454e b7be 6a43 133d 8e5f f9bd f9dc a13c
00000060: 92ce 843d 3fe9 9cbd ed9b bb3d df1a b7ba
00000070: aa57 053e 68f3 88bd 65bd a23c 0b9a 86be
00000080: 1dfe 283d c5e9 bcbd ce02 fb3d b38b 15be
00000090: 6978 233d f2c7 88bd 70c1 d43d e1e2 9ebe
000000a0: f3c7 243d a5ad be3d 2518 9f3d 0f9a 943d
000000b0: 78b0 f3bd 124f c8be 5e28 653e 2cad 043e
000000c0: 0664 00bc f855 91bd 572a afbe 804f 02bb
000000d0: 1c14 a9bd 9c7a ea3c fb39 0bbe 1e09 71bd
000000e0: 58f5 dbbd d5dc b33d 22e9 88be 3e27 453d
000000f0: 0284 6e3b 3103 9fbd c41a 853d 8d61 42be
00000100: 5287 313e e541 dabb ea16 043c 3835 acbd
00000110: 3f66 36be 04b8 16be c959 c73d f6fb c3bd
00000120: f405 44bc db78 033e 9f5d 1abe 8797 3cbe
00000130: 16fe 533e c09b b1bd 844c 0abd 6e2b b93d
00000140: d59a 2c3e a301 163e 4181 bd3d ab80 8a3c
00000150: 9302 babd de82 eebd 589d 49be d156 b83d
00000160: 0b64 a5bd 0079 12be fafe 01be 2039 11be
00000170: 9c0a 81be 2392 9f3c 0fd5 29be 482c 2cbe
00000180: e28f 33be d36e 8bbe 1623 403d 0e71 d2bc
00000190: ff4d 6b3d 61ca 69bc 26e8 04be 28a1 153e
000001a0: 940f 393d 97fa 86be 60a9 8ebd de7b 9d3d
000001b0: ed1d 5b3d db10 233d 70a1 c5bc 3fce 683c
000001c0: ad85 4dbc 3d22 6b3d 1fc5 c7be 0241 273b
000001d0: c664 cf3d 3089 a0be fd34 85bc a24b 083e
000001e0: a560 a3bd f1d3 2abe 0fdf 22bc c344 d2bd
000001f0: fd1d 143e 3638 953d d896 8fbe 4f0e 02bd
00000200: e8b8 c73b b482 f7bc 0177 1ebe bdce 8bbe
00000210: fbbf 10be d901 1ebe 6700 1e3e f8f2 f1bd
00000220: 584d 6f3d 66d9 f2bd 9d87 843d 4c99 cbbd
00000230: aeff b3be 6ec2 aa3d a49a 4c3e 9aa9 ffbd
00000240: 9b8c 9bbd a3ae 50bd 02dc 283e 9661 0cbd
00000250: 12cd c4be 50fa 493d c03c e4bd ba2e 6abe
00000260: 22c8 ccbd f280 1cbe f785 413e 352b 993c
00000270: 3d0d 3cbc 5d8a aebd 271a 95bd cf18 d23d
00000280: fb9b 453d 2d1a 42bd 24e7 30bd 99e4 5fbb
00000290: 6f65 503d 1dad a5bd 6f24 a8bd 0b6c 4abd
000002a0: f610 79be e9c4 c4be fd7a 103e c480 0fbe
000002b0: eefa 27ba b142 373c 0e06 903d c9f5 88bd
000002c0: 772a 42be fb9f 053e 8f98 77bd 80f9 5a3e
000002d0: 4111 5a3e 2de6 6fbe 4dda 6dbe a56d f8bc
000002e0: e750 a0be c3ac 113e 79cf 93bd 9a1a a9be
000002f0: fa52 91bd a2b5 2ebe 2368 5ebe 24a1 113e
00000300: c004 07bd 8ff0 e2bd 69c3 af3c 885c 7cbe
00000310: 4b85 62be 3892 a5be 63da f83d 1b4e 133c
00000320: 8e5c 76bd de2e eebd a8f3 683e 1d61 2cbe
00000330: 6451 9fbe 0db0 84bd 1311 ebbd 6b29 ecbd
00000340: 56a4 c53d 85d4 0fbe 4fe7 34bb 113d 3abe
00000350: 975b a6bd 2b86 873d b8c4 93bd 8a61 33be
00000360: 6603 883d a7d7 493d 4e16 423e 6849 3bbe
00000370: d1da c13b 220b a3be 6db8 3abe eed8 06be
00000380: 680f 5abe 6786 773c d644 4b3e 35d3 8ebd
00000390: 8ae4 143d 1d82 17be c02d de3d 8802 56be
000003a0: 7670 ea3d 3bca 72be f916 89bd 9f88 2e3e
000003b0: c7bf 53be 1721 12be 1404 033e f942 dcbd
000003c0: 4946 ccbb 5a23 6d3d 13ea 8abd c4bc 8d3c
000003d0: ac24 473d 04d6 c4bc 7ba4 b6bd 566b a33d
000003e0: c988 0cbd 1b09 3cbe b993 8abd d150 72be
000003f0: 55a0 5f3d a158 92be d4ec 323e d3ab 943d

_fc2.bias f4 [256]
-0.075972565 -0.14011094 0.057825137 0.025011584 -0.020729912 0.4516238 -0.0043731974 0.2915289
-0.037680827 -0.10306611 0.014615697 -0.075218305 -0.035030775 -0.09638865 0.04538065 -0.07998674
0.13242859 -0.0026687246 0.0076920367 0.014642954 0.07578384 -0.09393217 0.15646952 -0.025647867
-0.04823051 -0.032806046 -0.008768774 0.035201587 -0.062367752 -0.045752034 -0.018145192 0.08908592
-0.032509807 -0.046922177 -0.008675256 0.044696704 -0.08140589 0.1711606 -0.014646158 -0.085531816
-0.031241007 -0.09964685 0.008912444 0.14372535 -0.06597981 -0.06541875 -0.03637817 -0.059643824
0.1337545 0.028873207 0.0041038236 -0.080093 -0.025783855 -0.007034603 -0.075493574 -0.0049260617
-0.09238807 -0.067775086 0.03079085 0.12760454 -0.075561 -0.09360469 0.039051965 0.09834059
0.05147006 0.4233179 -0.08228155 0.10020228 -0.008001561 -0.07698377 -0.014099199 -0.04263091
-0.14981715 -0.023049936 -0.049529765 -0.10926045 0.053877942 0.0010150061 0.022670167 0.049566932
-0.06624795 0.14056088 0.21541107 -0.011452003 -0.08063673 -0.039474174 0.019902177 0.0076730372
-0.008605053 0.48045024 0.06872871 -0.015835732 -0.099600054 -0.058387704 0.007847324 -0.098159835
-0.046569765 0.050189115 0.026543427 -0.013804707 -0.058642413 -0.04399972 0.028970806 -0.052725215
-0.073483035 0.18693703 -0.054142207 0.017869063 -0.068054184 -0.050487045 0.09806051 0.07117056
-0.012987722 -0.03236152 -0.0425889 -0.088972256 -0.11770671 -0.045259174 0.44193092 0.22267427
-0.0020527947 0.13744189 -0.07576119 -0.07670099 -0.04539087 -0.08872639 -0.07537925 0.0032500082
-0.025894353 0.07351653 -0.075342014 0.08795801 -0.052790083 0.053162478 -0.08117136 -0.0016890714
0.048298813 -0.08193137 -0.02033114 0.00931689 -0.040894084 0.011346782 -0.070751086 -0.027663007
-0.116238676 -0.06247158 -0.10564687 0.0033760762 0.028583257 -0.06400504 -0.055025112 -0.038968902
-0.07194489 0.064112276 -0.082784176 -0.034035534 0.055275884 -0.0372993 -0.05435509 -0.041010555
0.3566809 -0.00837469 -0.058664765 -0.044270057 -0.07769352 0.048463676 -0.04687454 -0.11441013
-0.06276005 0.049079433 0.008677505 -0.013077836 0.03015373 -0.10498376 -0.072448894 -0.07133971
-0.03393915 0.028520383 0.08965722 -0.111664414 0.10024805 0.009923832 0.05932575 0.015319995
-0.036692135 -0.09697428 -0.09663155 0.031337302 -0.031920563 -0.12794015 0.072355226 -0.07754602
0.056160767 0.03128644 -0.011315305 0.0296377 0.069600336 -0.0126086185 0.049017504 0.095111735
0.022728616 -0.113058135 -0.14249386 -0.08468902 -0.089844115 -0.08507155 -0.01171035 -0.04229387
-0.011749737 -0.030407544 0.20674683 0.03240737 -0.012198075 0.0071098367 -0.08970682 -0.08597295
-0.025746541 -0.0065908786 0.19201922 -0.07936089 -0.0975326 -0.001880233 0.011507445 0.031692065
0.072314955 0.06935027 -0.059856873 -0.026618525 -0.06069135 0.056281283 0.09570356 -0.037757523
-0.011398385 0.023002917 -0.13258138 -0.017623665 0.07475463 -0.06747282 -0.063237764 -0.014896231
0.102196366 -0.04847224 -0.022476092 0.10461476 0.009230434 -0.015631527 0.0069072866 -0.1096348
0.021847082 0.13213642 0.08056677 0.16512433 -0.06442275 -0.08796642 0.031529397 0.013895054
00000000: 8197 9bbd 3e79 0fbe 0dda 6c3d 18e5 cc3c
00000010: c7d1 a9bc 3c3b e73e 0a4d 8fbb 4743 953e
00000020: 3657 1abd 5314 d3bd ad76 6f3c 0e0c 9abd
00000030: 6e7c 0fbd 6a67 c5bd 0fe1 393d 17d0 a3bd
00000040: 5c9b 073e c5e5 2ebb 7b0d fc3b 00e9 6f3c
00000050: 8f34 9b3d 825f c0bd 8c39 203e 7a1b d2bc
00000060: 5b8d 45bd a25f 06bd e7aa 0fbc 8a2f 103d
00000070: 5475 7fbd 7c66 3bbd 3aa5 94bc ae72 b63d
00000080: 0129 05bd 7831 40bd a922 0ebc e413 373d
00000090: 22b8 a6bd b944 2f3e 70f6 6fbc 4e2b afbd
000000a0: 24ed ffbc a613 ccbd 8005 123c bd2c 133e
000000b0: 6c20 87bd 44fa 85bd 4701 15bd 154d 74bd
000000c0: f1f6 083e 8187 ec3c 5e79 863b cc07 a4bd
000000d0: aa38 d3bc 8782 e6bb 609c 9abd cd6a a1bb
000000e0: f535 bdbd aacd 8abd 183d fc3c c4aa 023e
000000f0: babf 9abd d1b3 bfbd f4f4 1f3d cb66 c93d
00000100: 45d2 523d 20bd d83e 3b83 a8bd da36 cd3d
00000110: fb18 03bc aba9 9dbd 5400 67bc c09d 2ebd
00000120: ab69 19be 38d3 bcbc b9df 4abd f1c3 dfbd
00000130: 1eaf 5c3d f409 853a c9b6 b93c b206 4b3d
00000140: 01ad 87bd 31ef 0f3e b894 5c3e 2fa1 3bbc
00000150: df24 a5bd acaf 21bd e409 a33c 1a6e fb3b
00000160: 35fc 0cbc 93fd f53e a3c1 8c3d f0b9 81bc
00000170: 1dfb cbbd f227 6fbd 1092 003c 0608 c9bd
00000180: f0bf 3ebd 1a93 4d3d 9a71 d93c 232d 62bc
00000190: 0733 70bd 0d39 34bd 2f54 ed3c 65f6 57bd
000001a0: 467e 96bd 6c6c 3f3e 38c4 5dbd 2462 923c
000001b0: fe5f 8bbd 81cb 4ebd f3d3 c83d dfc1 913d
000001c0: 74ca 54bc 838d 04bd b371 2ebd 1637 b6bd
000001d0: 3710 f1bd af61 39bd c544 e23e b904 643e
000001e0: 2e88 06bb 91bd 0c3e af28 9bbd 6915 9dbd
000001f0: c7eb 39bd 2eb6 b5bd 7060 9abd 17fe 543b
00000200: 6520 d4bc d68f 963d ea4c 9abd 5423 b43d
00000210: 6a3a 58bd e6c0 593d 2c3d a6bd d563 ddba
00000220: fad4 453d a2cb a7bd 7e8d a6bc dea5 183c
00000230: 8e80 27bd dae7 393c f2e5 90bd 889d e2bc
00000240: 8b0e eebd 33e2 7fbd 635d d8bd 2941 5d3b
00000250: 6f27 ea3c 1315 83bd 0362 61bd db9d 1fbd
00000260: d857 93bd 4c4d 833d c08a a9bd d868 0bbd
00000270: f768 623d 27c7 18bd 71a3 5ebd affa 27bd
00000280: e19e b63e ff35 09bc 774a 70bd 8554 35bd
00000290: c81d 9fbd d981 463d 85ff 3fbd dc4f eabd
000002a0: 5788 80bd 8407 493d 182c 0e3c 6b44 56bc
000002b0: f504 f73c ba01 d7bd 1660 94bd 8e1a 92bd
000002c0: c703 0bbd 94a3 e93c 349e b73d 50b0 e4bd
000002d0: da4e cd3d 9197 223c 8fff 723d b700 7b3c
000002e0: 7e4a 16bd 749a c6bd c3e6 c5bd 8b5b 003d
000002f0: 23bf 02bd be02 03be fa2e 943d 73d0 9ebd
00000300: d508 663d 3626 003d d463 39bc c3ca f23c
00000310: 9f8a 8e3d 6194 4ebc 94c6 483d f1c9 c23d
00000320: 5d31 ba3c 068b e7bd e9e9 11be 7071 adbd
00000330: 3100 b8bd fe39 aebd c5dc 3fbc 563c 2dbd
00000340: f881 40bc 3e19 f9bc 71b5 533e 97bd 043d
00000350: 6fda 47bc a2f9 e83b 36b8 b7bd 9612 b0bd
00000360: 69ea d2bc 4cf8 d7bb b0a0 443e f687 a2bd
00000370: 2cbf c7bd 2672 f6ba b989 3c3c 8acf 013d
00000380: dd19 943d 8407 8e3d 7b2c 75bd 180f dabc
00000390: 7e97 78bd 3487 663d 3a00 c43d a2a7 1abd
000003a0: 4bc0 3abc 9d70 bc3c 6ac3 07be 815f 90bc
000003b0: f518 993d 312f 8abd cd82 81bd 520f 74bc
000003c0: 544c d13d d48a 46bd c81f b8bc 4340 d63d
000003d0: 3f3b 173c b00d 80bc 8556 e23b 3688 e0bd
000003e0: a7f8 b23c c54e 073e 3100 a53d 5a16 293e
000003f0: 13f0 83bd bd27 b4bd f824 013d 15a8 633c

_fc3.weight f4 [4, 256]
-0.22917958 0.024881931 0.27035925 0.27092606 -0.2993078 0.13507673 0.049005903 0.064094596
0.019347655 -0.13943247 0.07246136 -0.022872645 0.0089854915 0.11669573 -0.12568085 -0.08024751
0.027667535 -0.022946635 -0.037163228 -0.068919666 0.46463752 -0.252585 -0.0026265993 -0.10168758
0.030531872 0.057687365 -0.3742935 0.028480519 -0.012391872 -0.0042418973 0.0073223854 0.010429934
0.06391633 -0.21743764 -0.23195307 0.103807315 0.112950675 0.075465135 -0.26041186 -0.2717814
0.07041995 -0.1296469 0.10348844 0.045010164 -0.16264327 0.25699395 -0.37025243 -0.30285266
0.057504144 0.08486197 0.25390962 -0.35855055 -0.02087208 0.048900653 -0.21390809 0.060683895
0.102971256 0.04047766 -0.03766503 0.04324794 0.21762821 0.016985552 0.012785095 0.07616011
-0.2630838 0.08726233 -0.26806045 0.08587175 -0.1723565 0.068000644 -0.29714784 0.027385894
-0.034696862 -0.1064463 -0.06330137 -0.014448258 0.093644105 0.11818927 -0.2439093 0.063303374
-0.1763537 0.046206564 0.04220023 -0.07274899 0.08879656 0.13756382 0.21022232 0.10781637
0.0965695 0.09921263 0.020224726 -0.03823952 -0.18634492 -0.2740845 -0.21761072 -0.12020748
-0.00941238 0.12911823 0.03990301 -0.024079656 0.049139075 -0.12547073 0.20565997 0.27315903
-0.19573149 0.057330586 -0.18940364 0.105588794 0.051833715 0.074943215 0.27889773 0.033575088
-0.016442826 -0.03048531 -0.081148244 -0.057975575 0.10984057 0.40881044 0.086763114 0.05100697
-0.14336282 0.14612359 -0.08577038 -0.08226665 -0.022816584 0.038864594 -0.24442871 0.08740016
0.099728525 0.08690659 0.23154826 0.14794075 -0.22701061 0.009915025 0.07516641 -0.3804898
0.378918 -0.040328648 0.16069315 0.105643876 0.21435837 -0.5150924 -0.0955494 0.03287923
-0.10154332 -0.10396816 -0.041971523 -0.056323517 0.1217255 0.12180738 -0.011948557 0.014231257
0.04088288 0.09848539 -0.036441192 -0.33766773 0.054520834 -0.058396533 -0.025013112 -0.25296545
0.07273814 0.14760198 0.014472473 -0.15612891 -0.02886571 0.16262943 0.037824936 -0.23850161
-0.22656861 0.13230826 0.025262728 0.051286407 0.025013655 -0.09400891 0.11775598 -0.19081455
0.105718754 -0.039386176 -0.41895255 0.063805826 0.034582734 0.057521597 -0.12794626 0.113971196
0.051842608 0.20864129 -0.27759728 0.09738319 0.03596628 -0.12962794 0.080629945 -0.14782128
-0.12024724 -0.40697715 0.01899751 -0.08454569 0.2020643 0.3126263 0.08172943 0.08955773
0.06471211 -0.11996199 -0.121800624 0.08132504 -0.0334845 -0.014395172 -0.15788761 -0.23787385
0.18436144 0.008996226 0.05124706 0.05571538 -0.003373864 0.06936102 -0.08798851 0.031262197
-0.24724165 0.011172254 0.1206732 0.004920008 -0.15567881 0.13148019 0.20789117 0.014923289
0.016121104 0.03993882 0.014120429 0.3185735 -0.04733601 -0.2197783 0.053585753 -0.12565556
0.10824423 0.0002953192 -0.08304514 -0.44229385 0.03802394 -0.035336826 0.19919196 0.15653126
0.35142824 -0.06904169 0.22357489 0.10321066 0.0825305 0.020828905 -0.09565729 0.11931433
0.105490334 0.16961879 0.08123073 0.031779956 -0.018668765 -0.05232424 0.0436591 0.1776745
00000000: 0dae 6abe 31d5 cb3c 876c 8a3e d2b6 8a3e
00000010: df3e 99be 8e51 0a3e 6aba 483d 0744 833d
00000020: f97e 9e3c 63c7 0ebe 9f66 943d 6a5f bbbc
00000030: e237 133c 2cfe ee3d 7bb2 00be ce58 a4bd
00000040: 07a7 e23c 95fa bbbc 7838 18bd c125 8dbd
00000050: f8e4 ed3e d252 81be 0623 2cbb 9441 d0bd
00000060: fa1d fa3c 9649 6c3d 66a3 bfbe fa4f e93c
00000070: 4707 4bbc 9dff 8abb 9ff0 ef3b 50e2 2a3c
00000080: 91e6 823d f9a7 5ebe 1b85 6dbe ee98 d43d
00000090: af52 e73d 778d 9a3d b454 85be ef26 8bbe
000000a0: 5638 903d 28c2 04be bff1 d33d 945c 383d
000000b0: f58b 26be b694 833e ba91 bdbe 810f 9bbe
000000c0: 7789 6b3d 1dcc ad3d 7100 823e f093 b7be
000000d0: edfb aabc 0d4c 483d b90a 5bbe ad8f 783d
000000e0: 98e2 d23d e7cb 253d a646 1abd c024 313d
000000f0: eed9 5e3e 4925 8b3c 9378 513c d5f9 9b3d
00000100: ebb2 86be 98b6 b23d 383f 89be 87dd af3d
00000110: 397e 30be ec43 8b3d c323 98be 6258 e03c
00000120: 4c1e 0ebd 8500 dabd 26a4 81bd 63b8 6cbc
00000130: 7bc8 bf3d 370d f23d 5cc3 79be 33a5 813d
00000140: 1096 34be 1843 3d3d 26da 2c3d 6cfd 94bd
00000150: f9da b53d 88dd 0c3e 8544 573e d4ce dc3d
00000160: 3bc6 c53d fe2f cb3d 53ae a53c 0ba1 1cbd
00000170: 34d1 3ebe ce54 8cbe 58d5 5ebe 572f f6bd
00000180: 6236 1abc 9237 043e 5771 233d b342 c5bc
00000190: 0e46 493d 667b 00be 8798 523e 80db 8b3e
000001a0: d66d 48be 7ad3 6a3d 07f3 41be f03e d83d
000001b0: 974f 543d d47b 993d afcb 8e3e 0886 093d
000001c0: 1bb3 86bc 54bc f9bc 0d31 a6bd cc77 6dbd
000001d0: 18f4 e03d 9a4f d13e dcb0 b13d afec 503d
000001e0: b4cd 12be 6ca1 153e 62a8 afbd 6b7b a8bd
000001f0: d8e9 babc 7b30 1f3d 854b 7abe dbfe b23d
00000200: 783e cc3d 15fc b13d fd1a 6d3e c87d 173e
00000210: 7875 68be a172 223c d9f0 993d 8fcf c2be
00000220: 8a01 c23e a72f 25bd bf8c 243e d15b d83d
00000230: c380 5b3e 18dd 03bf 67af c3bd 5fac 063d
00000240: f2f5 cfbd 42ed d4bd 55ea 2bbd 7db3 66bd
00000250: 384b f93d 2676 f93d e1c3 43bc 382a 693c
00000260: cf74 273d b5b2 c93d 5c43 15bd c9e2 acbe
00000270: 3d51 5f3d 3431 6fbd 4ce8 ccbc b084 81be
00000280: bcf7 943d f924 173e f41d 6d3c 42e0 1fbe
00000290: c877 ecbc 5488 263e 52ee 1a3d c439 74be
000002a0: 9a01 68be d17b 073e c8f3 ce3c b211 523d
000002b0: 70e9 cc3c be87 c0bd 0c2a f13d e464 43be
000002c0: 1383 d83d 6653 21bd f380 d6be a1ac 823d
000002d0: a0a6 0d3d c49b 6b3d 5804 03be bb69 e93d
000002e0: ea58 543d 10a6 553e 3b21 8ebe d770 c73d
000002f0: 6151 133d 30bd 04be 5021 a53d 765e 17be
00000300: 2f44 f6bd 4f5f d0be aba0 9b3c 4a26 adbd
00000310: f2e9 4e3e 8e10 a03e c261 a73d 0b6a b73d
00000320: c887 843d a2ae f5bd 9b72 f9bd be8d a63d
00000330: 0b27 09bd bad9 6bbc 4aad 21be 3495 73be
00000340: 3fc9 3c3e e864 133c 70e8 513d cf35 643d
00000350: 0c1c 5dbb 270d 8e3d 5233 b4bd ca0c 003d
00000360: ea2c 7dbe d40b 373c 8323 f73d 0538 a13b
00000370: 446a 1fbe bea2 063e 6ce1 543e d080 743c
00000380: 6810 843c e396 233d 5f59 673c 111c a33e
00000390: 67e3 41bd 900d 61be bc7c 5b3d daab 00be
000003a0: 27af dd3d 12d5 9a39 9213 aabd 5774 e2be
000003b0: febe 1b3d 59bd 10bd faf8 4b3e bb49 203e
000003c0: 67ee b33e bb65 8dbd d1f0 643e 1c60 d33d
000003d0: c005 a93d 61a1 aa3c f8e7 c3bd 125b f43d
000003e0: 510b d83d 8cb0 2d3e 4c5c a63d b32b 023d
000003f0: 3def 98bc f151 56bd e2d3 323d 4ef0 353e

_fc3.bias f4 [4]
0.41382092 0.20402882 0.25267494 0.2904294
00000000: 56e0 d33e eeec 503e 9c5e 813e 2ab3 943e
