project1-banana-collector/models/dqn_ddqn_per_qnetwork_local.pth (torch_old, 307268 bytes, 6 tensors)

_fc1.weight f4 [256, 37]
000000 0b 54 cb 3c 37 94 88 3d d8 03 93 be d3 ce 91 bd
       0.024820348 0.06668895 -0.2871387 -0.07119527
000010 43 35 e7 bd 99 96 3c 3d 16 da 0e be 42 78 66 3e
       -0.11289456 0.04604206 -0.1395038 0.22506812
000020 38 70 39 be 6e dd 9e bd b9 f0 e6 3d 03 e3 dd bd
       -0.18109214 -0.07757078 0.11276383 -0.10834315
000030 60 62 13 be 26 1d fa be 1b 07 71 bc 9e 30 36 be
       -0.14392996 -0.48850363 -0.014711167 -0.17791983
000040 c5 82 64 3e 71 38 43 bd ba d3 69 3c f0 6a ce bd
       0.2231551 -0.04766125 0.014271671 -0.100789905
000050 b6 50 48 3d 65 4a f3 3c 85 42 02 3d 47 82 77 3d
       0.048905097 0.02969856 0.03180172 0.060426977
000060 55 78 33 be dc 69 16 be f6 94 82 3d 40 ab 65 3c
       -0.17526372 -0.1468882 0.06376068 0.01401788
000070 73 dd a1 3c 1d ef bd be 44 32 24 be 35 a2 1d 3e
       0.019758916 -0.3709649 -0.160348 0.15393908
000080 9d d9 0b 3c 05 17 5f be 1d 4e 64 bd 6d 68 98 be
       0.00853577 -0.21786125 -0.055738557 -0.2976717
000090 71 df 1b bd 16 89 5a bd 80 05 4b 3e 27 bd f4 3d
       -0.038054887 -0.05335339 0.19826317 0.119501404
0000a0 12 98 1d bd 04 42 8b be 38 9a b2 3d fc 17 2b be
       -0.038475104 -0.27198803 0.08720821 -0.16708368
0000b0 90 d5 f3 bd 1e 25 96 be 18 3e b4 bf 4d 0e 55 bc
       -0.11905968 -0.29325193 -1.408145 -0.013003898
0000c0 ea c8 9a bd 8e 4f c1 3c 70 9f 82 3e 77 8a 33 3e
       -0.075578526 0.023597505 0.25512266 0.17533289
0000d0 3f ac ff b9 5b 0c ac 3d eb 86 8a 3d a7 ab f3 3c
       -0.00048765723 0.08400794 0.06764015 0.029744936
0000e0 a0 75 79 be 8b f9 9a bd c0 9c aa bd 85 09 83 bd
       -0.24361277 -0.07567128 -0.08330679 -0.063983
0000f0 6a e7 ec bd ca fb 93 3e af e4 02 be 59 87 3a 3e
       -0.11567576 0.28903037 -0.12782548 0.18215694
000100 07 3c 51 3d 69 88 4d bc d1 4e b1 be 54 ad 19 bd
       0.051082637 -0.01254473 -0.34630445 -0.037518814
000110 d0 8c 0f 3e 0a d1 63 3e ed fc d4 bd 4e 70 8a 3c
       0.1401856 0.22247711 -0.10399804 0.016899254
000120 ca 60 2e 3c 08 12 e8 3b fd 83 97 3e e2 63 ed 3d
       0.0106431935 0.0070822276 0.29592887 0.11591317
000130 6a c6 24 bd c0 77 91 be c0 1e 72 be 28 37 5f 3d
       -0.040228285 -0.28411674 -0.23644543 0.05449596
000140 ce a1 e3 3c bc 7d 0e 3d 73 8e 47 3d 20 cb 87 be
       0.027787115 0.03478788 0.048719835 -0.2652216
000150 f3 1c 85 bc ed f0 5d 3e 54 b0 2d 3d 23 e9 c8 be
       -0.016249156 0.21673937 0.042404488 -0.3924037
000160 70 65 43 3c 68 45 b7 3c fb 2e 1c 3e 99 dc e0 bd
       0.01192604 0.022371963 0.15252297 -0.10979576
000170 9c db f2 3d b4 f4 8a 3e 44 1b 88 be a7 46 b0 bc
       0.118582934 0.2713982 -0.26583302 -0.021518065
000180 ff ca 72 3e 01 26 c7 be 6a 82 d8 be 66 f5 c2 bd
       0.2371025 -0.38896182 -0.42286998 -0.09519462
000190 77 6c 63 3e be 14 36 3e 28 ee 1a bf 4e 7b 22 be
       0.22209345 0.1778135 -0.6051965 -0.1586735
0001a0 73 4c 24 bd e5 e5 08 3e c9 02 17 be fd 33 86 be
       -0.04011197 0.13368948 -0.14747156 -0.2621154
0001b0 5f 4d 3a be 99 ce 1f 3c 8d e0 b6 bd 42 99 2e 3e
       -0.18193577 0.009753847 -0.089295484 0.1705065
0001c0 8d a6 98 bd ad 19 04 3e c4 20 3c 3e 32 8f 65 be
       -0.07453642 0.1290042 0.18371874 -0.22417906
0001d0 d0 83 34 3d 6b 0a 98 3d 94 b2 a0 3d 2a 73 46 3d
       0.04407102 0.07423862 0.07846561 0.048449673
0001e0 7d bf e3 3c de fa bd 3d 66 50 39 bd dd 8f da 3c
       0.02780127 0.09276365 -0.04524269 0.026679927
0001f0 37 ab c6 bd 0d 17 17 be f4 f3 84 3c aa a9 57 bd
       -0.097006254 -0.14754887 0.016229607 -0.05265204
000200 c7 96 8b 3c d8 3f aa bd 9b cf 2e be 05 dc eb 3d
       0.01703967 -0.083129585 -0.17071383 0.11516575
000210 29 fb 2d 3c 1a 9b 7c 3b 25 3a 33 3d 7d ce 88 be
       0.010618963 0.0038544596 0.043756623 -0.26720038
000220 50 6b 0d 3e 8e a1 fe 3c 3f 80 d9 3d 95 93 a4 3d
       0.13810468 0.031082895 0.10620164 0.080359615
000230 e1 54 75 3e 31 ec aa 3e c6 a6 1a 3e c5 ad a5 be
       0.2395816 0.33383325 0.15102682 -0.32359138
000240 09 24 b2 be c7 a1 2e bf f4 4d ea 3b 44 a1 62 3c
       -0.34793118 -0.682156 0.007150406 0.013832394
000250 3d 9c fe bd c5 a1 1a be 37 f9 25 bd ba f7 41 be
       -0.12432144 -0.15100773 -0.040520873 -0.18942156
000260 09 db d2 bc 04 e6 7e 3e a0 8c c6 3d 51 86 9e be
       -0.02573921 0.24892431 0.09694791 -0.3096185
000270 0b 01 70 be b1 c2 6c bf 90 2c 44 bd ef d4 32 bd
       -0.23437898 -0.92484576 -0.04789406 -0.0436601
000280 37 ea aa bd 73 fd 07 3d 6e 76 a7 bd 1d fb af bd
       -0.08345454 0.033200692 -0.081768855 -0.08592818
000290 97 d9 95 bd d4 50 83 bd 38 84 63 bd 90 0a 77 3e
       -0.073168926 -0.06411901 -0.055546016 0.24125123
0002a0 2b 35 34 be e6 2b 39 be 9e 21 e2 3d 36 2c 90 3e
       -0.17598407 -0.18083152 0.11041568 0.2815873
0002b0 7f 5a 9e 3e 17 a0 35 3d f5 bd 3b 3c 48 d5 56 3d
       0.30928418 0.044342127 0.0114588635 0.052449495
0002c0 23 76 a4 bd d6 90 c2 3d e1 69 c8 3d 84 86 20 be
       -0.08030345 0.095002815 0.0978582 -0.15676314
0002d0 f8 ee d0 3d ae 7d fe 3d f6 c8 f6 3e 19 43 83 bc
       0.1020183 0.12426315 0.48200196 -0.016023206
0002e0 a4 f5 52 3c 69 c0 bb bd f3 3a 62 bd 52 87 09 3d
       0.012875948 -0.09167559 -0.055232 0.033576317
0002f0 73 39 b2 bb a2 6f cd 3c 94 46 8a 3e b5 35 1d be
       -0.0054389774 0.025077645 0.27006972 -0.15352519
000300 31 c2 5c be d9 97 2a be f1 31 4f bf c3 ab f6 bd
       -0.21558453 -0.16659488 -0.8093558 -0.1204448
000310 66 95 86 bd c2 ce 10 3d 72 2c be bd 68 ad 48 3c
       -0.06571464 0.03535343 -0.09285821 0.0122483745
000320 08 67 14 ba 67 c2 9b 3d f7 c9 46 be f8 81 66 3d
       -0.0005661105 0.07605439 -0.19412981 0.05627629
000330 64 6d d9 bd 64 5d b8 3d 96 29 99 bd 51 0f b0 3d
       -0.10616568 0.09002188 -0.07478635 0.085966714
000340 c8 12 52 3e 91 19 02 3e 82 28 7a bb 6b 58 c5 bd
       0.20514977 0.12705065 -0.0038171117 -0.09636005
000350 af da da 3d ef 41 89 bc 1d 80 d2 3d 13 df f5 3d
       0.10686242 -0.016755072 0.10278342 0.12005439
000360 d3 02 5f be 51 51 c6 bd a8 38 38 bd 45 6b a1 be
       -0.21778421 -0.096834786 -0.044975907 -0.31527153
000370 2e 75 d1 3d 48 db f9 3c c9 b2 c1 bd 3d 4b 4e 3e
       0.102274284 0.03050007 -0.09457929 0.20145889
000380 92 4b 5f bd 14 04 57 bd 92 e9 1d 3e 02 55 9e bc
       -0.05451543 -0.052494124 0.15421131 -0.019327644
000390 07 c5 24 be df d5 56 3d fa 9d b4 3d 60 40 2d 3e
       -0.16090785 0.052450057 0.08819194 0.16919088
0003a0 53 4a f9 bd 4e bd 36 3e e3 17 91 3e ea d4 70 be
       -0.12172379 0.17845652 0.28338537 -0.2351872
0003b0 62 c5 00 3e 4f dd 6d 3d 9c 04 e4 bd 22 93 f1 bd
       0.12575296 0.058072384 -0.11133692 -0.117956415
0003c0 4e 1e f7 3d f6 1f ea 3d 5e c8 f9 3c c4 5f 48 be
       0.12066327 0.11431877 0.03049105 -0.19567782
0003d0 65 2f ab 3d f8 3d 47 3c 13 19 97 3d 98 08 9d be
       0.08358649 0.012160771 0.073778294 -0.3067062
0003e0 2e 71 4d 3d b5 ff 0c 3e d6 e2 99 be 97 ec 5d 3e
       0.050156765 0.1376942 -0.30055875 0.21672283
0003f0 7b 34 b5 3d 9c 0d 17 bd 80 4c 1e be 1e c9 10 3e
       0.088479005 -0.036878213 -0.1545887 0.1413922

_fc1.bias f4 [256]
000000 1d bd c5 bb 3a 1e b4 3d 92 fe 21 3d 28 69 aa 3c
       -0.006034507 0.08794828 0.039549418 0.020802096
000010 27 b5 20 3d 45 da d0 3c 73 23 f9 bd 24 f7 a4 bd
       0.03923526 0.025494704 -0.121649645 -0.08054951
000020 1d ae 43 be b5 e9 8c bd 33 64 6a 3d 8e 9e 24 3e
       -0.19109388 -0.068805136 0.057224464 0.16076109
000030 c3 38 6a bd 85 36 2b be f1 75 b4 bd 5a 77 a1 3c
       -0.05718304 -0.16720016 -0.08811558 0.019710232
000040 27 61 ca 3d f9 2c 96 bd 25 79 1f be a4 7a 49 be
       0.098818116 -0.073327966 -0.15573557 -0.1967569
000050 14 6a 49 bd 36 52 b7 3d 44 f7 d1 3c 0c 08 23 bd
       -0.04917343 0.08951227 0.0256306 -0.039802596
000060 5a 22 b7 bd 08 5a 10 3d 9f 7b cb 3d e6 db 56 3e
       -0.08942099 0.03524211 0.09935688 0.20982322
000070 17 9b ba 3c 61 e2 48 3e 0a 23 fb 3d f3 e2 20 bd
       0.02277903 0.19617607 0.122625425 -0.039278936
000080 d6 40 e1 bd d2 af 38 3d 38 de ae 3b fd 0a 0e 3e
       -0.109986946 0.04508955 0.005336549 0.13871379
000090 81 78 02 3d a1 93 fe 3d 9a 42 cc bd bd 18 ae 3c
       0.031853203 0.12430502 -0.09973641 0.02125203
0000a0 c1 6a 90 bc ea 0c 5d bd 4a 43 8b 3d 84 21 f0 bc
       -0.01762903 -0.053967394 0.06799944 -0.029312856
0000b0 37 ca d1 bd cc 39 5d bd 5c 25 6d be 5e 64 34 be
       -0.102436475 -0.054010198 -0.23158783 -0.17616412
0000c0 03 d3 c0 bb d1 fb 88 bc 2f ed 8d bd 52 c4 87 3d
       -0.0058845296 -0.016721638 -0.06930005 0.06629242
0000d0 6e 38 83 bd 19 4b f4 bc cd 72 70 ba d7 76 03 be
       -0.064072475 -0.029820966 -0.000917238 -0.12838303
0000e0 7b 4e a1 3c e5 db 42 3d be 0e f2 3d 20 f8 63 3d
       0.019690743 0.04757299 0.11819218 0.055656552
0000f0 ee dc 0a 3e d7 83 3a 3d bf 98 0b 3e 36 19 ca 3d
       0.1356084 0.04553589 0.13632487 0.0986809
000100 9d 21 72 3d cf d9 33 be 2b bb 1c be 37 32 20 be
       0.059114087 -0.17563556 -0.15305774 -0.15644155
000110 e8 29 3e be a6 e4 7c bd a5 a4 34 be 33 ac 06 3e
       -0.18570673 -0.061741494 -0.17640932 0.13151626
000120 d2 ef 6d be 28 f3 89 3d ad 90 09 3c d4 cd e9 bd
       -0.23236015 0.067358315 0.00839631 -0.11416212
000130 d6 47 2c 3e b7 8b c7 bd f6 3d 95 bc c8 9b 92 3b
       0.16824278 -0.09743445 -0.018218022 0.004474137
000140 73 ad 16 be 29 c2 e6 3c c4 f7 59 bd e8 c7 86 bb
       -0.14714603 0.028168755 -0.053214803 -0.004113186
000150 51 cf a0 3d dd 1b 19 bd 4b 48 9d bc bf eb bb 3d
       0.078520425 -0.037380088 -0.019199511 0.091758244
000160 df 61 6f 3d 19 f8 bf 3c 77 35 39 3e 2e c6 18 be
       0.058442947 0.023433732 0.18086801 -0.1491935
000170 23 02 98 bd 65 40 fb 3d 5c 5c 18 bd dd c4 2c 3e
       -0.074222825 0.12268142 -0.037197456 0.16871972
000180 b8 a7 0a bd fe ce 05 be c3 5b 49 bd c9 89 16 3d
       -0.033851355 -0.13067243 -0.049159776 0.036752496
000190 33 b1 2a bd a0 09 1f be 80 49 a9 bd 08 1a 46 bd
       -0.041672897 -0.15531015 -0.08265972 -0.04836467
0001a0 eb 50 d8 bd 31 d6 28 be 2e 99 05 3e 95 43 1d be
       -0.10562309 -0.16487958 0.13046715 -0.15357812
0001b0 5d 50 08 be ad e3 ba 3d c8 47 aa 3d 98 86 10 3d
       -0.13311906 0.09125457 0.083144724 0.03528461
0001c0 f3 1b e6 3d 1f 81 75 bb a4 03 0b 3e 87 d2 5a bd
       0.112358 -0.0037460995 0.13575608 -0.05342343
0001d0 97 81 a2 bd 2a d5 6d 3d 0c d8 c0 bd 10 2b b6 bd
       -0.079348736 0.058064617 -0.09416208 -0.08894932
0001e0 30 68 25 bd a2 e4 87 bc c4 24 28 be 94 83 0f be
       -0.040382564 -0.016588513 -0.16420275 -0.14015037
0001f0 62 23 35 be 66 e5 4d be 28 ac 59 3d 0f 01 46 3e
       -0.17689279 -0.2010704 0.053142697 0.19336341
000200 cb 85 3d 3e dc b4 6a 3c 6e 43 95 bd 19 46 49 3d
       0.18508069 0.014325347 -0.07288252 0.049139116
000210 10 cf c2 3d 7b de 0e bd 5e 14 34 3d 2d 7b 8b bd
       0.0951215 -0.034880143 0.043964736 -0.06810603
000220 2a d0 a7 bd 0d 0c 55 be 43 56 90 bd e7 e2 ef bd
       -0.08194001 -0.20805378 -0.07047703 -0.117132
000230 a2 e1 79 bc 0b 88 c1 3d 17 0a ad 3d 17 ff b1 bd
       -0.015251549 0.09449776 0.0844919 -0.08691233
000240 be db 15 bd 0d b8 55 bd 15 7a 08 be 5e 2e d9 3d
       -0.036586516 -0.052177478 -0.1332782 0.10604547
000250 5a 0d 31 be 3b 1c 8d 3d 1e df 1c bd be a7 ea bd
       -0.1729025 0.0689015 -0.03829872 -0.114577755
000260 ae 9a 20 be 0e 38 2c be 50 28 da 3d c0 4c 98 3d
       -0.15684006 -0.16818258 0.1065222 0.07436514
000270 f5 6d c8 bc f6 fc 1d be 04 e1 54 3d d6 36 9d 3d
       -0.024466494 -0.15428528 0.051972404 0.07676475
000280 26 3c c4 3d ac 99 ce 3d b3 1b ee 3d 15 44 0f 3c
       0.09581785 0.10087904 0.11626377 0.008744259
000290 1f b5 54 3d 00 4c 84 bd 71 ae f1 bc 3c dc b6 bd
       0.051930543 -0.06459808 -0.029502125 -0.08928725
0002a0 b2 31 91 3c c3 ad 0a be 75 f9 60 3d a9 a3 af bd
       0.017723892 -0.13542847 0.0549254 -0.085761376
0002b0 16 40 9d 3d 4b 1c cc 3d 3e 2b 74 3d 19 aa a5 bd
       0.07678239 0.09966334 0.05961155 -0.08089084
0002c0 f0 0d 12 3e fe d6 f4 bd 49 17 b4 3d 86 ff 03 be
       0.14263129 -0.11955069 0.08793504 -0.12890443
0002d0 08 bf b8 3d 1d ec e4 3c 55 4b e9 bd 44 08 c6 bd
       0.09020811 0.027944619 -0.113913216 -0.09669545
0002e0 a6 63 e2 bd 6e e7 8e 3c 99 fd 06 3e be 28 8d 3d
       -0.11054163 0.017444339 0.13182677 0.068925366
0002f0 b1 f5 4c 3e 8a 15 ce 3d e0 74 18 be 33 49 c5 3d
       0.20015599 0.10062702 -0.14888334 0.09633102
000300 68 3c a7 3d fc 4d 96 3d e6 b7 2f bc 0e ef 3d bd
       0.081658185 0.07339093 -0.010724997 -0.04637056
000310 91 ef 1d 3d ad 5a 1d be a3 7a 38 bd 77 75 a2 bd
       0.038558546 -0.15366621 -0.04503883 -0.07932561
000320 c3 bb cf 3d 2f db 55 bc b6 ad d0 bd ba cc d5 3d
       0.101432346 -0.013052746 -0.10189383 0.10439439
000330 35 9a 85 ba ab 1e c4 bb 0e 1c ed 3d be 6b 40 3e
       -0.0010193052 -0.005985101 0.11577617 0.187911
000340 c6 8b ed 3d f6 0f 04 bc 38 68 51 be c7 37 f2 bd
       0.11598925 -0.008060446 -0.20449913 -0.11827045
000350 71 a4 85 3d ff d8 3c be 8d 08 9b bc 79 91 10 be
       0.06525505 -0.18442152 -0.018924976 -0.14117993
000360 e2 cf 17 be c2 25 20 3c 46 fc 33 bb 37 6c c4 bd
       -0.14825395 0.009774627 -0.00274636 -0.09590953
000370 a7 d2 fa bc d9 90 e8 bd 7b 7c 9c bc 5e b4 5e bd
       -0.030618025 -0.113557525 -0.019102326 -0.05437123
000380 f1 d6 4a be 47 dd f7 ba c1 cf a0 ba eb 39 74 bd
       -0.19808556 -0.001891055 -0.0012268947 -0.059625547
000390 5c 46 21 3e 04 87 6c be e2 f4 8b bd 81 15 b8 3d
       0.15749496 -0.2309838 -0.06833817 0.089884765
0003a0 72 89 14 3b 1b 62 5e 3b 3a 3c 87 3d a9 cf 56 be
       0.0022664932 0.0033932987 0.06603284 -0.20977654
0003b0 e9 e6 a3 bd af ca d5 bd f6 54 b8 bd 10 e9 6f be
       -0.08003027 -0.104390495 -0.0900058 -0.2342875
0003c0 80 9d 0d 3d 45 7e 0d 3e 99 4b 4d be 93 d8 14 3d
       0.03457403 0.13817699 -0.2004837 0.036339354
0003d0 8c 72 15 be b4 4a 0e bc bc 94 42 bd 7c c9 3d 3e
       -0.14594477 -0.008684803 -0.047505125 0.18533891
0003e0 ae 0f 9a 3d b2 27 99 3d 71 67 a9 bc d8 f7 6c be
       0.07522522 0.074782744 -0.020679208 -0.2314142
0003f0 ca 6d 17 be 40 cd 42 3e d6 10 07 bd 62 6d 37 bd
       -0.14787975 0.19023609 -0.03297504 -0.04478205

_fc2.weight f4 [256, 256]
000000 dc 1d 7b be 37 a4 84 3d ad de f5 3d 7d 7c 05 3d
       -0.24523109 0.06476634 0.12005363 0.032589424
000010 db 80 70 be ac 80 d2 3c 01 9a cf 3d 58 c9 b6 bd
       -0.23486654 0.025696121 0.10136796 -0.08925122
000020 33 d0 1f 3e 69 9d 2d 3e d4 83 22 be 09 12 65 3d
       0.15606765 0.16954578 -0.15870601 0.055925403
000030 e4 28 84 bd 2d 78 00 bc 40 82 d9 bd f9 37 0f be
       -0.06453112 -0.007841152 -0.10620546 -0.13986196
000040 86 1c b5 be aa c2 67 3d c9 fb 06 3e 83 18 9b be
       -0.35373324 0.05658213 0.13181986 -0.30292138
000050 ff ee b9 be ba 98 1b 3d 11 92 cc bd 05 4d f1 3c
       -0.36315152 0.03798745 -0.099887975 0.029455671
000060 22 4e 8b 3d ee 53 a2 bd 17 9c d1 3d 4d ca e2 b9
       0.06802012 -0.079261646 0.1023485 -0.00043256805
000070 7b 61 03 3e d7 df 83 bd 2e c2 a5 3c d1 df 89 be
       0.12830155 -0.064391784 0.020234194 -0.2692857
000080 32 e4 86 3d 8d f0 c2 bd ac c0 0a 3e 08 8c 15 be
       0.065864936 -0.09518538 0.13550061 -0.14604199
000090 46 45 3b 3d 18 f8 87 bd b3 b9 f6 3d 8c 97 9f be
       0.04572036 -0.06639117 0.12047138 -0.3117031
0000a0 fa bc 2a 3d 63 18 cc 3d 95 51 9d 3d 23 74 ad 3d
       0.04168413 0.09965589 0.07681576 0.08469417
0000b0 17 c0 f6 bd 43 57 ca be d8 18 76 3e 8f 5f 0f 3e
       -0.12048357 -0.395197 0.24032915 0.14001296
0000c0 2d 71 f2 bc 53 68 8e bd 94 38 ae be 94 59 80 3b
       -0.029594982 -0.06953492 -0.3402754 0.0039169285
0000d0 bd af a0 bd 08 af b4 3c b9 0b 09 be 64 06 84 bd
       -0.078460194 0.022056118 -0.13383378 -0.064465314
0000e0 db c2 f1 bd ed e8 d0 3d 3e f3 86 be 02 cf 46 3d
       -0.11804744 0.10200677 -0.26357454 0.04853726
0000f0 b6 19 69 bc 01 17 98 bd 01 62 91 3d 4f cd 38 be
       -0.014227321 -0.07426263 0.07098771 -0.18047069
000100 01 04 37 3e 0d 5c be bc 54 f0 ed 3c 67 bc a8 bd
       0.17872621 -0.023237253 0.029045261 -0.0823906
000110 8f 78 3c be d1 f7 17 be ce a3 fa 3d b9 c6 b4 bd
       -0.18405364 -0.14840628 0.122382745 -0.08826966
000120 e0 de 5f bc c3 bd f7 3d ff a4 1a be 2e 9f 37 be
       -0.013663977 0.12096741 -0.15102004 -0.17931816
000130 db 00 57 3e 6a 9e a2 bd cd 44 b1 bc 82 72 c2 3d
       0.2099642 -0.07940371 -0.021639252 0.09494497
000140 c9 4c 34 3e 75 b4 11 3e c6 06 ba 3d 25 6c ce 3c
       0.17607416 0.14228995 0.09083323 0.025198052
000150 7b df af bd b8 db f0 bd 21 66 41 be 47 a0 b5 3d
       -0.085875474 -0.11760658 -0.18886615 0.08868461
000160 d5 c5 bc bd 2e 8e 10 be 3c 36 e0 bd 27 1a 0e be
       -0.09217421 -0.14116737 -0.109478444 -0.13877164
000170 ee 13 79 be 73 93 9f 3c 53 56 1f be 53 ad 31 be
       -0.24324009 0.019479489 -0.15560274 -0.17351274
000180 b4 cd 24 be 62 03 87 be 46 f7 84 3d ea 79 aa bc
       -0.16094095 -0.26369768 0.06492476 -0.020810086
000190 83 00 77 3d 27 b0 71 3a 12 31 11 be 85 11 19 3e
       0.060303222 0.0009219669 -0.14178875 0.1494809
0001a0 75 ac 4d 3d bd ee 5b be 19 0b 9e bd d1 13 55 3d
       0.050213296 -0.2147779 -0.077169605 0.05202085
0001b0 79 12 56 3d fa 95 d2 3c b7 cf 0b bd ea e9 2e 3c
       0.05226371 0.02570628 -0.03413364 0.010675887
0001c0 bb 84 57 bc c0 42 75 3d a0 d5 bf be 13 fc 65 3c
       -0.013154204 0.05987811 -0.3746767 0.01403715
0001d0 09 7c d8 3d c9 78 a7 be d4 58 af bc ff 64 0b 3e
       0.10570533 -0.3270934 -0.021404661 0.13612746
0001e0 43 11 7b bd 68 77 29 be 2e 55 9e bc 3e 85 c3 bd
       -0.06129576 -0.16549456 -0.019327726 -0.09546898
0001f0 df 99 0f 3e c9 0c a4 3d 73 2c 92 be 2b 04 c7 bc
       0.14023541 0.08010251 -0.28549537 -0.02429398
000200 3c 8b 04 3c c0 aa e9 bc e1 64 21 be d4 c1 83 be
       0.008089837 -0.028523803 -0.15761138 -0.25733817
000210 f5 8d 12 be 93 f0 20 be d5 44 2b 3e 8c a1 f2 bd
       -0.14311965 -0.15716772 0.16725476 -0.11847219
000220 ce f2 ae 3d 73 4a f5 bd e2 65 a0 3d ba ae c9 bd
       0.08542405 -0.11977091 0.078319326 -0.098477796
000230 d2 46 b2 be 31 50 bd 3d 9a 5b 4f 3e cf da f2 bd
       -0.34819657 0.09243811 0.20249787 -0.11858141
000240 68 0c 9a bd ef 87 5c bd f7 a3 35 3e 33 8c 04 bd
       -0.075218976 -0.053840574 0.17738329 -0.032360267
000250 fb 88 c8 be 18 63 66 3d 49 78 d0 bd 39 66 5e be
       -0.39167008 0.056246847 -0.101791926 -0.21718682
000260 3d 71 b9 bd cb ed 1c be 69 62 49 3e fb de d1 3c
       -0.090548016 -0.15325086 0.19666447 0.02561902
000270 1c c1 5b bc 7c 9e a9 bd 8e b6 89 bd f0 ff c9 3d
       -0.01341274 -0.082821816 -0.06724273 0.09863269
000280 bb dd 6b 3d 77 f4 39 bd 5b e3 35 bd e1 64 b1 3b
       0.057584506 -0.045399155 -0.044406276 0.005413637
000290 b0 56 1d 3d b8 ab 9b bd c4 4e b8 bd 5f f3 39 bd
       0.03841275 -0.07601112 -0.08999398 -0.045398112
0002a0 92 c3 72 be a4 b1 c1 be ea 3b 0e 3e c9 19 1a be
       -0.23707417 -0.37830842 0.13890043 -0.15048899
0002b0 42 f5 49 3c 21 ee 80 3c f5 66 96 3d f5 c9 96 bd
       0.01232654 0.015738549 0.07343856 -0.07362739
0002c0 31 f4 30 be e9 69 0d 3e 3c b5 80 bd 1b d6 58 3e
       -0.17280652 0.13809933 -0.06284568 0.21175425
0002d0 51 2a 56 3e 3d 7b 62 be 44 6a 6c be 13 bf 0d bd
       0.2091458 -0.22117324 -0.23087412 -0.03460605
0002e0 d4 9b a1 be 1b 33 25 3e 4e 49 69 bd b9 a2 ac be
       -0.315642 0.16132776 -0.056954674 -0.33717898
0002f0 3a 75 8f bd a4 ec 31 be c9 fd 5c be d8 51 0a 3e
       -0.07004781 -0.17375427 -0.21581186 0.13507783
000300 05 e8 ec bc 03 14 d7 bd e6 76 b0 3c fe a0 6e be
       -0.02891923 -0.10501864 0.02154107 -0.23303601
000310 ef 56 65 be f8 b0 a2 be 16 1f fc 3d 30 05 0d 3c
       -0.22396444 -0.3177564 0.12310617 0.008607194
000320 f4 6d 5a bd 78 6a ee bd b2 7d 68 3e c2 6f 46 be
       -0.053327516 -0.11641401 0.22704199 -0.1937857
000330 d6 3f a1 be d5 02 5d bd 27 a2 f5 bd d7 da e8 bd
       -0.31494015 -0.05395778 -0.11993819 -0.113698654
000340 97 50 c7 3d 91 aa 13 be f3 b9 78 bc 90 20 37 be
       0.09732168 -0.14420535 -0.0151810525 -0.17883515
000350 26 f3 a0 bd fc e1 97 3d 74 02 aa bd 0d ac 2c be
       -0.07858877 0.0741615 -0.08301249 -0.16862507
000360 aa 7f 8c 3d 82 84 68 3d 32 14 52 3e c1 8e 3f be
       0.068602875 0.056766994 0.20515516 -0.187068
000370 b8 e0 5b 3c bd 47 a1 be 6e ed 33 be 2d de f8 bd
       0.013420276 -0.31500044 -0.17571041 -0.12151752
000380 d4 34 54 be f1 68 9f 3c 51 81 41 3e e0 47 8e bd
       -0.20723277 0.01945922 0.18896987 -0.06947303
000390 1b b5 00 3d 47 6b 0c be 2d 84 ec 3d 1b 0c 58 be
       0.031422716 -0.13712798 0.11548648 -0.21098368
0003a0 03 c2 c9 3d 84 0b 65 be 5e 38 5b bd 41 85 26 3e
       0.09851458 -0.22367674 -0.053520553 0.1626177
0003b0 6c 03 54 be c0 09 15 be 7c f2 ff 3d 93 45 f6 bd
       -0.2070443 -0.145545 0.12497422 -0.12024989
0003c0 96 f1 0c bc bb 40 90 3d 12 81 be bd fd e7 a4 3c
       -0.00860252 0.07043596 -0.09301962 0.020130152
0003d0 b0 26 31 3d fa 16 90 bc 64 25 d4 bd ef 8b b6 3d
       0.043249786 -0.017589081 -0.10358694 0.08913409
0003e0 b1 2e 00 bd fe 20 39 be f5 99 80 bd df 27 70 be
       -0.03129453 -0.18078992 -0.06279365 -0.2345271
0003f0 96 82 4a 3d 1f 1b 90 be 8b db 36 3e ce 7b 9e 3d
       0.049440943 -0.28145692 0.17857186 0.077384576

_fc2.bias f4 [256]
000000 bb 0b 93 bd 54 8b 13 be c7 05 80 3d b6 61 d2 3c
       -0.07179972 -0.14408618 0.06251102 0.025681358
000010 7e e6 9f bc e0 13 eb 3e 08 a1 a9 bb 80 8f 98 3e
       -0.019519087 0.459136 -0.005176667 0.29796982
000020 4d 81 0f bd b2 5c de bd ba 3b 0a 3c 02 0f 9a bd
       -0.03503542 -0.10857524 0.0084370915 -0.07522394
000030 a8 e9 23 bd 69 51 d3 bd 0b ea 33 3d 94 d1 a3 bd
       -0.040017754 -0.10318262 0.043924373 -0.07998958
000040 09 27 0d 3e 77 94 54 bc 29 ea dd 3b 22 34 85 3c
       0.13784422 -0.01297485 0.006772299 0.01626021
000050 57 e8 9c 3d 6a 4c cd bd 9e 32 1e 3e c6 5a d7 bc
       0.07661503 -0.100243405 0.15448996 -0.026288401
000060 1d 84 4d bd 0c 76 02 bd b4 ab 5f bb b3 73 20 3d
       -0.05017482 -0.03185086 -0.0034129443 0.03917284
000070 e6 77 7f bd eb 31 54 bd 3f a5 94 bc 6f ea be 3d
       -0.062370203 -0.051805418 -0.018145202 0.093220584
000080 05 39 13 bd 5d 7a 42 bd 3a 20 2e bc 1b c6 3b 3d
       -0.03594305 -0.047479976 -0.010627801 0.045843225
000090 a4 e7 91 bd 4c 5c 34 3e c4 43 70 bc b7 fd b1 bd
       -0.0712426 0.17613333 -0.014664594 -0.086909704
0000a0 16 6b 00 bd a0 6d c3 bd b0 3b e8 3b 33 f8 14 3e
       -0.031352125 -0.09542394 0.0070871934 0.14547805
0000b0 83 c4 74 bd 27 48 8a bd d2 87 12 bd 70 5c 74 bd
       -0.05975772 -0.06752043 -0.03577406 -0.059658468
0000c0 ef fa 0e 3e 7d 40 f3 3c da 9e ee 3b 50 44 b0 bd
       0.13962911 0.029693836 0.00728212 -0.086067796
0000d0 50 9b c8 bc 79 83 e6 bb b7 49 aa bd 86 6c a1 bb
       -0.024488121 -0.0070347157 -0.08314841 -0.004926267
0000e0 63 a7 c4 bd d9 cf 8a bd e1 38 fc 3c f7 ac 06 3e
       -0.09602239 -0.06777925 0.03078884 0.13151918
0000f0 aa d9 94 bd 91 72 c4 bd f8 d3 32 3d 2d 02 cd 3d
       -0.072680786 -0.09592164 0.04365918 0.100101806
000100 6e 7a 4d 3d 51 7a dc 3e ba 82 a8 bd 9e 50 d2 3d
       0.050165586 0.4306207 -0.08228059 0.10269283
000110 2d 1c 03 bc 80 06 a1 bd b4 28 39 bc 7f 9d 2e bd
       -0.008002323 -0.07862568 -0.011301208 -0.04263067
000120 21 56 15 be 81 fd d6 bc 43 6a 6d bd 7b c6 df bd
       -0.14583637 -0.026243927 -0.057962667 -0.10926529
000130 e2 c0 6b 3d f7 7c 99 3b 53 0b b5 3c 03 bb 4c 3d
       0.057556994 0.0046840864 0.022100126 0.049983036
000140 b9 51 8a bd e7 16 0f 3e fb d2 5f 3e c0 57 26 bc
       -0.067538686 0.1397358 0.21857826 -0.010152757
000150 7d 23 9f bd 45 42 3e bd 11 37 82 3c 5b bc 5c 3c
       -0.07770441 -0.04644992 0.015895398 0.013472642
000160 b3 ab 46 bc d1 00 fa 3e c0 10 76 3d bb b6 ab bc
       -0.012125897 0.48828748 0.060074568 -0.020961156
000170 0a 29 cb bd c1 77 79 bd 4b 05 34 bb 18 49 c0 bd
       -0.09919937 -0.06090522 -0.0027468975 -0.093889415
000180 e0 6d 40 bd 4b 13 61 3d e2 d3 d3 3c 0c 30 62 bc
       -0.046979785 0.05495004 0.02585787 -0.013805401
000190 07 34 70 bd c9 55 28 bd 9b ba ef 3c 2d 0e 47 bd
       -0.058643367 -0.041097436 0.029263785 -0.048597503
0001a0 c8 1e 9e bd 26 1f 41 3e e8 c5 5d bd 37 a3 92 3c
       -0.07720715 0.18859538 -0.054143816 0.017900093
0001b0 3a 08 8b bd c9 c3 5d bd 4f ec cc 3d bd 0d 84 3d
       -0.067886785 -0.054141793 0.1000601 0.06447933
0001c0 6c d3 7f bc 8c 67 f8 bc dd 56 2e bd 8f 39 b6 bd
       -0.015614372 -0.030322812 -0.042563308 -0.08897697
0001d0 45 cb f4 bd 29 95 3c bd 0f c8 e5 3e a3 90 64 3e
       -0.11952833 -0.046040688 0.44879195 0.223208
0001e0 6f 47 09 bc 67 de 11 3e dc 91 93 bd c6 15 9d bd
       -0.0083788475 0.14244996 -0.07205555 -0.076701686
0001f0 bd a9 3e bd 53 b9 b5 bd 03 5a a2 bd 93 fa 54 3b
       -0.046548594 -0.088732384 -0.079273246 0.0032497987
000200 9c 4a cb bc df cf 9b 3d de fe 96 bd ed bf b4 3d
       -0.02481585 0.07608008 -0.07372831 0.088256694
000210 4f ab 66 bd 90 e5 52 3d bf 76 a7 bd 44 4b 05 bb
       -0.056315716 0.05148846 -0.08176946 -0.0020339051
000220 f6 80 48 3d a8 cb a7 bd ea 6a 5a bc 5f b1 11 3c
       0.04895111 -0.08193141 -0.013331154 0.008892386
000230 14 66 29 bd ec e7 1b 3c 8e 5a 94 bd ef dd 0e bd
       -0.041357115 0.009515744 -0.072438344 -0.03487962
000240 18 e3 e7 bd e7 aa 8e bd 23 5f d8 bd a6 b9 54 3b
       -0.113226116 -0.06966191 -0.10565021 0.0032459288
000250 42 a2 f4 3c ea 15 83 bd 58 62 61 bd 0c 9f 1f bd
       0.029862527 -0.06400664 -0.05502543 -0.03897004
000260 db 46 89 bd 7d 9c 8b 3d 0e 95 a3 bd 81 75 16 bd
       -0.06702968 0.06816957 -0.07987414 -0.036733154
000270 2e 77 64 3d eb 6c 15 bd c6 40 77 bd 1c ad 21 bd
       0.05577772 -0.036480825 -0.060364507 -0.03947173
000280 dd 50 ba 3e fd 06 af 3b 49 4b 70 bd cd 55 35 bd
       0.3638982 0.0053414092 -0.058665548 -0.04427128
000290 50 b0 a7 bd 7e ed 47 3d 35 03 3f bd ba 6c ec bd
       -0.08187926 0.048810475 -0.046633918 -0.115441754
0002a0 7a 48 91 bd 24 bd 42 3d 00 99 3d 3c a5 f7 3c bc
       -0.07093902 0.04754366 0.011572123 -0.011533652
0002b0 59 6d f9 3c ed 02 d7 bd 73 89 9c bd cf 5f 92 bd
       0.030447649 -0.10498605 -0.07643404 -0.0714718
0002c0 4a 0d 0a bd 90 f3 ee 3c 04 da b2 3d 7e 75 ee bd
       -0.03370408 0.029168874 0.087329894 -0.116435036
0002d0 2e 38 cf 3d 5a 01 5f 3c 64 b5 81 3d 74 27 87 3c
       0.10118137 0.013611162 0.06333426 0.016498305
0002e0 05 3e 21 bd 35 9c c6 bd cf e9 c5 bd 53 dd dc 3c
       -0.039365787 -0.09697763 -0.09663736 0.026961004
0002f0 6d c1 02 bd 33 4f 03 be 1a a2 9c 3d b5 46 9d bd
       -0.031922746 -0.12823181 0.07648106 -0.07679502
000300 ee 85 5e 3d 88 6a fb 3c dd 41 61 bc 15 41 0d 3d
       0.054326944 0.030690446 -0.013748613 0.034485895
000310 78 f2 a3 3d d7 fc 41 bc 03 30 57 3d 4c 36 c4 3d
       0.080052316 -0.011840067 0.052536022 0.09580669
000320 fc 47 ac 3c d9 79 e8 bd 0e c4 15 be 21 a7 b6 bd
       0.021030419 -0.113513656 -0.1462557 -0.08918596
000330 f2 b7 b5 bd 3a f1 ae bd 02 6c 72 bc c6 39 26 bd
       -0.088729754 -0.08542104 -0.014796259 -0.04058244
000340 91 1e ca bb bb 27 f9 bc 6e 19 55 3e b9 96 c6 3c
       -0.0061681946 -0.030414453 0.20810482 0.024241792
000350 78 6c 40 bc 36 2f 10 3c 76 e5 a7 bd 8d 49 c9 bd
       -0.011744611 0.008800318 -0.08198063 -0.09828482
000360 37 45 80 bc ab d3 7f bb ea 12 4a 3e 39 8b a2 bd
       -0.015658004 -0.0039036076 0.19733778 -0.07936711
000370 d7 c7 c5 bd 82 8a cd ba 6f 37 13 3c 8c 8b fa 3c
       -0.09657257 -0.0015681537 0.008985384 0.03058412
000380 f4 4d 98 3d 6e 06 8f 3d 0e 2c 75 bd 40 87 f5 bc
       0.074367434 0.06983648 -0.059856467 -0.029971719
000390 21 9a 78 bd 7c a0 72 3d 1b c9 c9 3d e6 5d d4 bc
       -0.060693864 0.05923508 0.09852811 -0.02592368
0003a0 e9 0e 45 bc 13 e2 aa 3c 56 e9 0b be 3a 48 ad bc
       -0.012027481 0.020859754 -0.1366323 -0.021152604
0003b0 d3 34 8f 3d 3a 9c 8a bd d1 f9 90 bd 68 12 74 bc
       0.06992497 -0.06768079 -0.07078899 -0.0148969665
0003c0 9b f5 d8 3d 38 8c 46 bd 0f a5 cd bc d1 4a db 3d
       0.105937205 -0.048473567 -0.02510312 0.107076295
0003d0 ec 55 17 3c a4 4d 9e bc 1c 47 d8 3b af 8e de bd
       0.009236794 -0.019324131 0.006600274 -0.108670585
0003e0 47 ac a3 3c f0 eb 0b 3e 1c 20 a4 3d f5 b4 2f 3e
       0.01997961 0.13664222 0.08013937 0.17158873
0003f0 51 56 74 bd 34 28 b4 bd be 23 01 3d 1d 22 66 3c
       -0.05965263 -0.08796731 0.031528227 0.014046219

_fc3.weight f4 [4, 256]
000000 57 c3 6d be 7d 35 d0 3c 1b d0 8c 3e 14 b5 90 3e
       -0.23219047 0.02541613 0.27502522 0.28263152
000010 22 d8 9b be 31 19 0c 3e 79 ba 31 3d 82 78 88 3d
       -0.30438334 0.13681485 0.043390725 0.0666361
000020 27 14 cf 3c 7d 90 11 be 36 2b 96 3d 06 5e bb bc
       0.025278164 -0.14215274 0.073324606 -0.022871982
000030 aa e9 7a 3c b8 ad f1 3d 5c dc 03 be 4b 57 a4 bd
       0.015314499 0.11800712 -0.12877029 -0.08024462
000040 4f 96 ee 3c c3 0c 82 bc 8a 30 17 bd 1b e8 a2 bd
       0.029124407 -0.015875226 -0.036911525 -0.07954427
000050 98 4c ea 3e 81 bf 81 be dd 83 0f b8 8c e2 da bd
       0.4576156 -0.25341418 -3.4216664e-05 -0.10687742
000060 39 f5 02 3d fa d2 5a 3d 7d 26 c3 be 9c 9b 0d 3d
       0.031972144 0.05342386 -0.38115302 0.03457223
000070 6a 05 4b bc e6 b7 aa 3b ef f2 ef 3b 32 08 d8 3c
       -0.0123914275 0.0052099107 0.007322661 0.026371095
000080 1c 02 90 3d ae 04 73 be 8b ff 69 be d2 77 d7 3d
       0.07031652 -0.23732254 -0.22851388 0.10520901
000090 d0 10 e3 3d 48 22 98 3d d3 4c 83 be 07 c5 8e be
       0.11087191 0.07428414 -0.2564455 -0.27884695
0000a0 ca 6e b3 3d 45 a7 0e be 04 1d d0 3d a4 17 2e 3d
       0.08761366 -0.13930996 0.10161784 0.042503014
0000b0 82 df 31 be 33 92 86 3e bf 6f c3 be 38 97 a0 be
       -0.17370418 0.26283416 -0.38171193 -0.3136537
0000c0 a8 55 69 3d 32 fb cb 3d 9e a7 84 3e b9 00 b7 be
       0.056966454 0.09960021 0.25909132 -0.3574274
0000d0 8c a2 f5 bc 0c 49 48 3d ec af 5f be 29 8e 78 3d
       -0.029984735 0.048897788 -0.21844453 0.06068245
0000e0 61 21 de 3d a6 c9 25 3d 01 43 1a bd b4 ea 2d 3d
       0.1084621 0.04047551 -0.037661556 0.04246016
0000f0 14 3d 5b 3e af d1 fc 3b ae c3 d3 ba e9 d9 9a 3d
       0.21410018 0.007715426 -0.001615634 0.07561094
000100 ba 04 82 be 26 c2 b5 3d 9d 42 89 be 2b 26 b0 3d
       -0.2539423 0.088749215 -0.26808634 0.0860103
000110 bd 7e 30 be 08 98 83 3d a8 e3 90 be b7 58 e0 3c
       -0.17235847 0.06425482 -0.28298688 0.027386053
000120 3e 65 14 bd 61 e3 c4 bd 97 d8 7c bd 31 b6 6c bc
       -0.036229365 -0.096136816 -0.061729994 -0.014447735
000130 dc a1 cb 3d bd d9 f2 3d dd b3 82 be 73 fd 7c 3d
       0.099429816 0.118579365 -0.2552785 0.061765146
000140 bd 35 32 be 90 62 17 3d 51 55 2f 3d 5a ed a2 bd
       -0.17403312 0.03695923 0.042805973 -0.079554275
000150 0a 79 b2 3d fd 11 01 3e fe 70 51 3e 2e a5 da 3d
       0.087144926 0.12604518 0.2045326 0.10676037
000160 0d 8d d4 3d c2 6c ce 3d d2 62 b6 3c ff c8 2e bd
       0.10378466 0.10079338 0.022263918 -0.042672154
000170 60 d3 3d be 85 ae 88 be b8 5d 4f be 3d 23 cd bd
       -0.18537664 -0.26695648 -0.20250595 -0.10016487
000180 7a 06 f0 bb 47 89 12 3e 35 07 2b 3d 99 45 c5 bc
       -0.007324991 0.1431018 0.04175492 -0.024081038
000190 81 47 49 3d 5a a7 eb bd 09 93 56 3e 2c cb 91 3e
       0.049140457 -0.11506529 0.20954527 0.2847532
0001a0 ae 49 46 be 1c b8 68 3d 42 f1 41 be fb 20 e3 3d
       -0.19364044 0.056816205 -0.18939689 0.11090275
0001b0 17 ae 46 3d 64 b3 8b 3d 7c d8 8e 3e 60 fa ec 3c
       0.04850587 0.068213254 0.2789954 0.028927982
0001c0 19 e0 ee bc 1f c5 2a bd 23 38 a7 bd 0e 74 6d bd
       -0.029159592 -0.041691896 -0.08165004 -0.057972006
0001d0 f8 d5 fa 3d ea ab cd 3e f8 db b4 3d ac 67 80 3d
       0.122478426 0.40170223 0.08831018 0.06269774
0001e0 b8 91 01 be 2f 24 16 3e dd 36 93 bd 28 7b a8 bd
       -0.12653244 0.1466224 -0.07188199 -0.08226615
0001f0 e1 ad 0c bd a1 33 1f 3d 9f 49 7e be 10 fc b2 3d
       -0.03434551 0.038867597 -0.24832772 0.08739483
000200 38 d0 d1 3d 4a 15 b0 3d ea 1f 65 3e 28 19 0d 3e
       0.10244793 0.085978106 0.22375455 0.13779128
000210 97 15 71 be 69 fd 25 3c 77 02 8d 3d c6 40 c9 be
       -0.23543392 0.0101312185 0.06885236 -0.3930723
000220 0a f9 c0 3e 7e 2e 25 bd 99 f9 29 3e a2 8c db 3d
       0.37690002 -0.04032754 0.1659912 0.10720183
000230 1b 3a 64 3e ab 57 07 bf 2c cb ca bd 8f 9b 0d 3d
       0.2228779 -0.52868146 -0.09902033 0.03457218
000240 71 30 e6 bd 00 6b d7 bd 77 e7 2b bd 09 03 71 bd
       -0.11239708 -0.105184555 -0.04196879 -0.058840785
000250 56 30 06 3e d8 73 f9 3d 35 c3 43 bc 3d 26 69 3c
       0.13104376 0.121802986 -0.011948396 0.014230308
000260 52 e5 44 3d ac 12 c3 3d a1 5b 09 bd 54 21 a7 be
       0.04807026 0.09525046 -0.03353465 -0.32642615
000270 5d db 51 3d 2c b0 48 bd ea 67 d9 bc 55 96 82 be
       0.05123459 -0.048996136 -0.026538808 -0.2550532
000280 08 df 97 3d df 20 14 3e 23 1d 6d 3c dd dd 1f be
       0.07415587 0.14465664 0.014472279 -0.15611978
000290 b2 49 bc bc a7 77 2d 3e 0b be 1b 3d f1 6f 7c be
       -0.02298436 0.16940175 0.038023036 -0.24652077
0002a0 a5 4b 72 be 99 dd 10 3e 9f e1 fa 3c 71 f6 7a 3d
       -0.23661669 0.14147033 0.030625163 0.06127018
0002b0 42 7a 47 3c bd 86 c0 bd e6 10 eb 3d e3 95 44 be
       0.012175145 -0.09400699 0.114778325 -0.19197802
0002c0 7a ae b1 3d 20 b2 fb bc 73 e6 dd be 9f c4 a1 3d
       0.08675857 -0.030724585 -0.4333988 0.078988306
0002d0 e4 dc 0c 3d b5 f1 66 3d 2e 75 0f be f2 af f8 3d
       0.034390345 0.056382854 -0.14009544 0.12142934
0002e0 37 9b 8a 3d 06 a3 55 3e 8b 1e 8e be 1d 11 cd 3d
       0.06767886 0.2086297 -0.27757677 0.1001303
0002f0 bb 51 13 3d 91 c0 0a be 46 42 b8 3d 89 90 1c be
       0.035966616 -0.13550021 0.08997016 -0.15289511
000300 20 12 f6 bd 16 c5 cf be 07 de be 3c d4 87 9f bd
       -0.12015176 -0.40580052 0.02329923 -0.07789579
000310 7a 98 4c 3e 02 d2 a2 3e 31 92 a8 3d 08 56 b8 3d
       0.1998004 0.31800848 0.08231009 0.09000784
000320 9f 0e 0f 3d 33 4c ec bd b6 fc 04 be 1d f2 b2 3d
       0.034926053 -0.11537971 -0.12987027 0.08737586
000330 4a 79 1c bd b2 d6 6b bc ce a7 11 be 94 d8 7e be
       -0.038201608 -0.014394449 -0.14224169 -0.24887305
000340 d0 a7 44 3e 58 63 13 3c 05 f9 52 3d 32 37 68 3d
       0.1920464 0.008995853 0.051507015 0.056693263
000350 33 6e 77 bb 57 49 95 3d 09 b3 c0 bd dd e6 f0 3c
       -0.0037754893 0.07289379 -0.09409148 0.02940696
000360 30 e4 85 be 51 b8 0b 3c e5 24 f7 3d 90 39 a1 3b
       -0.26150656 0.008527831 0.12067584 0.004920192
000370 99 a4 19 be fc 9b 01 3e 40 2a 56 3e 95 3c 4a 3c
       -0.15004195 0.1265716 0.20914555 0.012343545
000380 83 59 be 3a 4a b5 2e 3d 9b 55 67 3c 08 7c a3 3e
       0.0014522526 0.04265336 0.014119531 0.31930566
000390 ba e1 41 bd 2e 0c 54 be 8e 3d 74 3d aa 9f 00 be
       -0.04733441 -0.20707771 0.059629016 -0.12560907
0003a0 30 91 d3 3d ff 4e eb 3a ba 70 a8 bd a9 e1 e1 be
       0.10330427 0.001795262 -0.08224626 -0.44117478
0003b0 37 34 38 3d 5a 0f 98 bc f7 8d 3d 3e 7a 46 20 3e
       0.04497167 -0.018562008 0.18511187 0.15651885
0003c0 5e 8a a9 3e b6 64 8d bd f0 ed 64 3e 83 b3 c5 3d
       0.33113378 -0.06903975 0.22356391 0.0965338
0003d0 8d a3 b5 3d ba 45 40 3c 54 39 b8 bd ea 27 ff 3d
       0.088690855 0.011735374 -0.089953095 0.12458785
0003e0 07 48 d2 3d a8 75 35 3e 8a 2b c2 3d 76 3b 01 3d
       0.102676444 0.17720664 0.09480961 0.031550847
0003f0 72 85 a7 bc 16 55 56 bd e5 cf 32 3d 74 04 42 3e
       -0.020449374 -0.052327238 0.043655295 0.18947011

_fc3.bias f4 [4]
000000 6c 20 d7 3e 8d c8 54 3e bc 96 84 3e 2a 82 96 3e
       0.42016923 0.20779629 0.2589625 0.29396182
