project1-banana-collector/models/dqn_per_qnetwork_local.pth (torch_old, 307268 bytes, 6 tensors)

_fc1.weight f4 [256, 37]
0	0xbd70e8da	-0.058815815
1	0x3e0d5d96	0.13805231
2	0xbdc4914d	-0.095980264
3	0xbeee2e1d	-0.46519557
4	0xbc24f077	-0.010067097
5	0xbddc471b	-0.1075575
6	0xbe03e399	-0.1287979
7	0x3e7b203f	0.2452402
8	0xbe834272	-0.2563663
9	0xbc958e78	-0.018256411
10	0x3db328de	0.08748029
11	0xbe3c98a9	-0.1841761
12	0xbe8423cb	-0.25808558
13	0xbeb43bf7	-0.35202
14	0xbe587a05	-0.21140297
15	0xbe20062d	-0.15627356
16	0xbe096d9c	-0.13420719
17	0x3e61051d	0.21974607
18	0xbd8e2dd0	-0.06942332
19	0xbe44b79e	-0.1921067
20	0x3df1c91c	0.11805937
21	0xbdd6c4a8	-0.10486728
22	0xbd7d6d21	-0.06187165
23	0xbe9276c8	-0.28606248
24	0xbe9e71a6	-0.30946082
25	0xbc995e13	-0.018721616
26	0xbbdc3ec2	-0.0067213485
27	0x3caf7b33	0.02142105
28	0xbecca4b2	-0.39969403
29	0xbbb4aef7	-0.0055140215
30	0xbdb6a86a	-0.08918841
31	0x3d97799a	0.073962405
32	0xbea11ad7	-0.3146579
33	0x3db857a3	0.090010904
34	0xbe8f49c4	-0.27985966
35	0xbe5801a0	-0.2109437
36	0xbd4377e7	-0.04772177
37	0x3da6d343	0.08145764
38	0x3d9dd86d	0.077072956
39	0x3d14a3c5	0.036288995
40	0x3c139b59	0.009009206
41	0xbec6834f	-0.38772056
42	0xbdac0d6f	-0.08401
43	0xbe53bf40	-0.20678425
44	0xbcf38fe4	-0.029731698
45	0xbdfe9f50	-0.1243273
46	0x3ee5e0ce	0.44898075
47	0x3d48f809	0.04906467
48	0xbdd03f1c	-0.10168287
49	0xbd96e066	-0.07367019
50	0x3e29d3e2	0.16584733
51	0x3eb29f6e	0.3488726
52	0x3da9f359	0.08298368
53	0x3cfa24d2	0.030535135
54	0x3d18f878	0.037346333
55	0xbe00e4b4	-0.12587243
56	0xbeb8a2e4	-0.36061776
57	0xbe494596	-0.19655451
58	0xbd1c4f04	-0.038161293
59	0xbda65028	-0.08120757
60	0xbd35d0f0	-0.04438871
61	0x3e2a9128	0.16656935
62	0xbdf1746a	-0.11789782
63	0x3c575029	0.01314167
64	0x3d990b51	0.074728616
65	0xbd768196	-0.060182177
66	0x3e7042c7	0.23462974
67	0x3b925cfb	0.0044666505
68	0x3e6b044a	0.22950855
69	0x3d08b427	0.03337493
70	0xbe3ea738	-0.18618476
71	0xbec9aae7	-0.393882
72	0xbd661dac	-0.05618064
73	0x3bc99ee6	0.0061529754
74	0x3e8b3930	0.27192068
75	0x3e370c93	0.1787589
76	0xbc9a55bd	-0.018839711
77	0xbd6a5cd6	-0.05721744
78	0x3d44354e	0.047902398
79	0xbf5c53f9	-0.8606563
80	0xbd937915	-0.07200829
81	0x3e66efbb	0.22552387
82	0x3e700d62	0.23442605
83	0xbe520953	-0.2051137
84	0xbd66fa3c	-0.056390986
85	0x3d82308d	0.063569166
86	0x3d964a82	0.0733843
87	0xbe2be3c1	-0.167861
88	0x3e7ee0c6	0.24890432
89	0xbd52c455	-0.051456768
90	0x3c8d63fd	0.017259592
91	0xbbf96710	-0.007611163
92	0x3eaebe27	0.3412945
93	0x3bcaba30	0.006186746
94	0xbed6beff	-0.41942593
95	0x3e2dac84	0.1696034
96	0xbbcb27a0	-0.006199792
97	0x3e1ea3c8	0.15492165
98	0xbe3f5fb5	-0.18688853
99	0xbf13aec9	-0.57688576
100	0x3e8b1442	0.27163893
101	0x3ded9e0b	0.1160241
102	0x3e9d79d4	0.3075701
103	0xbe8756b5	-0.2643334
104	0xbcdb33b1	-0.026758047
105	0x3d8a1fe7	0.06744366
106	0xbe5d6975	-0.2162226
107	0xbe63c576	-0.22243294
108	0x3e345eaf	0.17614244
109	0xbcf854d5	-0.030313889
110	0xbd7a6061	-0.06112707
111	0x3ea2dc40	0.31808662
112	0xbe89a026	-0.26879996
113	0x3e1e68e8	0.15469706
114	0xbdc49b1a	-0.09599896
115	0xbf32fa7c	-0.6991346
116	0xbbba4f68	-0.0056857355
117	0xbc1e95e3	-0.0096792905
118	0x3db34892	0.08754076
119	0x3e574511	0.2102244
120	0x3e5e0139	0.21680154
121	0x3d208b75	0.039195497
122	0x3bb5aae4	0.0055440534
123	0x3e2ff19e	0.17182013
124	0xbe7b5d6e	-0.2454736
125	0xbdf96825	-0.12178067
126	0x3dd98b9b	0.10622331
127	0x3a775f69	0.00094365195
128	0xbde67c0e	-0.1125413
129	0xbe844e74	-0.25841105
130	0xbee8cf40	-0.4547062
131	0x3da713f8	0.081581056
132	0xbdd890e2	-0.10574509
133	0x3dc9ae43	0.09847691
134	0x3de12e69	0.1099518
135	0x3dc4df15	0.09612862
136	0xbb603159	-0.00342091
137	0x3d9e0b5d	0.07717011
138	0x3e1c2c5d	0.15251298
139	0x3e1f3818	0.15548742
140	0x3e735683	0.2376347
141	0xbca4268f	-0.020037917
142	0x3e813629	0.25236633
143	0x3de33a63	0.11095121
144	0x3dcacfaf	0.09902894
145	0x3dfdd6d3	0.1239449
146	0xbd1f2ace	-0.03885918
147	0x3baefbdb	0.005340082
148	0xbd88e5d2	-0.0668446
149	0xbd8a0d49	-0.06740815
150	0xbd7ca772	-0.061683126
151	0xbdca0fac	-0.098662704
152	0xbd3e8322	-0.046511777
153	0x3e594775	0.21218665
154	0xbea75360	-0.32680798
155	0xbe047540	-0.12935352
156	0xbeb7daca	-0.3590911
157	0xbfdfe081	-1.7490388
158	0x3d0f7ca6	0.035030983
159	0x3d7df231	0.06199855
160	0x3b9649c8	0.004586432
161	0x3cf193dd	0.029489452
162	0xbde43239	-0.11142392
163	0xbdae96f2	-0.08524884
164	0x3d366d89	0.044538055
165	0x3d10c561	0.035344485
166	0x3d0589d8	0.03260216
167	0x3df90c87	0.121605925
168	0xbc6825ee	-0.014169199
169	0x3d555bd4	0.052089527
170	0x3d8a44dc	0.06751415
171	0x3dd6a805	0.10481266
172	0x3ea429d8	0.32063174
173	0xbc2a85ea	-0.010407904
174	0x3db10131	0.08642805
175	0x3e5202a7	0.20508824
176	0x3dc90db6	0.09817068
177	0x3d1cfff2	0.038330026
178	0x3e27c072	0.16382006
179	0xbc4cb9c5	-0.012495463
180	0x3dbb6051	0.0914923
181	0x3dffdb4d	0.12493
182	0x3e3fa04f	0.18713497
183	0x3c5eed5c	0.013606396
184	0x3ae02ac3	0.0017102588
185	0xbd9afd52	-0.07567848
186	0xbe559add	-0.20859857
187	0x3e2f872c	0.17141408
188	0xbe7d5a64	-0.24741513
189	0x3e112155	0.14172871
190	0x3e06d5c5	0.13167484
191	0x3dc52a00	0.096271515
192	0xbe85835b	-0.2607678
193	0xbe2fde8b	-0.17174737
194	0xbf573098	-0.84058523
195	0xbe84cbb5	-0.25936666
196	0xbda63b60	-0.08116794
197	0x3d0c536f	0.034259256
198	0xbd53d21a	-0.05171404
199	0xbda4d406	-0.08048253
200	0xbdf9039b	-0.12158891
201	0x3da57aa7	0.08080035
202	0xbbfc8c06	-0.007707122
203	0xbe3a8d0b	-0.18217866
204	0xbe1305a0	-0.14357615
205	0xbc271268	-0.0101972595
206	0x3c205736	0.009786418
207	0x3e4e81a3	0.2016664
208	0xbd873c76	-0.06603329
209	0x3e6011a2	0.21881726
210	0xbd91a5fc	-0.07111737
211	0xbc4dd60a	-0.012563238
212	0x3df613c7	0.12015491
213	0xbe9bcb65	-0.30428615
214	0x3e3f85ee	0.18703434
215	0xbcd98cb7	-0.026556356
216	0xbea14aff	-0.3150253
217	0xbdb55aea	-0.08855231
218	0x3e78d865	0.24301298
219	0xbeaa91d8	-0.33314395
220	0x3dde85e7	0.108653836
221	0x3cbd011f	0.023071824
222	0x3e88fa1a	0.26753312
223	0xbcf6b0b5	-0.030113557
224	0xbe84020d	-0.25782815
225	0xbc99c613	-0.018771207
226	0xbdb9a80e	-0.09065257
227	0xbe6983dd	-0.22804208
228	0xbe0f6794	-0.14004356
229	0x3eab8e11	0.33506826
230	0xbdc24efb	-0.094877206
231	0x3d101365	0.035174746
232	0x3e088d89	0.13335241
233	0x3cb8a088	0.022537485
234	0x3e51c4ec	0.20485276
235	0xbe6c0eaf	-0.23052476
236	0x3e3dc2c2	0.18531325
237	0x3d517abd	0.051142443
238	0xbe67d730	-0.22640681
239	0xbd9cc424	-0.07654598
240	0x3ddc8e6b	0.107693516
241	0xbd858dd1	-0.0652119
242	0x3da1cbec	0.07900223
243	0xbdeb373d	-0.11485145
244	0x3dc48ae9	0.095968075
245	0xbec538f7	-0.38520023
246	0x3e8c66f9	0.27422312
247	0xbc7b6f5d	-0.015346375
248	0xbe1c858f	-0.15285324
249	0xbd4cd0a1	-0.05000365
250	0xbe35a9b3	-0.17740516
251	0xbdd4f020	-0.10397363
252	0x3e8af9a7	0.27143595
253	0x3d85f21d	0.0654032
254	0xbe38e0df	-0.18054532
255	0xbedb31da	-0.4281147

_fc1.bias f4 [256]
0	0xba9030a3	-0.0011000823
1	0x3d414978	0.047189206
2	0x3bb2f981	0.005461872
3	0x3cfd7156	0.030937832
4	0x3e1f0f41	0.15533163
5	0xbc5d2477	-0.013497463
6	0xbda3a857	-0.07991093
7	0xbdba73ad	-0.09104095
8	0xbe8e2b82	-0.2776757
9	0xbdf41b98	-0.119193256
10	0xbbd15dd6	-0.00638936
11	0x3e1e7b1b	0.15476649
12	0xbe07d5f4	-0.1326521
13	0xbdb078d8	-0.08616799
14	0xbde53404	-0.11191562
15	0xbcaff6c4	-0.021479972
16	0x3dcbc827	0.099502854
17	0xbd23ba60	-0.039972663
18	0xbe5e0740	-0.21682453
19	0xbe45618a	-0.1927549
20	0xbdb10269	-0.08643038
21	0x3c9c2b2f	0.01906356
22	0x3da19be5	0.07891063
23	0xbe3e0ee5	-0.1856037
24	0xbd93ef08	-0.07223326
25	0x3d5655c7	0.052327897
26	0x3df62591	0.12018884
27	0x3e713523	0.23555426
28	0x3da0e4bb	0.07856127
29	0x3e5d7cfc	0.21629709
30	0x3e1fc61e	0.1560292
31	0xbcda3d24	-0.026640482
32	0xbe02e2a3	-0.12781768
33	0x3d6f138c	0.05836825
34	0xbd39d15e	-0.045365684
35	0x3db704d6	0.08936469
36	0x3d1531d8	0.036424488
37	0xbc8e6a9a	-0.017384816
38	0xbd9ccae6	-0.07655887
39	0x3e07ac48	0.13249314
40	0xbd71a31c	-0.058993444
41	0xbb4323f6	-0.0029776073
42	0x3dd84b50	0.1056124
43	0xbca86526	-0.020556044
44	0xbcb8ac01	-0.022542955
45	0xbb25b658	-0.0025285687
46	0xbe366881	-0.17813303
47	0xbdc6afa7	-0.09701472
48	0xbd5abc96	-0.053402506
49	0xbd11635a	-0.03549514
50	0xbddf3b88	-0.109000266
51	0x3e087717	0.13326679
52	0xbdd98bc2	-0.1062236
53	0x3be37542	0.0069414685
54	0xbca7d051	-0.020485075
55	0xbdfd0f56	-0.12356441
56	0x3e0776e8	0.13228953
57	0x3c0a3701	0.0084359655
58	0x3dba6cbb	0.0910277
59	0x3d8aae1c	0.0677149
60	0x3e19ebf7	0.1503142
61	0xbc9e1eba	-0.019301761
62	0x3e06fb76	0.13181862
63	0x3cbe1b8e	0.023206498
64	0x3da688f4	0.081315905
65	0xbe19777d	-0.14986987
66	0xbe418af9	-0.1890067
67	0xbe47a871	-0.19497849
68	0xbe06428f	-0.13111328
69	0xbd970dcb	-0.07375678
70	0xbe704a65	-0.2346588
71	0x3d96a7c9	0.07356221
72	0xbe752763	-0.23940806
73	0x3da08499	0.07837791
74	0x3cc0f007	0.023551954
75	0xbdf6038a	-0.12012394
76	0x3e4398e4	0.19101292
77	0xbd60f639	-0.054922316
78	0xbd6a1ce0	-0.057156444
79	0x3dab076f	0.08351027
80	0xbdbea071	-0.093079455
81	0x3d51f111	0.05125529
82	0xbda4e9f5	-0.08052436
83	0xbd9c1d74	-0.07622805
84	0x3d969bdd	0.07353947
85	0xbd9a0bfe	-0.075218186
86	0x3caed699	0.021342563
87	0x3e0d99f4	0.1382826
88	0x3e2ab4af	0.16670488
89	0xbcf81403	-0.03028298
90	0x3e0e5158	0.13898218
91	0xbe12420c	-0.14283007
92	0xbd8e954a	-0.069620684
93	0x3e552efa	0.20818701
94	0xbdae4755	-0.08509699
95	0x3d8967a4	0.06709221
96	0xbd314abf	-0.043284174
97	0xbe4ac5fd	-0.19802089
98	0x3cbcfef5	0.023070792
99	0x3d9c87d8	0.07643098
100	0xbd8a9bd2	-0.067680016
101	0xbe3acd91	-0.1824248
102	0xbe053654	-0.13009006
103	0xbd7d737e	-0.06187772
104	0xbdcd9420	-0.10038018
105	0xbe3339eb	-0.17502563
106	0x3d859d9e	0.06524204
107	0xbe5b6a75	-0.21427329
108	0xbe0f9ee0	-0.1402545
109	0x3dd2c630	0.102917075
110	0x3e371e26	0.17882594
111	0x3d81f011	0.06344617
112	0x3e0173bc	0.12641805
113	0x3d2e2121	0.042512063
114	0x3d856238	0.06512874
115	0xbd83f3cb	-0.06442984
116	0xbdb579ad	-0.088610984
117	0xbd3408eb	-0.043953817
118	0xbdd801a5	-0.10547189
119	0xbdcab325	-0.0989745
120	0xbc50bfd2	-0.012741046
121	0xbd3b4a4d	-0.045725156
122	0xbe34395d	-0.17600007
123	0xbe03e866	-0.12881622
124	0xbdeba20b	-0.115055166
125	0xbe0e2275	-0.13880332
126	0x3ddad56e	0.1068524
127	0x3e39c9a8	0.18143332
128	0x3e1cbd17	0.15306507
129	0xbd679327	-0.05653682
130	0xbdfca478	-0.123360574
131	0x3dd01fad	0.10162292
132	0xbc153ea1	-0.00910917
133	0x3c2acdeb	0.010425071
134	0x3d2ebacf	0.042658623
135	0xbe055e58	-0.1302427
136	0xbd8133d4	-0.063087136
137	0xbe72ae2f	-0.23699258
138	0xbd63297b	-0.05545948
139	0xbe3cc7ab	-0.18435542
140	0x3cbcb0fc	0.023033611
141	0x3dacd205	0.084384955
142	0x3c86a35f	0.016435323
143	0xbe6a0089	-0.22851767
144	0xbdc06a5b	-0.09395286
145	0xbdb6cb89	-0.0892554
146	0xbe1aa330	-0.15101314
147	0xbbdf1ab9	-0.0068086055
148	0xbe198214	-0.14991027
149	0x3e0073a4	0.12544113
150	0xbd8841ca	-0.06653173
151	0xbdfb5602	-0.12272264
152	0xbe302e8e	-0.17205259
153	0xbe10b28b	-0.14130609
154	0x3dd10a86	0.10207085
155	0x3de6f166	0.11276512
156	0x3cbf614d	0.023361826
157	0xbe60f9e6	-0.21970329
158	0x3d5d6732	0.054053493
159	0x3db2dd1e	0.08733581
160	0x3c323e88	0.010879166
161	0x3dc65afd	0.096853234
162	0x3e03d91a	0.12875786
163	0xbd91688d	-0.071000196
164	0xbcc17588	-0.023615614
165	0xbe22b607	-0.1588975
166	0xbd7cf00c	-0.061752364
167	0xbdca61a5	-0.098819055
168	0xbb04f853	-0.0020289614
169	0xbe78ae22	-0.24285176
170	0x3dd98424	0.10620907
171	0xbd413fb9	-0.04717991
172	0x3dad4eb5	0.08462278
173	0x3e18c161	0.14917518
174	0x3da54c85	0.080712356
175	0xbd2de9ba	-0.042459227
176	0x3e004f8c	0.12530345
177	0xbe810ebc	-0.25206554
178	0x3d5a453d	0.053288687
179	0xbe17b307	-0.14814387
180	0x3d9446e7	0.07240086
181	0xbd449ce5	-0.04800119
182	0xbd6db634	-0.05803509
183	0xbd7ef0a9	-0.06224123
184	0xbe063a29	-0.13108124
185	0x3d9a319b	0.07528993
186	0x3d7f46e2	0.06232346
187	0x3d86245c	0.06549904
188	0x3de4624b	0.111515604
189	0x3de205a6	0.110362336
190	0xbe10a6df	-0.14126156
191	0x3d5b1985	0.053491134
192	0x3cd49a3c	0.02595245
193	0x3da0181b	0.07817098
194	0x3bd22c37	0.006413962
195	0xbced490e	-0.0289655
196	0x3db10495	0.08643452
197	0xbe11ed4b	-0.14250676
198	0xbd8f3641	-0.0699277
199	0x3cd19f7b	0.025588742
200	0x3ca9878c	0.020694517
201	0xbc9f85f3	-0.019473052
202	0xbd0f35c7	-0.034963395
203	0xbc031594	-0.00800075
204	0xbdd3d140	-0.10342646
205	0xbd8379b6	-0.06419699
206	0x3d1ba899	0.038002584
207	0x3df437d9	0.119247146
208	0x3debff13	0.11523261
209	0xbccaab1e	-0.024739798
210	0xbe58f8ac	-0.21188611
211	0xbe2c65ba	-0.1683568
212	0xbce2a3a8	-0.027665928
213	0xbd10ba16	-0.035333715
214	0xbcf681b7	-0.03009115
215	0xbe64e051	-0.22351195
216	0xbe3b5eca	-0.18297878
217	0x3c7d0270	0.015442476
218	0x3d9f3d07	0.07775312
219	0xbe0b2646	-0.13588819
220	0x3acbacac	0.0015539131
221	0xbd90c1c4	-0.07068208
222	0xbd805f6e	-0.06268202
223	0xbd35b91d	-0.04436599
224	0xbe2da300	-0.16956711
225	0xbb6ec3fc	-0.0036432734
226	0xbcdd75ee	-0.027033772
227	0xbd257e8b	-0.040403884
228	0x3e27ffd9	0.16406192
229	0xbe3782a0	-0.17920923
230	0xbd8f0b11	-0.069845326
231	0x3cf7c0da	0.030243326
232	0x38b9b05c	8.854337e-05
233	0xbd909168	-0.07058984
234	0x3cc3e1af	0.023911325
235	0xbe317d94	-0.1733306
236	0xbdfed1af	-0.12442338
237	0xbd3c77b7	-0.046012606
238	0xbd4b6502	-0.049656875
239	0xbe78c86d	-0.24295206
240	0x3e11dd49	0.1424457
241	0x3e0d594c	0.13803595
242	0xbe577317	-0.21039997
243	0xb9062779	-0.0001279394
244	0xbe3fbe71	-0.18724991
245	0xbdaded7e	-0.08492564
246	0xbdf3c37b	-0.11902519
247	0x3e069ea3	0.13146453
248	0x3dc6202f	0.09674107
249	0x3d8b82d4	0.06812063
250	0x3b809d06	0.0039249687
251	0xbe6e6390	-0.23280168
252	0xbda30f1c	-0.07961866
253	0x3e20c609	0.15700544
254	0xbd5e9771	-0.054343645
255	0xbd00056d	-0.031255174

_fc2.weight f4 [256, 256]
0	0xbe4a7269	-0.19770207
1	0x3dd5e4cb	0.104440294
2	0x3e0cb667	0.13741456
3	0xbdd51794	-0.10404888
4	0x3debca88	0.11513239
5	0x3d3551d0	0.044267476
6	0xbc19c6ca	-0.009385774
7	0x3d0799ce	0.033105664
8	0x3e2700b3	0.1630886
9	0xbdcc9b22	-0.09990527
10	0xbe81e5e6	-0.2537071
11	0xbe87cb7f	-0.26522443
12	0x3d0b1e21	0.03396428
13	0xbe313fdc	-0.17309517
14	0x3df4d04c	0.11953792
15	0x3ded55ad	0.11588607
16	0x3db55af6	0.0885524
17	0x3d8eff47	0.06982284
18	0xbe1e47ed	-0.15457125
19	0xbbd44c63	-0.0064788326
20	0xbe1ab8bf	-0.15109538
21	0xbd0b5159	-0.034013126
22	0x3d1f57e6	0.038902186
23	0xbe21b96a	-0.15793386
24	0x3d0295c9	0.031881128
25	0x3ce7d339	0.028298961
26	0x3e3ffabb	0.1874799
27	0xbe259248	-0.16169083
28	0x3d340c74	0.04395719
29	0xbc0aa588	-0.008462317
30	0xbe9cc843	-0.30621538
31	0xbeb83eb9	-0.35985354
32	0x3ce23980	0.027615309
33	0xbdf58c5a	-0.119896606
34	0x3e894f16	0.2681815
35	0xbddd529a	-0.108067706
36	0xbdb89175	-0.09012119
37	0xbe8565f4	-0.26054347
38	0xbe09d1ad	-0.13458891
39	0x3d8d424d	0.068974115
40	0xbe149920	-0.14511538
41	0xbd563c8f	-0.052303847
42	0xbd040d98	-0.032239527
43	0x3d534a49	0.051584516
44	0xbe224fdc	-0.15850776
45	0x3e31b960	0.17355871
46	0xbdde46ab	-0.108533226
47	0x3dc975f1	0.09836949
48	0x3e0759cd	0.1321785
49	0xbdeef654	-0.11668077
50	0xbe8f52f4	-0.27992976
51	0xbd1c6bc2	-0.038188703
52	0xbb9081c3	-0.00441
53	0xbeaa979e	-0.333188
54	0xbe84b932	-0.25922543
55	0x3d9b7c38	0.07592052
56	0xbdbcb924	-0.09215
57	0x3d8ee900	0.06978035
58	0xbe032214	-0.12805969
59	0x3e173603	0.14766698
60	0x3b9b2aaa	0.0047353106
61	0xbd6abdc6	-0.05730989
62	0x3d9c5d01	0.076349266
63	0xbe4fd717	-0.20296894
64	0x3e17ec74	0.14836293
65	0xbddcc9a5	-0.10780648
66	0xbe180ce5	-0.14848669
67	0xbd7eba5d	-0.06218945
68	0x3e067e09	0.13134016
69	0xbea507ba	-0.32232457
70	0x3e465d61	0.19371559
71	0xbe5be66a	-0.21474615
72	0xbc1522e2	-0.009102555
73	0x3d298e23	0.041395318
74	0xbd3baaa4	-0.045817032
75	0xbd87d92d	-0.0663322
76	0x3e87b000	0.26501465
77	0x3e34740f	0.17622398
78	0xbe80b884	-0.25140774
79	0x3e0bcfbd	0.13653465
80	0x3da747e7	0.08168011
81	0xbda0f06a	-0.07858355
82	0x3d92e844	0.071732074
83	0x3e261a42	0.16220954
84	0xbd8cdf4d	-0.06878529
85	0xbd802096	-0.06256215
86	0xbe41e50d	-0.18935032
87	0x3d513157	0.051072445
88	0xbdc086cc	-0.094007105
89	0xbeb1198c	-0.34589803
90	0xbe886bde	-0.26644796
91	0xbe848498	-0.2588241
92	0xbd5084fb	-0.05090807
93	0x3e866504	0.26248944
94	0xbdeaecdc	-0.114709586
95	0x3beefbb7	0.0072931903
96	0xbd088822	-0.03333295
97	0xbd241f89	-0.040069137
98	0xbd20c305	-0.039248485
99	0xbe730644	-0.23732859
100	0x3e5a98b9	0.21347322
101	0xbe201f41	-0.15636922
102	0x3e01e677	0.12685572
103	0x3d80a01b	0.06280538
104	0x3e15a75c	0.14614624
105	0xbe1f18b9	-0.15536775
106	0xbea8c40e	-0.32962078
107	0x3d8f2b10	0.069906354
108	0xbe9335fa	-0.28752118
109	0xbe34ed14	-0.17668563
110	0xbdcd51f1	-0.10025395
111	0x3ebe090d	0.3711628
112	0xbd8dbc2d	-0.06920657
113	0xbbdc611b	-0.006725443
114	0xbdedc5fd	-0.11610029
115	0xbe3e10b0	-0.18561053
116	0xbe52e5ee	-0.20595524
117	0xbec8f455	-0.3924891
118	0x3e88dc37	0.2673051
119	0x3e2364ad	0.15956374
120	0xbd8038db	-0.06260844
121	0xbe5502ea	-0.20801893
122	0xbe377961	-0.17917396
123	0x3d9c2335	0.07623903
124	0x3e2d3fcf	0.16918872
125	0xbd85b458	-0.065285385
126	0xbe6fbcc4	-0.23411852
127	0xbd2e9486	-0.04262211
128	0xbe8d9801	-0.27655032
129	0x3d5905b7	0.052983966
130	0xbd7f8641	-0.062383894
131	0xbe33fd55	-0.17577107
132	0xbe8c826d	-0.27443257
133	0xbe6a1f7a	-0.2286357
134	0x3baf7ae3	0.0053552254
135	0xbe2566b0	-0.16152453
136	0xbd38a934	-0.04508324
137	0xbe828e64	-0.2549926
138	0x3e40bcf0	0.18822074
139	0x3dc53834	0.096298605
140	0xbd03810d	-0.032105494
141	0xbde7b5e1	-0.113139875
142	0x3e3e2e57	0.18572365
143	0xbe8a1ea0	-0.2697649
144	0xbeac8908	-0.33698297
145	0x3d70159d	0.058614362
146	0xbdfdfe02	-0.12401964
147	0x3d665b20	0.056239247
148	0xbe14a48e	-0.14515898
149	0x3b9863b6	0.0046505583
150	0xbe488e85	-0.19585617
151	0xbdfa9d4d	-0.12237034
152	0xbd1a04de	-0.037602298
153	0x3d49d959	0.049279545
154	0xbcc5dc12	-0.02415279
155	0x3ddb4137	0.10705798
156	0xbda909d4	-0.08253828
157	0xbebc6cf8	-0.36801887
158	0xbe6ef4f2	-0.23335627
159	0x3c85f021	0.016349854
160	0x3e189a72	0.14902666
161	0x3e098499	0.13429488
162	0x3def0c6d	0.11672292
163	0x3dcc78b5	0.099839605
164	0xbdd17edb	-0.10229274
165	0xbeab6def	-0.3348231
166	0x3e2c5b4f	0.16831706
167	0xbddafa60	-0.106922865
168	0xbe3cf175	-0.18451484
169	0xbb759548	-0.0037473012
170	0xbd3f0c82	-0.046642788
171	0x3bb00a52	0.005372324
172	0x3e23c140	0.15991688
173	0xbd890aae	-0.0669149
174	0x3e04427e	0.1291599
175	0xbe4a878c	-0.1977827
176	0xbd636666	-0.055517577
177	0xbd2557f4	-0.04036708
178	0xbea294a1	-0.3175402
179	0x3eb41f1f	0.35179994
180	0x3e418227	0.18897305
181	0x3e6fb769	0.23409809
182	0xbe1b2d87	-0.15154086
183	0x3d999c5c	0.07500526
184	0x3dcb12ba	0.09915681
185	0xbe812ad3	-0.25227985
186	0xbcfda729	-0.030963497
187	0xbdc5d8d4	-0.09660497
188	0xbe27ddba	-0.16393176
189	0x3e13b22b	0.14423434
190	0xbe732be8	-0.23747218
191	0xbd8e4560	-0.06946826
192	0xbe88663b	-0.26640496
193	0xbc86c8bd	-0.016453141
194	0x3df2626a	0.11835177
195	0x3db4988c	0.088181585
196	0x3dd00634	0.10157433
197	0xbcbfb1a2	-0.023400132
198	0x3de7c9af	0.11317765
199	0xbe3f698d	-0.18692608
200	0xbe480c98	-0.19536054
201	0x3da1c193	0.078982495
202	0xbe7509fc	-0.2392959
203	0xbd9126c5	-0.07087473
204	0xbe3000a3	-0.17187743
205	0x3cd0d847	0.025493754
206	0xbceeb951	-0.0291411
207	0xbd1fe1f7	-0.039033856
208	0xbdc379f7	-0.09544747
209	0xbb10175e	-0.0021986584
210	0xbe9e36d8	-0.30901217
211	0x3c3e2a9b	0.011606838
212	0x3cc3b4d9	0.023889946
213	0x3e728c6e	0.23686382
214	0x3c78624e	0.015160156
215	0xbe25cacf	-0.16190647
216	0x3d0612ed	0.032732893
217	0xbe86231f	-0.2619867
218	0x3d7afb34	0.061274722
219	0xbde19cf7	-0.11016267
220	0x3e5d73e6	0.21626243
221	0x3cf79144	0.030220635
222	0xbeda2c9c	-0.4261216
223	0xbd923ae6	-0.0714014
224	0xbda016a5	-0.07816819
225	0x3cae6cf0	0.02129218
226	0xbe910002	-0.28320318
227	0xbd5c84d6	-0.05383762
228	0xbdf10548	-0.117685854
229	0x3dcd3d9c	0.10021517
230	0x3d748081	0.059692863
231	0xbd63f44d	-0.055652905
232	0x3e000651	0.1250241
233	0x3e0f91a6	0.14020404
234	0xbe11512e	-0.14191124
235	0xbe8c7d44	-0.2743932
236	0xbd5f9e43	-0.05459429
237	0x3db0eb88	0.08638674
238	0x3eb3e0ad	0.35132352
239	0x3cfa462b	0.030551037
240	0x3dcffb55	0.1015536
241	0x3c5df9b7	0.013548306
242	0x3cf2c442	0.029634599
243	0xbe1b0ab8	-0.15140808
244	0x3e316908	0.17325222
245	0xbd8a0e26	-0.0674098
246	0xbe850161	-0.25977615
247	0x3d826908	0.06367689
248	0x3e307ed6	0.17235884
249	0xbe9cbdb4	-0.30613482
250	0x3d59518c	0.053056285
251	0xbe90ce96	-0.28282613
252	0x3e530ea3	0.20611052
253	0xbec30d44	-0.38096058
254	0xbd2c8296	-0.042116724
255	0xbd712a79	-0.058878396

_fc2.bias f4 [256]
0	0xbd818701	-0.06324578
1	0xbe6427ba	-0.2228078
2	0xbd6b7db0	-0.05749291
3	0x3d77b94b	0.060479444
4	0xbd5c304b	-0.053756993
5	0x3efcaad1	0.49349073
6	0xbdfbe34d	-0.122992136
7	0xbaf875d9	-0.001895602
8	0xbd7ee5c7	-0.06223085
9	0x3c795fdd	0.0152206095
10	0xbcd90bd1	-0.026494892
11	0xbdbd6445	-0.092476405
12	0x3e2787d0	0.16360402
13	0xbde1adab	-0.11019453
14	0x3d87ddff	0.06634139
15	0x3de3a61d	0.11115668
16	0x3e0366c3	0.12832169
17	0x3d355b23	0.044276368
18	0x3ced086f	0.028934686
19	0xbd847733	-0.06468048
20	0x3de4d339	0.111731
21	0xbde877cd	-0.11350975
22	0x3e794d40	0.24345875
23	0x3d3c88e6	0.046028994
24	0xbd884f16	-0.066557094
25	0xbc69b2b6	-0.014263799
26	0x3c04921e	0.008091478
27	0xbcb241fe	-0.021759983
28	0xbda6b6e1	-0.0814035
29	0xbdb42545	-0.08796171
30	0x3ca5414f	0.020172743
31	0x3cb0f11f	0.02159935
32	0xbd97379a	-0.07383652
33	0xbdbd1501	-0.09232522
34	0xbca4e437	-0.020128353
35	0xbc3c3127	-0.011486328
36	0xbd76c076	-0.06024214
37	0x3e64c663	0.22341304
38	0xbbece24c	-0.007229125
39	0x3d3293f0	0.043598115
40	0xbd7d1fe3	-0.061797988
41	0xbdb65780	-0.08903408
42	0x3c666c16	0.014063856
43	0x3e54c979	0.2077998
44	0xbe279b75	-0.16367896
45	0xbdb86a08	-0.09004599
46	0x3d16e268	0.03683701
47	0xbd6844be	-0.056706183
48	0x3ceab1b7	0.028649194
49	0x3c936158	0.017990753
50	0xbc934f68	-0.0179822
51	0xbda64220	-0.08118081
52	0xbdfaa4f6	-0.12238495
53	0xbc7e9cd6	-0.015540322
54	0xbe59ac10	-0.21257043
55	0x3e247dfd	0.16063686
56	0xbdb6e09d	-0.0892956
57	0x3dcb27ae	0.09919678
58	0x3c76002c	0.015014689
59	0x3d242d9d	0.040082563
60	0x3ce7f60b	0.028315565
61	0xbddd8c5e	-0.108177885
62	0xbd076ba1	-0.033061627
63	0x3d0710a0	0.03297484
64	0x3d29f0ff	0.041489597
65	0x3edd81e9	0.43263176
66	0xbd5705b4	-0.052495673
67	0x3d0ae07a	0.033905484
68	0xbd81af65	-0.06332282
69	0xbd524653	-0.051336598
70	0x3d78fade	0.06078612
71	0xbdb08d1a	-0.08620663
72	0xbd43072f	-0.047614273
73	0x3b924e06	0.0044648675
74	0xb8b4474b	-8.596348e-05
75	0xbd561845	-0.05226924
76	0xbd19933a	-0.03749392
77	0xbda2927d	-0.07938097
78	0x3c805ce3	0.015669292
79	0x3df0a84e	0.117508516
80	0x3d78fa59	0.060785625
81	0x3e84dc56	0.25949353
82	0x3c6a4c58	0.014300428
83	0x3dbccf67	0.09219246
84	0xbd88dfcd	-0.066833116
85	0xbc4f9b02	-0.012671234
86	0x3e00e981	0.12589075
87	0xbc986d8b	-0.018606922
88	0xbd14c057	-0.036316242
89	0x3f08fcee	0.5351094
90	0xbd4e4ea8	-0.05036798
91	0xbd51afff	-0.051193234
92	0xbcc0db98	-0.02354221
93	0xbdbd4418	-0.092415035
94	0xbc5c553d	-0.013448057
95	0x3d1d9067	0.03846779
96	0x3d3f43d9	0.046695564
97	0xbc102ad5	-0.008799274
98	0xbd9f0186	-0.077639624
99	0xba279c01	-0.0006393791
100	0xbe004f27	-0.12530194
101	0x3d2a059e	0.041509263
102	0x3da5bcc9	0.080926485
103	0xbe047b74	-0.12937719
104	0xbd100688	-0.03516248
105	0x3e896961	0.2683821
106	0xbd97d45f	-0.074135534
107	0xbcc58cf8	-0.02411507
108	0x3dd2de8c	0.10296354
109	0xbcb22c2c	-0.021749578
110	0x3e13916a	0.1441094
111	0x3d31171e	0.043234937
112	0xbd34eb74	-0.044169858
113	0xbd59d395	-0.053180296
114	0xbd7a1fdc	-0.06106554
115	0xbd8806b0	-0.066419005
116	0xbdf52470	-0.119698405
117	0x3d68c6c3	0.05683018
118	0x3e2fc1b6	0.17163739
119	0x3ee5de9e	0.44896406
120	0xbd3616a3	-0.04445518
121	0x3cc706e0	0.02429527
122	0xbd4052ac	-0.046953842
123	0xbd9da33a	-0.076971486
124	0xbda0ef6c	-0.07858166
125	0xbdc650ef	-0.096834056
126	0xbe17b081	-0.14813425
127	0xbd5c75a5	-0.053823132
128	0xbce9a553	-0.028521216
129	0x3d87e710	0.066358685
130	0xbe08abe7	-0.13346826
131	0x3c481d1e	0.012213973
132	0xbdad10cb	-0.08450469
133	0x3e5c1dd3	0.21495752
134	0xbd2d772b	-0.042349976
135	0x3a85c728	0.0010206448
136	0xbda14b88	-0.078757346
137	0xbdaab448	-0.08335167
138	0xba273098	-0.00063777855
139	0xbddb224e	-0.106999025
140	0xbd69deaa	-0.057097115
141	0xbd52b8d8	-0.051445812
142	0xbd205348	-0.039141923
143	0xbda84d69	-0.0821789
144	0x3cae140a	0.02124979
145	0xbdcd3804	-0.1002045
146	0xbdd0efcb	-0.10201987
147	0x3d0a987c	0.033836827
148	0xbb2c9b9a	-0.0026337863
149	0x3dc15141	0.09439326
150	0xbdd4b39b	-0.103858195
151	0xbd16c926	-0.036812924
152	0xbdc03402	-0.0938492
153	0xbd01ed68	-0.03172055
154	0xbdbaabe7	-0.09114819
155	0x3c455cd3	0.012046057
156	0x3de46cf2	0.11153592
157	0xbe61c009	-0.22045912
158	0xbdbc94be	-0.09208058
159	0xbc92730e	-0.017877128
160	0x3ed6a02f	0.41919085
161	0xbca2e009	-0.019882219
162	0x3b65209f	0.003496207
163	0xbdc219f1	-0.09477604
164	0xbdc37e2b	-0.09545549
165	0x3d8b3762	0.06797673
166	0xbe182685	-0.14858444
167	0xbdaa8360	-0.08325839
168	0x3d120ae6	0.035654925
169	0x3b8d6d44	0.004316004
170	0x3d86f5d5	0.065898575
171	0xbc5587aa	-0.013032833
172	0xbb3e68a0	-0.002905406
173	0xbdf3ce55	-0.11904589
174	0xbd970718	-0.073744
175	0xbd59bed5	-0.053160507
176	0xbdac00f7	-0.083986215
177	0xbcb0aaf4	-0.021565892
178	0x3cd7b64d	0.026332045
179	0xbdae8f83	-0.085234664
180	0x3df6b55e	0.12046312
181	0xbb8dd5f0	-0.004328482
182	0x3d9a1408	0.07523352
183	0xbd87fc88	-0.066399634
184	0xbd8ec59e	-0.06971286
185	0xbdd07796	-0.10179059
186	0x3c64c590	0.013963118
187	0x3d19a0ea	0.037506975
188	0xbd937f83	-0.07202055
189	0xbd92f04f	-0.071747415
190	0x3d59fa92	0.053217478
191	0xbe0fef2f	-0.14056085
192	0x3d93686e	0.07197653
193	0x3dacab15	0.08431069
194	0x3d834a7b	0.064106904
195	0xbbcfaea9	-0.00633796
196	0x3d1a2046	0.037628435
197	0xbd5f74d3	-0.05455477
198	0x3d64840f	0.055790003
199	0x3dc6681e	0.096878275
200	0xbc66c410	-0.014084831
201	0xbe196c96	-0.14982828
202	0xbcf457da	-0.029827047
203	0xbd3c3d60	-0.04595697
204	0xbbc00187	-0.005859557
205	0x3cc70f6b	0.024299344
206	0xbd16a82c	-0.036781475
207	0x39dc3864	0.00042003684
208	0xbc98d465	-0.018655965
209	0xbc443198	-0.011974715
210	0x3e4c4081	0.19946481
211	0xbafd3d42	-0.0019320624
212	0xbca23241	-0.019799354
213	0xbd78296e	-0.060586385
214	0x3dafa15a	0.08575697
215	0xbc96480d	-0.018344903
216	0xbc0d536e	-0.008625848
217	0x3ce04acc	0.027379416
218	0x3e09f45a	0.13472119
219	0xbd31482d	-0.043281723
220	0xbc908dd1	-0.017645748
221	0x3dd117ae	0.10209595
222	0x3d6d22ee	0.05789464
223	0x3cd29f66	0.025710773
224	0x3c3d8a24	0.01156858
225	0x3e76d96a	0.24106374
226	0x3cdb7936	0.026791196
227	0xbd319292	-0.04335267
228	0xbca1fba2	-0.019773308
229	0xbcc3fcb9	-0.023924218
230	0x3d98d7ac	0.07463011
231	0xbbc30f68	-0.0059527643
232	0xbc113e6c	-0.00886498
233	0x3d26c232	0.040712543
234	0xbca99c36	-0.02070437
235	0xbdcb29e7	-0.099201016
236	0x3dfb6b1e	0.1227629
237	0x3d94003f	0.072266094
238	0xbcab61e9	-0.02092071
239	0xbaf7fdf9	-0.0018920294
240	0xbc2576a0	-0.010099083
241	0xbd885a01	-0.06657792
242	0xbdbf0b3f	-0.09328317
243	0x3da19e97	0.07891577
244	0x3e0c49b4	0.1369999
245	0xbd8f1164	-0.06985739
246	0x3d8a4661	0.06751705
247	0xbdd7278a	-0.10505588
248	0xba29b507	-0.00064738136
249	0x3d996946	0.074907824
250	0xbc74b23d	-0.014935073
251	0x3ea9e0b7	0.33179256
252	0xbd944533	-0.07239761
253	0xbd1dffb6	-0.038573943
254	0xbc1fa70a	-0.009744415
255	0xbd67abc9	-0.05656031

_fc3.weight f4 [4, 256]
0	0xbeb070ca	-0.3446105
1	0xbe1281b2	-0.14307287
2	0xbdd9c557	-0.10633343
3	0x3ea01f35	0.3127381
4	0x3c92e1b5	0.017929891
5	0x3e12dd80	0.14342308
6	0xbe466ce9	-0.19377483
7	0x3eb50540	0.35355568
8	0x3c8fc9f3	0.017552352
9	0x3d3382c0	0.043825865
10	0xbe1552b9	-0.14582337
11	0xbf026d94	-0.5094845
12	0x3db0dd20	0.08635926
13	0xbe215c14	-0.15757781
14	0x3da884f7	0.08228486
15	0x3d8e1580	0.069376945
16	0xbb971afe	-0.004611372
17	0x3da1075d	0.078627326
18	0xbe2a90fb	-0.16656868
19	0xbe2a8771	-0.1665323
20	0x3da03e31	0.07824362
21	0xbe5bb58a	-0.2145597
22	0x3d526e85	0.05137493
23	0x3e1d5436	0.15364155
24	0x3d408d4c	0.04700975
25	0x3d6c77ea	0.057731546
26	0x3d8d5c73	0.06902399
27	0xbe236377	-0.15955912
28	0xbc840c46	-0.016119134
29	0xbe6d4fe6	-0.2317501
30	0x3d508743	0.050910246
31	0xbcfa3351	-0.030542048
32	0xbe31b9a6	-0.17355976
33	0x3d8e4ec0	0.06948614
34	0xbeb6203a	-0.35571462
35	0x3dc0cdf6	0.09414284
36	0x3d290355	0.041262943
37	0x3d372892	0.044716425
38	0x3e654643	0.22390084
39	0x3dd2afdb	0.10287448
40	0xbe4cd9e4	-0.20004994
41	0x3db1922e	0.0867046
42	0x3d4b214b	0.049592298
43	0x3d99407a	0.07483001
44	0xbde40ec8	-0.11135632
45	0xbc42ea71	-0.0118967155
46	0x3dded038	0.10879558
47	0x3e495d89	0.19664587
48	0x3d086a19	0.033304308
49	0x3ce434f7	0.027857287
50	0xbea6d1be	-0.32581896
51	0xbe2e832c	-0.17042226
52	0xbcd9c89b	-0.026584914
53	0xbbacca62	-0.0052731493
54	0xbdd53481	-0.10410405
55	0x3e0cae0a	0.13738266
56	0xbd0cf6c7	-0.034415033
57	0x3d21bb3e	0.03948521
58	0xbe833d2a	-0.25632602
59	0x3cdd6f87	0.02703072
60	0x3d4305b4	0.04761286
61	0x3b25e5b8	0.0025313925
62	0x3e18ded6	0.14928755
63	0x3d8608f7	0.06544679
64	0x3d8245fb	0.06361004
65	0x3dab8eb0	0.08376825
66	0xbe9ae74a	-0.30254585
67	0xbdb581a0	-0.08862615
68	0xbe90b026	-0.2825939
69	0xbc439af7	-0.011938802
70	0xbeaf4e1b	-0.34239277
71	0xbd5f2155	-0.054475147
72	0xbe4cea27	-0.20011197
73	0x3dbef850	0.093247056
74	0x3ccfea2f	0.025380222
75	0x3e3aaedd	0.18230768
76	0xbe1b06f3	-0.1513937
77	0xbcdd1b6a	-0.026990611
78	0xbcc54a0e	-0.024083164
79	0x3c8309b8	0.015995845
80	0x3d0e5f0d	0.034758616
81	0x3d69ca3e	0.05707764
82	0xbe4b2841	-0.19839574
83	0x3ccd12fb	0.025033465
84	0x3e0b6071	0.13611008
85	0xbe08f883	-0.1337605
86	0x3da38c69	0.079857655
87	0x3d2dce65	0.04243316
88	0x3dda9101	0.106721886
89	0x3def7181	0.11691571
90	0xbe42b96c	-0.19016045
91	0xbe13bce4	-0.14427525
92	0x3e3a2c10	0.18180871
93	0xbe5998a2	-0.21249631
94	0xbecfe4fe	-0.40604395
95	0xbef86366	-0.48513335
96	0x3d7630d4	0.06010516
97	0x3be66ada	0.0070317807
98	0xbe141f97	-0.14465176
99	0x3dc8f88d	0.09813032
100	0xbead37bd	-0.33831587
101	0x3db3156f	0.087443225
102	0x3d884a81	0.066548355
103	0xbe96adf3	-0.29429588
104	0x3d96898f	0.07350456
105	0x3d36bb5a	0.044612266
106	0xbebd55e0	-0.3697958
107	0xbd0ddd5f	-0.034634944
108	0x3d86beb5	0.06579343
109	0x3ec48722	0.38384348
110	0x3d5924e5	0.0530137
111	0x3da9ad5f	0.08285021
112	0x3d74fcc0	0.059811354
113	0x3d6bb85c	0.057548866
114	0xbda9c9c3	-0.08290436
115	0x3e0f90ae	0.14020035
116	0xbce88ca2	-0.028387371
117	0x3d01bf39	0.031676505
118	0x3d1c02a6	0.038088463
119	0x3d8caef6	0.06869309
120	0xbe009f4f	-0.12560771
121	0x3e47bc13	0.19505338
122	0x3c366b2d	0.011133951
123	0x3d13ef78	0.036117047
124	0xbc393d73	-0.011306155
125	0x3e8614ed	0.2618784
126	0xbe0828c8	-0.13296807
127	0xbdbcfa69	-0.092274494
128	0x3e629c75	0.22129996
129	0x3ec7af57	0.3900096
130	0xbe98a7d1	-0.29815534
131	0x3e793c90	0.24339509
132	0xbe6bb255	-0.23017247
133	0x3e2c023f	0.16797732
134	0x3e0597f6	0.1304625
135	0x3db23edd	0.087033965
136	0xbe2cb24b	-0.16864888
137	0xbd261390	-0.040546
138	0x3dad43e5	0.084602155
139	0x3db127ff	0.08650207
140	0x3e3a15fe	0.18172452
141	0x3d335c42	0.043789156
142	0xbe91afb7	-0.28454372
143	0x3da6433b	0.08118292
144	0xbc6fe3cb	-0.014641712
145	0xbd8b6f9d	-0.06808398
146	0xb9c2a99c	-0.00037128932
147	0x3d9e167c	0.07719132
148	0xbe879b88	-0.26485848
149	0x3db65051	0.08902038
150	0xb9c78749	-0.00038057033
151	0x3d24977c	0.04018353
152	0xbe8f1e30	-0.2795272
153	0xbde54f7b	-0.111968
154	0xbdc7b560	-0.097513914
155	0x3e089e7f	0.13341711
156	0x3dac2cc3	0.08406975
157	0xbd31ce33	-0.043409538
158	0xbe078b83	-0.13236813
159	0xbe0662a4	-0.13123566
160	0x3dc7e553	0.09760537
161	0x3ca9499a	0.020664979
162	0x3e6b5c1a	0.22984353
163	0xbd040d35	-0.032239158
164	0xbc2f145a	-0.010686005
165	0x3dbf96e1	0.0935495
166	0xbd01fde8	-0.031736284
167	0xbdf70c3e	-0.12062882
168	0x3de4d46f	0.11173331
169	0xbd07430a	-0.033022918
170	0x3d825348	0.06363541
171	0xbd8607cd	-0.06544457
172	0x3e478397	0.19483791
173	0xbe6b8f57	-0.23003899
174	0x3d5f4f29	0.054518852
175	0xbd8119cb	-0.06303748
176	0xbda22071	-0.07916344
177	0xbe622b6e	-0.2208688
178	0xbdb7696e	-0.08955656
179	0xba0b0136	-0.00053026096
180	0x3de57330	0.11203611
181	0x3ed0d8bb	0.40790352
182	0x3dc5260d	0.09626398
183	0xbe767855	-0.2406934
184	0x39c7b040	0.00038087554
185	0x3de472a7	0.11154681
186	0x3c5c1356	0.013432344
187	0x3e47c741	0.19509603
188	0x3dc2cc1c	0.09511587
189	0x3d819d56	0.063288376
190	0x3dd45226	0.10367231
191	0xbea93d0f	-0.33054397
192	0xbe94bf00	-0.2905197
193	0x3ded35ba	0.11582513
194	0x3d2facaf	0.042889293
195	0x3d0a094c	0.033700272
196	0x3aa4a98e	0.0012562738
197	0x3e4d88fe	0.2007179
198	0x3d44fae0	0.048090816
199	0x3d05d756	0.032676063
200	0x3ded8d21	0.11599184
201	0xbe4828f7	-0.19546877
202	0xbe27bb66	-0.1638008
203	0xbd43f3e6	-0.04784002
204	0xbce67902	-0.028133873
205	0xbf2d5040	-0.67700577
206	0xbee08b85	-0.43856445
207	0xbe278d20	-0.16362429
208	0xba879182	-0.0010343047
209	0x3d84b068	0.06478959
210	0x3bf0842a	0.007339974
211	0xbe0ec304	-0.1394158
212	0x3c62d0a1	0.013843686
213	0x3c1f1937	0.0097106015
214	0x3db541e3	0.088504575
215	0x3e5d928f	0.21637939
216	0x3e281c8d	0.16417141
217	0x3e7671ee	0.24066898
218	0x3cace103	0.021103388
219	0x3dcdb825	0.100448884
220	0xbc14c657	-0.009080491
221	0x3da9a79e	0.082839236
222	0x3dc9208e	0.098206624
223	0x3dae588e	0.08512984
224	0xbeb8bafc	-0.36080158
225	0x3d493ac6	0.049128316
226	0x3cb992a9	0.02265294
227	0xbe72eff7	-0.23724352
228	0xbda14321	-0.07874132
229	0xbdf2674f	-0.11836111
230	0x3cc76c3d	0.024343604
231	0xbe16fac8	-0.14744103
232	0x3e71fd58	0.23631799
233	0x3de5ccbf	0.11220693
234	0x3cd4e355	0.025987307
235	0xbee02fa0	-0.43786335
236	0x3d51ce98	0.051222414
237	0x3e67eb39	0.22648324
238	0x3d06928f	0.032854613
239	0x3e8b731b	0.27236256
240	0xbbcebde4	-0.006309258
241	0xbdcc2f40	-0.0996995
242	0x3e079a93	0.13242559
243	0x3d2a6002	0.041595466
244	0x3dd41df7	0.10357278
245	0x3e4ad68c	0.19808406
246	0x3e9023b3	0.28152236
247	0x3e91fa57	0.28511307
248	0x3db356ca	0.08756788
249	0x3b755c7f	0.0037439165
250	0xbdafad17	-0.08577936
251	0x3d6d9ab6	0.058008872
252	0xbd4c5574	-0.049886182
253	0x3e8e257a	0.27762967
254	0xbe74d082	-0.23907664
255	0x3e2f62f4	0.17127591

_fc3.bias f4 [4]
0	0x3ee23190	0.44178438
1	0x3e6e2902	0.2325783
2	0x3e90e716	0.28301305
3	0x3e99821d	0.2998208
