project3-tennis/models/ddpg_agent0_actor_local.pth (torch_old, 159276 bytes, 6 tensors)

fc1.weight f4 [256, 24]
00000000: 2e13 313d 1581 073d 6ddc 003c 925c 70bd
00000010: 5aad 24be d9b8 133d 8451 4b3c eb20 963c
00000020: 2a11 8b3c 8141 9b3d e41a 353b 8d8f 4dbd
00000030: d03f b2bd 5214 d1bc bcbe 843d c869 453b
00000040: f61f 54bc 2140 403d d6cc 9dbc da8b ab3c
00000050: 171a e1bd fcb3 7abd 30fe 3c3d cd78 c6bc
00000060: c80e c1bb 03cb b93d 167e 9bbd fcec 073e
00000070: c49b 5dbc 78b1 9bbd 140c 8abd cac8 233d
00000080: c83c f6bc 464b 8d3c e114 243d 6590 e53c
00000090: 7a55 c8bb 8bcc 1d3d d034 f1bb bdfd 1b3d
000000a0: e3ae c43b 891d 02bd 384d 9fbc a7b9 f93c
000000b0: b93d ce3d a4a9 333e 4317 d33c fb51 00bc
000000c0: f4f8 b2bd 3b61 d3ba bb8d 493d 7c81 a9bc
000000d0: e12e 47bc 35b8 803c f272 09bd b2e2 98bd
000000e0: 9d43 adbb 3c61 8bbc 0eef 823c 5c8e 3abd
000000f0: 9b4d 24bc 8536 113d 960a 103d 199d d2bc
00000100: 1d66 853c 880c 29bc aa5f 83bc 94fb 09bd
00000110: b034 1fbd 4462 ab3b 4392 f83c 52ba 293d
00000120: e455 5abd 3582 2e3d 77fe 883b f0de c0bb
00000130: 0d8a 09bd 2bdb e83d a862 e53c 6d79 52bc
00000140: 5e35 b1bd 6cd7 043d d34c bcbc 8ddd 26bc
00000150: 4c81 593d 669d 2f3c fa56 7d3c 4390 7c3d
00000160: a968 053c 0108 d83d e219 2bbd 3c10 393c
00000170: c93b 213d d890 92bd d316 603d dd54 273d
00000180: 1fc8 74bd d081 2cbd b61f 5f3d d86d 4a3d
00000190: 677e a43c 3178 c6bd 3901 52bd 92e4 babc
000001a0: fe6f 42bd 3197 27bc 2338 4c3d 902e 72bd
000001b0: e189 243d 39cc 1b3d d221 933d 921a 063c
000001c0: 0cfb 573c 7965 673b ac97 e8bc 3dd0 21bd
000001d0: 6a6b c3bd cd7d 123e bcf4 273c 9781 eb3c
000001e0: 88a8 92bc 0d36 d53b 0da3 dabc f178 06bd
000001f0: afa5 ff3c ecc3 f3bc bd0b 533d e739 6fbc
00000200: 1b9f 71bd 6e32 c73b 769c 9cbc e124 b3bd
00000210: ec9c 85bd f234 023d d68f 463d 11e4 7bbd
00000220: b8d2 76bc 0127 cbbd 152e 893d 2679 803c
00000230: 0d3d fe3a f3d2 ec3d 140f 9a3d 7f3e 2cbc
00000240: c588 c2bd 0428 f13c ffdd e73c c36d 65bd
00000250: 7ae3 813d a892 88bd 935a 643d f851 093d
00000260: 3ae8 28bc 1751 9bbc 02ba 363d 0770 c8bc
00000270: 047b 2cbd e8c6 b23d b769 bf3c fef7 84bc
00000280: f3f4 42bd e4f6 2fba 34d5 8c3d c473 3fbc
00000290: 526b ae3b dfad b43c 8ba0 883d 014e 9c3c
000002a0: 2032 42bd 7e4a 493c fdbb 5cbd 630b a23d
000002b0: b618 58bb f7c1 acbd e1d1 d4bc 7e6f 083d
000002c0: 5f97 7bbd 5884 403d 2cef 2abd dc18 e7bb
000002d0: 0c41 0dbd 0c55 ee3c c6ff e7bc 466a ee39
000002e0: 7d7b 3bbd 979e b63c 09d0 79bd 7661 c13c
000002f0: a5a3 873d e406 863d afe2 7e3c 9fee 863b
00000300: ce75 b3bd c00b 243c e04d 2c3d d9bc 873d
00000310: b0ca 843a 0aea 28bd 145b 363d b195 273d
00000320: 7ed8 9dbc 8320 adbc 2bc9 033d f08e c8bc
00000330: 6270 b7bb 9027 9e3d e194 563d 6065 8839
00000340: d6cf 353d 61ca c4bc 3fc3 f53c 56a8 7a3c
00000350: 97a1 61bd 5442 ec3d e84d 43bd f5c8 50bd
00000360: f54b 0dbb 3b8f bbb9 ac58 10bc 2698 843c
00000370: a1ef 73bb c4ac b53c 0424 8bbc fa59 0a3d
00000380: f7ac bdbd df40 65bd 0ea5 3c3d f3fd b73b
00000390: 4849 e1bc 74c3 d03d 6d3a 4e3a b378 84bd
000003a0: d8a8 55bc 1fa5 a0bd 7abf 34bd 365f 243d
000003b0: 858f 41bd ce20 2f3d 785f 583d a680 653c
000003c0: 621f 29bd 6fbe 283c 64b9 dcbc cb55 a53c
000003d0: 0f54 9d3d b9ea 9d3d 44f8 8dbd 5a8d 9b3d
000003e0: a7db b2bb 85df 1e3c c5c5 843c 8938 1b3c
000003f0: cb32 593e a92d 303c 0b16 cebc 8b98 fd3c
0.04323118 0.033082087 0.007865054 -0.058682032 -0.16081753 0.036064956 0.012409572 0.018326243
0.016975958 0.07580853 0.0027634436 -0.05018573 -0.087035775 -0.025522385 0.06481692 0.0030122865
-0.012947073 0.046936158 -0.019262712 0.02094071 -0.10991304 -0.061206803 0.04614085 -0.024227524
-0.0058916546 0.090719245 -0.07592408 0.13273996 -0.013525907 -0.07602209 -0.06740585 0.03998641
-0.03005828 0.017247807 0.040058974 0.028022954 -0.006113705 0.038525146 -0.007361032 0.03808378
0.0060022934 -0.03176645 -0.019446 0.030484034 0.100703664 0.17545182 0.025767928 -0.007832046
-0.0873889 -0.0016126999 0.04920743 -0.020691626 -0.012157173 0.015712837 -0.033556886 -0.07465114
-0.005287601 -0.017014138 0.01598313 -0.04554592 -0.010028268 0.035452385 0.035166346 -0.025709676
0.016284043 -0.010317929 -0.016036827 -0.03368719 -0.038868606 0.00523022 0.03034318 0.041437455
-0.053304568 0.042604644 0.004180725 -0.005885951 -0.03357892 0.11369928 0.028001145 -0.012846333
-0.08652757 0.032432005 -0.022985851 -0.010184658 0.053101823 0.010718679 0.015462631 0.061661016
0.008142629 0.105484016 -0.04177273 0.0112953745 0.039363656 -0.07156533 0.054709267 0.040852416
-0.059761163 -0.042115986 0.0544736 0.04942116 0.020079805 -0.096908934 -0.051270697 -0.022814069
-0.047470085 -0.010228918 0.049858224 -0.059126437 0.040170554 0.03803656 0.07184185 0.008185046
0.013182413 0.0035308285 -0.028392635 -0.039505232 -0.09541972 0.14305802 0.01025122 0.028748317
-0.017902628 0.0065066875 -0.026689077 -0.032830182 0.031206934 -0.029756509 0.051524866 -0.014601207
-0.058989625 0.0060790097 -0.019117575 -0.087472685 -0.06524071 0.031788774 0.048477016 -0.061496798
-0.015064888 -0.09919549 0.066982426 0.015682768 0.0019396857 0.11563673 0.07522407 -0.010512947
-0.09498743 0.029438026 0.028304098 -0.05601288 0.06342216 -0.066685975 0.05575044 0.033525437
-0.010309273 -0.018959565 0.044610985 -0.024467481 -0.042109504 0.087293446 0.023365838 -0.016231533
-0.047596883 -0.000671251 0.06876603 -0.0116853155 0.005322852 0.022055564 0.06671246 0.019080164
-0.047411084 0.012285827 -0.053890217 0.07912328 -0.0032973713 -0.08435433 -0.025978984 0.033309452
-0.061423656 0.047001213 -0.041732 -0.007052524 -0.03448586 0.029093288 -0.028320204 0.00045474077
-0.045772064 0.022292418 -0.060989413 0.023606043 0.066230096 0.06544283 0.015556975 0.0041178013
-0.08762704 0.010012567 0.042066455 0.06627817 0.0010131206 -0.041238822 0.044520453 0.04091424
-0.01926827 -0.021133667 0.03217427 -0.02448222 -0.005598114 0.0772239 0.052388076 0.00026015472
0.04438766 -0.024022283 0.030000327 0.0152989235 -0.055085745 0.115360886 -0.04768172 -0.050972898
-0.0021560166 -0.00035774134 -0.0088102035 0.016185831 -0.0037221687 0.022177108 -0.016984947 0.033777215
-0.09261506 -0.05597007 0.046055846 0.00561499 -0.027500764 0.1019353 0.00078669825 -0.06468334
-0.013040744 -0.07843994 -0.04412792 0.040129863 -0.04725601 0.042755894 0.05282542 0.014007723
-0.041289695 0.010299309 -0.02694387 0.02018251 0.076820485 0.077107854 -0.069321185 0.0759532
-0.0054583135 0.009696846 0.016207585 0.009473928 0.21210782 0.010753074 -0.025156995 0.030956527

fc1.bias f4 [256]
00000000: e6c2 babd e917 f23d bd59 cf3d c028 eb3d
00000010: 454f 7cbc 47f9 1ebe 168c 42be bda0 7d3d
00000020: 7fe3 4abe 1fce e6bd 1779 f33d 409a a8bc
00000030: 559b cb3d 2569 04be cd1b c13d 3902 3e3e
00000040: c3f3 823d 26a9 603d 1182 d8bd 97e7 04be
00000050: 740d 023e 4122 07be edb8 10bc 5723 03be
00000060: bd80 e6bb 4626 49be df2e a13d 754e 1a3c
00000070: 3094 39be 42b9 babd fdcb 64bd f996 96bd
00000080: e440 13bc 70c9 cd3c 87f1 edbd 58e2 a73d
00000090: cdf5 00be 8f2d 5a3e 0c57 bcbd e888 ef3d
000000a0: 72ac 0abe ed16 90bd 93a6 56bc f370 a7bd
000000b0: fe58 5ebd f3c7 f7bc dd51 79bd 2d7f 10be
000000c0: 105f 6a3e 0838 073e a0fb 02bd 0d4b 023e
000000d0: 4e1f b4bd d145 18be 7f88 953d 8d39 abbd
000000e0: 74e7 183e ff73 643b cc99 3cbe eeca 1e3e
000000f0: eab5 ae3d 0f23 953d 9cc8 bcbb c2fb 18be
00000100: 811e a43d 7465 293b dc77 05be 1772 0f3e
00000110: 234b 28be dd3e 98bd de56 20bc 11bb 29be
00000120: d51c 0dbe 98c7 5fbd d115 7bbc e7d7 483e
00000130: fe9c e43d ac05 5e3e 7405 723d 9660 2f3d
00000140: 0a63 c1ba 398a 83bd 639b 3ebe 796c 4fbe
00000150: 17fd f43d f051 e9bd 8281 5ebd 2b6d a33d
00000160: ddff f4bd 1a00 173e 93e8 f13c 923a 963d
00000170: 0f4a f1bc d88c 223e 7e30 4dbe 34aa 2bbe
00000180: c991 3f3e a698 c7bd 0068 833e cac7 053e
00000190: 6fb4 e53d 5e7f 803c dc24 7d3d 82df a73d
000001a0: ad6d b7bd d66c 3f3e fe44 143e 1a32 4b3d
000001b0: 6761 a73d 017a 46bd 1250 84bd 9df9 21be
000001c0: 1ec8 c4bc 35be 08be dade a4bc 24a2 303e
000001d0: b281 703e 20bd e7bd fbc0 4dbe effc 513e
000001e0: f3ee 8ebd 5a3e 663d ae61 083e f41a 683e
000001f0: b548 d93d a007 b63d 1d10 0c3d 06fe 91bc
00000200: 578e d03d 55b5 25be 7a8c 29be 0578 fa3d
00000210: 6acb 44be 2af4 2a3e 5266 303e e1f0 d33d
00000220: 8542 a63d 2503 853d b4f8 bd3d 2863 0c3e
00000230: 391e 983c 9762 efbd e0ca 153e 7d32 823d
00000240: abdc 3c3e fbcf 03be 30b0 c0bd 82b8 12be
00000250: 59c4 023d ce74 5a3e 7678 e33d 0406 313e
00000260: 91e2 363e 52b0 e6bd c718 703e 4486 043d
00000270: 861b 593e 46cf 4abb 908f 9bbb 621c 483e
00000280: a1a8 aebd 4d5e 16bc 5679 793b 8451 4e3b
00000290: 981d c6bc c568 2c3e abe4 4b3c 1c99 a33d
000002a0: a233 e33d e5c9 793e 1ca3 d93d 054a 52be
000002b0: 2da6 4bbe 6e55 31be 2f80 40be 6aab 27be
000002c0: 82ac 1f3d 74ef 673e 8d8e a5bd e8b2 f53d
000002d0: 4695 5ebd 72dc 283e 047c a53d 692a bb3d
000002e0: 2eca 743e e9fa 05be 40f1 18be 052a 4bbd
000002f0: 6b95 a13d 0ed3 463e be8f 2c3e 8f8f f63d
00000300: d4be cfbc dbec 92bd 2856 763e 7c5c 57be
00000310: ef82 28be 4457 d43d a460 2d3e d43e 713d
00000320: ba6f babc f8c5 6bbc af05 d03b b738 96bd
00000330: f103 813e 8a5e 7b3e 669c adbd 9623 193e
00000340: 5775 d5bc 7266 e6bd 00f5 2b3c 73ea f2bb
00000350: 74f9 5a3e 618d e43c 29db 1ebd 79be 29be
00000360: 5732 493e 496e 313e e932 2a3d e16d 93bc
00000370: 529a bfbd 7073 9e3d e7fe 553e 480d ebbc
00000380: af46 b83d 54f3 62be 62e2 933d e0c4 00bd
00000390: 7fcb 89bc 9379 b2bd 5ecf 5a3e c779 323e
000003a0: 59b2 70bd 004b 2fbd 6553 c83d 9529 b93d
000003b0: 6e66 d0bd b742 d83d 33ef 9c3d 4892 c23d
000003c0: 1c58 82bd 7e79 f4bd 76fe 0e3e f9f8 0a3d
000003d0: 6d6c 88bd 9c71 2e3e 557f fe3c 9715 0ebe
000003e0: 39a7 5bbc 5138 a3bd 7170 e0bd febe 14be
000003f0: ca37 253e fc49 403e cc61 4bbe df40 493e
-0.09119205 0.11820967 0.10124538 0.11482382 -0.015399759 -0.1552478 -0.18998751 0.06192087
-0.19813345 -0.11269783 0.118883304 -0.020581365 0.099417366 -0.12930734 0.09429131 0.18555535
0.0639415 0.054848813 -0.10571683 -0.1297897 0.12700444 -0.1319666 -0.008833152 -0.1280645
-0.00703439 -0.19643506 0.07870268 0.00941812 -0.18122935 -0.091173664 -0.0558586 -0.073530145
-0.008987639 0.025120467 -0.11618333 0.081974685 -0.12593766 0.21306442 -0.091962904 0.11696035
-0.13542345 -0.07035623 -0.013101238 -0.0817584 -0.05428409 -0.03024671 -0.060869087 -0.14111014
0.22887826 0.13204968 -0.03197825 0.12723942 -0.087950334 -0.14870383 0.07301425 -0.08360586
0.14932042 0.0034859178 -0.18418044 0.15507099 0.08530791 0.072820775 -0.005761219 -0.14939788
0.08013631 0.0025847824 -0.13034004 0.14008366 -0.16434912 -0.07433865 -0.009786336 -0.16575266
-0.1378053 -0.054633707 -0.015325026 0.1961361 0.111627564 0.21681851 0.05908723 0.04281672
-0.0014754247 -0.06422848 -0.18613963 -0.20256223 0.119623356 -0.113925815 -0.054322727 0.079798065
-0.119628645 0.14746132 0.029529845 0.0733539 -0.02945426 0.1587404 -0.2003803 -0.16764146
0.18707956 -0.09745912 0.25665283 0.13064495 0.112160556 0.015685733 0.06180273 0.081969276
-0.08956466 0.18693861 0.14479443 0.049608327 0.08172875 -0.048456196 -0.06460585 -0.15817876
-0.024021205 -0.13353808 -0.020125795 0.17249352 0.23486975 -0.113153696 -0.20093147 0.20506643
-0.0697917 0.056211807 0.13318512 0.22666532 0.10609571 0.08888173 0.034195054 -0.017821323
0.10183399 -0.16182454 -0.16557494 0.12229923 -0.19218221 0.16694704 0.17226532 0.103486784
0.08118156 0.064947404 0.09275952 0.137097 0.018569099 -0.116887264 0.14628172 0.06357286
0.18443553 -0.12872307 -0.09408605 -0.14328197 0.031925533 0.2133362 0.111069605 0.17287451
0.17859866 -0.11264099 0.23446952 0.03235461 0.21201906 -0.0030946299 -0.0047473386 0.19542077
-0.08528257 -0.0091777565 0.0038066707 0.0031481693 -0.024184033 0.16836841 0.012444655 0.07988188
0.110938326 0.24393423 0.10626814 -0.20536049 -0.1988761 -0.17317745 -0.18798898 -0.16373983
0.038982876 0.22649938 -0.0808383 0.11997014 -0.054341577 0.16490343 0.08080295 0.091389485
0.2390525 -0.13083996 -0.1493578 -0.04960062 0.07889827 0.19416448 0.16851708 0.120391004
-0.025359549 -0.07174083 0.24056304 -0.21031374 -0.16456197 0.10368207 0.16931397 0.05889781
-0.022758354 -0.014390461 0.006348334 -0.07335036 0.2519832 0.24547783 -0.08477096 0.14954981
-0.026056929 -0.11250009 0.010495424 -0.0074132024 0.21384221 0.027899446 -0.038783226 -0.16576566
0.1964811 0.17327227 0.041552458 -0.01799673 -0.09355606 0.07736862 0.20898019 -0.028692856
0.08997857 -0.22163135 0.072209135 -0.031437755 -0.016820667 -0.08714595 0.21368167 0.17429267
-0.058763836 -0.042796135 0.09781531 0.09041134 -0.10175787 0.105596 0.07662811 0.09500557
-0.06364462 -0.11937235 0.13964257 0.033928845 -0.066613056 0.17035526 0.031066576 -0.13875423
-0.013406568 -0.07969726 -0.109589465 -0.14525983 0.16134563 0.18778223 -0.19861525 0.19653653

fc2.weight f4 [128, 256]
00000000: e31f 83bd 3e14 82bd 597c 723c b2a6 c93c
00000010: 983f e83c 8e34 c33a d40a 4f3c bd6c bd3d
00000020: e947 17bd bef0 1b3d 638b b0bd b179 17bd
00000030: ecf6 5abd 8506 0fbd 65dc 283d 6ec4 9d3c
00000040: 4207 293d c6e2 a0bd 4948 b43c 4e37 b2bd
00000050: 9bce 14bd f70d c33d a698 0bbc 4166 9a3d
00000060: 1df7 93bd be3d cabd 2562 d8bb 1e73 27bd
00000070: e3e3 a13c 8d70 62bd e699 ee3d 9189 ccbd
00000080: b4ce 6e3d 519c d73c 614c 023e 6af6 87ba
00000090: 23ee 7e3d 54c9 b9bc 2a36 0b3d 0d06 b83d
000000a0: b1dd 75bd 5968 43bd 09c0 e3bb a8bf 84bd
000000b0: 5690 33bb b059 cd3d 2055 463d 60e0 5d3d
000000c0: 5908 083d 43bf 893c 9b22 e9bb 585e c0bd
000000d0: b82b 63bb 18aa dfbd 76fe 8c3c b8c2 4d3d
000000e0: c676 d53c 91ce 0e3c 88ec cbbd 2330 41bd
000000f0: 0221 0bbe e184 b53d c652 c83d 93cc 783d
00000100: eb70 39bd f9da 1d3d bd80 d73d 67f7 c53b
00000110: 86e1 f6bc 1c95 ee3c 48be 84bc 62ce 24bd
00000120: 113f 25bc 213b 903d 0c03 ff3b 696d 8e3d
00000130: a4ff 97bd b9d2 103d 7a1d e1bb a18e 5abd
00000140: 2899 aabc d53e f7bc 2474 bebc 3b0d bb3d
00000150: 32cf ea3d 3788 87bd 9f66 9dbd e38a 90bc
00000160: eab1 71bd fbbb 9d3b eac4 d93d 73e2 ebbd
00000170: a226 d0bd 9aee 483d 21e2 e5bd db0b c53c
00000180: ea0e 7b3d 4178 3dbd 8816 c33d 55d5 063d
00000190: 84e6 cebc 549d d13d c203 693d 6d4e af3d
000001a0: 5bfa a53d b3fc 273c cc6c c7bd 4b71 aa3d
000001b0: 4647 9939 2989 c53d 4bab e0bb 6bff 903c
000001c0: 1812 d03c 6264 a93d b6e4 28bd 5c3f 673d
000001d0: cb76 2f3d c6d4 363d da7a 00be ad2d 953d
000001e0: 2085 d0bb 7340 2ebe 990c 8a3b 1ae3 f13c
000001f0: dbd6 4d3c 0baa d73d 76f9 8c3d c565 66bd
00000200: 603a 63bc ff0e e73d 41e2 1f3d 3a70 a13d
00000210: f203 1d3c 9d83 fe3d 2d5e 1f3e f0f5 1abe
00000220: 069a 3f3b 3cc2 773c 8ca4 eebc f40d e7bc
00000230: 5927 99bc e6ea 1f3d 7018 cb3d 1a9a 0ebc
00000240: 2d49 5e3d b700 693c fcad 8bbd f360 263d
00000250: 070b 07bd 2021 873d 8efe b33d 98d4 a1bd
00000260: 5aad 5bbd f3d2 08be 0120 7d3d 282b 803d
00000270: 192e 253d 7033 73bd 5eba b23d 383a a53d
00000280: bea5 573d 1da4 09be c76d b63d 2f25 c4bd
00000290: 3803 323e e7f6 3cbd 63da b2bb aed2 853d
000002a0: 1689 a13d 0361 5f3d 9ece 27bd 9890 b6bd
000002b0: bff3 02be 5288 8f3d 5a38 e5bc 70cd b6bb
000002c0: c80a 693d a6d0 20bd f92d 25bd e7a7 c73c
000002d0: 0404 183d 83e8 90bc 1484 8b3d 5807 f5bc
000002e0: d7df a73d 3ff2 b73c ca71 8f3d d9c1 c238
000002f0: 5e79 3c3d 887d a83d b67b 08bd 5fc9 dcbc
00000300: e456 06be 4c00 e9bb b256 f6bc 4203 aa3c
00000310: 0c6f e0bd 55c1 08bd 406e a63d 8843 af3d
00000320: d90c 6e3d b281 b3bb c8af 57bc 7f43 c13c
00000330: 2a02 683d 14d9 023e f5b2 dbbd f493 ca3d
00000340: bade 00bd ac3a 48bd ad19 d7bc 1d82 1c3d
00000350: afb3 dc3d 8652 353d e01d e13d 96b1 8abd
00000360: 81b3 9c3d e598 a53d cf41 0ebe 6db7 70bd
00000370: 6d25 4cbd f9da 4d3e cc07 b9bc c7c4 993d
00000380: ac5b e23c fd2c 9fbd c279 b23b 4bec f83d
00000390: 6bb6 133b 5cee f03c e03a bc3c 0514 273d
000003a0: 36a0 2ebb a3b7 75bd b0d3 b0bc da8e 133d
000003b0: 7177 0c3d c198 853d 5934 393d a121 45bd
000003c0: f9d5 a7bd e583 febd c010 7f3d 3ccd 27bd
000003d0: e8ba 31bb d3f9 c43d 4bfb eb3d f444 2dbe
000003e0: 4819 b33d 1a03 a3bb 135a a4bd b123 ccbb
000003f0: 6fdd 763c c2b3 c43c d5a0 b03c fcb9 c7bc
-0.06402566 -0.06351517 0.014800155 0.02461562 0.028350636 0.0014892982 0.012636859 0.09249256
-0.036933813 0.038071387 -0.08620336 -0.03698129 -0.05345814 -0.034918327 0.04122581 0.019258704
0.041266687 -0.078557536 0.022007124 -0.08701955 -0.036329847 0.09524148 -0.008520281 0.07539035
-0.072248675 -0.09875058 -0.0066034966 -0.04088127 0.019761985 -0.055283118 0.116504475 -0.09987176
0.058302596 0.026319655 0.12724449 -0.001037312 0.062238824 -0.022679009 0.0339872 0.08985529
-0.060025875 -0.047706936 -0.0069503826 -0.06481868 -0.0027399263 0.10026872 0.048421025 0.05416906
0.033211086 0.016814834 -0.007114721 -0.09392995 -0.003466351 -0.10921115 0.01721118 0.050234526
0.026057612 0.008716241 -0.09957224 -0.047165047 -0.1358681 0.08863235 0.09781413 0.060741972
-0.045273703 0.038538907 0.10522602 0.0060414555 -0.030136835 0.029123835 -0.016204014 -0.040235884
-0.010085837 0.07042528 0.0077823456 0.06954462 -0.074218065 0.03535721 -0.006869969 -0.053358678
-0.020824984 -0.030181328 -0.02324874 0.09133383 0.114653006 -0.06617778 -0.07685589 -0.017644351
-0.059007563 0.004813669 0.106332615 -0.11517801 -0.101636186 0.049055673 -0.11224771 0.024053505
0.06129352 -0.04625726 0.09525782 0.032918293 -0.025256403 0.10235086 0.05688835 0.085598804
0.08104392 0.010253119 -0.09737548 0.0832239 0.00029235537 0.09645302 -0.006856357 0.017699918
0.025399253 0.082710996 -0.04123374 0.05645691 0.0428379 0.04463651 -0.12546864 0.072841026
-0.006363526 -0.17016773 0.0042129275 0.029527236 0.012563433 0.1053048 0.068835184 -0.0562494
-0.013868898 0.11282157 0.039034132 0.07882734 0.00958346 0.12427447 0.15563269 -0.1513288
0.0029236092 0.015121993 -0.029131196 -0.028204896 -0.01869552 0.039042376 0.099167705 -0.008703733
0.054269005 0.014221362 -0.06820294 0.0406198 -0.0329695 0.06598115 0.08788787 -0.07901877
-0.053632118 -0.1336172 0.0617981 0.062582314 0.040327165 -0.059375226 0.08726953 0.08067745
0.0526483 -0.1344151 0.08907657 -0.09577405 0.1738404 -0.046133902 -0.0054581626 0.065343246
0.07887475 0.054535877 -0.04096853 -0.08914298 -0.12788294 0.07008423 -0.027980972 -0.0055786893
0.056895047 -0.039261483 -0.040327046 0.024372054 0.037113205 -0.017688995 0.06812301 -0.029910728
0.08196991 0.02245438 0.070041254 9.286748e-05 0.046014182 0.08227068 -0.033321105 -0.02695149
-0.13119084 -0.007110631 -0.030070636 0.020753507 -0.109586805 -0.0333875 0.08126497 0.085578024
0.05811772 -0.0054781074 -0.013164468 0.023591755 0.05664269 0.12778121 -0.10727493 0.09891501
-0.03146241 -0.04888408 -0.02625736 0.038210023 0.107764594 0.044268154 0.10992026 -0.06772153
0.07651425 0.08085803 -0.13892291 -0.05876868 -0.04984038 0.20103063 -0.022586726 0.075082354
0.027631603 -0.07772253 0.0054466436 0.12154444 0.002253915 0.029410534 0.022977293 0.040790576
-0.0026645786 -0.059989583 -0.021585315 0.036024906 0.034293596 0.06523276 0.04521594 -0.048127774
-0.08195109 -0.12427501 0.062271833 -0.04096721 -0.0027119461 0.09617963 0.1152254 -0.16920835
0.087450564 -0.004974735 -0.08024993 -0.0062298407 0.015067442 0.024011496 0.021561066 -0.024380676

fc2.bias f4 [128]
00000000: c9be f93d b45a 9e3c 7666 21bd f1e7 683b
00000010: fb71 693d fa02 cf38 de70 003c dd6d 35bd
00000020: ffbd 5f3d 8cc1 b73d e1ff a53d 1c59 283d
00000030: 7f8a 8b3b db90 0ebd 9bff dbbc 972c 0b3d
00000040: 7fb6 6abd 95d8 e43b 78bd c0bc 6404 ab3c
00000050: 0e8b 05bd ec71 c2bb 331a 763d 5c5e 323d
00000060: 7ad3 a03d 8f0f b9ba b524 47bd c495 873d
00000070: 51f7 9f3c ab5d 88bc eb46 bd3c 471b 153d
00000080: f4d8 03bd d4c7 9bbc 9e7c 2fbd f759 2abc
00000090: 3fe1 8c3d bac3 353d 2f3d 353d 23f0 91bb
000000a0: 64af a43c a7f7 ca3d 3221 dd3c 0025 5c3d
000000b0: d4d1 663d 76ee b23c b6d4 f2bc 866d 0d3d
000000c0: b899 983b d6f1 96ba 5f3a 2e3b 5ae5 c23c
000000d0: 5cfe f1bb 9bc7 a93c e9e2 57bc 128b d43d
000000e0: 0574 2c3d 4b24 153d 24de 853a bee6 9c3d
000000f0: 5c47 cf3c 7688 d03a dea2 4a3c b5f1 353d
00000100: 55e4 9d3c bd76 af3d e4a8 c0bc dcea 223d
00000110: 657e 44bd 881a dc3c 9595 3b3d ccd4 83bc
00000120: 3d8a 8a3d 29c4 16bc 268b 8b3c adb9 843d
00000130: 1562 3bbd 1b41 283d 2d38 233c 52df 58bd
00000140: 1438 c93c 6e08 3dbc 1195 0bbc bdde 1bbd
00000150: fd38 183d 5767 0a3d ecc2 abbc 8260 14bc
00000160: bc76 9e3d 3fa1 d6bc 32b8 b93c 1bef cf3d
00000170: 80a8 b63b b202 fdbb 710d 8c3c 6f46 a53c
00000180: ba93 6b3d 0a50 4f3d 631f 743d eb6d 4d3d
00000190: 4135 583d 9026 1b3d 927f 0ebd 4efe f43c
000001a0: 6c73 65bc 9904 10bc 1434 043d 8b84 383d
000001b0: 05fd c23c fb3f b93d 4cea 6c3b a42b 37bd
000001c0: c051 2dbc 4aa2 533d b349 4e3c 3f76 313d
000001d0: 816e b93c 2306 3bbd 56f8 863d 8292 7abc
000001e0: 90bc 513d 586c cb3d b3f6 313d ebb7 423c
000001f0: 1a5d 563a 8662 693d 82f8 053d 837c 2abc
0.121945925 0.01933036 -0.039404355 0.0035538638 0.056993466 9.8710836e-05 0.00783941 -0.044294227
0.054624554 0.08972463 0.08105446 0.041100606 0.0042584534 -0.034806114 -0.02685528 0.03397807
-0.057302948 0.0069838264 -0.023527846 0.020876117 -0.032603316 -0.0059339907 0.06008358 0.04354702
0.07852836 -0.0014119017 -0.04861899 0.066203624 0.01952711 -0.016646227 0.023105105 0.036402967
-0.032189324 -0.019016184 -0.042843454 -0.010397426 0.068789 0.044376113 0.044247802 -0.0044536754
0.020103164 0.09910517 0.026993368 0.053746223 0.05635245 0.021842223 -0.029642444 0.034528278
0.0046569966 -0.0011516165 0.0026585085 0.023791004 -0.0073850583 0.020725062 -0.013176658 0.10378088
0.042102832 0.036411565 0.0010213298 0.07661198 0.025302581 0.0015909809 0.012367932 0.044419963
0.019273916 0.085675694 -0.023518033 0.03977476 -0.0479721 0.02686812 0.04579695 -0.01609268
0.06764648 -0.009202042 0.017034125 0.06480727 -0.045747835 0.041077714 0.009962124 -0.05294735
0.024562873 -0.011537654 -0.008519427 -0.038054217 0.037163723 0.03378996 -0.02096697 -0.009056212
0.077374905 -0.026199935 0.022670839 0.101530276 0.005574286 -0.0077212686 0.017096253 0.020175187
0.05751393 0.05061344 0.059600245 0.050153654 0.052785162 0.037878573 -0.03478963 0.029906418
-0.0140045695 -0.008790159 0.032276228 0.045048278 0.02380229 0.090454064 0.0036150394 -0.044719353
-0.010578573 0.051668443 0.012590813 0.04332566 0.0226357 -0.04566015 0.06590335 -0.015293719
0.051205218 0.09932774 0.04344816 0.01188467 0.00081773254 0.056978725 0.0327077 -0.0104056625

fc3.weight f4 [2, 128]
00000000: 9cb0 bb3d 3ed6 d33c 136f 0a3d 080f 01be
00000010: 6b0d 033e ddd6 81bd 9fce 80bd 0745 91bd
00000020: da57 923d ac39 b23d a7a1 9d3d c1f2 a33b
00000030: 3601 8f3c 2183 70bd d2d9 73bd c7cb ae3d
00000040: dc91 613c fa34 5bbc 9a04 a43d 4c07 a03d
00000050: 8b07 1f3d 0195 06bd 0406 0e3e c512 d53d
00000060: 4bd3 89bd a4bb 89bd 9bfa 52bd 8f58 b33c
00000070: 920c fc3d aba6 26bd 0484 96bd eadc 82bd
00000080: c1d1 8d3d 5c3f 983d c48b 993d 80aa b4bd
00000090: 3e0b 963d 7013 e23d a84b 943d 5f99 df3d
000000a0: 7f6c 803d a635 023e d70a 83bd 9393 c9bd
000000b0: 67f1 45bd 81f3 d03d 088f 7cbd b041 7cbd
000000c0: d4c0 2f3c 9165 973d 98c1 993d c3ef c13d
000000d0: f368 013e be06 493b 7541 9dbd 98eb da3d
000000e0: 637f 123e 2f37 8dbd 75bf 89bd 388e 113e
000000f0: ac47 073d 9700 b23d abdb ab3d 9d69 213e
00000100: da31 19bd 1ee5 cd3d 848c 7cbd 34ce c63d
00000110: 2646 a3bd 87c4 90bb 4304 7c3d 6cfe 3bbd
00000120: 08d7 d03d d6d2 9cbd fe78 a9bd ad11 b03d
00000130: 26be 75bd 59bf 2abd 3c0a 803d ad2d adbd
00000140: 00df 8f3d a2cd 6abd c7b6 76bd ef61 d13d
00000150: ab4e a73d 02a9 a23d 6f40 dc3c c961 983c
00000160: 2bef de3d 8094 96bd 3363 51bd ff7a bf3d
00000170: a4f1 a73a 3cbc 813d bf7b 0e3d 7182 1f3d
00000180: 08c5 043d f439 9d3c de28 6b3d 92ba a03d
00000190: 94bc c13d 218b ef3d b702 503d 7dae 3e3c
000001a0: 5526 b23d a0bd 94bd dd10 643c f920 673d
000001b0: 7c92 553d 059b 893d 8f6e 8abc 6bd5 7fbd
000001c0: 422f 93bd 8d22 b3bd f0d8 adb9 31a0 5bbd
000001d0: 3011 c03d 5517 17bd 043d d0bc 811f a7bd
000001e0: 4a02 92bd 4e06 bd3d 35d6 c5bd 69a7 0cbd
000001f0: 6661 b53c 3b12 133e 35c9 6cbd d4bf b2bd
00000200: 9fb0 aebd 9b0b d73d 2102 b53d da72 cd3d
00000210: c282 e7bd 26d0 603d 08c1 463d d859 75bd
00000220: 6b1b 47bd 15c1 e2bc 8bdb 913d fd27 af3b
00000230: a0a7 fabd e47c 433d 2fcc e0bc 7fb3 a73c
00000240: 1fa5 d43d 7f29 ee3d 7b04 863d 0a32 a4bd
00000250: bb0a 0e3e d7b6 b13d 0923 72bd 9053 223e
00000260: 449c d1bd f2c3 05bd ed16 72bd 72a8 05be
00000270: b085 923d 703f 9cbd 5206 99bc 69fb 90bd
00000280: 656f 433d 007d 613d afec 153e da87 a73d
00000290: 2f43 983d f504 803c 9a4e bcbc 2072 48bd
000002a0: 8f24 f33d bd60 35bd c8d4 31bd 24cf c3bd
000002b0: 0b11 9fbd 90cc 393d 3404 37bd 23ac 3f3d
000002c0: e8c1 52be 1842 1f3c 922b 563c 05ed 8bbd
000002d0: b8a7 da3d edc0 0e3e 5276 06bd d66c 31bd
000002e0: 9620 eebc 963f 213c 8394 62bd 7895 d23c
000002f0: 89a8 ffbd c310 a83d 6b1d 94bd d960 ca3d
00000300: f4ec be3d 07e3 483d d525 8abd ec26 bc3c
00000310: 8aa7 1d3d 6be0 c03d 1e3f 283d ab4f 2dbe
00000320: 8963 f83c b014 e4bc fe81 1ebc 5176 84bb
00000330: 82b2 39bd b786 a93d c3f3 99bd 9617 51bc
00000340: 2dfb 6e3d 7a68 23bd b8ff 363c 7342 d13d
00000350: e8ac 643d d358 8c3d ed4b e73d 5188 3cbe
00000360: c5f3 1d3e c6e8 abbd c02a 6d3d b26f 35bd
00000370: 904e de3a 07bf c63d b0a9 0b3e 5696 b53d
00000380: e68e fd3d 6919 e7bd 2e5e c93c 97b1 333d
00000390: 7046 f43d 0c9b 9a3c 235c 113e 9cc4 b93d
000003a0: 58a1 95bb ec5e ebbd b81f debd 8d6f 99bd
000003b0: c5c3 a53d 2cfe 423d 8e61 e4bd 0971 3fbd
000003c0: 4e11 a6bc 5958 933d f563 b839 2b2d afbd
000003d0: baac b53c 745e 353e d96d 01be 3d99 b13c
000003e0: d8b4 f0bd c0f1 a13c 6606 95bd 7d0d b9bd
000003f0: 2602 073e 94c4 d53d 5243 0f3d e07f 983d
0.09164545 0.025858995 0.033797335 -0.1260339 0.12798087 -0.0633981 -0.0628941 -0.07093244
0.071456626 0.08702406 0.07696848 0.0050033038 0.017456632 -0.058718804 -0.0595339 0.08534961
0.013767686 -0.01337933 0.0800869 0.07813892 0.038825553 -0.032856945 0.13869482 0.10403971
-0.06729754 -0.06725243 -0.051508527 0.021892814 0.12307085 -0.04068629 -0.07349399 -0.06389792
0.06924773 0.0743396 0.07497361 -0.08821583 0.07326363 0.11038864 0.07240993 0.10917925
0.06270694 0.12715778 -0.06398552 -0.09842601 -0.048325922 0.10202695 -0.061659843 -0.061586082
0.010727126 0.07392419 0.07507628 0.09469559 0.12637691 0.0030674185 -0.076785006 0.10689467
0.14306407 -0.06895291 -0.06725971 0.14214408 0.033027336 0.08691519 0.08391508 0.15762945
-0.037401058 0.10053466 -0.061657444 0.09707299 -0.07972364 -0.004417959 0.0615275 -0.045896932
0.10197264 -0.07657401 -0.082750306 0.085971214 -0.059995793 -0.04168639 0.06251952 -0.084559776
0.07024956 -0.057325013 -0.060232904 0.102237575 0.081693016 0.07942392 0.026886193 0.018601315
0.108854614 -0.07352543 -0.051119994 0.093496315 0.0012813103 0.06334731 0.034785982 0.038942758
0.032414466 0.019192673 0.05741202 0.078480855 0.094597965 0.116964586 0.05078384 0.011638281
0.086987175 -0.072627306 0.013920036 0.05642793 0.05214165 0.06719021 -0.016898422 -0.06245939
-0.07186748 -0.087468244 -0.00033158762 -0.053619567 0.09378278 -0.036887486 -0.02541972 -0.08160306
-0.07129343 0.09229718 -0.096599974 -0.034339342 0.02214117 0.14362423 -0.057809073 -0.087279946
-0.085297816 0.105002604 0.08838297 0.10031672 -0.11304237 0.054886006 0.048523933 -0.059900135
-0.048610132 -0.02767996 0.071219526 0.005345343 -0.12239003 0.047726527 -0.027441112 0.020471333
0.10383057 0.116290085 0.06543823 -0.08017357 0.13871281 0.08677452 -0.059115443 0.15852189
-0.102348834 -0.03265757 -0.059103895 -0.13052538 0.07154405 -0.07629287 -0.018679772 -0.07079203
0.047713656 0.05505085 0.14641069 0.081802085 0.07434689 0.015627364 -0.022986699 -0.048936963
0.118722074 -0.04428171 -0.043415815 -0.09560993 -0.077669226 0.0453611 -0.044681743 0.04679502
-0.20581782 0.009720348 0.013071911 -0.06832317 0.10676521 0.13940783 -0.032827683 -0.043316685
-0.029068273 0.00984182 -0.055317413 0.025706038 -0.124833174 0.08206322 -0.072321735 0.098817535
0.09322539 0.049044635 -0.06745497 0.022967778 0.038489856 0.09417804 0.04107582 -0.16924922
0.0303209 -0.027841896 -0.009674547 -0.0040424247 -0.045336254 0.08277648 -0.07517197 -0.012761971
0.05834501 -0.03989456 0.011169367 0.10217752 0.05582896 0.068528794 0.112937786 -0.18411376
0.15425022 -0.083940074 0.057902098 -0.044295974 0.0016960669 0.09704404 0.1363895 0.08866565
0.12380771 -0.112841435 0.024581041 0.043870535 0.119274974 0.01887276 0.14195304 0.090707034
-0.004566353 -0.11492714 -0.108458936 -0.0749198 0.08093981 0.04760568 -0.111514196 -0.046738658
-0.020271923 0.07194585 0.0003516969 -0.08553537 0.022177089 0.17711812 -0.1263956 0.021679515
-0.11753243 0.019768596 -0.07276611 -0.09035776 0.13184413 0.10437885 0.03497631 0.07446265

fc3.bias f4 [2]
00000000: c0c6 fb3c fde7 b2ba
0.03073442 -0.001364946
