project3-tennis/models/ddpg_agent0_actor_target.pth (torch_old, 159276 bytes, 6 tensors)

fc1.weight f4 [256, 24]
0	0x3d3114f2	0.043232866
1	0x3d06cd79	0.032910798
2	0x3c08aeb5	0.008342435
3	0xbd710a2d	-0.058847595
4	0xbe24fa42	-0.16111091
5	0x3d11a986	0.03556206
6	0x3c532413	0.012887019
7	0x3c94c7a1	0.018161597
8	0x3c8b1642	0.016978387
9	0x3d9aea30	0.07564199
10	0x3b36a1a7	0.0027867348
11	0xbd4d3341	-0.050097708
12	0xbdb2a1b7	-0.08722251
13	0xbcd2f129	-0.02574976
14	0x3d84cb31	0.06484068
15	0x3b4b3a2b	0.0031010013
16	0xbc543d94	-0.0129541345
17	0x3d3ff271	0.04686207
18	0xbc9f40c4	-0.019440062
19	0x3cac1168	0.021004394
20	0xbde14564	-0.10999563
21	0xbd7a147c	-0.06105469
22	0x3d3c452f	0.045964416
23	0xbcc5f480	-0.024164438
24	0xbbc7777b	-0.006087241
25	0x3dba12e2	0.09085633
26	0xbd9b5a8a	-0.07585628
27	0x3e07778e	0.132292
28	0xbc63393f	-0.013868629
29	0xbd9a0bc0	-0.075217724
30	0xbd89e8b1	-0.067338355
31	0x3d21f1ea	0.039537348
32	0xbcf78af5	-0.030217627
33	0x3c8c3f8b	0.017120143
34	0x3d26a8d1	0.04068834
35	0x3cdeceb6	0.027198177
36	0xbbcd52c8	-0.006265972
37	0x3d206de5	0.039167304
38	0xbbdc99fc	-0.0067322236
39	0x3d189d03	0.037259113
40	0x3bbdb5ce	0.005789495
41	0xbd039e13	-0.032133173
42	0xbca2cc86	-0.019872915
43	0x3cf97403	0.030450827
44	0x3dce2d59	0.10067243
45	0x3e34161b	0.17586558
46	0x3ccf992d	0.025341595
47	0xbc00df63	-0.00786576
48	0xbdb2d7a3	-0.08732536
49	0xbae1da5a	-0.0017231212
50	0x3d4924de	0.049107425
51	0xbcac69e8	-0.021046594
52	0xbc457cc2	-0.01205367
53	0x3c80ca9f	0.015721617
54	0xbd09dcee	-0.03365796
55	0xbd999d4e	-0.075007066
56	0xbbab3219	-0.005224478
57	0xbc8d6262	-0.017258827
58	0x3c83f461	0.01610774
59	0xbd3ac58e	-0.04559856
60	0xbc230300	-0.009949446
61	0x3d117790	0.035514414
62	0x3d108d77	0.03529116
63	0xbcd30a92	-0.025761876
64	0x3c860f18	0.01636462
65	0xbc2cd805	-0.01054955
66	0xbc81deb5	-0.015853265
67	0xbd085328	-0.03328243
68	0xbd1efe7f	-0.038816925
69	0x3bac9309	0.0052665514
70	0x3cfa147d	0.030527348
71	0x3d2b63cb	0.041843217
72	0xbd5a9f9f	-0.053374883
73	0x3d2d7b40	0.04235387
74	0x3b789f49	0.0037936738
75	0xbbb9399b	-0.005652619
76	0xbd097e04	-0.033567443
77	0x3de7fffd	0.11328123
78	0x3ce2377c	0.027614348
79	0xbc4ea715	-0.012613078
80	0xbdb15b31	-0.086599715
81	0x3d047816	0.032341085
82	0xbcbd618d	-0.023117805
83	0xbc20d12e	-0.009815497
84	0x3d58c902	0.05292607
85	0x3c2d6d82	0.010585191
86	0x3c7b2f94	0.015331168
87	0x3d7e1465	0.06203117
88	0x3c040294	0.008057255
89	0x3dd7ab03	0.10530665
90	0xbd2be6a7	-0.041968014
91	0x3c310c99	0.010806226
92	0x3d200bd8	0.039073795
93	0xbd92027c	-0.0712938
94	0x3d5f4b4e	0.054515176
95	0x3d25544f	0.040363606
96	0xbd747d57	-0.059689846
97	0xbd2a68b4	-0.04160376
98	0x3d5e61a0	0.05429232
99	0x3d49e87d	0.049293984
100	0x3ca46ce3	0.020071452
101	0xbdc56218	-0.096378505
102	0xbd52c083	-0.051453125
103	0xbcbbf138	-0.02294217
104	0xbd421c36	-0.047390185
105	0xbc208c44	-0.009799067
106	0x3d4cb668	0.049978644
107	0xbd73e779	-0.05954692
108	0x3d25a40f	0.04043966
109	0x3d1c5282	0.038164623
110	0x3d93612c	0.071962684
111	0x3bfe752d	0.0077654333
112	0x3c595e2d	0.013267082
113	0x3b85c09f	0.0040818
114	0xbce7cd86	-0.028296243
115	0xbd1ff5a9	-0.03905264
116	0xbdc27be6	-0.09496288
117	0x3e122f79	0.14275922
118	0x3c298b56	0.010348162
119	0x3cef389c	0.029201798
120	0xbc925ca8	-0.017866448
121	0x3bdc52fd	0.00672376
122	0xbcd95dbc	-0.026533954
123	0xbd07ba10	-0.033136427
124	0x3cfdfbf6	0.031003933
125	0xbcef20a7	-0.029190375
126	0x3d53af74	0.051680997
127	0xbc743d87	-0.014907247
128	0xbd716d61	-0.058942202
129	0x3bc7a577	0.006092723
130	0xbc990ff8	-0.018684372
131	0xbdb43b98	-0.08800429
132	0xbd857d5e	-0.065180525
133	0x3d030ad1	0.031992737
134	0x3d4856fa	0.048911072
135	0xbd7e112b	-0.06202809
136	0xbc761915	-0.015020628
137	0xbdcb0fb4	-0.099151045
138	0x3d8934b8	0.066995084
139	0x3c8464c9	0.01616134
140	0x3b0ee341	0.0021802934
141	0x3dec596c	0.11540493
142	0x3d9a15b0	0.07523668
143	0xbc2468a5	-0.010034715
144	0xbdc26126	-0.09491186
145	0x3cf17f29	0.02947958
146	0x3ce67ac1	0.028134705
147	0xbd65a55e	-0.05606591
148	0x3d820f02	0.06350519
149	0xbd87e5d0	-0.0663563
150	0x3d63a954	0.055581406
151	0x3d091bae	0.033473663
152	0xbc27dede	-0.010246007
153	0xbc9b9983	-0.018994099
154	0x3d35bd7e	0.044370167
155	0xbcc8b3bb	-0.024499765
156	0xbd2bc733	-0.041938018
157	0x3db3140a	0.087440565
158	0x3cbd7023	0.02312476
159	0xbc853b8e	-0.01626375
160	0xbd429997	-0.047509756
161	0xba057035	-0.00050902675
162	0x3d8d6bd4	0.06905332
163	0xbc344ac5	-0.011004155
164	0x3bb5aa61	0.0055439924
165	0x3cb33c4b	0.021879336
166	0x3d893735	0.06699983
167	0x3ca1e34e	0.019761708
168	0xbd428e00	-0.047498703
169	0x3c51455f	0.012772887
170	0xbd5a43d5	-0.053287346
171	0x3da1e50e	0.07905017
172	0xbb58cfdb	-0.0033082876
173	0xbdab74ae	-0.08371864
174	0xbccfe0c7	-0.025375737
175	0x3d08222d	0.033235718
176	0xbd7bea94	-0.061503008
177	0x3d4207ed	0.04737084
178	0xbd2b2b12	-0.041789122
179	0xbc03b4d6	-0.00803872
180	0xbd0c007e	-0.034180157
181	0x3cf0289f	0.029316245
182	0xbce87753	-0.02837721
183	0xba0b4b9c	-0.0005313696
184	0xbd3bb914	-0.0458308
185	0x3cb94ef4	0.022620656
186	0xbd77b78d	-0.060477782
187	0x3cc11f85	0.0235746
188	0x3d88b5f2	0.06675328
189	0x3d85c805	0.06532291
190	0x3c83a449	0.016069548
191	0x3b85e504	0.0040861387
192	0xbdb34969	-0.08754236
193	0x3c2860f2	0.01027702
194	0x3d2b98d9	0.041893814
195	0x3d877e9e	0.06615947
196	0x3a810825	0.0009844346
197	0xbd2797dc	-0.04091631
198	0x3d35a5f5	0.044347722
199	0x3d2718dd	0.040795196
200	0xbc9d1e59	-0.01917951
201	0xbcab4b85	-0.020910034
202	0x3d045632	0.032308765
203	0xbcc95296	-0.024575513
204	0xbbb43323	-0.00549926
205	0x3d9e79d3	0.0773808
206	0x3d572236	0.05252286
207	0x392f4c0d	0.00016717632
208	0x3d363616	0.044485174
209	0xbcc15b1b	-0.023603013
210	0x3cf68d71	0.030096741
211	0x3c80f96e	0.015743937
212	0xbd60e53b	-0.05490611
213	0x3dec02c1	0.11523963
214	0xbd42e9a9	-0.047586117
215	0xbd4ef73a	-0.050528742
216	0xbb07e676	-0.002073673
217	0xb97747ad	-0.00023582457
218	0xbc1375d5	-0.009000261
219	0x3c835ff8	0.016036972
220	0xbb75e171	-0.0037518407
221	0x3cb7b4f3	0.02242515
222	0xbc8cb2c5	-0.017175088
223	0x3d09be16	0.033628546
224	0xbdbd82c5	-0.09253458
225	0xbd6516c2	-0.055929907
226	0x3d3cef2b	0.046126526
227	0x3bb45a84	0.0055039544
228	0xbce0bc36	-0.027433496
229	0x3dd0ec8c	0.10201368
230	0x3a609acd	0.0008567989
231	0xbd84b352	-0.06479515
232	0xbc54222a	-0.0129475985
233	0xbda03681	-0.07822896
234	0xbd342381	-0.04397917
235	0x3d267827	0.04064193
236	0xbd410b9a	-0.047130205
237	0x3d2e3a5f	0.042536136
238	0x3d58fcd5	0.052975494
239	0x3c6de2e0	0.014519423
240	0xbd271d86	-0.04079964
241	0x3c0d3f25	0.008621012
242	0xbce1cd49	-0.027563708
243	0x3ca6bf16	0.020354789
244	0x3d9e9f44	0.07745221
245	0x3d9ca9a4	0.07649544
246	0xbd8f3d97	-0.06994169
247	0x3d9be810	0.07612622
248	0xbba28ded	-0.0049607665
249	0x3c084208	0.008316524
250	0x3c863f4e	0.016387608
251	0x3c2faea1	0.010722787
252	0x3e591458	0.21199167
253	0x3c2a75ec	0.010404091
254	0xbccc9d97	-0.024977488
255	0x3d03ea1a	0.03220568

fc1.bias f4 [256]
0	0xbdbabcd8	-0.0911805
1	0x3df27a12	0.11839689
2	0x3dcf3bb4	0.10118809
3	0x3deb4c8e	0.11489211
4	0xbc7dd7ee	-0.015493376
5	0xbe1f005e	-0.15527484
6	0xbe42a0bf	-0.19006632
7	0x3d7df330	0.0619995
8	0xbe4afd74	-0.19823247
9	0xbde6fdc0	-0.11278868
10	0x3df2824a	0.11841257
11	0xbcab185b	-0.020885637
12	0x3dcafcf1	0.09911526
13	0xbe044098	-0.12915266
14	0x3dc22d1d	0.09481261
15	0x3e3dd9c1	0.18540098
16	0x3d83ad4b	0.064295374
17	0x3d5ebf59	0.054381702
18	0xbdd873c7	-0.10568958
19	0xbe051d50	-0.12999463
20	0x3e01b674	0.12667257
21	0xbe0725f7	-0.13198076
22	0xbc08e051	-0.008354262
23	0xbe035589	-0.12825598
24	0xbbe98064	-0.007125901
25	0xbe4916d8	-0.1963762
26	0x3da0e727	0.07856589
27	0x3c183263	0.009289357
28	0xbe3a1d41	-0.18175222
29	0xbdb74ecf	-0.089505784
30	0xbd6a81fd	-0.057252873
31	0xbd961797	-0.07328718
32	0xbc17f1e9	-0.0092739845
33	0x3ccbd68b	0.024882575
34	0xbdee45e9	-0.11634428
35	0x3da7c29e	0.08191417
36	0xbe00e410	-0.12586999
37	0x3e5a42d2	0.21314552
38	0xbdbbb511	-0.09165395
39	0x3def832e	0.116949424
40	0xbe0aaeb5	-0.13543208
41	0xbd9008b1	-0.07032908
42	0xbc513b5f	-0.012770503
43	0xbda74cb5	-0.081689276
44	0xbd5d7c99	-0.054073904
45	0xbcf7aee8	-0.030234769
46	0xbd79076d	-0.060798097
47	0xbe112ba2	-0.14176801
48	0x3e6a339c	0.2287125
49	0x3e074441	0.1320963
50	0xbd0318d6	-0.032006107
51	0x3e026f6a	0.12737814
52	0xbdb460cd	-0.08807526
53	0xbe19d3a2	-0.15022138
54	0x3d9626fd	0.07331655
55	0xbda9a9f2	-0.082843676
56	0x3e195382	0.14973262
57	0x3b701470	0.0036633275
58	0xbe3cab4f	-0.18424724
59	0x3e1f69ea	0.15567747
60	0x3dacdf58	0.08441037
61	0x3d93d1a4	0.0721772
62	0xbbcf5e7c	-0.006328402
63	0xbe19440f	-0.14967369
64	0x3da3c3eb	0.07996353
65	0x3b1cc506	0.0023921146
66	0xbe05a6d9	-0.13051929
67	0x3e0f7ec0	0.14013195
68	0xbe28bb15	-0.16477616
69	0xbd98896c	-0.07448086
70	0xbc177f76	-0.009246698
71	0xbe29b44d	-0.16572686
72	0xbe0cecd8	-0.13762224
73	0xbd5ff282	-0.054674633
74	0xbc7c2ea2	-0.0153919775
75	0x3e491af4	0.19639188
76	0x3de54f06	0.11196713
77	0x3e5e3738	0.21700752
78	0x3d74624d	0.05966406
79	0x3d2fb587	0.042897727
80	0xbae63f2e	-0.0017566436
81	0xbd8325cc	-0.064036936
82	0xbe3e4914	-0.18582565
83	0xbe4f8d04	-0.20268637
84	0x3df537fd	0.119735695
85	0xbdeae03a	-0.11468549
86	0xbd5ef360	-0.05443132
87	0x3da59720	0.080854654
88	0xbdf5c122	-0.11999728
89	0x3e16c448	0.14723313
90	0x3cf2dd4d	0.02964654
91	0x3d96ba9f	0.07359814
92	0xbcf15bf9	-0.029462801
93	0x3e2286bd	0.15871711
94	0xbe4db799	-0.20089568
95	0xbe2bb567	-0.16768418
96	0x3e3f8764	0.18703991
97	0xbdc75607	-0.09733205
98	0x3e83722a	0.25673038
99	0x3e03a870	0.12857223
100	0x3de567e6	0.11201458
101	0x3c8065a4	0.015673466
102	0x3d7ec95e	0.062203757
103	0x3da84021	0.082153566
104	0xbdb73703	-0.089460395
105	0x3e3fc7ac	0.18728513
106	0x3e14413e	0.14478013
107	0x3d4aaf04	0.049483314
108	0x3da7dc55	0.08196322
109	0xbd471104	-0.04860021
110	0xbd874530	-0.06604993
111	0xbe21fa8f	-0.15818237
112	0xbcc40ab3	-0.023930883
113	0xbe08bd4d	-0.13353463
114	0xbca381d2	-0.019959364
115	0x3e30a1a2	0.17249158
116	0x3e709c0d	0.23497029
117	0xbde8812a	-0.11352761
118	0xbe4ce51f	-0.20009278
119	0x3e529cb8	0.20567596
120	0xbd8f2e33	-0.06991234
121	0x3d64170f	0.055686053
122	0x3e088583	0.1333218
123	0x3e683ff8	0.22680652
124	0x3dd95edd	0.10613797
125	0x3db6393f	0.088976376
126	0x3d0caf97	0.034347143
127	0xbc9b55b4	-0.018961765
128	0x3dd09564	0.10184744
129	0xbe2636ae	-0.16231796
130	0xbe29e968	-0.16592944
131	0x3dfa3840	0.1221776
132	0xbe44f40d	-0.19233723
133	0x3e2b016a	0.16699758
134	0x3e30db4a	0.17271152
135	0x3dd3a67b	0.10334488
136	0x3da69954	0.08134714
137	0x3d851c2c	0.06499514
138	0x3dbd0dce	0.09231149
139	0x3e0c4b93	0.13700704
140	0x3c957847	0.01824583
141	0xbdef45e2	-0.11683251
142	0x3e15cc30	0.14628673
143	0x3d82577a	0.06364341
144	0x3e3d0a66	0.18460998
145	0xbe03a53c	-0.12856
146	0xbdc11eca	-0.09429701
147	0xbe127471	-0.14302231
148	0x3d02b450	0.03191024
149	0x3e5a92a5	0.21345003
150	0x3de3889e	0.11110042
151	0x3e30f1d3	0.17279749
152	0x3e372203	0.17884068
153	0xbde87c91	-0.11351884
154	0x3e6ff7b3	0.23434334
155	0x3d04cc9f	0.032421704
156	0x3e591b55	0.21201833
157	0xbb3ee4e5	-0.002912813
158	0xbbaa54f4	-0.0051981155
159	0x3e4820ed	0.1954381
160	0xbdaef847	-0.08543449
161	0xbc107680	-0.008817315
162	0x3b75be3b	0.003749742
163	0x3b5076f7	0.003180919
164	0xbcccfbc1	-0.02502239
165	0x3e2c7f24	0.16845375
166	0x3c4d6b15	0.012537737
167	0x3da55ff8	0.08074945
168	0x3de44f60	0.11147952
169	0x3e79abbe	0.2438192
170	0x3dd95704	0.106123
171	0xbe520d71	-0.2051294
172	0xbe4bc10f	-0.19897865
173	0xbe30b2c4	-0.17255694
174	0xbe40a756	-0.18813834
175	0xbe27d21c	-0.16388744
176	0x3d201403	0.039081585
177	0x3e681461	0.22664024
178	0xbda582c6	-0.08081584
179	0x3df62ee6	0.12020664
180	0xbd5e593e	-0.054284327
181	0x3e2904be	0.16505715
182	0x3da3b029	0.07992584
183	0x3dbae16a	0.091250256
184	0x3e74e002	0.23913577
185	0xbe070c87	-0.13188373
186	0xbe18eb11	-0.1493342
187	0xbd4bd8cd	-0.049767304
188	0x3da1d368	0.07901651
189	0x3e46b602	0.19405368
190	0x3e2c3073	0.16815357
191	0x3df65f77	0.12029927
192	0xbcd9a97f	-0.02657008
193	0xbd92b1cf	-0.071628205
194	0x3e764b69	0.24052204
195	0xbe57ed68	-0.21086657
196	0xbe287b9a	-0.164534
197	0x3dd31015	0.10305802
198	0x3e2d6ce1	0.16936065
199	0x3d719e12	0.05898864
200	0xbcb80610	-0.022463828
201	0xbc784f5c	-0.0151556395
202	0x3bce3ac1	0.006293625
203	0xbd95d11d	-0.07315276
204	0x3e810e2f	0.25206134
205	0x3e7a807b	0.24463074
206	0xbdacb171	-0.08432282
207	0x3e19116d	0.14948054
208	0xbcdc3630	-0.026881307
209	0xbde83ee6	-0.11340122
210	0x3c2204f5	0.009888877
211	0xbbf646ec	-0.0075157788
212	0x3e5b59e7	0.21421014
213	0x3ce875d1	0.028376492
214	0xbd202258	-0.039095253
215	0xbe29df1c	-0.16589016
216	0x3e4929ad	0.19644804
217	0x3e317d3a	0.17332926
218	0x3d27360e	0.040823035
219	0xbc9137f3	-0.017726874
220	0xbdbf9a18	-0.09355563
221	0x3d9e4343	0.07727673
222	0x3e55a9bc	0.2086553
223	0xbceb2331	-0.028703304
224	0x3db81104	0.089876205
225	0xbe626c97	-0.22111736
226	0x3d944163	0.07239034
227	0xbd012002	-0.031524666
228	0xbc899bff	-0.016798018
229	0xbdb26613	-0.08710875
230	0x3e5a86fc	0.21340555
231	0x3e33365c	0.17501205
232	0xbd6ff5a8	-0.058583885
233	0xbd2fdf1d	-0.042937387
234	0x3dc88338	0.09790653
235	0x3db9e29e	0.09076427
236	0xbdd07323	-0.101782106
237	0x3dd8a921	0.10579134
238	0x3d9d1e15	0.07671753
239	0x3dc27182	0.09494306
240	0xbd82660b	-0.063671194
241	0xbdf481a8	-0.119387925
242	0x3e0f05ce	0.13967058
243	0x3d0b5e8b	0.03402571
244	0xbd874bd4	-0.0660626
245	0x3e2ea9cf	0.17056964
246	0x3cfe5257	0.031045122
247	0xbe0e0964	-0.1387077
248	0xbc618d0e	-0.01376654
249	0xbda2f53b	-0.0795693
250	0xbde093e3	-0.10965707
251	0xbe146b6f	-0.14494108
252	0x3e2569f5	0.161537
253	0x3e406a83	0.18790631
254	0xbe4a417f	-0.19751547
255	0x3e49417f	0.19653891

fc2.weight f4 [128, 256]
0	0xbd833f83	-0.06408598
1	0xbd828ec4	-0.06374887
2	0x3c720364	0.014771316
3	0x3cca90bb	0.024727216
4	0x3ce833b0	0.028344959
5	0x3ab9a3cb	0.0014163194
6	0x3c4e03fb	0.012574191
7	0x3dbdb575	0.09263126
8	0xbd17084f	-0.036873158
9	0x3d1be273	0.038057756
10	0xbdaf83cb	-0.085700594
11	0xbd16f624	-0.03685583
12	0xbd5b1fa6	-0.05349698
13	0xbd0e9e22	-0.034818776
14	0x3d2951e7	0.041337874
15	0x3c9e67f2	0.019336674
16	0x3d299e32	0.041410632
17	0xbda0cae5	-0.07851199
18	0x3cb6abfc	0.022298805
19	0xbdb24379	-0.08704276
20	0xbd1657be	-0.03670477
21	0x3dc2ce0d	0.09511957
22	0xbc09d0c3	-0.008411589
23	0x3d9a6c6c	0.07540211
24	0xbd93dc34	-0.07219735
25	0xbdc994a5	-0.09842805
26	0xbbd6bb5f	-0.006553098
27	0xbd26fe28	-0.040769726
28	0x3c9e0bc9	0.019292729
29	0xbd6055ab	-0.0547692
30	0x3defb73b	0.1170487
31	0xbdcca417	-0.09992235
32	0x3d6f53e5	0.058429617
33	0x3cd75888	0.026287332
34	0x3e027619	0.12740363
35	0xba60e300	-0.00085787475
36	0x3d7f8677	0.062384095
37	0xbcb86293	-0.022507941
38	0x3d0ac0bf	0.033875223
39	0x3db7e8bf	0.0897994
40	0xbd75a503	-0.05997182
41	0xbd428764	-0.0474924
42	0xbbe0a6e4	-0.0068558324
43	0xbd84aaa3	-0.06477859
44	0xbb30f6b1	-0.0027002508
45	0x3dcd5574	0.100260645
46	0x3d468aab	0.048472088
47	0x3d5dedfb	0.054182034
48	0x3d086573	0.033299875
49	0x3c8b10a5	0.01697571
50	0xbbe86853	-0.0070925145
51	0xbdc0308d	-0.0938426
52	0xbb632f82	-0.0034665768
53	0xbdde7f5d	-0.10864136
54	0x3c928cc8	0.017889395
55	0x3d512a26	0.051065587
56	0x3cd4d4ef	0.02598044
57	0x3c0fe73c	0.008783158
58	0xbdcbf370	-0.099585414
59	0xbd426f71	-0.04746956
60	0xbe0a15b1	-0.13484837
61	0x3db4ae57	0.08822315
62	0x3dc7fbb8	0.097648084
63	0x3d7886c7	0.06067541
64	0xbd391e11	-0.04519469
65	0x3d1ec0bf	0.038758036
66	0x3dd69062	0.104767576
67	0x3bc8394d	0.0061103464
68	0xbcf525e6	-0.029925298
69	0x3cef1d54	0.02918879
70	0xbc84c7cd	-0.016208554
71	0xbd2475a6	-0.04015126
72	0xbc2769c0	-0.010218084
73	0x3d905b08	0.07048613
74	0x3bfeaff9	0.0077724424
75	0x3d8e9dca	0.069636896
76	0xbd96e986	-0.0736876
77	0x3d12cade	0.035838
78	0xbbe8ff17	-0.007110487
79	0xbd598f08	-0.05311492
80	0xbca9f9e7	-0.020749046
81	0xbcf6ed05	-0.030142317
82	0xbcc1dc2d	-0.023664558
83	0x3db9f780	0.0908041
84	0x3dea9eff	0.11456107
85	0xbd87696e	-0.06611906
86	0xbd9d7b85	-0.07689575
87	0xbc938e2a	-0.018012125
88	0xbd70fc28	-0.058834225
89	0x3b9c84d1	0.004776575
90	0x3dda24a4	0.1065152
91	0xbdeb589c	-0.1149151
92	0xbdcf8b8b	-0.101340376
93	0x3d4879cd	0.048944283
94	0xbde3fce8	-0.111322224
95	0x3cc4f26a	0.024041373
96	0x3d7a2cbd	0.061077822
97	0xbd3d9957	-0.046288814
98	0x3dc30db7	0.095241
99	0x3d052379	0.032504532
100	0xbcce1b09	-0.025159376
101	0x3dd1aaa3	0.102376245
102	0x3d681b55	0.05666669
103	0x3daf5b94	0.08562389
104	0x3da5f4c9	0.0810333
105	0x3c230a52	0.009951191
106	0xbdc72093	-0.0972301
107	0x3dab0b87	0.08351808
108	0x3954d064	0.00020295527
109	0x3dc9af8b	0.09847935
110	0xbbd6f65b	-0.0065601296
111	0x3c8e3fbe	0.017364379
112	0x3cd1e287	0.025620712
113	0x3da8c0db	0.08239909
114	0xbd27b431	-0.04094333
115	0x3d679c78	0.056545705
116	0x3d2f02e4	0.042727366
117	0x3d379233	0.04481716
118	0xbe008b3e	-0.12553117
119	0x3d94fc26	0.07274656
120	0xbbd0c97f	-0.0063716765
121	0xbe2d7dda	-0.1694254
122	0x3b921ef1	0.004459255
123	0x3cf25e18	0.029585883
124	0x3c4faba3	0.012675199
125	0x3dd7d010	0.10537732
126	0x3d8c54bd	0.068521
127	0xbd6594a1	-0.056049947
128	0xbc61c193	-0.013779062
129	0x3de6ca03	0.112689994
130	0x3d20f5af	0.039296802
131	0x3da1d90b	0.07902726
132	0x3c13c18e	0.009018315
133	0x3dfed4b0	0.12442911
134	0x3e1fa725	0.15591104
135	0xbe1ae167	-0.15125047
136	0x3b449ed3	0.0030001893
137	0x3c773af2	0.015089737
138	0xbcede166	-0.029038142
139	0xbce6592e	-0.028118696
140	0xbc9558c5	-0.018230805
141	0x3d21670c	0.039404914
142	0x3dcb6623	0.099315904
143	0xbc099a98	-0.008398674
144	0x3d5d8503	0.054081928
145	0x3c6435b9	0.013928824
146	0xbd8bba7d	-0.06822679
147	0x3d270f16	0.04078587
148	0xbd06a5bd	-0.032872904
149	0x3d877930	0.066149116
150	0x3db419d1	0.087939866
151	0xbda102eb	-0.07861885
152	0xbd5c9a9d	-0.05385839
153	0xbe086d4f	-0.13322948
154	0x3d7d4f62	0.061843283
155	0x3d801b17	0.06255167
156	0x3d26039f	0.040530797
157	0xbd72b210	-0.059251845
158	0x3db33840	0.08750963
159	0x3da58a6c	0.080830425
160	0x3d57ffe6	0.05273428
161	0xbe093d83	-0.13402371
162	0x3db6a96b	0.08919033
163	0xbdc33a95	-0.09532658
164	0x3e3236db	0.17403738
165	0xbd3d0e14	-0.046156004
166	0xbbab59ae	-0.0052291965
167	0x3d8712e2	0.065953985
168	0x3da12f79	0.07870383
169	0x3d5f5bb6	0.05453082
170	0xbd277fe1	-0.04089344
171	0xbdb6ecac	-0.0893186
172	0xbe02bd6c	-0.12767571
173	0x3d904308	0.07044035
174	0xbce53eea	-0.027984101
175	0xbbbd69f4	-0.005780453
176	0x3d688b6e	0.056773596
177	0xbd213ac0	-0.03936267
178	0xbd245432	-0.040119357
179	0x3ccad2ea	0.024758775
180	0x3d17a644	0.037023798
181	0xbc90e92c	-0.01768931
182	0x3d8be442	0.06830646
183	0xbcf54a98	-0.029942796
184	0x3da83c6e	0.08214651
185	0x3cb54c1f	0.022131024
186	0x3d8fca3a	0.070209935
187	0x391d980d	0.0001502933
188	0x3d3c8e64	0.04603423
189	0x3da8fec6	0.08251719
190	0xbd0a3bd3	-0.03374846
191	0xbcdcedec	-0.026968919
192	0xbe06baa4	-0.13157135
193	0xbbe839f8	-0.0070869885
194	0xbcf6f837	-0.030147655
195	0x3cad428b	0.021149894
196	0xbde060b0	-0.10955942
197	0xbd07c836	-0.03314992
198	0x3da67030	0.08126867
199	0x3dafedc5	0.08590273
200	0x3d6ef219	0.05833635
201	0xbbb74783	-0.0055932417
202	0xbc56761f	-0.013089686
203	0x3cc38fd1	0.023872288
204	0x3d6867fb	0.05673979
205	0x3e02430f	0.12720893
206	0xbddae0dd	-0.106874205
207	0x3dcaa632	0.098949805
208	0xbcfe8dd6	-0.031073492
209	0xbd45278c	-0.048133418
210	0xbcd60ef8	-0.026130185
211	0x3d1b705a	0.037948944
212	0x3ddcb228	0.10776168
213	0x3d341e7b	0.04397438
214	0x3de1eb9b	0.11031266
215	0xbd8a89de	-0.06764577
216	0x3d9cb5d4	0.076518685
217	0x3da5cdcc	0.08095893
218	0xbe0e4270	-0.13892531
219	0xbd72b355	-0.059253056
220	0xbd4d0168	-0.05005017
221	0x3e4d18a3	0.2002893
222	0xbcba546b	-0.022745332
223	0x3d99fdcd	0.07519112
224	0x3ce39997	0.027783198
225	0xbd9eb092	-0.07748522
226	0x3bb8309a	0.005621028
227	0x3df900b5	0.12158338
228	0x3b180e91	0.0023202042
229	0x3ce7bcab	0.028288206
230	0x3cbd1421	0.023080887
231	0x3d28ae34	0.041181758
232	0xbb411e91	-0.0029467682
233	0xbd75e2d1	-0.060030762
234	0xbcafb03a	-0.021446336
235	0x3d123448	0.03569439
236	0x3d0c514c	0.03425722
237	0x3d85e455	0.065376915
238	0x3d3973cc	0.045276448
239	0xbd459eee	-0.04824727
240	0xbda79124	-0.0818198
241	0xbdfdf108	-0.12399489
242	0x3d7ebc9b	0.062191587
243	0xbd2723b3	-0.04080553
244	0xbb1d5a11	-0.0024009983
245	0x3dc529bd	0.096271016
246	0x3dec32d9	0.11533136
247	0xbe2d57c2	-0.16928008
248	0x3db1ba7a	0.08678146
249	0xbb9d8f49	-0.0048083407
250	0xbda38241	-0.07983828
251	0xbbcc280f	-0.0062303613
252	0x3c7b9da0	0.015357405
253	0x3cc56fc9	0.024101155
254	0x3cb09efd	0.021560187
255	0xbcc63dc0	-0.024199367

fc2.bias f4 [128]
0	0x3df9f571	0.12205017
1	0x3c9eda3e	0.019391175
2	0xbd21122e	-0.039323978
3	0x3b691202	0.0035563712
4	0x3d6b4465	0.057438273
5	0x35ae55c4	1.2988971e-06
6	0x3bfd9ef4	0.007739896
7	0xbd35e3fb	-0.044406872
8	0x3d5fea74	0.05466695
9	0x3db8404b	0.08996638
10	0x3da64ad2	0.081197396
11	0x3d285c2a	0.04110352
12	0x3b8b4486	0.004250112
13	0xbd0ef8b7	-0.03490516
14	0xbcdcf077	-0.026970131
15	0x3d0b6f4e	0.034041695
16	0xbd6a9423	-0.05727018
17	0x3be32122	0.00693144
18	0xbcbea755	-0.02327315
19	0x3cab25a5	0.020891974
20	0xbd053afa	-0.032526948
21	0xbbc4785e	-0.005995794
22	0x3d774b28	0.06037441
23	0x3d30ba71	0.043146554
24	0x3da0a4ab	0.07843908
25	0xbac8139a	-0.0015264631
26	0xbd47999d	-0.04873048
27	0x3d876259	0.06610555
28	0x3c9de40e	0.019273784
29	0xbc89300a	-0.01674654
30	0x3cbc56ca	0.022990603
31	0x3d14a8ab	0.036293667
32	0xbd0475d9	-0.03233895
33	0xbc9aaf4c	-0.018882416
34	0xbd2ebb14	-0.04265888
35	0xbc2bee37	-0.010493807
36	0x3d8cec2c	0.06880984
37	0x3d35be51	0.044370953
38	0x3d36af39	0.0446007
39	0xbb917362	-0.0044388035
40	0x3ca583ef	0.020204512
41	0x3dcbafa7	0.099456124
42	0x3cdc33f9	0.026880251
43	0x3d5b9eca	0.05361823
44	0x3d666664	0.05624999
45	0x3cb2c730	0.021823496
46	0xbcf3c29f	-0.029755889
47	0x3d0d0543	0.034428846
48	0x3b9c6aaf	0.00477346
49	0xba9114f6	-0.0011068869
50	0x3b356ffb	0.0027685154
51	0x3cc318fb	0.023815623
52	0xbbe42840	-0.006962806
53	0x3ca9f083	0.020744568
54	0xbc59c556	-0.013291677
55	0x3dd53de0	0.10412192
56	0x3d2d3f47	0.042296674
57	0x3d14afad	0.03630035
58	0x3a6e76e8	0.0009096698
59	0x3d9ce7aa	0.07661374
60	0x3ccfc1bd	0.025360936
61	0x3ae0a5c9	0.0017139252
62	0x3c5194e5	0.012791847
63	0x3d34f236	0.044176303
64	0x3c9d67f9	0.019214617
65	0x3dafa5ce	0.085765466
66	0xbcc18dbb	-0.023627153
67	0x3d2343a8	0.039859444
68	0xbd44ee65	-0.048078913
69	0x3cdc257f	0.026873348
70	0x3d3b7833	0.045768928
71	0xbc84bc50	-0.016203076
72	0x3d8a96ad	0.067670204
73	0xbc18a70c	-0.009317171
74	0x3c8a9ba9	0.016919928
75	0x3d850527	0.06495123
76	0xbd3bd8c1	-0.04586101
77	0x3d27f8ac	0.041008636
78	0x3c24b376	0.010052552
79	0xbd595836	-0.05306264
80	0x3cc64047	0.024200572
81	0xbc3ee3d0	-0.011650994
82	0xbc0d6716	-0.008630535
83	0xbd1c0a79	-0.038095925
84	0x3d175721	0.036948327
85	0x3d09b080	0.03361559
86	0xbcab4203	-0.0209055
87	0xbc1490bf	-0.009067713
88	0x3d9db5b1	0.077006705
89	0xbcd78885	-0.026310215
90	0x3cb8fb8d	0.022580886
91	0x3dd071c8	0.10177952
92	0x3bb6a880	0.005574286
93	0xbbf9c808	-0.0076227225
94	0x3c8ca706	0.017169487
95	0x3ca60f6a	0.020271022
96	0x3d6bdfad	0.05758636
97	0x3d4f3d31	0.050595466
98	0x3d739116	0.059464537
99	0x3d4d25dd	0.050084937
100	0x3d58622b	0.052827995
101	0x3d1b1bcf	0.037868317
102	0xbd0e22b2	-0.034701057
103	0x3cf5514c	0.029945992
104	0xbc630f58	-0.013858639
105	0xbc120e2d	-0.008914513
106	0x3d044675	0.032293756
107	0x3d38ac3c	0.04508613
108	0x3cc3db8a	0.023908395
109	0x3db96d9e	0.09054111
110	0x3b69ad8e	0.0035656425
111	0xbd37a287	-0.044832733
112	0xbc2f3422	-0.010693582
113	0x3d53333d	0.051562537
114	0x3c4e4b3a	0.012591178
115	0x3d310488	0.043217212
116	0x3cba37e6	0.022731733
117	0xbd3a2d3c	-0.045453295
118	0x3d86d7eb	0.06584152
119	0xbc7c6184	-0.015404109
120	0x3d515a40	0.05111146
121	0x3dcba0aa	0.099427536
122	0x3d316862	0.043312438
123	0x3c411755	0.011785348
124	0x3a6527b8	0.00087415753
125	0x3d67b020	0.05656445
126	0x3d058ca2	0.03260482
127	0xbc2c1b58	-0.010504566

fc3.weight f4 [2, 128]
0	0x3dbb706d	0.09152303
1	0x3cd4850f	0.025942354
2	0x3d0ab7b6	0.033866607
3	0xbe00d2f2	-0.12580469
4	0x3e026c29	0.12736572
5	0xbd817df4	-0.06322852
6	0xbd806042	-0.0626836
7	0xbd90fe92	-0.070798054
8	0x3d923ccc	0.07140502
9	0x3db1ec23	0.08687618
10	0x3d9dc174	0.07702914
11	0x3ba3f726	0.0050038276
12	0x3c8db17c	0.017296545
13	0xbd6fddea	-0.058561243
14	0xbd730af4	-0.059336618
15	0x3daeb800	0.08531189
16	0x3c63f438	0.013913207
17	0xbc57c4e5	-0.013169502
18	0x3da3a795	0.07990948
19	0x3d9fc1d9	0.078006454
20	0x3d1f78ee	0.038933687
21	0xbd05a881	-0.0326314
22	0x3e0da7a1	0.13833477
23	0x3dd4f30e	0.103979215
24	0xbd8976cc	-0.06712112
25	0xbd896990	-0.067095876
26	0xbd5246ca	-0.05133704
27	0x3cb1a6ac	0.02168592
28	0x3dfb0dcc	0.12258491
29	0xbd25f5d2	-0.040517636
30	0xbd9622a5	-0.07330827
31	0xbd827b39	-0.06371159
32	0x3d8d9fb0	0.069152236
33	0x3d984b2b	0.07436212
34	0x3d99a1fc	0.07501599
35	0xbdb41783	-0.08793547
36	0x3d96308f	0.073334806
37	0x3de19948	0.11015564
38	0x3d940c0f	0.072288625
39	0x3ddf90cc	0.1091629
40	0x3d806765	0.06269721
41	0x3e01d4f9	0.12678899
42	0xbd82b9ee	-0.063831195
43	0xbdc92d7c	-0.098231286
44	0xbd4544e9	-0.04816142
45	0x3dd09f4a	0.10186632
46	0xbd7bc7e1	-0.061469916
47	0xbd7b7847	-0.061394002
48	0x3c2fc7bf	0.0107287755
49	0x3d9730ec	0.07382378
50	0x3d99b6cd	0.075055696
51	0x3dc12682	0.09431173
52	0x3e0132d9	0.12617053
53	0x3b5739f7	0.0032840946
54	0xbd9ce1ad	-0.07660232
55	0x3dd9f547	0.10642486
56	0x3e1237ff	0.14279173
57	0xbd8cc30a	-0.06873138
58	0xbd895978	-0.06706518
59	0x3e114f46	0.14190397
60	0x3d082bfb	0.033245068
61	0x3db21bd0	0.08696711
62	0x3daba08c	0.08380231
63	0x3e20a56c	0.15688103
64	0xbd189246	-0.037248872
65	0x3dcd9401	0.10037995
66	0xbd7bb038	-0.061447352
67	0x3dc6ca6c	0.09706578
68	0xbda2b32e	-0.07944332
69	0xbb8b2d4a	-0.0042473422
70	0x3d7bc68c	0.061468646
71	0xbd3b88ca	-0.04578475
72	0x3dd08c03	0.10182955
73	0xbd9c54bb	-0.076333486
74	0xbda8fdf7	-0.08251565
75	0x3dafd113	0.085847996
76	0xbd750ff5	-0.05982967
77	0xbd2a262c	-0.04154031
78	0x3d7f701b	0.06236277
79	0xbdacabb4	-0.08431187
80	0x3d8fced2	0.0702187
81	0xbd69e4bb	-0.0571029
82	0xbd75fe95	-0.06005724
83	0x3dd17452	0.102272645
84	0x3da71f5d	0.08160279
85	0x3da28259	0.07935018
86	0x3cdd6835	0.027027229
87	0x3c96a1d1	0.018387707
88	0x3ddf0efb	0.10891529
89	0xbd961825	-0.07328824
90	0xbd50807b	-0.05090378
91	0x3dbf480d	0.093399145
92	0x3aa7f1a4	0.0012813103
93	0x3d81a324	0.06329945
94	0x3d0edd07	0.034878757
95	0x3d1fae67	0.038984682
96	0x3d053517	0.032521334
97	0x3c9dc7b8	0.019260272
98	0x3d6ab61d	0.057302583
99	0x3da07fcf	0.078368776
100	0x3dc185d0	0.09449351
101	0x3def33bc	0.116797894
102	0x3d5004d8	0.05078587
103	0x3c41525e	0.011799423
104	0x3db142dc	0.086553305
105	0xbd944297	-0.072392635
106	0x3c628e1d	0.013827828
107	0x3d6674d9	0.05626378
108	0x3d559bef	0.052150663
109	0x3d898499	0.06714744
110	0xbc8ae09b	-0.016952803
111	0xbd7f3c59	-0.06231341
112	0xbd92b5db	-0.071635924
113	0xbdb2a849	-0.08723504
114	0xb9adda6e	-0.00033159874
115	0xbd5b51f6	-0.05354496
116	0x3dc016f3	0.09379377
117	0xbd15d643	-0.03658129
118	0xbccfb76d	-0.025356019
119	0xbda69844	-0.08134511
120	0xbd91b5a4	-0.07114723
121	0x3dbcedfc	0.092250794
122	0xbdc5353a	-0.09629293
123	0xbd0c301d	-0.034225572
124	0x3cb68405	0.022279749
125	0x3e12d96e	0.14340755
126	0xbd6c1c6e	-0.0576443
127	0xbdb246f0	-0.087049365
128	0xbdaeabd9	-0.08528871
129	0x3dd53e01	0.10412217
130	0x3db382f8	0.08765215
131	0x3dcdd9ca	0.100513056
132	0xbde9afbd	-0.114104725
133	0x3d606e12	0.05479247
134	0x3d467b63	0.048457514
135	0xbd7420b0	-0.059601486
136	0xbd471a41	-0.048609022
137	0xbce5071e	-0.027957495
138	0x3d91c614	0.071178585
139	0x3baf2678	0.005345162
140	0xbdf96f44	-0.12179425
141	0x3d431493	0.047627043
142	0xbcdf725b	-0.027276209
143	0x3ca4214f	0.020035414
144	0x3dd32161	0.10309101
145	0x3ded7d67	0.11596184
146	0x3d81e46e	0.06342398
147	0xbda3d7f0	-0.08000171
148	0x3e0d3a13	0.13791685
149	0x3db140dd	0.0865495
150	0xbd757912	-0.059929915
151	0x3e228e0b	0.15874498
152	0xbdcfe60c	-0.101513
153	0xbd0486bf	-0.032355066
154	0xbd70e236	-0.05880948
155	0xbe04d2d2	-0.12971047
156	0x3d8ec6a5	0.06971482
157	0xbd9b140a	-0.075721815
158	0xbc985acd	-0.018597985
159	0xbd90340a	-0.07041176
160	0x3d3c7f64	0.046019927
161	0x3d5e4255	0.054262478
162	0x3e14d5e2	0.14534715
163	0x3da748ec	0.081682056
164	0x3d954a52	0.07289566
165	0x3c807bac	0.015683971
166	0xbcc4e201	-0.024033548
167	0xbd492899	-0.049110983
168	0x3df028b5	0.11726514
169	0xbd385142	-0.04499937
170	0xbd30e50e	-0.043187194
171	0xbdc28d8c	-0.09499654
172	0xbd9e0a00	-0.07716751
173	0x3d39f400	0.045398712
174	0xbd359411	-0.04433066
175	0x3d3fa4b5	0.046787936
176	0xbe51aa0b	-0.20475022
177	0x3c13a1da	0.009010756
178	0x3c4da247	0.012550897
179	0xbd8c6895	-0.06855885
180	0x3dd88240	0.10571718
181	0x3e0e5271	0.13898636
182	0xbd05bfda	-0.032653667
183	0xbd36e5ae	-0.044652633
184	0xbcf5530c	-0.029946826
185	0x3c22aa0c	0.009928238
186	0xbd5fc867	-0.054634478
187	0x3cbe739e	0.02324849
188	0xbdfe11ca	-0.12405737
189	0x3da49ded	0.080379345
190	0xbd9536bc	-0.072858304
191	0x3dc57ada	0.09642573
192	0x3dbe51aa	0.0929292
193	0x3d420278	0.047365636
194	0xbd895706	-0.067060515
195	0x3cb7fc19	0.022459077
196	0x3d1db5da	0.038503505
197	0x3dbffe04	0.093746215
198	0x3d226628	0.039648205
199	0xbe2c7b2e	-0.16843864
200	0x3cf3239c	0.029680066
201	0xbce2525a	-0.027627159
202	0xbc1dc34c	-0.009629082
203	0xbba45d0b	-0.0050159744
204	0xbd3898ef	-0.045067724
205	0x3da955f7	0.082683496
206	0xbd9a06ff	-0.07520866
207	0xbc4fcede	-0.012683598
208	0x3d6c819e	0.0577408
209	0xbd225f11	-0.039641444
210	0x3c381f02	0.011237862
211	0x3dcc7046	0.09982352
212	0x3d60efd1	0.054916207
213	0x3d8c2263	0.06842496
214	0x3de5bbb5	0.11217443
215	0xbe3b6c3f	-0.18303011
216	0x3e1dde20	0.15416765
217	0xbdaac7f4	-0.08338919
218	0x3d6d41ab	0.057923954
219	0xbd36599d	-0.044519056
220	0x3ade4e90	0.0016960669
221	0x3dc52774	0.09626666
222	0x3e0af00a	0.1356813
223	0x3db3c18a	0.08777149
224	0x3dface1d	0.12246344
225	0xbde5f757	-0.11228817
226	0x3cbb944c	0.022897862
227	0x3d2eeab5	0.042704303
228	0x3df0c7fb	0.11756893
229	0x3c96d66f	0.018412797
230	0x3e10586b	0.14096229
231	0x3db8863d	0.09009979
232	0xbbb0f9b0	-0.005400859
233	0xbde9b30d	-0.11411104
234	0xbddd0fb5	-0.107940115
235	0xbd9963c8	-0.07489735
236	0x3da47527	0.080301575
237	0x3d3c510c	0.04597573
238	0xbde34957	-0.11097973
239	0xbd3e8c9b	-0.04652081
240	0xbca56ad9	-0.02019255
241	0x3d932f41	0.07186747
242	0x39b865af	0.00035170975
243	0xbdae58ec	-0.08513054
244	0x3caf134a	0.021371502
245	0x3e3420a7	0.17590581
246	0xbe00b7b8	-0.12570083
247	0x3cb2100a	0.021736164
248	0xbdef03bc	-0.11670634
249	0x3c992eca	0.018699069
250	0xbd938bb2	-0.07204379
251	0xbdb81937	-0.08989184
252	0x3e06256e	0.13100216
253	0x3dd5367c	0.10410783
254	0x3d0f51fc	0.034990296
255	0x3d98ded9	0.0746438

fc3.bias f4 [2]
0	0x3cfcb76c	0.030849181
1	0xbab0f3d1	-0.0013500397
