project3-tennis/models/ddpg_agent1_actor_local.pth (torch_old, 159276 bytes, 6 tensors)

fc1.weight f4 [256, 24]
0	0x3d4d45b8	0.050115317
1	0x3c51577a	0.012777204
2	0x3cadd04b	0.021217486
3	0xbd80afd3	-0.06283536
4	0xbe08f799	-0.13375701
5	0x3d725f66	0.05917301
6	0x3cd30b19	0.025762128
7	0x3c6839d8	0.014173947
8	0x3a2251e7	0.0006192014
9	0x3d526705	0.05136778
10	0xbd03c862	-0.03217352
11	0xbd643c95	-0.055721838
12	0xbd7a9360	-0.061175704
13	0xbca63681	-0.020289661
14	0x3cf4ca7e	0.029881712
15	0xbb258205	-0.00252545
16	0xbd15e39c	-0.03659402
17	0xbc652a34	-0.013987113
18	0xbbf9d843	-0.0076246574
19	0x3cd9fe29	0.02661045
20	0xbd70e36b	-0.058810633
21	0xbdb7cd51	-0.08974708
22	0x3d6ca993	0.057778906
23	0xbc98069e	-0.018557843
24	0xb99c515a	-0.0002981525
25	0x3dbe9ce5	0.09307269
26	0xbd0223a2	-0.031772263
27	0x3dd93aab	0.10606893
28	0xbca87e44	-0.02056802
29	0xbda58854	-0.08082643
30	0xbcbe7fda	-0.023254324
31	0x3c5a2607	0.0133147305
32	0xbc4ead9d	-0.012614635
33	0x3cf2f727	0.029658867
34	0x3d730031	0.059326354
35	0x3d2f1802	0.042747505
36	0x3beed159	0.00728814
37	0xbc68cbcf	-0.014208748
38	0x3c4311da	0.011906112
39	0x3d584d8d	0.052808333
40	0x3c5dbb9e	0.013533501
41	0xbc8f1a6d	-0.017468655
42	0xbd1e15c1	-0.038594965
43	0x3da9b1a9	0.08285839
44	0x3e219c3a	0.15782252
45	0x3dfd0a68	0.123555005
46	0x3bd8e720	0.006619349
47	0x3d36736a	0.04454366
48	0xbdc26146	-0.0949121
49	0x3c947d38	0.018126115
50	0x3d5e836f	0.054324564
51	0x3cac2dff	0.021018026
52	0xbcad56d1	-0.021159561
53	0x3e121794	0.14266807
54	0xbce8fa5e	-0.028439697
55	0xbd06ed5d	-0.03294121
56	0xbc100f33	-0.008792686
57	0x3cd0ddfa	0.025496472
58	0xbb207442	-0.0024483358
59	0xbd0b1fd8	-0.033965915
60	0x3d0cff90	0.03442341
61	0x3d4b3b94	0.049617365
62	0x3c891938	0.016735658
63	0xbc678521	-0.0141308615
64	0x3c993e00	0.018706322
65	0x3d21b984	0.039483562
66	0xbc96a988	-0.018391386
67	0xbca2b855	-0.019863287
68	0x3cc6e0c1	0.024277093
69	0xbd75a570	-0.059972227
70	0x3ce54861	0.027988615
71	0x3d625829	0.055259857
72	0xbcec0c09	-0.028814333
73	0xbc92c605	-0.017916689
74	0x3bf37ae4	0.007430421
75	0xbca311e5	-0.019905994
76	0x3a60f222	0.00085810025
77	0x3dd7d91e	0.10539459
78	0x3cffffad	0.031249845
79	0xbcdc177a	-0.026866663
80	0xbd902d43	-0.07039883
81	0xbd17351f	-0.036915895
82	0xbc89921d	-0.016793305
83	0x3b1700c3	0.0023041226
84	0x3d9b11ca	0.07571752
85	0x3cf738de	0.030178484
86	0x3cb16564	0.021654792
87	0x3d97dcb2	0.07415141
88	0x3c51f11e	0.0128138345
89	0x3cc8f658	0.024531528
90	0xbd494ab7	-0.04914352
91	0x3d3c9712	0.04604251
92	0x3d7efb76	0.06225153
93	0xbbb783cc	-0.005600428
94	0x3d41e60e	0.047338538
95	0x3d9ad500	0.07560158
96	0xbdae2ade	-0.0850427
97	0xbdaf6333	-0.085638426
98	0x3d6c2093	0.057648253
99	0x3dabe065	0.08392409
100	0x3c52b3b0	0.012860224
101	0xbd9f61b3	-0.077823065
102	0xbd44ffe4	-0.0480956
103	0x3c3f7ffd	0.01168823
104	0xbd9c6425	-0.076362886
105	0xbd502aaf	-0.050821956
106	0x3d9b68c3	0.07588341
107	0xbc778227	-0.015106714
108	0x3d8a4a89	0.06752498
109	0x3d672bc2	0.056438215
110	0x3dc86ea9	0.09786732
111	0x3d55d39c	0.05220376
112	0x3c48163c	0.012212332
113	0xbba68eb6	-0.0050829304
114	0xbb88320d	-0.004156357
115	0xbbd101f5	-0.006378407
116	0xbd022ed5	-0.031782944
117	0x3dd4890e	0.103777036
118	0x3d0d4330	0.034487903
119	0x3d7d717a	0.061875798
120	0xbd01385a	-0.03154788
121	0x3ced97a7	0.029002978
122	0xbd6e1cf5	-0.058133084
123	0xbda54f48	-0.08071762
124	0x3cd4420a	0.025910396
125	0xba95e381	-0.0011435599
126	0x3ca47e7a	0.02007984
127	0xbd7ff2c9	-0.062487397
128	0xbd35d9cb	-0.044397157
129	0x3d44b601	0.048025135
130	0xbc844838	-0.016147718
131	0xbd91388b	-0.07090863
132	0xbd5fb155	-0.054612476
133	0xbba5e9a6	-0.0050632535
134	0x3d52ba15	0.051446993
135	0xbd380c3a	-0.044933535
136	0xbc79cc5f	-0.01524648
137	0xbd93ae93	-0.07211032
138	0x3da2b9fd	0.07945631
139	0xbc85c871	-0.01633093
140	0xbbc56873	-0.006024414
141	0x3dd6865c	0.10474846
142	0x3db39b11	0.08769811
143	0xbd2e3186	-0.042527698
144	0xbdde828b	-0.10864743
145	0x3d38af6f	0.04508918
146	0x3b6aebc0	0.0035846084
147	0xbd7feb82	-0.062480457
148	0x3d81e4ee	0.06342493
149	0xbd4615e7	-0.04836073
150	0x3cfe3670	0.031031817
151	0x3cdda6ee	0.027057137
152	0xbb96a427	-0.004597205
153	0x3c3d74e2	0.011563512
154	0x3c8b93a0	0.017038167
155	0xbcc571d4	-0.024102129
156	0xbc3d5b08	-0.011557348
157	0x3d90f939	0.070787854
158	0xbb89d1c8	-0.004205916
159	0xbc81fa40	-0.015866399
160	0xbd849cf7	-0.06475251
161	0xbbbad92f	-0.00570216
162	0x3d697f26	0.057006024
163	0xbca29067	-0.019844247
164	0x3d1fc396	0.039004885
165	0x3d866fd2	0.06564297
166	0x3d6114c6	0.05495145
167	0x3c32f030	0.010921523
168	0xbd108771	-0.035285417
169	0x3b0d9519	0.0021603762
170	0xbceaa53e	-0.028643247
171	0x3d8778f1	0.066148646
172	0x3c04ce75	0.008105864
173	0x3bde6396	0.006786774
174	0xba3ff7d2	-0.0007323
175	0x3ca696d8	0.0203356
176	0xbd498e60	-0.049208045
177	0x3d3e5dee	0.046476297
178	0xbd705b79	-0.058680985
179	0x3cbdb2cc	0.023156546
180	0xbce3ff23	-0.02783162
181	0x3d0153f7	0.031574216
182	0xbd396c1e	-0.045269124
183	0x3cfb330f	0.030663995
184	0xbd3a768d	-0.045523215
185	0x3ccf37cc	0.02529516
186	0xbd02c413	-0.031925272
187	0x3d78425b	0.060610157
188	0x3c417b39	0.011809164
189	0x3d09172d	0.033469368
190	0x3d36c570	0.044621885
191	0x3d286f1c	0.041121587
192	0xbdb77367	-0.08957558
193	0x3d32485d	0.043526042
194	0x3d9f3929	0.07774574
195	0x3d9c7c84	0.07640937
196	0x3c900dec	0.017584763
197	0xbd83b29d	-0.06430552
198	0x3da43fc5	0.080199756
199	0x3d51142c	0.051044628
200	0xbc0e0988	-0.008669265
201	0x3ccabc7a	0.024748076
202	0x3ccad82d	0.024761284
203	0xbca27d2d	-0.01983508
204	0x3c820a50	0.015874058
205	0x3cf17189	0.029473083
206	0x3d3837dc	0.044975147
207	0x3ba0ce08	0.0049073733
208	0x3c8f3ce3	0.017485088
209	0xbcef9b0e	-0.02924874
210	0x3d070048	0.032959253
211	0x3cea0da2	0.028570954
212	0xbd7aa5f9	-0.06119344
213	0x3e174d57	0.14775597
214	0xbd373077	-0.044723954
215	0xbd1a6d04	-0.03770162
216	0x3994e83b	0.00028401785
217	0x3d3d187f	0.04616594
218	0xbc8447ec	-0.016147576
219	0x3d50ecd5	0.05100711
220	0xbc5d18b9	-0.013494664
221	0x3d2c14a4	0.042011872
222	0xbcc7406c	-0.02432271
223	0x3d8c7c22	0.06859614
224	0xbd8dfe22	-0.069332376
225	0x3c1172b1	0.008877442
226	0x3d074f5b	0.033034664
227	0xbc0f3afa	-0.008742088
228	0xbd173236	-0.03691312
229	0x3d8cbd20	0.0687201
230	0xbc487347	-0.0122345155
231	0xbda1e056	-0.07904117
232	0x3b854e1d	0.0040681497
233	0xbd1ceae0	-0.03830993
234	0xbd6d9d68	-0.058011442
235	0x3c310855	0.010805209
236	0xbd95c598	-0.07313079
237	0x3ca6b91a	0.020351935
238	0x3d1f8070	0.038940847
239	0xbc7aef33	-0.015315819
240	0xbd3da9ea	-0.04630462
241	0xba5e721d	-0.0008485632
242	0x3c8c352b	0.017115196
243	0xbd019083	-0.031631958
244	0x3d77826d	0.060427118
245	0x3d32b016	0.04362496
246	0xbccef3eb	-0.025262794
247	0x3cc5bebd	0.024138803
248	0xbb97dad1	-0.0046342392
249	0x3c43b90c	0.011945974
250	0x3cf8cfa2	0.030372445
251	0x3ce5901f	0.028022824
252	0x3e343cff	0.17601393
253	0xb978056f	-0.00023653147
254	0xbc3416a6	-0.010991728
255	0x3d4ac790	0.049506724

fc1.bias f4 [256]
0	0xbd818c96	-0.06325643
1	0x3dfd1ffb	0.123596154
2	0x3df71e5c	0.120663375
3	0x3e067876	0.1313189
4	0xbc4bd151	-0.012440042
5	0xbe218da5	-0.1577669
6	0xbe2d7114	-0.16937667
7	0x3d6d6d97	0.05796584
8	0xbe266a87	-0.16251574
9	0xbe0f19d4	-0.13974696
10	0x3e22748b	0.1586477
11	0xbdc02d0f	-0.09383594
12	0x3daebb5e	0.08531831
13	0xbe080ff3	-0.13287334
14	0x3d826d06	0.06368451
15	0x3e3182aa	0.17335
16	0x3d977b9a	0.07396622
17	0x3d86a4a0	0.065743685
18	0xbded26fb	-0.115797006
19	0xbdaebed6	-0.08532493
20	0x3e1564b7	0.14589201
21	0xbe30c39c	-0.17262119
22	0xbb8c9e54	-0.004291335
23	0xbe140709	-0.14455809
24	0x3ca47638	0.020075902
25	0xbe35201e	-0.17688033
26	0x3cddf405	0.027093897
27	0x3d08ab1c	0.033366308
28	0xbdb6ef4b	-0.0893236
29	0xbd99d6cf	-0.075116746
30	0xbda281c2	-0.079349056
31	0xbd813977	-0.06309789
32	0xbc639b33	-0.013891983
33	0x3d1c95c9	0.038228784
34	0xbdb4bcf8	-0.088251054
35	0x3dad7ed6	0.08471458
36	0xbe0f7b47	-0.1401187
37	0x3e5cc384	0.21558958
38	0xbdc36a95	-0.09541813
39	0x3dea30dd	0.11435101
40	0xbe153aa7	-0.14573155
41	0xbe00599d	-0.12534185
42	0x3d1a03ab	0.037601154
43	0xbda0332e	-0.07822262
44	0xbd59de51	-0.053190533
45	0xbd0bdff8	-0.03414914
46	0xbd00f901	-0.03148747
47	0xbe272b85	-0.16325195
48	0x3e5e476d	0.21706934
49	0x3e08437e	0.13306996
50	0xbd0e346e	-0.03471797
51	0x3e2cce5f	0.168756
52	0xbdbc7722	-0.0920241
53	0xbe1e29ff	-0.15445708
54	0x3d8315ba	0.064006284
55	0xbda43070	-0.08017051
56	0x3e2b64ea	0.16737714
57	0xbccfb8bd	-0.025356645
58	0xbe509007	-0.20367442
59	0x3e2f165d	0.17098375
60	0x3d9f9af8	0.0779323
61	0x3d1219a4	0.035668984
62	0x3beae147	0.0071679684
63	0xbe0d569a	-0.13802567
64	0x3cfc3691	0.030787738
65	0x3d0b8254	0.034059837
66	0xbdb1ca10	-0.086811185
67	0x3dfe0c25	0.1240466
68	0xbe5a562c	-0.21321934
69	0xbe1d38de	-0.15353724
70	0xbb37f961	-0.0028072225
71	0xbe682228	-0.2266928
72	0xbe537373	-0.20649509
73	0xbdad2685	-0.08454613
74	0xbbf9999f	-0.00761719
75	0x3e680563	0.22658305
76	0x3db6c81b	0.08924886
77	0x3e56b81a	0.20968667
78	0x3d3b6c57	0.045757618
79	0x3d854259	0.065067954
80	0xbd36d522	-0.044636853
81	0xbd8f53b8	-0.0699839
82	0xbe526e99	-0.20550002
83	0xbe42d0ae	-0.19024917
84	0x3df1cdc4	0.11806825
85	0xbdfc2626	-0.12311964
86	0xbddce2ee	-0.10785471
87	0x3dc7675a	0.097365096
88	0xbe16df9b	-0.14733736
89	0x3dadc75e	0.08485292
90	0x3d05c367	0.032657053
91	0x3d3aebe4	0.04563512
92	0xbd956f74	-0.072966486
93	0x3e13800c	0.14404315
94	0xbe2f5810	-0.17123437
95	0xbe3007f1	-0.1719053
96	0x3e3757e9	0.17904629
97	0xbd9415b2	-0.072307006
98	0x3e6df08d	0.23236294
99	0x3e063ec8	0.13109887
100	0x3dd06de7	0.10177212
101	0x388dcb9c	6.761329e-05
102	0x3d76b002	0.060226448
103	0x3d6b6254	0.05746682
104	0xbda53fef	-0.08068835
105	0x3e283c1b	0.16429178
106	0x3dba9005	0.09109501
107	0x3c087821	0.008329422
108	0x3d9a81b0	0.07544267
109	0xbd3e8e3e	-0.04652237
110	0xbc7d52b8	-0.015461616
111	0xbe224d8e	-0.15849897
112	0xbd727b58	-0.05919966
113	0xbe1790ce	-0.14801332
114	0xbcf422e4	-0.029801793
115	0x3e13cdb7	0.14433943
116	0x3e5206fe	0.2051048
117	0xbe2925ec	-0.16518372
118	0xbe260b85	-0.16215332
119	0x3e3beda5	0.18352373
120	0xbd5b11ab	-0.053483646
121	0xbb9b18fc	-0.004733203
122	0x3e078870	0.1323564
123	0x3e5f310d	0.21796055
124	0x3d9d1d88	0.07671648
125	0x3da755ee	0.08170687
126	0x3b89405a	0.0041885795
127	0x3d91de35	0.07122461
128	0x3db43323	0.08798816
129	0xbe44d876	-0.19223198
130	0xbe34ded5	-0.17663129
131	0x3e0b27da	0.13589421
132	0xbe3bbcb6	-0.18333706
133	0x3e081e1f	0.1329274
134	0x3e1cc43b	0.15309231
135	0x3dd208a5	0.10255555
136	0x3d5e584d	0.05428343
137	0x3d2561ec	0.04037659
138	0x3ddfd134	0.10928574
139	0x3dd6eca7	0.104943566
140	0x3d02b3ea	0.03190986
141	0xbe030af5	-0.12797149
142	0x3e273c82	0.16331676
143	0x3d61b8fd	0.05510806
144	0x3e188255	0.14893468
145	0xbdaae428	-0.083442986
146	0xbdcf9233	-0.10135307
147	0xbdba1f05	-0.09087948
148	0x3d4f215e	0.05056893
149	0x3e5d9507	0.2163888
150	0x3d846fed	0.06466661
151	0x3e388fed	0.18023653
152	0x3e4c06d7	0.19924484
153	0xbe0bfb84	-0.13670164
154	0x3e6ca244	0.23108774
155	0x3d06d147	0.032914426
156	0x3e59d499	0.21272506
157	0x3d056d31	0.032574836
158	0x3bfa39a7	0.007636267
159	0x3e2aedca	0.16692272
160	0xbe3fbdc4	-0.18724734
161	0x3c9e22a9	0.019303637
162	0x3c4dfb52	0.012572126
163	0xbc0b5ebb	-0.008506472
164	0xbc99896b	-0.018742284
165	0x3e387910	0.18014932
166	0xbcba03c9	-0.022706883
167	0x3e024aa4	0.12723786
168	0x3dd1261e	0.102123484
169	0x3e595d0f	0.21226905
170	0x3dbd8a89	0.09254939
171	0xbe61338d	-0.21992321
172	0xbe4be45c	-0.19911331
173	0xbe48b8db	-0.19601767
174	0xbe309fdc	-0.17248482
175	0xbdda4972	-0.1065854
176	0x3d376328	0.044772297
177	0x3e5c84f6	0.21535096
178	0xbdc1ef71	-0.09469498
179	0x3df8eff8	0.121551454
180	0xbdd2ded9	-0.10296411
181	0x3e28f1eb	0.16498534
182	0x3e15f064	0.14642483
183	0x3de2a3b2	0.11066379
184	0x3e56c983	0.20975308
185	0xbe044b7c	-0.1291942
186	0xbe19da23	-0.15024619
187	0xbd5924a9	-0.053013477
188	0x3d848aae	0.064717636
189	0x3e4eb910	0.20187783
190	0x3de0226d	0.10944066
191	0x3da2701b	0.07931539
192	0xbc40b8ac	-0.011762779
193	0xbdc497d1	-0.09599269
194	0x3e613aff	0.21995161
195	0xbe20a826	-0.15689144
196	0xbe2dc734	-0.16970521
197	0x3dabdb2b	0.08391412
198	0x3e314af0	0.17313743
199	0x3d9379c8	0.07200962
200	0x3d144919	0.036202524
201	0xbd2e44b5	-0.042545993
202	0x3ca4da59	0.020123648
203	0xbdb9a746	-0.09065108
204	0x3e670ed5	0.22564252
205	0x3e4b1d40	0.19835377
206	0xbd88f067	-0.06686478
207	0x3e2cef25	0.16888101
208	0xbc885b4d	-0.016645098
209	0xbe422aad	-0.18961592
210	0x3ce3a91d	0.0277906
211	0xbcb6a8e0	-0.022297323
212	0x3e34e652	0.17665985
213	0x3c75f756	0.015012583
214	0xbd9a0548	-0.075205386
215	0xbe27be14	-0.16381103
216	0x3e27de34	0.16393358
217	0x3e2b3ef1	0.16723229
218	0x3d1d6258	0.038423866
219	0xbce8916e	-0.028389659
220	0xbd331d57	-0.043729153
221	0x3d70970e	0.058737807
222	0x3e4d5e4f	0.20055507
223	0xbc3ca89d	-0.01151481
224	0x3d5e0719	0.054205988
225	0xbe4f858f	-0.20265792
226	0x3db9eb85	0.09078125
227	0xbd8eb7c1	-0.06968642
228	0xbcdd4a7a	-0.027013052
229	0xbd0eda93	-0.034876417
230	0x3e59b13b	0.21259014
231	0x3e2eaa50	0.17057157
232	0xbd8d7e4b	-0.06908854
233	0xbcea9019	-0.028633164
234	0x3dc46ed8	0.09591454
235	0x3da87bac	0.082267135
236	0xbdb3587e	-0.08757113
237	0x3db788af	0.08961617
238	0x3d001936	0.031274043
239	0x3e271215	0.16315491
240	0xbdbfe772	-0.093703166
241	0xbe063f73	-0.13110141
242	0x3e02ea95	0.12784798
243	0x3c499426	0.012303388
244	0xbd317be7	-0.043331053
245	0x3e4105bf	0.18849848
246	0x3cdaf51b	0.026728204
247	0xbe1fc8a4	-0.15603882
248	0x3ba161ea	0.0049250023
249	0xbd9c04b2	-0.07618083
250	0xbdcc4a0b	-0.0997506
251	0xbe148c31	-0.14506604
252	0x3e35e6f5	0.17763884
253	0x3e47536e	0.1946542
254	0xbe3dc5d1	-0.18532492
255	0x3e32a799	0.17446746

fc2.weight f4 [128, 256]
0	0xbccfb311	-0.02535394
1	0xbe377005	-0.17913826
2	0x3d21bca2	0.039486535
3	0x3bc9c288	0.006157223
4	0x3d07d859	0.03316531
5	0x3c61f04b	0.0137902
6	0x3ca8934b	0.020578047
7	0x3da92c30	0.08260381
8	0xbd401510	-0.046895087
9	0x3d40c44b	0.0470622
10	0xbe1b200d	-0.15148945
11	0xbd91584b	-0.07096919
12	0x3d19dbcc	0.03756313
13	0xbd409040	-0.047012568
14	0x3cc94ba5	0.024572203
15	0x3d7021f4	0.05862613
16	0x3d6a41fa	0.057191826
17	0xbd4699e9	-0.048486624
18	0x3d2fd91c	0.04293166
19	0xbdb8d844	-0.090256244
20	0xbd1a9b14	-0.03774555
21	0x3dd35952	0.10319771
22	0x3d91636f	0.070990436
23	0x3dbddd07	0.09270673
24	0xbce2c5d9	-0.027682232
25	0xbdc87ff8	-0.09790033
26	0xbd8740ca	-0.066041544
27	0xbd5c14a2	-0.053730614
28	0x3cab1929	0.02088602
29	0xbd898cca	-0.067163065
30	0x3d47dece	0.048796467
31	0xbe80a1d5	-0.25123468
32	0x3db551fb	0.08853527
33	0x3d9c8a15	0.076435246
34	0x3df50600	0.11964035
35	0x3b39c3e0	0.002834551
36	0x3d913220	0.07089639
37	0xbd46a7b2	-0.04849977
38	0x3d322db3	0.043500613
39	0x3df5a3d0	0.119941354
40	0xbc4a8e58	-0.012363039
41	0xbdf328bb	-0.11873003
42	0x3c6126f1	0.0137421945
43	0xbda7219d	-0.08160708
44	0x3d16d238	0.036821574
45	0x3db5fb6e	0.08885847
46	0x3dd0b99c	0.10191652
47	0xbb1fede3	-0.0024403266
48	0x3d69f494	0.057118014
49	0x3c88aaf6	0.016683083
50	0xbcc311e4	-0.023812242
51	0xbd841052	-0.06448425
52	0xba8d966b	-0.0010802274
53	0xbdb99055	-0.09060732
54	0x3d355701	0.044272427
55	0xbd38faa2	-0.045160897
56	0x3d2a5dfd	0.04159354
57	0x3cca2459	0.024675535
58	0xbe088f40	-0.13335896
59	0xbd09f181	-0.03367758
60	0xbe197ed3	-0.14989786
61	0x3d9c6aa3	0.07637527
62	0x3d10f5fe	0.035390846
63	0x3d11c3ad	0.035587
64	0xbb00ef43	-0.001967386
65	0x3cd2ec2c	0.025747381
66	0x3d412243	0.047151815
67	0x3d9d7f03	0.07690241
68	0xbd7e6458	-0.062107414
69	0x3d981dde	0.07427572
70	0x3cc20f11	0.023688825
71	0xbdaba32f	-0.08380734
72	0xbdb1d879	-0.08683867
73	0x3d44b1c7	0.048021104
74	0xbc1a0a76	-0.009401908
75	0x3b8b977a	0.004260001
76	0xbc1fbcba	-0.009749586
77	0xbd81f68c	-0.06345853
78	0xbc26141f	-0.010136633
79	0xbd3ec2d2	-0.046572514
80	0xbcaace94	-0.020850457
81	0xbd1fac37	-0.038982596
82	0xbbb2f5d1	-0.0054614325
83	0x3df6d233	0.12051811
84	0x3d606b9a	0.054790117
85	0x3cc6f937	0.024288757
86	0xbdba72d8	-0.09103936
87	0xbb2b4630	-0.0026134364
88	0xbdde1869	-0.108444996
89	0x3c262f53	0.010143119
90	0x3ddd0529	0.10792
91	0xbd6d529b	-0.057940107
92	0xbc706e48	-0.014674731
93	0x3c998b8e	0.018743303
94	0xbcc6a5ea	-0.024249036
95	0x3d0abd67	0.033872034
96	0x3d8c3adb	0.06847163
97	0xbe3fae9b	-0.1871895
98	0x3db4fd32	0.08837356
99	0xbd5b3303	-0.053515445
100	0xbbee1061	-0.007265136
101	0x3dbb0df9	0.091335244
102	0xbd9f11d9	-0.07767076
103	0x3bef434a	0.0073017227
104	0x3de0aa79	0.10970015
105	0xbd02904d	-0.031875897
106	0xbdfbf82b	-0.12303194
107	0x3dec1f87	0.11529451
108	0x3c62a8aa	0.013834158
109	0x3d7f0a46	0.062265657
110	0xbe1211dc	-0.14264625
111	0x3d28ebd4	0.04124053
112	0x3c3cc41f	0.011521368
113	0xbd9267a6	-0.071486756
114	0xbd23b1b7	-0.039964404
115	0x3d4a6280	0.049410343
116	0x3d848cbb	0.06472155
117	0xbd72bce9	-0.05926219
118	0xbdd61161	-0.104525335
119	0x3dea9547	0.11454254
120	0x3cd302e3	0.025758212
121	0xbd85fffd	-0.065429665
122	0x3bf91bce	0.0076021915
123	0x3d39e72e	0.045386486
124	0xbc492443	-0.012276712
125	0x3dd2c23e	0.10290955
126	0xbd010a04	-0.031503692
127	0x3d5a1fe3	0.053253066
128	0xbdddc57a	-0.10828681
129	0x3d93e639	0.07221646
130	0x3dad1ee9	0.08453161
131	0x3d4a4879	0.04938552
132	0x3d282c67	0.04105797
133	0x3df09449	0.11747033
134	0x3dd49660	0.10380244
135	0xbdd58107	-0.10425001
136	0x3d28e646	0.04123523
137	0xbd4f26fd	-0.05057429
138	0xbc201cb0	-0.009772465
139	0xbd9f252b	-0.07770761
140	0x3b44f5f0	0.0030053817
141	0x3d2d33f8	0.04228589
142	0x3d8dd8ee	0.06926142
143	0x3b80550c	0.0039163884
144	0x3d00e4eb	0.031468313
145	0x3cecc604	0.028903015
146	0xbdd421c0	-0.10358
147	0x3d7008ef	0.05860227
148	0xbd1dddb9	-0.03854153
149	0x3da57b9d	0.08080218
150	0x3da5bbb8	0.08092445
151	0xbdc19241	-0.09451724
152	0xbd5c32b2	-0.053759284
153	0xbe0bfb70	-0.13670135
154	0x3d86f54a	0.06589754
155	0x3d9fe335	0.07807008
156	0x3d33abf7	0.04386517
157	0xbc05640b	-0.008141528
158	0x3de519d2	0.111865655
159	0x3deeeff7	0.116668634
160	0x3d3f40db	0.04669271
161	0xbd5d6588	-0.054051906
162	0x3dd28fdd	0.10281346
163	0x3cefc7cd	0.029270077
164	0x3dcfa49b	0.10138818
165	0xbd51b69a	-0.051199533
166	0x3c071ce8	0.008246638
167	0xbc8ac589	-0.016939895
168	0x3c9ea1c9	0.019364255
169	0x3d01a223	0.031648766
170	0xbd481da0	-0.048856378
171	0xbddabd68	-0.106806576
172	0xbe2895b8	-0.16463363
173	0x3cf5ea0b	0.030018827
174	0x3bc7e020	0.006099716
175	0x3bf180cb	0.0073700896
176	0x3d4493da	0.047992565
177	0xbe07d9df	-0.13266705
178	0xbccd8f86	-0.025092851
179	0xbda3bb25	-0.07994679
180	0x3c1d0dc7	0.009585804
181	0x3cc00190	0.023438245
182	0x3ddb88d1	0.10719455
183	0xbca6b6bb	-0.020350805
184	0x3d48eafa	0.049052216
185	0xbd3a1eca	-0.04543952
186	0x3d8c95a6	0.06864481
187	0xba7f925d	-0.0009749288
188	0x3d7874c4	0.06065823
189	0x3d95e7d5	0.07319609
190	0xbe773fe2	-0.24145463
191	0xbcb782eb	-0.022401294
192	0xbdbf396e	-0.09337126
193	0x3d3b76a1	0.04576743
194	0xbd25492f	-0.040352996
195	0xbd1578fe	-0.03649234
196	0xbdd6b16f	-0.104830615
197	0xbd3b629a	-0.04574833
198	0x3dd3eebd	0.1034827
199	0x3d585e7b	0.05282448
200	0x3d32d281	0.043657783
201	0xbd5b1ca7	-0.053494122
202	0xbc02acef	-0.007975801
203	0x3db49fc5	0.08819536
204	0x3d990d39	0.07473225
205	0x3e4f8d55	0.20268758
206	0xbdd58ee7	-0.10427647
207	0x3dd51413	0.104042195
208	0xbc3e8d2f	-0.0116303405
209	0x3b98cc8b	0.0046630553
210	0xbc8c6b74	-0.017141081
211	0x3c6ae073	0.014335739
212	0x3dca939d	0.09891436
213	0x3d3b76bd	0.045767535
214	0x3e17189c	0.14755481
215	0xbda3d357	-0.07999294
216	0x3d51c8f4	0.051217034
217	0x3d983de5	0.074336804
218	0xbe3cf42c	-0.18452519
219	0xbda873dc	-0.082252234
220	0xbccb38de	-0.02480739
221	0x3d286b1e	0.04111778
222	0x3ba16e31	0.004926466
223	0x3de05630	0.10953939
224	0x3cef0f5b	0.029182127
225	0xbdc1a0ea	-0.0945452
226	0xbcaf09fb	-0.021367064
227	0x3e06ac85	0.13151748
228	0xbcc04005	-0.023468027
229	0xbe041690	-0.12899232
230	0x3caa62d6	0.020799082
231	0x3dcfd08e	0.101472005
232	0x3ce7541c	0.028238349
233	0xbd5e13b3	-0.054218005
234	0xbd2efc94	-0.042721346
235	0x3d28ff12	0.04125888
236	0x3c293e0a	0.010329733
237	0x3d48c9ed	0.049020696
238	0x3d0969d6	0.0335482
239	0xbc69e100	-0.014274836
240	0x3c9455a7	0.018107248
241	0xbde6fb95	-0.11278454
242	0x3b29f530	0.0025933497
243	0xbd16847d	-0.036747444
244	0xbdd3d4a5	-0.10343293
245	0x3deb5bb0	0.114920974
246	0x3defe99f	0.117144816
247	0xbe274f3c	-0.1633882
248	0x3d5436af	0.051809963
249	0xbcd269df	-0.025685249
250	0xbd47407b	-0.048645478
251	0x3cee41f9	0.029084193
252	0xbc4409f3	-0.011965263
253	0xbaec6c7a	-0.00180377
254	0x3ccde2a8	0.025132492
255	0xbd265c43	-0.04061533

fc2.bias f4 [128]
0	0x3dbe3230	0.09286916
1	0x3cad48e8	0.021152928
2	0xbd16f5cb	-0.0368555
3	0xbc2ce397	-0.0105523085
4	0x3d380eee	0.044936113
5	0x3d3ec19c	0.04657136
6	0x3c03339b	0.008007909
7	0xbd1ce83e	-0.03830742
8	0x3d04b0d1	0.032395188
9	0x3d6f66ab	0.05844752
10	0x3d6e1a4c	0.058130547
11	0x3d8309dd	0.06398366
12	0xbcae8b14	-0.021306552
13	0xbce801d8	-0.028321192
14	0xbc8eb4d7	-0.017420216
15	0x3c3c2039	0.011482292
16	0xbd3d9241	-0.046282057
17	0x3cabc2f6	0.020966988
18	0xbca25a23	-0.019818371
19	0x3c640c99	0.013919019
20	0xbce9e434	-0.028551199
21	0xbbd9e0e9	-0.006649126
22	0x3d58bccc	0.052914426
23	0x3c9d4d53	0.01920191
24	0x3d97230e	0.07379733
25	0x3c65ed6f	0.014033659
26	0xbd2da8d9	-0.042397354
27	0x3d6ed147	0.05830505
28	0x3cc5c2b1	0.024140688
29	0xbc600d66	-0.013675069
30	0x3cf7e329	0.030259686
31	0x3d45a65d	0.04825436
32	0xbd33a110	-0.043854773
33	0xbcc09fc7	-0.023513688
34	0xbd596e9b	-0.053083997
35	0xbad96481	-0.0016585739
36	0x3d40fc13	0.047115397
37	0x3cdc50ae	0.02689394
38	0x3cf2201a	0.029556323
39	0xbcb02026	-0.021499705
40	0x3cdd7b6e	0.027036395
41	0x3db0ae45	0.08626989
42	0x3cf47aaa	0.029843647
43	0x3d41c990	0.047311366
44	0x3d6b05c0	0.05737853
45	0xbbe6b857	-0.007041018
46	0xbcbcb1f6	-0.023034077
47	0x3d4ebd23	0.050473344
48	0x3afe824e	0.0019417496
49	0xbcf7dd8e	-0.030257013
50	0xbd220acb	-0.039561074
51	0xbd245bed	-0.04012673
52	0xbb69d947	-0.0035682486
53	0x3d1ebc76	0.03875395
54	0xbc202070	-0.009773359
55	0x3d929a03	0.07158282
56	0x3b54078d	0.0032353133
57	0x3d756840	0.059913874
58	0x3bfb11ea	0.0076620476
59	0x3d723f63	0.05914248
60	0xbcb4b9a3	-0.022061175
61	0xbc95d11a	-0.018288184
62	0xbd2f0edf	-0.04273879
63	0x3d1e9c60	0.03872335
64	0x3d36174e	0.04445582
65	0x3d851f26	0.06500082
66	0xbc87480f	-0.016513852
67	0xbbf4d41e	-0.0074715754
68	0xbd149d40	-0.036282778
69	0x3d27144b	0.040790837
70	0x3caddec5	0.021224389
71	0xbce99b29	-0.028516369
72	0x3d2cf533	0.042226028
73	0xbad468c8	-0.0016205544
74	0x3d3baa02	0.04581643
75	0x3d83eccd	0.064416505
76	0xbd1d103a	-0.038345553
77	0x3d645abe	0.0557506
78	0xbc8a9088	-0.016914621
79	0xbd376b24	-0.04477991
80	0x3cb73929	0.022366123
81	0xbc2b455c	-0.010453548
82	0x3ca898db	0.0205807
83	0xbd06cff1	-0.032913152
84	0x3ca1e044	0.019760258
85	0x3cb0f4d8	0.021601126
86	0xbd74ebf7	-0.059795346
87	0xbc99ea9c	-0.018788628
88	0x3d5320d1	0.051544968
89	0xbccbf9f2	-0.024899457
90	0x3d708406	0.058719657
91	0x3d927996	0.07152097
92	0x3bb6a880	0.005574286
93	0xbb94ee81	-0.0045450334
94	0x3cce2efe	0.025168892
95	0x3c0b5155	0.008503278
96	0x3d84e768	0.0648945
97	0x3d33a62b	0.043859642
98	0x3d343eb6	0.04400512
99	0x3cf1065e	0.029421981
100	0x3d6b5406	0.057453178
101	0x3d1aea6a	0.03782121
102	0xbcca9809	-0.0247307
103	0x3d0afda2	0.03393329
104	0xbd2fba00	-0.042901993
105	0xbc93d16c	-0.018044196
106	0x3caf5d85	0.021406898
107	0x3cb858b5	0.022503236
108	0x3c3ece60	0.011645883
109	0x3d7f12b3	0.062273692
110	0xbc1b0a45	-0.009462898
111	0xbd164b9d	-0.036693204
112	0x3b0ea62f	0.0021766534
113	0x3d915385	0.07096008
114	0x3d1311cb	0.03590564
115	0x3d411a0b	0.047143977
116	0x3af780bb	0.0018882969
117	0xbc7dec53	-0.015498239
118	0x3d629f58	0.055327743
119	0x3bb6d251	0.005579271
120	0x3d4a91bb	0.049455386
121	0x3d84b3c5	0.06479601
122	0x3d54562d	0.051839996
123	0x3c09500c	0.008380901
124	0x3c590428	0.01324562
125	0x3d419025	0.047256608
126	0x3d8379d2	0.0641972
127	0xbc358e2d	-0.011081261

fc3.weight f4 [2, 128]
0	0x3de55497	0.11197775
1	0x3d09ac57	0.03361162
2	0x3d93d37d	0.072180726
3	0xbe29ba4d	-0.16574974
4	0xbd2abb86	-0.041682743
5	0xbd836134	-0.064150244
6	0x3dd6399a	0.104602054
7	0xbd95cbae	-0.073142394
8	0x3d951d57	0.07280987
9	0x3d221b28	0.03957668
10	0x3e6c3bda	0.23069707
11	0x3e0b7cbc	0.13621801
12	0xbd446382	-0.04794646
13	0xbe2023e0	-0.15638685
14	0xbd4aa150	-0.049470246
15	0x3dcfefe0	0.101531744
16	0x3a866c54	0.0010255673
17	0x3d968244	0.07349065
18	0x3cd3ecc8	0.025869742
19	0x3da2c830	0.07948339
20	0x3d81b29e	0.06332897
21	0xbbdaa79b	-0.006672812
22	0x3dd653a9	0.10465176
23	0x3dbadf08	0.09124571
24	0xbd7bfb44	-0.061518922
25	0xbd970cfd	-0.07375524
26	0xbd4dd4a6	-0.050251625
27	0x3d18cead	0.037306476
28	0x3d9e5ede	0.07732938
29	0xbd392238	-0.04519865
30	0xbd9bf856	-0.07615726
31	0xbd04ea88	-0.03245023
32	0x3d3b2bea	0.045696177
33	0x3d78fd20	0.060788274
34	0x3d6b6fca	0.057479657
35	0xbd8a7755	-0.06761042
36	0x3d8952d1	0.06705249
37	0x3d0bf43e	0.034168474
38	0x3de43540	0.11142969
39	0x3dc0a811	0.09407056
40	0x3d6b896f	0.057504114
41	0x3e09e699	0.13466872
42	0xbdaeed7b	-0.085413896
43	0xbd9340a6	-0.07190065
44	0xbd36fed4	-0.044676617
45	0x3de8e3ce	0.11371575
46	0xbd890db5	-0.066920675
47	0xbdb061b5	-0.08612386
48	0x3ca7d3f7	0.020486815
49	0x3d5668f5	0.05234619
50	0x3dc13b9a	0.09435196
51	0x3c9fcc2a	0.019506533
52	0x3d96dcd0	0.073663354
53	0x3d19bf00	0.037535667
54	0xbda744c6	-0.08167414
55	0x3d82640c	0.06366739
56	0x3dc61d41	0.096735485
57	0xbd943ee3	-0.07238557
58	0xbd533e74	-0.05157323
59	0x3d94a02f	0.07257115
60	0x3dd3397a	0.10313697
61	0x3d846f8a	0.06466587
62	0x3dcd0672	0.10010995
63	0x3d965e77	0.073422365
64	0x3dae7108	0.08517653
65	0x3dcf3f92	0.10119547
66	0xbdc08de1	-0.09402061
67	0xbd783860	-0.06060064
68	0xbdb08b44	-0.08620313
69	0x3c9db1a5	0.019249747
70	0x3d690dcb	0.05689792
71	0xbd2dfd14	-0.042477682
72	0x3db50209	0.08838279
73	0xbdc0b832	-0.094101325
74	0xbdd9a0be	-0.10626362
75	0x3dbaca3c	0.091206044
76	0xbd6d5444	-0.05794169
77	0x3d5fb632	0.054617114
78	0x3da00f80	0.078154564
79	0xbddabfad	-0.106810905
80	0x3da0595e	0.078295454
81	0xbd97d3dd	-0.074134566
82	0xbd455e3d	-0.048185576
83	0x3deaa65d	0.114575125
84	0x3d7ccde1	0.06171978
85	0x3d919046	0.07107596
86	0x3e3174c7	0.17329703
87	0xbcc6065f	-0.02417296
88	0x3da732f5	0.08164016
89	0xbd88085e	-0.06642221
90	0xbdae3b92	-0.08507456
91	0x3c3f6ded	0.011683923
92	0x3aa7f1a4	0.0012813103
93	0x3bf3dfc8	0.0074424483
94	0x3d70ee2f	0.0588209
95	0x3d9035fe	0.07041548
96	0x3d359530	0.04433173
97	0x3d26b074	0.040695623
98	0x3cfe99c3	0.031079179
99	0x3dd9a43b	0.106270276
100	0x3dc472df	0.095922224
101	0x3c770c33	0.015078592
102	0x3d8cf0f7	0.06881898
103	0x3d78a7d1	0.060706917
104	0x3d54eb3f	0.05198216
105	0xbd413b97	-0.04717597
106	0x3d2d68f2	0.04233641
107	0x3dbcb79b	0.092147075
108	0x3d4556d6	0.048178516
109	0x3dac88e6	0.08424549
110	0xbcc7fa94	-0.024411477
111	0xbd9f6431	-0.07782782
112	0xbd86fa02	-0.06590654
113	0xbda5197c	-0.080615014
114	0xbe9e32c5	-0.3089811
115	0xbd1b89f1	-0.037973348
116	0x3db4f59b	0.08835908
117	0xbd054256	-0.032533966
118	0xbd1063ee	-0.03525155
119	0xbdf841e9	-0.12121946
120	0xbd82c5d1	-0.06385387
121	0x3d8dd4a8	0.069253266
122	0xbdae8e50	-0.08523238
123	0xbaca8748	-0.0015451694
124	0x3c981247	0.018563403
125	0x3d92ca48	0.07167488
126	0xbdaec85e	-0.08534311
127	0xbdc44f8f	-0.09585487
128	0xbded1ef0	-0.115781665
129	0x3e2ce556	0.1688436
130	0x3dc00cf5	0.09377471
131	0x3d9dae40	0.07699251
132	0xbdc283da	-0.09497805
133	0xbd8e7637	-0.069561414
134	0xbd0e95cd	-0.03481083
135	0xbd3c634b	-0.04599313
136	0xbda4f40d	-0.080543615
137	0x3d8f9bf0	0.070121646
138	0x3e44e8a0	0.19229364
139	0xbe2f3190	-0.1710875
140	0xbd15b1d8	-0.03654656
141	0x3e537155	0.20648701
142	0xbd1d7333	-0.03843994
143	0x3ebb0d36	0.36533517
144	0x3e0d68be	0.13809487
145	0x3dcb2cb7	0.09920638
146	0x3d8428b0	0.06453073
147	0xbdfec0a3	-0.12439086
148	0x3d50602c	0.050872967
149	0x3e8f5209	0.27992275
150	0xbe096601	-0.13417818
151	0x3dd95172	0.106112376
152	0xbd43a667	-0.047766116
153	0xbd3c6ebd	-0.046004046
154	0xbd47e97b	-0.04880665
155	0xbe0ff835	-0.14059527
156	0x3db19a29	0.08671982
157	0xbdadd64b	-0.08488139
158	0xbce7fcce	-0.028318789
159	0xbdc9aca3	-0.09847381
160	0x3dc6dfc6	0.0971065
161	0x3df7f7e8	0.12107831
162	0x3e03cabd	0.12870307
163	0x3d6b9f52	0.057524987
164	0x3bbabea7	0.005698997
165	0x3de2e1fb	0.110782586
166	0x3d9a804f	0.07544004
167	0xbd2be526	-0.04196658
168	0x3d504aeb	0.050852697
169	0xbd8ab721	-0.0677321
170	0xbd067718	-0.03282842
171	0x3d86aa52	0.06575455
172	0xbd519ed6	-0.05117687
173	0x3e10bc7b	0.141344
174	0xbd1e3276	-0.038622342
175	0x3cc42755	0.023944536
176	0xbe150ff8	-0.14556873
177	0x3e5dd86a	0.21664587
178	0x3dbbfd0e	0.09179126
179	0x3ea2d51a	0.3180321
180	0x3e06f200	0.13178253
181	0x3de93ac0	0.11388159
182	0xbc37bb02	-0.01121402
183	0x39577f11	0.00020551334
184	0x3e5242a5	0.20533235
185	0xbd23cbe8	-0.039989382
186	0xbd3ce794	-0.046119288
187	0x3dd84311	0.10559667
188	0xbcf954b7	-0.030435903
189	0x3d643d90	0.055722773
190	0xbccd295e	-0.02504414
191	0x3df00a3e	0.117207035
192	0x3dd2ddc3	0.10296204
193	0x3dcfd369	0.10147745
194	0xbd680b17	-0.0566512
195	0xbd263b03	-0.04058362
196	0x3b64c5c3	0.0034907914
197	0x3db44c47	0.08803611
198	0x3dbef2e4	0.093236715
199	0xbd81e421	-0.0634234
200	0x3e19ee32	0.1503227
201	0x3b2f0a30	0.0026708953
202	0xbd6d9ac9	-0.058008943
203	0xbd45a5da	-0.04825387
204	0xbd1a26d4	-0.037634686
205	0x3de670f5	0.112520136
206	0xbd2d1f42	-0.042266138
207	0xbcefe7bb	-0.029285302
208	0xbd2baf81	-0.04191542
209	0xbb91aacd	-0.00444541
210	0xbd949f99	-0.07257003
211	0x3dfa183e	0.12211655
212	0x3d384c64	0.044994727
213	0x3d8cbb3e	0.06871651
214	0x3e55d209	0.20880903
215	0xbdeefaca	-0.11668928
216	0xbc5256c5	-0.01283807
217	0xbd3d62ed	-0.04623692
218	0xbd836adc	-0.06416866
219	0x3dc03ac0	0.09386206
220	0x3ade4e90	0.0016960669
221	0x3dcadcde	0.09905408
222	0x3dba2828	0.090896904
223	0x3da2ded7	0.079526596
224	0x3e022224	0.12708336
225	0xbdfebb81	-0.12438107
226	0x3d924c02	0.071434036
227	0x3d860673	0.06544199
228	0x3e103401	0.14082338
229	0x3dc496e9	0.09599096
230	0x3e537df2	0.20653513
231	0x3dacd300	0.084386826
232	0x3da5d625	0.080974855
233	0xbd7b0c23	-0.06129087
234	0xbe0b4470	-0.13600326
235	0xbc443b69	-0.011977055
236	0x3daf32b1	0.085545905
237	0x3db9cd51	0.09072364
238	0xbd947097	-0.07248037
239	0xbd6221a6	-0.05520787
240	0xbcb32383	-0.02186752
241	0x3d0aa0e3	0.03384484
242	0x3d9034f9	0.07041354
243	0xbd78775f	-0.060660716
244	0x3dd05c19	0.10173816
245	0x3e2e1ca4	0.17003113
246	0xbd8fb1b6	-0.070163175
247	0x3d4313a4	0.047626153
248	0xbcca22da	-0.024674822
249	0x3cf2b4d0	0.029627234
250	0xbd974644	-0.07386449
251	0xbdea5544	-0.114420444
252	0x3deff8da	0.117173865
253	0x3d6e6512	0.058201857
254	0xbd5f5f60	-0.054534316
255	0x3d6862fd	0.056735028

fc3.bias f4 [2]
0	0x3c9cf734	0.019160844
1	0x3b46fbf5	0.003036258
