project3-tennis/models/ddpg_agent1_actor_target.pth (torch_old, 159276 bytes, 6 tensors)

fc1.weight f4 [256, 24]
0.049721025 0.013074499 0.021852437 -0.06263838 -0.13433672 0.05907076 0.02639717 0.014372007
0.00022708137 0.05168667 -0.032047503 -0.05597606 -0.061441705 -0.020330343 0.030008519 -0.002778965
-0.037005413 -0.013688128 -0.007888135 0.026274377 -0.058855098 -0.089781664 0.057516247 -0.01889453
0.00013308489 0.09299594 -0.03221648 0.105924204 -0.020619951 -0.08111757 -0.023698546 0.013168916
-0.012171775 0.029464629 0.05938765 0.042605154 0.007382205 -0.014692523 0.011966805 0.052666157
0.013944773 -0.01800236 -0.039081223 0.08266559 0.1579467 0.12296141 0.0061336616 0.044350453
-0.09516682 0.01865986 0.0547911 0.02097425 -0.021513991 0.14248222 -0.027974281 -0.0329857
-0.009055817 0.026050346 -0.0026936294 -0.034171022 0.034197666 0.049579006 0.01649061 -0.014335698
0.018436793 0.040164966 -0.018457005 -0.019812934 0.024197318 -0.060033526 0.027923604 0.055311125
-0.028976094 -0.017288605 0.007877823 -0.019677375 0.00054136803 0.10509739 0.031697605 -0.026638132
-0.070576124 -0.036211006 -0.017278349 0.0023607027 0.075528175 0.030021152 0.02117023 0.07420892
0.012651322 0.025444549 -0.0488683 0.046154346 0.06223136 -0.0057694917 0.047615033 0.07571386
-0.084816955 -0.08699113 0.05740452 0.08359945 0.013146414 -0.077861585 -0.048340708 0.01136284
-0.076131195 -0.052263428 0.07609203 -0.014975687 0.067896105 0.05618068 0.09807593 0.052335646
0.012451878 -0.00675286 -0.0040088305 -0.0065182215 -0.031471 0.10358186 0.034635898 0.06173696
-0.031052683 0.028338967 -0.058725636 -0.08169934 0.026029723 -0.0010532232 0.019488335 -0.063468985
-0.043895084 0.047287986 -0.01581696 -0.07092099 -0.054641224 -0.0050464994 0.05177856 -0.044945586
-0.014730211 -0.07303069 0.07964811 -0.016510397 -0.00615449 0.104768716 0.08789004 -0.04270757
-0.10840404 0.044689454 0.003155844 -0.0623013 0.06374141 -0.04808878 0.030603413 0.027237412
-0.0043524434 0.011171875 0.017061023 -0.023763504 -0.011483419 0.070969746 -0.0041833315 -0.015527671
-0.06449854 -0.006170287 0.05715348 -0.019769998 0.03888179 0.06584587 0.055098787 0.010996166
-0.03534801 0.0016693425 -0.029022392 0.06511946 0.008149468 0.006300607 -0.0011110776 0.019305842
-0.049261652 0.045849264 -0.058290448 0.022536334 -0.027470566 0.031058026 -0.044878382 0.030043874
-0.045603175 0.024544293 -0.032479912 0.06051664 0.0123676825 0.03288997 0.04406823 0.041027643
-0.089374036 0.04318161 0.07776246 0.07671289 0.017920192 -0.063951224 0.08021591 0.05134787
-0.008465919 0.024406383 0.024812385 -0.019619662 0.016011905 0.029728541 0.045026653 0.0051231603
0.017692542 -0.029685836 0.032915294 0.028477604 -0.06123783 0.14804584 -0.044768892 -0.037795734
0.00035732656 0.046248134 -0.01619932 0.051826116 -0.013452426 0.042578444 -0.024374561 0.06941531
-0.06926666 0.009045852 0.032734744 -0.008338046 -0.03710117 0.069249354 -0.012535014 -0.078638196
0.004155251 -0.038107127 -0.057732563 0.010819711 -0.07348215 0.020920983 0.039220974 -0.015301672
-0.04607203 -0.00045419784 0.017155778 -0.031550843 0.061441302 0.043819536 -0.025222749 0.024220625
-0.0043929745 0.012399074 0.03051855 0.028059024 0.17618078 -0.00024005266 -0.01084616 0.049543135
00000000: 46a8 4b3d 6c36 563c e203 b33c 8d48 80bd
00000010: 918f 09be 2ef4 713d e13e d83c 9178 6b3c
00000020: b11c 6e39 67b5 533d 3e44 03bd 2747 65bd
00000030: 4caa 7bbd d28b a6bc 6dd4 f53c 4c1f 36bb
00000040: fd92 17bd 2c44 60bc 3c3d 01bc 5d3d d73c
00000050: 0b12 71bd 73df b7bd 2896 6b3d b4c8 9abc
00000060: b48c 0b39 a874 be3d 6df5 03bd caee d83d
00000070: 2ceb a8bc f820 a6bd 7423 c2bc 70c2 573c
00000080: 206c 47bc ce5f f13c 7740 733d be82 2e3d
00000090: 6de6 f13b e8b8 70bc 6b10 443c 78b8 573d
000000a0: 9e78 643c af79 93bc a213 20bd 944c a93d
000000b0: c8bc 213e 31d3 fb3d e2fc c83b d2a8 353d
000000c0: d2e6 c2bd 90dc 983c a26c 603d 31d2 ab3c
000000d0: 1c3e b0bc dce6 113e 522a e5bc 031c 07bd
000000e0: d95e 14bc 8967 d53c 9a87 30bb eaf6 0bbd
000000f0: da12 0c3d 5b13 4b3d 5117 873c 47e0 6abc
00000100: c208 973c 0584 243d 2533 97bc bc4e a2bc
00000110: 7439 c63c b7e5 75bd 0bc0 e43c eb8d 623d
00000120: 465f edbc d5a0 8dbc fc11 013c 7232 a1bc
00000130: 98ea 0d3a 4d3d d73d 59d5 013d 3638 dabc
00000140: 378a 90bd fe51 14bd 538b 8dbc 05b6 1a3b
00000150: 84ae 9a3d ebee f53c 316d ad3c d9fa 973d
00000160: 7e47 4f3c 1671 d03c 202a 48bd 570c 3d3d
00000170: 4fe6 7e3d 010e bdbb fb07 433d de0f 9b3d
00000180: 83b4 adbd 6828 b2bd 0121 6b3d 3036 ab3d
00000190: 0f64 573c e575 9fbd e800 46bd 352b 3a3c
000001a0: acea 9bbd 2d12 56bd 23d6 9b3d 955c 75bc
000001b0: 1d0d 8b3d b61d 663d 08dc c83d e75d 563d
000001c0: f602 4c3c 1847 ddbb 825c 83bb ce96 d5bb
000001d0: bce7 00bd ba22 d43d 5fde 0d3d e5df 7c3d
000001e0: 3262 febc 1f27 e83c 4b8a 70bd fc51 a7bd
000001f0: 493c d53c 4e0c 8aba 00a6 9f3c 07fc 81bd
00000200: 55cb 33bd 0cb1 413d 9292 81bc 063f 91bd
00000210: 7acf 5fbd 1b5d a5bb c115 543d dd18 38bd
00000220: fc56 71bc 1d91 95bd 8c1e a33d d040 87bc
00000230: 9bab c9bb fb90 d63d b1ff b33d 22ee 2ebd
00000240: f002 debd 4a0c 373d 47d2 4e3b a62f 7fbd
00000250: db8a 823d bef8 44bd 02b4 fa3c fe20 df3c
00000260: f19e 8ebb 3d0a 373c 8fc3 8b3c aeab c2bc
00000270: f324 3cbc 9658 913d 5414 89bb c667 7ebc
00000280: cf17 84bd 1e30 cabb c419 6a3d b1f4 a1bc
00000290: 8342 1f3d 33da 863d 44af 613d 4329 343c
000002a0: 13c9 10bd d7cd da3a 5ec0 edbc 5a5d 853d
000002b0: 5985 053c 5375 ce3b 94a1 91ba 4927 9e3c
000002c0: 96c6 49bd 70cc 3b3d f7c1 6ebd 1e9e b83c
000002d0: f409 e1bc 676d fe3c 65d2 37bd 921e f63c
000002e0: 65ca 3abd 1d11 c93c a809 05bd 4ce0 773d
000002f0: d2a1 4a3c a2b7 063d e380 343d 9a0c 283d
00000300: bc09 b7bd 33df 303d ed41 9f3d a61b 9d3d
00000310: 5ecd 923c dcf8 82bd 3d48 a43d 2552 523d
00000320: a3b4 0abc e5ef c73c 5843 cb3c 6ab9 a0bc
00000330: 662b 833c 4589 f33c de6d 383d 2fe0 a73b
00000340: f3ef 903c b62f f3bc 30d2 063d dd49 e93c
00000350: 85d4 7abd 5499 173e 965f 37bd b3cf 1abd
00000360: 8f57 bb39 af6e 3d3d 70b4 84bc 9f47 543d
00000370: 9067 5cbc bc66 2e3d 29ad c7bc 9d29 8e3d
00000380: aedb 8dbd 0e35 143c de14 063d 4d9c 08bc
00000390: 65f7 17bd 9bd2 8d3d a95f 4dbc 100d a1bd
000003a0: c628 883b 3816 1cbd fb78 6cbd 2845 313c
000003b0: cf7d 96bd 7b62 ab3c 2ca6 203d ddb3 7abc
000003c0: 06b6 3cbd 6721 eeb9 468a 8c3c 753b 01bd
000003d0: e0a9 7b3d 1d7c 333d f09f cebc 556a c63c
000003e0: f1f2 8fbb 7c25 4b3c 0a02 fa3c 0adc e53c
000003f0: bc68 343e a5b6 7bb9 18b4 31bc beed 4a3d

fc1.bias f4 [256]
-0.06287264 0.12315935 0.120918475 0.13147831 -0.012655534 -0.15825523 -0.16960856 0.05800596
-0.16272205 -0.13982514 0.15841304 -0.0938301 0.08530469 -0.13294522 0.06411503 0.1737346
0.074106656 0.06567118 -0.11563806 -0.08550281 0.1455327 -0.17250754 -0.0036650407 -0.1441247
0.019898785 -0.1773973 0.0272935 0.033793427 -0.08875041 -0.07495165 -0.07953035 -0.06451447
-0.013511649 0.03883387 -0.08872843 0.08444794 -0.13993056 0.21577008 -0.09564486 0.11445083
-0.1446118 -0.12678075 0.03783295 -0.078262605 -0.053050827 -0.034433737 -0.031833567 -0.16363548
0.21731229 0.13328245 -0.03509808 0.16861393 -0.09210983 -0.15479177 0.064182706 -0.078621015
0.16722468 -0.025151432 -0.20370431 0.17171267 0.07669849 0.035085093 0.0068797227 -0.13775693
0.030578056 0.033804268 -0.08663632 0.12385685 -0.21369293 -0.1527224 -0.0025807526 -0.22661622
-0.20625326 -0.084017284 -0.00787309 0.22625947 0.08943143 0.20976588 0.046374314 0.06522511
-0.044619985 -0.06970292 -0.20561859 -0.19012761 0.11864466 -0.12260705 -0.107895926 0.09755614
-0.14645922 0.08529513 0.03291254 0.045557488 -0.07266703 0.14328341 -0.17078976 -0.17207757
0.17895323 -0.072351396 0.23213537 0.13086264 0.10221908 -0.00012845271 0.05912596 0.057419028
-0.08058946 0.16363215 0.09235748 0.0075232727 0.07668439 -0.04668722 -0.0155866705 -0.15827914
-0.059107456 -0.14970262 -0.030192792 0.14457202 0.20533675 -0.16591777 -0.1622476 0.18346901
-0.05369463 -0.005808572 0.13264683 0.21807949 0.07679394 0.08160813 0.004118279 0.07127127
0.08814776 -0.19234724 -0.17637302 0.13586017 -0.18309104 0.1330577 0.15321253 0.102568634
0.054320708 0.040835425 0.10958875 0.105619565 0.03234503 -0.12888536 0.16334893 0.055160202
0.14845939 -0.08366845 -0.10106369 -0.090924084 0.05022437 0.21657677 0.0648102 0.180464
0.19902587 -0.13802671 0.23066272 0.032742508 0.21290886 0.032422446 0.007802272 0.16603273
-0.1867177 0.019661834 0.012715274 -0.009841276 -0.019347226 0.18022299 -0.02265946 0.12699084
0.101977274 0.21201189 0.09231518 -0.21992612 -0.19914976 -0.19574174 -0.17226154 -0.10638268
0.04490668 0.21504503 -0.09500931 0.12004695 -0.10203849 0.16491367 0.14609545 0.11061928
0.20958012 -0.12865952 -0.15004022 -0.052916136 0.06491614 0.20146528 0.10957679 0.079363525
-0.011156761 -0.09579124 0.21970314 -0.15726057 -0.16974609 0.08389232 0.17320168 0.072185315
0.035794437 -0.04242955 0.020038925 -0.09011963 0.22587962 0.19828041 -0.06555552 0.1688798
-0.016732594 -0.18892367 0.027940266 -0.02254105 0.17679405 0.014384492 -0.07588787 -0.16386455
0.1640504 0.1669801 0.038413905 -0.02939538 -0.043981567 0.058001768 0.20046234 -0.011675295
0.054175034 -0.20245679 0.09098502 -0.06944499 -0.026719863 -0.035079606 0.21240158 0.17168222
-0.06850578 -0.028981196 0.096102424 0.08213885 -0.08712104 0.089554116 0.03123735 0.16289246
-0.09361247 -0.13027446 0.12712598 0.01253891 -0.043854635 0.18858077 0.02636797 -0.15597397
0.0044413693 -0.07599791 -0.09992859 -0.14483394 0.17801037 0.19487077 -0.1852824 0.17391567
00000000: 5fc3 80bd f83a fc3d 1ba4 f73d 40a2 063e
00000010: 2859 4fbc a90d 22be dead 2dbe a897 6d3d
00000020: 9ca0 26be 522e 0fbe 0737 223e ff29 c0bd
00000030: 3ab4 ae3d cb22 08be be4e 833d 7ce7 313e
00000040: 3bc5 973d 9d7e 863d a6d3 ecbd 191c afbd
00000050: 8606 153e d1a5 30be 2e31 70bb 6d95 13be
00000060: c702 a33c a3a7 35be 9e96 df3c fa6a 0a3d
00000070: c6c2 b5bd 4080 99bd cfe0 a2bd 2a20 84bd
00000080: f75f 5dbc 4410 1f3d 40b7 b5bd 0bf3 ac3d
00000090: f549 0fbe d5f2 5c3e 74e1 c3bd 3265 ea3d
000000a0: 1e15 14be d0d2 01be b9f6 1a3d 2548 a0bd
000000b0: d34b 59bd 640a 0dbd ea63 02bd 0f90 27be
000000c0: 1d87 5e3e 327b 083e 01c3 0fbd 21a9 2c3e
000000d0: 14a4 bcbd bc81 1ebe 3972 833d 0e04 a1bd
000000e0: f23c 2b3e 600a cebc dd97 50be 72d5 2f3e
000000f0: 1914 9d3d 63b5 0f3d 4c6f e13b 2710 0dbe
00000100: d57e fa3c 5876 0a3d 626e b1bd a9a8 fd3d
00000110: 52d2 5abe 4363 1cbe d821 29bb 150e 68be
00000120: 0e34 53be 4111 acbd 22fe 00bc 90b0 673e
00000130: d327 b73d decc 563e fef2 3d3d be94 853d
00000140: 72c3 36bd 68c0 8ebd ae8d 52be d0b0 42be
00000150: f9fb f23d 6819 fbbd 8af8 dcbd 83cb c73d
00000160: 68f9 15be 37af ae3d 4dcf 063d 7d9a 3a3d
00000170: 74d2 94bd e3b8 123e 83e3 2ebe 1a35 30be
00000180: 843f 373e f82c 94bd e5b4 6d3e db00 063e
00000190: 3d58 d13d 43b1 06b9 102e 723d 3730 6b3d
000001a0: 160c a5bd 308f 273e eb25 bd3d c985 f63b
000001b0: b50c 9d3d 193b 3fbd 3c5f 7fbc ed13 22be
000001c0: a91a 72bd a54b 19be e056 f7bc b00a 143e
000001d0: cc43 523e 59e6 29be 3c24 26be 4ddf 3b3e
000001e0: e6ee 5bbd d555 bebb 92d4 073e 3b50 5f3e
000001f0: 2446 9d3d 2a22 a73d a1f2 863b acf6 913d
00000200: d086 b43d adf6 44be 219b 34be ee1e 0b3e
00000210: 387c 3bbe 4740 083e bfe3 1c3e 810f d23d
00000220: 647f 5e3d 0c43 273d 1170 e03d 124f d83d
00000230: 397c 043d 86fa 03be f144 273e aaef 613d
00000240: bd05 183e 5d5a abbd 7bfa cebd 6836 babd
00000250: 12b8 4d3d 4dc6 5d3e 36bb 843d 8ecb 383e
00000260: 70cd 4b3e e056 0dbe d932 6c3e 021d 063d
00000270: c804 5a3e 66cd 043d 34aa ff3b 7c04 2a3e
00000280: ed32 3fbe db11 a13c b953 503c 4e3d 21bc
00000290: 137e 9ebc 608c 383e 55a0 b9bc e309 023e
000002a0: 76d9 d03d a519 593e be0f bd3d 5034 61be
000002b0: eaed 4bbe 8670 48be 5465 30be 2adf d9bd
000002c0: 11f0 373d c434 5c3e 3e94 c2bd 2ddb f53d
000002d0: 8ef9 d0bd 21df 283e 0c9a 153e 5c8c e23d
000002e0: 2c9c 563e 52bf 03be 25a4 19be 97be 58bd
000002f0: c1f2 843d ea4c 4e3e cc69 e03d 5889 a23d
00000300: d9ca 36bc 332e c4bd dcf9 603e ea08 21be
00000310: ebd1 2dbe bdcf ab3d c85b 313e e5d5 933d
00000320: 309d 123d 9cca 2dbd ac28 a43c a490 b8bd
00000330: fd4c 673e 050a 4b3e f941 86bd d4ee 2c3e
00000340: cb12 89bc 3575 41be fce2 e43c 02a8 b8bc
00000350: 8009 353e efac 6b3c 196b 9bbd 1ccc 27be
00000360: d4fc 273e d5fc 2a3e e657 1d3d 94ce f0bc
00000370: 0426 34bd 4393 6d3d 0046 4d3e bd49 3fbc
00000380: a4e6 5d3d d550 4fbe 5b56 ba3d 2d39 8ebd
00000390: 9de3 dabc a2af 0fbd cd7f 593e 77cd 2f3e
000003a0: c24c 8cbd f969 edbc 59d1 c43d 6a38 a83d
000003b0: 846c b2bd 2668 b73d 79e5 ff3c 48cd 263e
000003c0: e5b7 bfbd ab66 05be 502d 023e 0070 4d3c
000003d0: eba0 33bd 511b 413e a401 d83c a4b7 1fbe
000003e0: e888 913b cba4 9bbd 5ca7 ccbd 594f 14be
000003f0: 5a48 363e 348c 473e abba 3dbe f316 323e

fc2.weight f4 [128, 256]
-0.025510687 -0.17974202 0.039326213 0.006049916 0.03298384 0.013766624 0.020533042 0.08227952
-0.047445737 0.046700615 -0.15120006 -0.070971414 0.03742782 -0.0468646 0.02467056 0.057950344
0.057049133 -0.048743173 0.04237767 -0.09031673 -0.037466872 0.102970354 0.071100265 0.0924268
-0.02781372 -0.09807553 -0.06643284 -0.05352549 0.021429202 -0.067052595 0.048229117 -0.25050825
0.088676795 0.07648091 0.12001258 0.0025074335 0.07106057 -0.04858753 0.04320865 0.1200908
-0.012643015 -0.11807249 0.013584649 -0.08142961 0.036249578 0.08869118 0.10234839 -0.0027918979
0.057529442 0.01681719 -0.023709219 -0.06465766 -0.0012350531 -0.09039574 0.044641763 -0.04609754
0.04079203 0.024694616 -0.13358444 -0.03385728 -0.14931092 0.07617674 0.035274222 0.035162516
-0.0024513893 0.025785416 0.046964534 0.076390296 -0.06182355 0.073829584 0.023573583 -0.0841253
-0.08675651 0.047817107 -0.009641796 0.0042272736 -0.010005932 -0.063714646 -0.009378403 -0.046491902
-0.021774374 -0.03812514 -0.005561197 0.11929055 0.05464829 0.024037864 -0.091404006 -0.0032359522
-0.10897397 0.009759818 0.10772641 -0.05843315 -0.014137767 0.018140666 -0.024291327 0.033856284
0.06809413 -0.1873997 0.088250466 -0.053142488 -0.007376501 0.09122675 -0.076995134 0.0067871907
0.10978122 -0.032644637 -0.12370121 0.11472918 0.01360263 0.06252648 -0.14263788 0.04218646
0.011722826 -0.070781946 -0.03981533 0.04932419 0.064262934 -0.058789104 -0.10460893 0.11396361
0.02549566 -0.06508428 0.0084113 0.04535787 -0.012030603 0.103006504 -0.031600844 0.053640433
-0.10892547 0.07189877 0.08468097 0.048702825 0.040841427 0.11743726 0.103973866 -0.10465055
0.04062293 -0.051311295 -0.009758742 -0.07784892 0.0026714066 0.042333964 0.0692076 0.0048352666
0.031485237 0.02880441 -0.10420764 0.057809945 -0.038564816 0.08111145 0.081013106 -0.09456283
-0.0539292 -0.13734753 0.065830395 0.07772748 0.04393855 -0.008317977 0.112926945 0.11732597
0.046500586 -0.053998753 0.10284273 0.028191961 0.10136091 -0.051124886 0.008756412 -0.01726208
0.018903846 0.03137427 -0.04900317 -0.106841415 -0.16495085 0.030651048 0.006225356 0.0075162295
0.047869943 -0.13122042 -0.024558693 -0.07961647 0.008906036 0.024101954 0.1072727 -0.020764345
0.04879519 -0.045181338 0.068677396 -0.0011940724 0.060570262 0.07306672 -0.24336454 -0.022585625
-0.09379056 0.04545703 -0.040421423 -0.036640752 -0.10516945 -0.046179786 0.103459895 0.053065892
0.04355737 -0.053479508 -0.008187594 0.08818045 0.07468737 0.20285863 -0.10500734 0.103959255
-0.011873379 0.0041847555 -0.016907807 0.013826941 0.09880233 0.045616217 0.14559685 -0.08025868
0.051213082 0.074387446 -0.18411183 -0.08254993 -0.024787156 0.04132548 0.004702927 0.10942472
0.03031231 -0.09492836 -0.021244815 0.13160752 -0.023566429 -0.1284339 0.020501127 0.101021685
0.028200593 -0.05436916 -0.042759337 0.041200828 0.010643242 0.04936742 0.033701643 -0.01428105
0.017742908 -0.11310171 0.002701682 -0.036883093 -0.10376177 0.11509475 0.11707757 -0.16393736
0.051615667 -0.026013004 -0.048822127 0.029231066 -0.011903044 -0.0018805319 0.025112946 -0.04060776
00000000: cafb d0bc 4b0e 38be 8614 213d 603e c63b
00000010: 101a 073d 688d 613c e934 a83c 2a82 a83d
00000020: 7656 42bd 2549 3f3d 30d4 1abe 7659 91bd
00000030: ea4d 193d 18f5 3fbd ea19 ca3c 575d 6d3d
00000040: 5aac 693d eca6 47bd 3594 2d3d faf7 b8bd
00000050: dd76 19bd 1fe2 d23d 049d 913d 434a bd3d
00000060: 99d9 e3bc d3db c8bd f10d 88bd 8b3d 5bbd
00000070: 4b8c af3c df52 89bd e58b 453d 9e42 80be
00000080: 2e9c b53d 06a2 9c3d 28c9 f53d c153 243b
00000090: 3488 913d b803 47bd 8efb 303d 2af2 f53d
000000a0: a624 4fbc fdcf f1bd 2692 5e3c 91c4 a6bd
000000b0: 707a 143d b9a3 b53d 089c d13d 46f8 36bb
000000c0: fea3 6b3d 34c4 893c d639 c2bc 3c6b 84bd
000000d0: 81e1 a1ba 6721 b9bd 48da 363d c6d0 3cbd
000000e0: 8b15 273d 5d4c ca3c 5cca 08be eead 0abd
000000f0: f6e4 18be 8d02 9c3d b47b 103d 9206 103d
00000100: 7da7 20bb f03b d33c e25d 403d 8472 9c3d
00000110: b13a 7dbd f733 973d 631d c13c e349 acbd
00000120: 66ad b1bd dfdb 433d a0f8 1dbc f184 8a3b
00000130: ecef 23bc d37c 82bd e0a7 19bc 4b6e 3ebd
00000140: 2c60 b2bc 1b29 1cbd b43a b6bb 9b4e f43d
00000150: e3d6 5f3d 0eeb c43c 0632 bbbd 4512 54bb
00000160: bf2d dfbd a5e7 1f3c aa9f dc3d 9957 6fbd
00000170: 18a2 67bc bc9b 943c 9bfe c6bc e3ac 0a3d
00000180: ef74 8b3d b5e5 3fbe a9bc b43d f0ab 59bd
00000190: 93b6 f1bb 17d5 ba3d a0af 9dbd 1567 de3b
000001a0: fad4 e03d 62b6 05bd 0f57 fdbd 22f7 ea3d
000001b0: 91dd 5e3c e20d 803d aa0f 12be b6cb 2c3d
000001c0: 1911 403c 20f6 90bd 6615 23bd 2908 4a3d
000001d0: 499c 833d d8cc 70bd 353d d6bd c165 e93d
000001e0: 46dc d03c e84a 85bd 8dcf 093c 2dc9 393d
000001f0: 021c 45bc 13f5 d23d e36f 01bd 12b6 5b3d
00000200: 5114 dfbd aa3f 933d 376d ad3d 9d7c 473d
00000210: 5749 273d f282 f03d 40f0 d43d 0753 d6bd
00000220: 3b64 263d cb2b 52bd 21e3 1fbc 416f 9fbd
00000230: c412 2f3b 6166 2d3d b7bc 8d3d 2871 9e3b
00000240: aaf6 003d 3af7 eb3c d16a d5bd 1fca 6c3d
00000250: 24f6 1dbd c31d a63d 33ea a53d 28aa c1bd
00000260: dde4 5cbd d5a4 0cbe 16d2 863d 962f 9f3d
00000270: e9f8 333d 2048 08bc 3e46 e73d 9948 f03d
00000280: 6677 3e3d cc2d 5dbd 369f d23d d4f2 e63c
00000290: 4f96 cf3d 5468 51bd 0e77 0f3c 3569 8dbc
000002a0: 3ddc 9a3c 4e82 003d 8cb7 48bd accf dabd
000002b0: e0e8 28be e817 fb3c 12fe cb3b b44a f63b
000002c0: 4613 443d a55e 06be 502f c9bc f60d a3bd
000002d0: 9fea 113c 7671 c53c cab1 db3d fd19 aabc
000002e0: 77dd 473d 1110 39bd bca6 8c3d 6c82 9cba
000002f0: 8618 783d 01a4 953d 8e34 79be 7d05 b9bc
00000300: 4415 c0bd 2731 3a3d ef90 25bd 9d14 16bd
00000310: 1563 d7bd 0427 3dbd c8e2 d33d 9f5b 593d
00000320: 3669 323d 540d 5bbd 4225 06bc f497 b43d
00000330: b1f5 983d 2cba 4f3e 170e d7bd 97e8 d43d
00000340: 9088 42bc 4620 893b 3e82 8abc 658a 623c
00000350: e058 ca3d 12d8 3a3d 5717 153e aa5e a4bd
00000360: cfc4 513d 7258 983d d087 3cbe f00f a9bd
00000370: 6f0e cbbc e844 293d 031b 9a3b 111a e03d
00000380: 8651 f83c cd69 c2bd 9b09 aebc 1fc4 063e
00000390: 620e c1bc 2d84 03be fbf1 a73c 75e4 ce3d
000003a0: ee04 e73c 32b2 5ebd 6a24 2fbd 33c2 283d
000003b0: fe60 2e3c 7e35 4a3d bc0a 0a3d 11fb 69bc
000003c0: 9359 913c dfa1 e7bd b40e 313b ba12 17bd
000003d0: 0d81 d4bd ccb6 eb3d 5dc6 ef3d 32df 27be
000003e0: f36a 533d 3919 d5bc b6f9 47bd fd75 ef3c
000003f0: fc04 43bc 2e7c f6ba aab9 cd3c 5354 26bd

fc2.bias f4 [128]
0.09284304 0.021605982 -0.0366111 -0.010620769 0.044617806 0.04635318 0.008112757 -0.0384797
0.032358684 0.058728863 0.05834729 0.06382426 -0.021492131 -0.029281251 -0.017607035 0.011212353
-0.045786235 0.02140056 -0.019491998 0.01391775 -0.028440034 -0.005768343 0.05277543 0.019257784
0.07361072 0.013862371 -0.042604607 0.05807043 0.02430141 -0.013963691 0.030115789 0.04790299
-0.043540247 -0.023201805 -0.052861508 -0.0016657932 0.047223266 0.027264662 0.029725181 -0.021364689
0.027237432 0.086452916 0.029698068 0.04730626 0.057155795 -0.0066003096 -0.023200393 0.050402567
0.0015978342 -0.030018736 -0.03944789 -0.039962336 -0.0031674 0.039130118 -0.009891789 0.07169052
0.003885053 0.05975075 0.0074632894 0.059336387 -0.02198119 -0.018088862 -0.04265163 0.038908105
0.044469006 0.06500058 -0.016683556 -0.0076479106 -0.036383223 0.041225713 0.021496134 -0.028772404
0.0425043 -0.0017206171 0.04565305 0.064443365 -0.038519807 0.056046862 -0.016897669 -0.04491435
0.02237923 -0.010563356 0.020323766 -0.0328195 0.01989484 0.021729778 -0.059790798 -0.019219022
0.0516984 -0.02507869 0.05853503 0.071998425 0.005574286 -0.004043347 0.025434347 0.009124337
0.06526685 0.043667816 0.044330303 0.02949831 0.057662956 0.03829073 -0.024231246 0.034073707
-0.042635407 -0.018282738 0.021237636 0.022580871 0.011931261 0.062407807 -0.009824189 -0.03687404
0.0020370777 0.07090516 0.035990674 0.046879932 0.0020273325 -0.015189046 0.05503143 0.0055709234
0.049310546 0.0649027 0.051643617 0.007884794 0.0137121035 0.047343533 0.06402451 -0.011118034
00000000: 7e24 be3d 07ff b03c 85f5 15bd bc02 2ebc
00000010: 29c1 363d d5dc 3d3d 5eeb 043c e49c 1dbd
00000020: 8a8a 043d ad8d 703d 91fd 6e3d 4bb6 823d
00000030: 4410 b0bc 3cdf efbc a13c 90bc 04b4 373c
00000040: 598a 3bbd 3a50 af3c afad 9fbc 4607 643c
00000050: 13fb e8bc 5e04 bdbb 0d2b 583d 80c2 9d3c
00000060: 38c1 963d 001f 633c 2b82 2ebd 42db 6d3d
00000070: c013 c73c f7c7 64bc 63b5 f63c ed35 443d
00000080: 4257 32bd b611 bebc 4f85 58bd bf56 daba
00000090: 2f6d 413d 245a df3c 3982 f33c 0005 afbc
000000a0: 0921 df3c 3a0e b13d 5d49 f33c 35c4 413d
000000b0: 321c 6a3d 6947 d8bb c00e bebc ec72 4e3d
000000c0: 6b6e d13a dae9 f5bc 1c94 21bd 8caf 23bd
000000d0: 2794 4fbb e746 203d 2c11 22bc 7bd2 923d
000000e0: 609c 7e3b 34bd 743d 9c8e f43b b60a 733d
000000f0: e611 b4bc 182f 94bc 7ab3 2ebd 1b5e 1f3d
00000100: 2225 363d 061f 853d f4ab 88bc 539b fabb
00000110: 9306 15bd 4bdc 283d a918 b03c 1bb4 ebbc
00000120: fd18 2e3d 5486 e1ba b1fe 3a3d e2fa 833d
00000130: f2c6 1dbd 6591 653d fb6c 8abc 1cf8 37bd
00000140: a654 b73c ed11 2dbc 077e a63c bd6d 06bd
00000150: 81fa a23c a602 b23c 32e7 74bd 3671 9dbc
00000160: b4c1 533d d371 cdbc 6dc2 6f3d e973 933d
00000170: 80a8 b63b 0e7e 84bb b15b d03c 3e7e 153c
00000180: a0aa 853d 06dd 323d b193 353d 71a6 f13c
00000190: fe2f 6c3d bed6 1c3d 9b80 c6bc df90 0b3d
000001a0: 77a2 2ebd aec5 95bc 8dfa ad3c 85fb b83c
000001b0: 567b 433c 549f 7f3d a3f5 20bc 3c09 17bd
000001c0: 7e80 053b b936 913d f56a 133d 2c05 403d
000001d0: ffdc 043b 7adb 78bc a368 613d 4b8c b63b
000001e0: dbf9 493d b5eb 843d 4288 533d 392f 013c
000001f0: bba8 603c 4beb 413d 481f 833d 6a28 36bc

fc3.weight f4 [2, 128]
0.11210614 0.033630017 0.07242172 -0.16599813 -0.04177881 -0.06422453 0.104667984 -0.073277265
0.07307579 0.03965153 0.23112984 0.13608365 -0.047988065 -0.15600984 -0.049572926 0.101224676
0.0010064746 0.073969126 0.025954435 0.07963021 0.06348861 -0.0069416882 0.104783565 0.091253445
-0.06154026 -0.0738889 -0.050319605 0.037561823 0.07802483 -0.045319024 -0.07629279 -0.032477483
0.045686267 0.060989957 0.057698954 -0.06782047 0.067209855 0.034165945 0.112398304 0.094238654
0.057572335 0.13481724 -0.08548137 -0.07210783 -0.044779893 0.11384587 -0.06708435 -0.08629101
0.02061545 0.05283553 0.09502657 0.019897709 0.07377399 0.037562888 -0.08183641 0.06390411
0.09699873 -0.07252362 -0.05167261 0.07294889 0.10302624 0.06482742 0.10024167 0.074429885
0.08532893 0.10169179 -0.09416438 -0.060657613 -0.08629722 0.019251907 0.057105575 -0.042551517
0.08874645 -0.09422712 -0.10619769 0.09132789 -0.05803884 0.05480071 0.07857468 -0.1070533
0.0784538 -0.07420795 -0.048279516 0.115858704 0.061762955 0.07112836 0.17331046 -0.024183821
0.08183288 -0.06654279 -0.08519663 0.0118178595 0.0012813103 0.0074969125 0.058919776 0.070682265
0.044365726 0.040794894 0.031228917 0.10670407 0.09688988 0.0150570115 0.06921745 0.06013239
0.052076444 -0.047254138 0.042529557 0.09236247 0.04819173 0.08496959 -0.024445496 -0.07798863
-0.06600762 -0.08072208 -0.3085901 -0.038040362 0.088596284 -0.032737434 -0.035294805 -0.121823646
-0.0639836 0.06935872 -0.08535619 -0.0016017894 0.018678512 0.07183408 -0.085464425 -0.09597798
-0.11533493 0.1689374 0.09369275 0.07781179 -0.094661266 -0.06921027 -0.03397998 -0.045480866
-0.08033563 0.07015018 0.19209121 -0.16940895 -0.036153466 0.20619188 -0.03802803 0.36447114
0.13792643 0.09910311 0.064520724 -0.12452938 0.050923795 0.28027943 -0.1334923 0.10631454
-0.047504015 -0.04562394 -0.048291676 -0.14014736 0.08645018 -0.084348686 -0.027855983 -0.0982106
0.09730485 0.12129929 0.128557 0.057865735 0.0058685024 0.11082462 0.074368194 -0.04060993
0.050898302 -0.06686792 -0.0326235 0.06610338 -0.05069618 0.14286087 -0.038091857 0.024125505
-0.14485066 0.21562454 0.09127137 0.31680906 0.13216768 0.11358695 -0.010830579 0.0007627984
0.2060131 -0.0395938 -0.045591816 0.105621606 -0.029488208 0.055426344 -0.024230253 0.11584533
0.10304903 0.10242691 -0.05619662 -0.040305443 0.0037910116 0.08808098 0.09299856 -0.06286606
0.14975649 0.0029817002 -0.057799153 -0.048141047 -0.037175264 0.11223557 -0.042281397 -0.028932845
-0.04126386 -0.0041701416 -0.07217561 0.12095972 0.045718838 0.06921399 0.2088201 -0.11622538
-0.012842938 -0.045747835 -0.06368514 0.0937525 0.0016960669 0.0990752 0.09052379 0.078963846
0.12691128 -0.12397162 0.071467265 0.06552369 0.14036193 0.096242376 0.20697469 0.08373491
0.080794044 -0.06067972 -0.13574572 -0.011740363 0.08568887 0.09034254 -0.07201388 -0.054648753
-0.02136623 0.03397248 0.07109399 -0.06007053 0.10122244 0.17065178 -0.06953948 0.047742203
-0.02419313 0.03020707 -0.07339766 -0.11377206 0.11704615 0.05860878 -0.054256804 0.056667875
00000000: e797 e53d a1bf 093d d751 943d 6afb 29be
00000010: 4220 2bbd 2688 83bd 2b5c d63d 6412 96bd
00000020: c3a8 953d a569 223d 4dad 6c3e 8359 0b3e
00000030: 228f 44bd 0bc1 1fbe fb0c 4bbd e24e cf3d
00000040: afeb 833a 207d 973d 659e d43c 2a15 a33d
00000050: 5106 823d 1a77 e3bb c498 d63d 16e3 ba3d
00000060: a411 7cbd 1053 97bd ee1b 4ebd 6dda 193d
00000070: 7bcb 9f3d 71a0 39bd 653f 9cbd 1c07 05bd
00000080: 8621 3b3d 9bd0 793d bd55 6c3d 75e5 8abd
00000090: 52a5 893d 97f1 0b3d 1531 e63d 3200 c13d
000000a0: f8d0 6b3d 880d 0a3e db10 afbd 45ad 93bd
000000b0: 1f6b 37bd 0628 e93d 8563 89bd 57b9 b0bd
000000c0: bbe1 a83c 126a 583d 4a9d c23d 8500 a33c
000000d0: d116 973d 8bdb 193d d999 a7bd 28e0 823d
000000e0: 45a7 c63d 4487 94bd a9a6 53bd 3a66 953d
000000f0: 6cff d23d 3dc4 843d 814b cd3d b26e 983d
00000100: efc0 ae3d c943 d03d 41d9 c0bd 1e74 78bd
00000110: 99bc b0bd 2db6 9d3c 89e7 693d 804a 2ebd
00000120: b3c0 b53d 26fa c0bd 2d7e d9bd 1e0a bb3d
00000130: 22ba 6dbd b676 603d c3eb a03d c33e dbbd
00000140: 63ac a03d 56fa 97bd bec0 45bd 5447 ed3d
00000150: 27fb 7c3d bfab 913d 4c78 313e 261d c6bc
00000160: ff97 a73d 9647 88bd 927b aebd b29f 413c
00000170: a4f1 a73a a9a8 f53b dd55 713d ddc1 903d
00000180: d6b8 353d 8c18 273d c9d3 ff3c aa87 da3d
00000190: 346e c63d afb1 763c e1c1 8d3d 624d 763d
000001a0: 1c4e 553d 8e8d 41bd 7933 2e3d 8928 bd3d
000001b0: b164 453d 8904 ae3d ec41 c8bc 81b8 9fbd
000001c0: 012f 87bd 9e51 a5bd 86ff 9dbe 36d0 1bbd
000001d0: f871 b53d b017 06bd 4991 10bd ad7e f9bd
000001e0: d509 83bd f20b 8e3d 3acf aebd 22f3 d1ba
000001f0: ae03 993c bf1d 933d f907 afbd 1a90 c4bd
00000200: b834 ecbd edfd 2c3e fce1 bf3d ca5b 9f3d
00000210: c4dd c1bd 1dbe 8dbd 972e 0bbd 254a 3abd
00000220: 0287 a4bd e6aa 8f3d 8fb3 443e 8a79 2dbe
00000230: a815 14bd f723 533e 48c3 1bbd f69b ba3e
00000240: 963c 0d3e 92f6 ca3d 7123 843d 4209 ffbd
00000250: 7895 503d c980 8f3e 35b2 08be 70bb d93d
00000260: 9293 42bd 2be0 3abd 7ecd 45bd ca82 0fbe
00000270: cb0c b13d 01bf acbd 3b32 e4bc a422 c9bd
00000280: c447 c73d c36b f83d 72a4 033e 9f04 6d3d
00000290: 914c c03b 05f8 e23d 5a4e 983d 9956 26bd
000002a0: bd7a 503d 0cf2 88bd 38a0 05bd 3561 873d
000002b0: cca6 4fbd 1f4a 123e 3506 1cbd daa2 c53c
000002c0: bb53 14be aecc 5c3e 7cec ba3d cc34 a23e
000002d0: f756 073e 46a0 e83d be72 31bc 89f6 473a
000002e0: 19f5 523e 1c2d 22bd 7cbe 3abd 2450 d83d
000002f0: 4191 f1bc bc06 633d 867e c6bc 5140 ed3d
00000300: 5f0b d33d 33c5 d13d 6d2e 66bd 5217 25bd
00000310: 9f72 783b cd63 b43d 0776 be3d ecbf 80bd
00000320: c459 193e a168 433b cebe 6cbd 8c2f 45bd
00000330: 1745 18bd c3db e53d 422f 2dbd 9304 edbc
00000340: 4b04 29bd afa5 88bb ced0 93bd bbb9 f73d
00000350: ad43 3b3d 10c0 8d3d f0d4 553e 9207 eebd
00000360: 306b 52bc 1562 3bbd 5b6d 82bd 5001 c03d
00000370: 904e de3a f0e7 ca3d 8964 b93d ccb7 a13d
00000380: 08f5 013e d5e4 fdbd 6e5d 923d 4931 863d
00000390: 0abb 0f3e b91a c53d 2cf1 533e 357d ab3d
000003a0: 5977 a53d 4c8b 78bd ed00 0bbe a75a 40bc
000003b0: a57d af3d 8205 b93d 037c 93bd 5fd7 5fbd
000003c0: 3b08 afbc ba26 0b3d ba99 913d 840c 76bd
000003d0: b64d cf3d 57bf 2e3e b76a 8ebd 548d 433d
000003e0: ac30 c6bc d174 f73c 8351 96bd 5301 e9bd
000003f0: e4b5 ef3d c30f 703d 623c 5ebd 931c 683d

fc3.bias f4 [2]
0.019265417 0.003526622
00000000: 82d2 9d3c e61e 673b
