project3-tennis/models/ddpg_agent1_critic_local.pth (torch_old, 159783 bytes, 5 tensors)

fc1.weight f4 [256, 24]
000000 ec 3d 21 bd aa aa a9 bc 42 2b d0 3c 79 4f 22 bd
       -0.039365694 -0.020711262 0.025411252 -0.039626572
000010 ea b7 61 bb 27 bf 5d be 73 26 b7 bc 09 20 e5 3c
       -0.0034441897 -0.2165495 -0.022357201 0.027969377
000020 bd 98 36 bd 95 b3 b9 3b f7 d0 86 bd 17 f2 83 3c
       -0.044579256 0.00566716 -0.06582826 0.016106648
000030 f2 3f 7e 3c cc af cb bd 8d 4f 0b 3d 45 76 c7 3c
       0.015518175 -0.0994564 0.034011412 0.024348387
000040 23 02 8c 3b 36 c1 16 bd 82 03 38 3d 21 20 f2 bb
       0.0042727157 -0.036805354 0.04492522 -0.007389084
000050 17 a3 8f bd 2a f3 36 3e 90 7b 4e bd cd 50 a4 3c
       -0.07013529 0.17866197 -0.050410807 0.02005806
000060 da 30 89 3e 91 2c dd 3d 17 66 05 bc 03 b9 72 bc
       0.26795083 0.10799516 -0.008142016 -0.014814618
000070 3d 8f d7 bd 12 42 17 be 2a a7 15 3d a7 b1 13 bd
       -0.105253674 -0.14771298 0.036536373 -0.036058094
000080 be 9f ba 3c 39 71 f8 bd cd 8d a5 3c 8a 2d e2 3c
       0.02278125 -0.121309705 0.020209217 0.027609605
000090 d3 16 a3 3d 59 00 5e 3d fa b7 81 bc 69 5b d1 3c
       0.07963338 0.05419955 -0.015834797 0.025556283
0000a0 a9 63 5c 3c 38 80 0d be 29 4e d4 bb 1d 6a 92 bd
       0.013451495 -0.13818443 -0.006479044 -0.07149146
0000b0 c4 ca 1f 3e 6a 2c ed 3d 14 33 13 3d 67 81 32 bd
       0.15604693 0.11580737 0.035937384 -0.04358044
0000c0 ab 53 1c 3b a7 4c 9f bc 31 5d f2 bb 05 cb 7e bc
       0.002385358 -0.01944573 -0.007396363 -0.015551333
0000d0 2a be 70 bd 8a 15 2b be 59 e2 63 3c 66 35 0c bb
       -0.058775105 -0.16707435 0.013908946 -0.0021394133
0000e0 8e fc 91 bc 99 37 65 bc 86 ad 20 b9 75 41 8f bd
       -0.017820623 -0.013990306 -0.00015323432 -0.06994907
0000f0 e2 f1 51 3d 17 17 57 be 8e 8a 68 3c d6 31 d8 3b
       0.051256068 -0.21004902 0.01419319 0.006597738
000100 4b 6e 31 3b 53 10 ae bd 8f 2b 25 3d f5 57 d6 3d
       0.0027073796 -0.08499207 0.040324744 0.10465995
000110 d4 72 07 3e b3 01 6e bd 7a 14 9b bc 9b 5e db 3d
       0.13227397 -0.05810709 -0.018930662 0.10711404
000120 47 61 5f 3d b3 3f a7 bc 80 b7 ea 3b 03 2a 28 bc
       0.05453613 -0.020416116 0.007162988 -0.010263923
000130 f1 de b9 bd 12 d4 11 3e a9 76 95 3c 8e 03 23 3c
       -0.09075726 0.14241055 0.018245058 0.009949578
000140 ac 6f 8c 3b dd b2 bf 3c c3 b5 14 bd 4c f5 05 3d
       0.0042857733 0.023400718 -0.036306154 0.032704636
000150 86 96 ec bc 32 06 1e 3d c6 93 e2 3c b5 3a 38 bd
       -0.028880369 0.038580127 0.027658354 -0.044977862
000160 4e 79 29 bd df a0 c8 3b aa 67 9c bc d8 98 34 bc
       -0.04137545 0.006122693 -0.0190924 -0.011022769
000170 6a 0c cb 3d b8 1f d4 bd d2 16 85 bb 21 43 9d bc
       0.09914477 -0.10357612 -0.0040615583 -0.019197049
000180 3d 0e fa 3d 82 d0 d1 bd 02 33 67 bd 67 bd fc 3c
       0.12209747 -0.10244848 -0.05644513 0.030852033
000190 04 ba e7 3b 64 b9 59 3d 94 42 8b 3b bf 33 6c bc
       0.0070717353 0.053155318 0.00424988 -0.014416634
0001a0 82 1e 56 3c 91 51 e7 bc 99 82 c9 bc f3 52 5b bd
       0.013068797 -0.028237136 -0.024598407 -0.053545903
0001b0 2e 4b e3 3d c9 8c 51 3d 85 1c 3e bd dc cb 31 3d
       0.11098324 0.051159654 -0.046413917 0.043407306
0001c0 72 41 fb 3d 75 ef 1c bd 1d 71 33 3b 28 47 62 bd
       0.12268342 -0.0383143 0.0027380653 -0.05524364
0001d0 fd 46 39 3e e8 ce 0b 3d 7b a2 34 3d 3e ee c7 bd
       0.18093486 0.034132868 0.044100266 -0.09762238
0001e0 10 63 d5 3d 1a 21 ab 3d 33 f7 2c 3c 3d 17 a6 3c
       0.10419285 0.08355923 0.010556984 0.020274753
0001f0 f3 d6 47 3e d9 e3 0b bd 7f 13 f8 bc c7 c5 ac bc
       0.1951559 -0.03415284 -0.030282734 -0.021090401
000200 d7 ae ae 3d 68 5c 0a bd 2d 21 7c 3c 5b bd 2d 3c
       0.08529442 -0.03377953 0.015388769 0.010604228
000210 68 ad ce 3d a0 f9 be 3c 48 1f 19 bc 26 b3 54 bc
       0.10091668 0.02331239 -0.009345837 -0.012982165
000220 92 5e 8e bc 81 72 03 bc 5a dc ad bc 17 f6 2b 3d
       -0.017379079 -0.008022905 -0.021223236 0.041982736
000230 c9 33 ee bd 05 b0 8d 3e 04 c3 b7 bb 6b 49 fe bc
       -0.11630971 0.27673355 -0.0056079645 -0.031040868
000240 3e ac c5 3d a2 19 50 3e 78 ce 19 bd ec 83 2f bd
       0.09651993 0.20322278 -0.03755042 -0.04285042
000250 b8 0a 8b 3c 25 03 e2 bd 9f c5 49 3b 94 9c 2e 3c
       0.016972885 -0.11035756 0.0030787957 0.010657448
000260 d3 2a 6b 3d d2 76 36 3e da ed 0b 3d 50 9b a3 3c
       0.057413887 0.17818764 0.03416238 0.01997152
000270 24 30 c6 3b da 3e 3a bd 20 0a 42 bd ec f7 db bc
       0.0060482193 -0.045470096 -0.047372937 -0.026851617
000280 8e 1d 84 3d e8 c5 2b 3e 8c 7c 4d 3b 83 c1 84 bd
       0.064509496 0.16774714 0.0031354753 -0.06482222
000290 53 30 37 3e af 87 41 bd 26 22 07 3a a4 9b c0 bc
       0.17889528 -0.04724854 0.000515493 -0.023511715
0002a0 1f 5b 5c 3b c3 24 72 bc 94 0a b0 bc 10 c2 6c bc
       0.0033623648 -0.0147792725 -0.021489419 -0.014450565
0002b0 de 28 73 3d da 53 c9 bc 88 c9 4a 3c 62 05 06 3c
       0.059365146 -0.024576116 0.01237715 0.008179994
0002c0 e4 87 9d 3c 19 fa 45 bd 1e 32 60 bd 51 38 08 bd
       0.019229837 -0.048334215 -0.054735295 -0.033256833
0002d0 72 1c ac bd de 8a 98 bb 2b e3 89 3c 47 a9 15 3d
       -0.08403863 -0.004655226 0.016831955 0.03653839
0002e0 a5 89 7a bc 15 e9 0c be b6 52 3f bc 5f 8d 23 3d
       -0.015291606 -0.13760789 -0.011677435 0.039929744
0002f0 c3 96 73 be 66 bb e4 3d 5f d5 22 3c 7c 84 8f 3b
       -0.2378798 0.11168556 0.009938567 0.004379807
000300 5f 2c bd 3c a6 36 50 bd 9a b3 1a bd f5 92 e8 3c
       0.023092447 -0.050833367 -0.037768938 0.028390387
000310 89 e4 20 3e e3 07 a1 bc 91 6a 88 bc e3 c2 87 3b
       0.15712179 -0.019657081 -0.016652377 0.0041431054
000320 77 5b 59 bd 97 cd 69 bc f2 85 2d 3d 5e 46 83 3d
       -0.053065743 -0.014270208 0.04236407 0.06409906
000330 a3 18 55 3d d2 dd 1d 3d 9d 63 29 bd 97 d6 6f bc
       0.05202545 0.038541622 -0.041354764 -0.014638565
000340 f5 5b 8b bb 45 32 b3 bd 81 f0 9c bc 7f 7b 6b 3a
       -0.0042529055 -0.087498225 -0.01915765 0.0008982941
000350 5a 26 86 bd 3e 3a 7e 3d ee 58 8d bc 1d 32 c1 bc
       -0.06550284 0.062067263 -0.017254319 -0.023583466
000360 ea 77 5d bd e2 0e 4c 3d a5 c7 ef bc 0e f8 67 3d
       -0.054069437 0.04981888 -0.029270003 0.056633048
000370 e0 4a 63 bc 7b 80 2d bd dd 80 1e 3d a1 52 47 3d
       -0.013872832 -0.042358857 0.038697112 0.048662785
000380 dc 6d 68 3d c6 5d 42 3d b2 6e 45 3d 90 ba 24 3c
       0.056745395 0.04745271 0.04820127 0.010054246
000390 07 58 2c bd 7b 2f 07 be e5 15 a4 bc ef d2 e5 b9
       -0.042076137 -0.13201706 -0.020029971 -0.00043835441
0003a0 a8 4f 27 bd 93 cf e5 3d 71 f2 25 bd fe 02 21 3c
       -0.04084745 0.11221232 -0.040514413 0.009827374
0003b0 b1 66 73 bd af ea 3c be ae cf 24 3d 6b ac d6 bc
       -0.059424106 -0.184489 0.04023712 -0.026205262
0003c0 b7 9b 8a bd 59 71 83 3d a4 35 b4 3c 84 c3 32 3a
       -0.067679815 0.06418104 0.021998234 0.0006819295
0003d0 b2 6f 79 bd 31 dc bb 3d d1 43 11 3c 6f 22 4c 3d
       -0.060897537 0.091728576 0.008866266 0.049837526
0003e0 5d 7e 60 bd 78 67 c1 3c 4c 5e 1d 3d 90 c5 a6 3b
       -0.05480801 0.023608908 0.038420007 0.0050894693
0003f0 c8 41 00 3d 75 70 bc bd 16 85 3c bd af 48 94 3c
       0.031312734 -0.09201137 -0.04602536 0.018101064

fc1.bias f4 [256]
000000 74 34 fc bd ea d9 1a 3e f8 3d a5 3d 8b 4f b5 3d
       -0.12314692 0.1512219 0.0806846 0.08853062
000010 d0 cf f4 bd 2d 19 12 be ef 9b 6e be 0b 32 96 bd
       -0.119536996 -0.14267416 -0.23301671 -0.07333764
000020 bd 9c 4f be 8c 2b f1 bd 53 dc 18 3e 57 e9 31 bc
       -0.20274635 -0.11775884 0.14927797 -0.010858855
000030 a3 8f 0b 3e 22 6e 52 be 65 8e ab bc ee f5 b4 3d
       0.13629012 -0.20549825 -0.020941922 0.0883597
000040 87 9c 87 3c 27 11 24 bd 26 96 23 be f8 76 2f be
       0.01655413 -0.04005542 -0.15975246 -0.17135227
000050 0c 30 6f 3d 49 3f 42 be 45 e4 07 be 87 2c 1e be
       0.05839543 -0.18969454 -0.13270672 -0.15446673
000060 77 6d 32 bd 28 28 8b be 9a 7f 78 3c 92 b9 03 3c
       -0.043561425 -0.27179074 0.015167141 0.008039849
000070 f1 fc 48 be 95 8d 06 be d9 b3 8e bd 59 89 fd bd
       -0.1962774 -0.13139947 -0.06967897 -0.123797126
000080 ad 31 cc bd 30 86 ff bc a7 e2 a6 bd 2f 38 17 3d
       -0.099704124 -0.031191915 -0.08148699 0.036918815
000090 d8 d7 35 be 59 f2 8e 3e 37 c4 09 be e8 b3 b5 3d
       -0.17758119 0.27919272 -0.13453756 0.08872205
0000a0 fe e6 e6 bd 0e e1 29 be 83 14 1e bc da ce fd bd
       -0.11274527 -0.16589758 -0.009648445 -0.123929694
0000b0 db 06 b7 bd 70 5c 0d be 6b 5c 15 be da 0e 36 be
       -0.089368545 -0.13804793 -0.14586036 -0.17779103
0000c0 c1 cc 33 3e fa 6b 2b 3e 2f 63 10 be a4 5c 11 3e
       0.17558576 0.16740409 -0.14100336 0.14195496
0000d0 8a 40 f0 bd d5 91 36 be 10 9d 28 3b 6d f2 fb bd
       -0.1173106 -0.17829068 0.0025728382 -0.123020984
0000e0 2e 1c 33 3e 5b 22 9d bd 35 be 74 be 8b 69 1c 3e
       0.17491218 -0.076725684 -0.23900683 0.15274636
0000f0 8d 98 37 3d ca d8 73 3d 2a 7b f4 bc ab 60 67 be
       0.044823218 0.059532918 -0.029843885 -0.2259547
000100 24 05 87 bb 04 67 d0 bd 6d 31 d5 bd 55 41 c5 3d
       -0.004120486 -0.10175899 -0.10409818 0.09631602
000110 74 bf 4e be 16 1d ee bd d5 be 98 bd cb d1 2e be
       -0.20190221 -0.116266415 -0.07458273 -0.17072217
000120 08 f0 55 be 0d da b5 bd 4e 74 b0 bd 54 ac ae 3d
       -0.20892346 -0.088794805 -0.08615933 0.08528963
000130 89 83 d5 3d 5d 70 f7 3d 62 82 cd 3d fe e0 38 3d
       0.10425479 0.120819785 0.10034634 0.045136444
000140 16 c5 90 bd 3d 53 9f bd f9 51 6c be cc df 4e be
       -0.07068841 -0.07779548 -0.23078145 -0.20202559
000150 53 a9 ef 3d d3 27 30 be 45 bf 24 be 20 d9 26 3d
       0.11702218 -0.17202692 -0.16088589 0.04073441
000160 1c ec c8 bd 6a 62 bf 3d 9e e3 a6 bc 86 b9 0a 3e
       -0.09810659 0.09344943 -0.020372208 0.13547334
000170 20 c3 e4 bd 39 23 c7 3d 67 d5 1d be e6 3a 4b be
       -0.1117003 0.09723515 -0.15413438 -0.19846687
000180 58 1d ed 3d 68 75 0f be 28 50 f6 3d 44 a9 b8 3d
       0.115778625 -0.1400963 0.12027007 0.0901666
000190 47 35 c5 3d 17 bf a6 bd 7f 68 e2 3c 3a f1 15 3d
       0.096293025 -0.08141916 0.027637718 0.036607005
0001a0 46 89 4a bd 35 95 00 3e 9b 18 f3 3d 44 c7 57 bd
       -0.04944732 0.12556918 0.118699275 -0.05268027
0001b0 68 46 f2 bc 2b 4c 33 bd 61 e2 1c bd a2 e0 3f be
       -0.029574588 -0.04377381 -0.03830183 -0.18738034
0001c0 f6 02 a6 bd c9 3b 7e be 56 04 73 bd 69 a3 a5 3d
       -0.081060335 -0.24827494 -0.059330307 0.08087809
0001d0 96 6b f6 3d 79 12 4d be 6a fe 23 be 17 af 10 3e
       0.12032239 -0.20026578 -0.1601502 0.14129291
0001e0 f4 8a 90 bd b7 3f b0 bb b0 92 ce 3d 7f 82 13 3e
       -0.07057753 -0.005378689 0.10086572 0.14405249
0001f0 3b e3 80 3d c2 3a 16 3d 3b 3d dd bd 0e 3a 25 bd
       0.06293341 0.03667713 -0.108026944 -0.04033857
000200 ae 4e b3 3d a9 6d 57 be ab 05 62 be f9 f3 11 3e
       0.08755241 -0.21037926 -0.22072475 0.14253224
000210 38 d8 5e be 17 8c 72 3d 69 7a 4f 3e f8 d7 d1 3d
       -0.21762168 0.05921563 0.2026154 0.10246271
000220 5c 9c 85 3d a6 7c b8 3c 6a 8c 94 bc 0f 00 f3 3d
       0.06523964 0.022520375 -0.01813336 0.118652456
000230 1b ca df bc 66 17 2b be 60 e3 06 3e 7f 6d e2 3a
       -0.027318051 -0.16708145 0.13172674 0.0017275064
000240 6e b3 f4 3d c7 93 49 be ed d1 95 bd ba 35 18 be
       0.11948286 -0.19685279 -0.07315431 -0.14864245
000250 a6 e4 4a bd 41 e4 59 3e 2b 05 79 bd a5 31 40 3e
       -0.049534462 0.21278478 -0.060795944 0.18768938
000260 b6 f4 44 3e 29 77 18 be 3b 51 27 3e 50 73 2c bd
       0.19233975 -0.14889206 0.1633958 -0.042102158
000270 d9 e2 02 3e 0b 2b 3b bd e5 96 0a be e0 b5 fb 3d
       0.12781848 -0.045695346 -0.13534124 0.12290549
000280 f4 08 13 be dc 6f df bc bf e8 45 bd 33 4d ac bc
       -0.14358884 -0.027275018 -0.048317667 -0.021032905
000290 9e 29 a0 bd 19 b5 3d 3e 76 31 05 bd 4a 89 c5 3d
       -0.07820438 0.18526115 -0.032517873 0.096453264
0002a0 39 3d 6e 3d 57 bc 15 3e 44 f9 9f 3d d2 74 4e be
       0.058163855 0.14622627 0.078112155 -0.20161751
0002b0 9c 9a 1e be 4a ac 83 be 8c a8 78 be c6 8e 66 be
       -0.15488666 -0.25717384 -0.24283046 -0.22515401
0002c0 99 49 2a bd a7 98 11 3e fc 01 1b be 67 30 3c 3d
       -0.041574094 0.14218388 -0.15137476 0.045944598
0002d0 35 44 cd bd e7 ec 2a 3e 4a 17 0c 3e f4 37 a2 3d
       -0.10022775 0.16691934 0.13680759 0.079208285
0002e0 59 e6 53 3e 38 3a 06 be d4 84 61 be 05 db 02 be
       0.2069334 -0.13108146 -0.22023326 -0.12778862
0002f0 51 2f 41 3c 89 67 50 3e 83 5c 45 3d c0 f1 8b 3d
       0.011791066 0.20351996 0.04818393 0.068332195
000300 f6 40 3b bd 10 25 0e be b1 d2 2f 3e 96 e3 45 be
       -0.04571625 -0.13881326 0.17170216 -0.19325098
000310 70 67 34 be b8 aa 6b 3d 5a ee 5d 3e df 83 ce 3c
       -0.17617583 0.057535857 0.21672955 0.025209365
000320 de cf c5 bc fd 00 68 3d d9 54 08 3d 55 6a 1b be
       -0.02414697 0.056641567 0.033284042 -0.15177281
000330 fa 05 2f 3e 9a 57 69 3e 5f 1c c6 bd a6 32 fc 3d
       0.17092124 0.22787324 -0.0967338 0.12314348
000340 bf d7 c5 bd 56 32 59 be d8 e2 a6 3a 22 4e e9 bd
       -0.09660291 -0.21210608 0.00127324 -0.11391856
000350 66 b8 34 3e 0c 88 2a bc b2 35 f5 bd d9 6a 55 be
       0.17648467 -0.010408413 -0.11973132 -0.2084154
000360 fb e4 96 3d 0c c7 45 3d 80 35 6a 3c c8 d4 c1 bd
       0.07367893 0.04828553 0.014294982 -0.09464413
000370 0c 5a d7 bd 73 8b 0c 3d aa f9 a8 3d 65 0f 2e bd
       -0.10515222 0.034312677 0.08250745 -0.04249515
000380 d7 ce 3e bd 19 0b 60 be 5d 07 a5 3c d4 dc 04 be
       -0.046583977 -0.21879233 0.020145113 -0.12974864
000390 ad 3d af bd 04 2e e8 bd 0c 0c 26 3e 25 f1 5e 3d
       -0.085566856 -0.11336902 0.16215533 0.054429192
0003a0 7b 1a af bd 94 19 d6 bd 02 5d 9b 3c 11 b2 f9 3d
       -0.085499726 -0.104540974 0.018965248 0.121921666
0003b0 e6 6e e8 bd 6b bf cf 3d 0a c6 b3 3c 3f dd 93 3d
       -0.11349277 0.10143932 0.021945018 0.07219934
0003c0 ca 6c 22 be 42 78 55 be 42 b2 31 3d d1 81 a2 bd
       -0.15861812 -0.20846656 0.04338289 -0.07934917
0003d0 c2 b3 0c be b3 3c f5 3d 34 8f a6 bd cb 40 31 be
       -0.13740447 0.11974468 -0.081327826 -0.17309873
0003e0 bb d9 9c bd 95 7b 08 be 9e d4 04 be 94 f7 57 be
       -0.07658716 -0.13328393 -0.12971732 -0.21090537
0003f0 7d f9 98 3d f9 be 2b 3e cf 5c 40 be 14 41 aa 3d
       0.07469461 0.16772069 -0.18785404 0.08313194

fc2.weight f4 [128, 258]
000000 38 cb 56 bd f6 cb b2 bd 70 46 e3 3c 85 3b a7 3c
       -0.0524399 -0.08730309 0.027743548 0.020414123
000010 9d ed 08 3d a9 5b b3 bd 66 2a 0c 3d 0f 41 88 3d
       0.03342973 -0.08757717 0.03422012 0.06653034
000020 d5 e9 c7 bc 97 65 3d ba dc b5 85 bc dd 86 e6 bd
       -0.024403492 -0.0007224916 -0.016322069 -0.11256192
000030 7f 2a c9 bd 17 22 90 bd 61 0e f9 3d a6 95 e3 3d
       -0.098225586 -0.07037752 0.12160946 0.111125275
000040 45 0e 13 bd 7c 7d ee 3a 52 ec 59 bc fd 54 82 bb
       -0.03590228 0.0018195356 -0.013300972 -0.0039774165
000050 70 d8 95 3b 81 55 a8 bd e4 4f b6 3c 4d b6 9b 3b
       0.0045729205 -0.082194336 0.022254892 0.0047519566
000060 06 a2 84 bd e7 75 09 bd 8f 40 07 bd 85 11 97 3d
       -0.06476216 -0.033559706 -0.033020552 0.073763885
000070 8f 4d 81 b9 0a c3 24 3c 74 8b c3 3a 08 1b 8c 3d
       -0.00024662583 0.010056267 0.001491888 0.06841093
000080 4b 32 00 bb a0 d5 c2 be a3 87 de bd 93 10 a7 3d
       -0.0019561227 -0.38053608 -0.108657144 0.08157458
000090 ec a0 4c bd 09 5b 36 3d 46 19 48 bd 63 f2 8f bc
       -0.049958155 0.04452041 -0.048852228 -0.017571634
0000a0 68 4f 99 3c 2c 57 c4 3c f8 05 1a 3c 80 c9 b3 bc
       0.018714622 0.023967348 0.009400837 -0.021946669
0000b0 d6 0f 72 bd c6 59 83 bd 18 e9 03 bd e0 f8 0c bd
       -0.059097134 -0.06413607 -0.032204717 -0.034417033
0000c0 d8 12 cb bc 2b 30 58 3b 2a 4e f3 bc af bb b0 3c
       -0.024789259 0.0032987695 -0.029700357 0.02157387
0000d0 b7 f8 2d 3d f1 28 db bb 42 02 0a bd ac 0d c0 bd
       0.04247352 -0.00668823 -0.03369356 -0.09377608
0000e0 b1 09 47 bd 44 77 f7 3c 12 c7 a0 bc 06 0a 82 3d
       -0.048593227 0.030208237 -0.019626174 0.06349568
0000f0 ab 36 15 bd 14 64 b6 bd 57 4e 6a 3d 6d 1a ea bc
       -0.03642909 -0.08905807 0.057203617 -0.028577054
000100 fe 90 9d bc e1 ec 19 be dc a1 97 3c 51 6c a4 3c
       -0.019234177 -0.15031768 0.018509798 0.02007118
000110 7a 77 53 3d 17 a8 9d bd ab 76 89 bb 92 c9 34 bb
       0.051627614 -0.07698076 -0.0041950545 -0.0027585966
000120 68 11 be bb c8 ed 09 3d f5 33 a0 bd 3c 2a 45 3d
       -0.005800415 0.03367403 -0.0782241 0.04813598
000130 c7 f0 ec 3c ff 63 92 3c cb bd 4c 3c 19 01 b2 bd
       0.028923405 0.017869947 0.012496422 -0.086916156
000140 d4 d5 91 3d ce 85 c0 3c af 04 5a bd 8a 6d 84 bd
       0.071208626 0.023501303 -0.053227123 -0.064662054
000150 d9 49 0d 3d fe 68 25 3d 2a 3d 95 3c 56 e5 82 3d
       0.034494255 0.04038333 0.018217642 0.063913986
000160 2e fb 4d be 97 0b 1a 3c 77 8b 13 3d ae 52 e7 bd
       -0.20115349 0.009402177 0.036021676 -0.11295067
000170 3b b3 b2 bd 29 7e 02 3d 40 16 33 bd 0e a3 5e 3d
       -0.08725592 0.031858597 -0.04372239 0.05435472
000180 ca 22 da 3c 59 14 75 bd 70 b0 d5 bb 9b bb 36 bd
       0.026627917 -0.05983386 -0.006521277 -0.04461251
000190 42 50 d3 3d 9e 6e 7c bd 9e 28 cf 3c f1 dc aa bc
       0.10318042 -0.06162893 0.025287922 -0.020857306
0001a0 a7 ce 66 3c 4b 1e e6 bd 42 42 c9 bd da c7 d6 bd
       0.014087356 -0.11236247 -0.09827091 -0.104873374
0001b0 52 25 41 3d 45 c0 e6 3c 5b ea bc 3b ab 3b dd 3c
       0.047154732 0.028167853 0.005765242 0.027005991
0001c0 39 fd 0d bd ba 30 23 3c 20 9f 5a bd 23 75 4a 3e
       -0.03466532 0.009960348 -0.05337441 0.19771247
0001d0 c3 62 b2 bd d9 52 8a 3c fa 9d 06 3e ac 86 81 3d
       -0.087102436 0.016885208 0.13146201 0.06324515
0001e0 2f 03 b4 bc 11 63 1d 3d bb f5 83 bd 12 18 60 bc
       -0.021974174 0.038424555 -0.06443354 -0.013677614
0001f0 67 b4 79 bd 25 e2 8f bc 4d 71 04 3c e0 44 5d bc
       -0.06096306 -0.017563889 0.008083654 -0.013505191
000200 b9 d3 fc ba 10 73 fa bd 6c 10 9f bc 15 6e 3c bc
       -0.0019289172 -0.12228978 -0.01941701 -0.011500855
000210 fa c0 1e 3d b8 69 08 3d f9 a1 8c 3c 20 31 0e bd
       0.038758256 0.033303946 0.017167078 -0.034714818
000220 d2 a6 89 3d 81 a2 40 bd 80 71 be 3c 28 63 a9 3d
       0.067212716 -0.047029976 0.02324748 0.08270866
000230 1e 76 1c bd 27 03 45 3a 0c 45 99 3d e9 da 57 3d
       -0.038198583 0.00075154233 0.07483873 0.052699003
000240 35 7c ab bc 83 6c 0b be 2c 6f f8 3a 82 9f 88 bd
       -0.02093325 -0.13615613 0.001895403 -0.06671049
000250 de b9 73 3d b2 bb b3 3d e9 ac 3f bd c9 33 83 3d
       0.05950343 0.087760344 -0.04679576 0.064063616
000260 a3 41 ea 3d 94 bb 10 bb 5a 57 99 bd 02 5b f5 bc
       0.114383005 -0.0022084462 -0.07487364 -0.029950622
000270 2d 53 d0 3c bd af 69 3c cb 14 0d bd be 02 50 3d
       0.025430286 0.014263091 -0.034443658 0.050783865
000280 d1 0e ad 3c eb 6a 31 3d 93 0d a5 3d d2 4f 0c be
       0.02112523 0.043314856 0.0805923 -0.13702324
000290 91 37 d1 bd b8 4a cf bd ba aa 65 bd dd 70 80 3c
       -0.102156766 -0.10121673 -0.05607102 0.015678817
0002a0 0d d2 99 3d 76 bc e0 3b 18 d1 62 bb 7a 30 2e be
       0.07510767 0.006858404 -0.0034609493 -0.1701068
0002b0 d3 19 b0 3d 57 01 0b bd 82 c3 6b bd 43 6e e5 3c
       0.085986756 -0.033936825 -0.057559498 0.028006678
0002c0 b8 f7 59 3d 1c b7 83 3d a8 75 4a 3c 23 e4 a0 3d
       0.05321476 0.0643141 0.012357153 0.078560136
0002d0 df fb 95 bd e9 c9 41 bb 7d f3 38 bd 55 53 a9 bd
       -0.07323431 -0.002956981 -0.045154084 -0.082678474
0002e0 7f 58 ba bb 3b 11 a9 bd 53 a4 5a bc 2a 97 bb be
       -0.005686819 -0.082552396 -0.013344842 -0.36638767
0002f0 f0 d8 52 be fe 09 3a 3d f3 c8 8f 3c 60 9d a9 bd
       -0.20590568 0.045419686 0.017551875 -0.0828197
000300 56 5d 17 bd ac e6 52 3d b5 83 0e be 02 07 5c 3d
       -0.036954246 0.051489517 -0.1391743 0.05371762
000310 7a 2c 1c 3d 58 41 da 3d 60 37 b9 3d a5 fb 30 be
       0.038128354 0.106569946 0.09043765 -0.17283495
000320 d4 59 af 3d c3 41 03 bd 54 63 93 3d 09 df cc 3d
       0.08562055 -0.032045137 0.0719668 0.10003478
000330 6e 1f 13 bd 7e b8 36 bd 64 55 00 3d b7 db 61 bc
       -0.035918646 -0.04460954 0.031331435 -0.013785294
000340 4b a9 4d bd 31 b2 7d bd 0d 5f 47 3d 28 53 76 bc
       -0.05021028 -0.061937515 0.048674632 -0.015034474
000350 4d 8e a4 3c 62 47 53 bc 49 3d da 3c 54 b5 bf bc
       0.020087386 -0.012895437 0.026640551 -0.023401894
000360 51 b6 13 3c ee 0c 35 bd 83 9b ac 3d e9 4a 10 3e
       0.009015636 -0.044201784 0.08428099 0.14091076
000370 e5 b0 21 bd c6 49 50 bc fa 0d b9 3d fc e4 3e 3d
       -0.03947534 -0.012712901 0.09035869 0.046605095
000380 48 23 15 bd e3 ab 38 bd 02 51 1c be 93 d3 03 be
       -0.0364106 -0.0450858 -0.15265277 -0.12873678
000390 9d a0 62 be e9 a5 3d bd c6 3a 5b bd 0f 36 83 bd
       -0.22131582 -0.046300802 -0.053522848 -0.06406795
0003a0 2d 45 9b 3d 29 00 b2 3b a2 d3 24 3d f1 8d 34 3c
       0.075815536 0.005432148 0.04024089 0.01102017
0003b0 c2 e4 ab bd f8 08 cb 3c f8 fe bb be 3b 02 ae 3d
       -0.083932415 0.02478455 -0.36717963 0.08496519
0003c0 4d d5 1a bc b9 5d 13 bd cd aa 0f 3d d1 45 77 bc
       -0.009450269 -0.035978053 0.035074998 -0.015092329
0003d0 02 b4 86 3d 31 a4 7a bd be 7e 5e bd f2 d6 00 3e
       0.065773025 -0.06119174 -0.05432009 0.12581995
0003e0 bf 77 f7 bc 56 5b 34 bd 9e 9e 13 3d b2 f2 d7 bd
       -0.030208467 -0.044032417 0.03603994 -0.10544337
0003f0 bf b5 3a bd 2b d7 cd 3d 05 ab 64 3b ea 58 d4 3c
       -0.045583483 0.10050806 0.0034891975 0.025921304

fc2.bias f4 [128]
000000 57 2c 06 3e 72 6f 2c 3b 9f 68 91 bd ff 41 b5 bc
       0.13102852 0.0026311544 -0.07100033 -0.022126196
000010 0a 3e ee ba 39 d9 a5 bc 69 53 01 bc 45 39 be 3c
       -0.0018176448 -0.020245181 -0.007893422 0.023220668
000020 17 8e 23 ba 3d 54 1c bd 7a b2 62 3d c8 8e 55 bd
       -0.00062391296 -0.038166273 0.05534599 -0.05213812
000030 31 53 60 3d cb 4e 04 be e8 92 b7 bd a8 72 4f bd
       0.054766838 -0.12920682 -0.08963567 -0.050646454
000040 a8 c6 4d bd ca 9d ce 3c 91 5e 34 3d 8a 95 fb bc
       -0.05023828 0.025221724 0.044035498 -0.030710954
000050 87 c8 fa bd a1 5f 16 bd 06 e1 1b bd 91 73 38 bd
       -0.12245279 -0.036712293 -0.038056396 -0.045032088
000060 74 26 06 bd bb 15 c0 bd b9 4c 5f 3c 87 27 42 bc
       -0.032751516 -0.09379145 0.013629132 -0.011850244
000070 d1 bf 24 bd a8 86 c9 3b e8 8e d9 b9 7a 53 28 3d
       -0.040221993 0.0061500855 -0.0004149594 0.041095234
000080 00 fa 05 3b bb 34 22 bb 29 ad 88 bd d2 a7 bb 3d
       0.00204432 -0.0024750668 -0.06673653 0.091628686
000090 41 7e cd 3c b2 69 9b bd 13 34 bd 3d d7 69 2c bd
       0.025084617 -0.07588519 0.09238448 -0.042093124
0000a0 cc fe 75 3b ce d2 84 bd 37 c1 99 bc 01 86 23 3d
       0.0037535904 -0.0648552 -0.01876889 0.039922718
0000b0 a0 e5 9a bc e4 8f b2 bc 2f c1 f5 bd 6b 71 9e bd
       -0.018908322 -0.021797128 -0.119997375 -0.077364765
0000c0 61 5e 5a bd c0 50 8d bc bc db 73 bd 9a 04 95 bc
       -0.053312663 -0.017250419 -0.059535727 -0.01819067
0000d0 df 5d 4c bd 85 94 48 bd 7a 3b 26 3d b0 fd 40 bd
       -0.04989421 -0.048969764 0.040584065 -0.047116935
0000e0 d5 71 15 3d 93 47 d3 bc a6 54 91 3c fb e0 98 bd
       0.03648551 -0.025790965 0.017740559 -0.074647866
0000f0 22 d6 58 3c a6 e2 99 bd c3 01 47 bc ca 6d 35 3d
       0.013234647 -0.07513933 -0.012146416 0.044294156
000100 37 36 9d bd 36 97 24 bd d4 7b 9a bc 4c 2b 8f 3d
       -0.07676356 -0.04018327 -0.018857874 0.0699068
000110 d4 13 94 bd 7c d4 ec bd 22 55 9b 3c f5 15 30 3b
       -0.072303444 -0.11563966 0.018961493 0.0026868556
000120 38 fe 8a bd 1f 17 56 bd b9 5a d5 3b da 44 27 bd
       -0.0678677 -0.052268144 0.006511059 -0.040837146
000130 d0 f5 26 bb 27 6c 65 3d 35 4d a5 3c 5d 2e 00 bc
       -0.0025476106 0.056011345 0.020178417 -0.007823554
000140 ee cd 34 bc b8 af 8f bc 43 01 c0 bc e3 15 c0 bc
       -0.011035426 -0.017539844 -0.023438102 -0.023447936
000150 fe 39 cd 3b fc fa 11 3d bb ef 9e bd a4 9b 45 bd
       0.0062630167 0.035639748 -0.07760569 -0.048244134
000160 ca ca f7 3d 14 e1 1b 3d 0b 13 3d bc 20 89 c7 bc
       0.12099226 0.038056448 -0.011540185 -0.024357378
000170 44 a7 b2 bd ef 33 88 3d 58 f5 32 bb 3a 87 43 bd
       -0.0872331 0.066505305 -0.002730688 -0.047736384
000180 40 4d 73 bd df bf 97 bd 77 81 dd 3a 8b 7e a3 3c
       -0.059399843 -0.074096434 0.0016899545 0.019957801
000190 19 84 83 bd 83 79 3d 3d ba be db bc 5a 82 03 3d
       -0.0642168 0.04625846 -0.026824344 0.032106735
0001a0 0f 53 24 3c b5 8b a2 bd 80 c0 60 3d 7e cc f4 3b
       0.010029568 -0.07936803 0.054871082 0.0074706664
0001b0 bc d8 d7 3c e0 6b ce 3c 5b ab 0e 3d 18 4d 01 bd
       0.026348464 0.025197923 0.034831386 -0.031567663
0001c0 df a9 a0 bb e3 96 77 3d cc 76 bc bc 15 54 39 3d
       -0.0049030627 0.06044663 -0.023005866 0.045246202
0001d0 31 77 f6 bc a0 c9 01 be 83 23 1c 3d 76 a2 a6 bb
       -0.030086132 -0.1267457 0.038119804 -0.005085285
0001e0 4e 8a 9b 3d 8a 3b bd 3c 36 0f 21 bd 54 ec c6 bc
       0.07594739 0.02309968 -0.039321147 -0.024282612
0001f0 71 f2 60 ba 1b 19 13 3d 06 9f fe bc aa 19 f8 3c
       -0.00085810485 0.035912614 -0.031081688 0.030285675

fc3.weight f4 [1, 128]
000000 d1 74 57 3c ff 28 85 3d cb 16 2f bd 74 02 de be
       0.01315041 0.0650196 -0.042746346 -0.43361247
000010 de dd b4 3b b3 35 fc bd 85 74 09 be 6a 27 c7 3c
       0.0055196127 -0.1231493 -0.13423355 0.024310786
000020 b2 04 8b bd 4f 42 39 bd 81 73 9e bc 76 96 9b bd
       -0.06788005 -0.045229252 -0.019342186 -0.075970575
000030 ec 84 a2 bc 55 45 9e bd 68 40 ec bd cb 15 46 bd
       -0.019838773 -0.07728068 -0.11535722 -0.048360627
000040 a1 24 41 3c 0b 8b 41 bd 22 64 f7 bd 85 0a e2 bd
       0.011788518 -0.047251742 -0.12079646 -0.11037163
000050 7d d1 04 be 9b 9e 41 bd e8 60 0a 3d cd 95 09 3d
       -0.12970538 -0.0472704 0.033783823 0.033590127
000060 36 c3 23 3b ca fd b5 bc 8a ef 38 be 68 1a b0 bd
       0.002498818 -0.022215743 -0.18060127 -0.085987866
000070 7b 81 dc bd 2b 5e 13 be c1 95 23 3d 64 c5 6f bd
       -0.10766884 -0.14391391 0.03993774 -0.058537856
000080 af 7a 41 bd 38 63 02 3c 9c bc d4 bd 6b 26 b0 3b
       -0.04723614 0.007958226 -0.10387537 0.0053756735
000090 00 93 ab bd b7 cc 1b bc 07 cc 4b 3d 03 0d ca 3d
       -0.083776474 -0.009509257 0.049755123 0.09865763
0000a0 9a df 2b 3d cc dc 96 bd b0 b3 ef bd 62 41 2a be
       0.04196129 -0.073663324 -0.117041945 -0.16626504
0000b0 42 c4 a4 3d 54 ca 10 3c 07 79 a4 bd e8 ae c3 bd
       0.08045246 0.008837301 -0.08030897 -0.09554845
0000c0 4b 49 2d be 07 7e 50 be 1f ae 84 bd 46 a7 e6 bd
       -0.1692249 -0.20360576 -0.064785235 -0.112623736
0000d0 31 50 73 bd d6 ac 46 3d aa b6 bb 3d 2a 43 f7 bc
       -0.05940265 0.048504673 0.091657 -0.030183394
0000e0 21 da 12 bd d0 bb 32 bd 14 b1 dd bd 0e 1c 91 bc
       -0.035852555 -0.043636143 -0.108247906 -0.017713573
0000f0 a1 bd 5a bd 2f a3 84 3c 28 fc 88 bd 73 47 40 be
       -0.0534035 0.016191093 -0.0668872 -0.18777256
000100 71 8e 95 bc a2 19 93 3d 31 52 b3 3c 08 dc 3f bd
       -0.018256398 0.071826234 0.021889778 -0.046840698
000110 8c bf 07 bd 36 f8 ef bd 92 f6 3c bd 73 f2 21 be
       -0.033141658 -0.11717264 -0.046133585 -0.15815143
000120 0b 5d ab bc 7f d8 f8 bd 49 87 61 3c e1 e4 8f 3d
       -0.02091839 -0.12150668 0.013765165 0.07026077
000130 88 f2 0e bd 24 df 94 bd 5a cf 0a 3e 30 79 8e be
       -0.034899265 -0.07269123 0.13555661 -0.27826834
000140 26 88 56 3c 01 38 ce 3c 67 51 92 bd 1c 4a 8b bd
       0.013093984 0.02517319 -0.071444325 -0.068012446
000150 9c 11 a6 3d b4 6e 13 3c 2f 23 14 be f9 ea 0a 3e
       0.081088275 0.008998562 -0.14466546 0.13566197
000160 3e c8 61 3c a8 79 be 3c 07 e0 07 be 0f 96 d3 3d
       0.013780652 0.02325137 -0.13269053 0.10331356
000170 6b 75 3f bd 73 8f 90 3c 10 26 41 bd ae 19 da bc
       -0.046742838 0.017646527 -0.04715544 -0.026623573
000180 fc 39 a4 bc c9 e3 70 bd c2 b9 7c be a5 23 93 bd
       -0.02004718 -0.058810983 -0.24680236 -0.07184533
000190 96 bd 1f 3c 1c 39 16 bd 46 a5 dc bd 5c 99 3b bd
       0.009749791 -0.036675557 -0.10773711 -0.04580055
0001a0 ae 7d d7 b9 97 1d ad 3d 8c 69 fe 3b 9d ec 04 be
       -0.00041101634 0.084529094 0.007764047 -0.12980886
0001b0 76 65 06 bd c5 67 03 3d b7 c2 46 bc 67 39 c0 bd
       -0.032811604 0.032081384 -0.012131385 -0.09385949
0001c0 2c f7 11 3d 35 97 81 3c 34 61 44 3d e1 a6 70 3c
       0.035636112 0.015819171 0.047944263 0.0146882245
0001d0 49 d9 da bd 60 b4 94 bd e0 73 a5 bc 94 b2 69 3c
       -0.10685975 -0.07260966 -0.020196855 0.014263768
0001e0 4e c7 90 3c ee 30 74 be 63 ab 4e 3c 07 b6 db bd
       0.01767316 -0.2384679 0.012614104 -0.10728078
0001f0 ff 43 66 3d 10 1e 13 3d 2f cc 06 bd 2e d7 6e 3c
       0.05621719 0.03591734 -0.03290957 0.01457767
