project3-tennis/models/ddpg_agent0_critic_local.pth (torch_old, 159783 bytes, 5 tensors)

fc1.weight f4 [256, 24]
00000000: 624e 81bc 3761 68bd 5dc8 003c 1c9a 0ebd
00000010: 466e 9f3c 293a 99be 0877 23bd 4644 063d
00000020: 4aa7 a63b 38ee 873d 2ff8 c4bd d0ae 103d
00000030: 8c84 273d e9fe 6dbe e512 703b 8a71 323d
00000040: e882 113d 471e ca3c ec78 0c3d 28df 003d
00000050: 2d2b a1ba a0ea ac3d 8c06 7abd d74a 713d
00000060: 325c 123e 53d8 0a3e 171c 06bd 5e9e 253c
00000070: 5b57 89bd 1d8f 4cbd ed8d 433c e371 36bc
00000080: e44c 433d 3b6f 1d3d 275c 4dbc 99f6 d33b
00000090: ece0 8a3d 7d64 b43d 03fa 46bd 50b0 903b
000000a0: 1e46 8c3d 119a 7038 9518 c9bc cc3e a7bc
000000b0: c520 4a3e 51ea 4c3e 3d62 923c 0496 f53b
000000c0: 21cb fbbc a4e2 92bc 846b a3bc 375b 1ebd
000000d0: b31a c0bd e7e7 8bbe f2c9 b13a 58d9 cebc
000000e0: 6478 d2bc 1560 023d 040c 92bc 9be3 4abd
000000f0: 96e6 593b a7c6 b2bb 6127 64bb 5b4d dd3c
00000100: a6d7 833c 67f1 11bc 4a7e 7b3c da59 dd3c
00000110: fa95 193e 0498 513e 0fd5 33bd aa74 f13c
00000120: 5632 193c 1152 603d ceb6 87bb f7a1 f53c
00000130: 3f58 c1bd 9dd5 9e3c 6271 e33b c59c 4d3d
00000140: e27a dabc e059 0e3e 8d2f d1bc 7422 5a3c
00000150: b392 1dbc b8e3 29bd 9067 1d3d 25d3 83bd
00000160: bd36 90bd ef6b 043e b9e2 1cbc 6d32 b0bc
00000170: c2bf c03d 65fe 99be 35c1 b23b 9f2a f3bc
00000180: c315 883d e892 21be ef3f 47bd d24b 763c
00000190: 68cd 89bd 3bc9 96bc ba6b 453c 96b1 f7bc
000001a0: d8fb cdbc df50 87bd 3e56 b33c d431 2fbd
000001b0: 70cd 9a3d 010f 08be 265a a238 58ee 5d3d
000001c0: 5e77 853d 06ad b6bd d3e4 e33b 9050 f73c
000001d0: b7ca 483e bbe4 2dbd 51e9 453d ccb0 47bc
000001e0: 0228 993d 1992 6d3d be63 413d 46ac 10bd
000001f0: ed04 163e 72fd 863a 59e3 d03b 6d0c 9dbd
00000200: b549 8c3d 5dfd d7bc 752c af3c af5a 5aba
00000210: 40aa c63d 1269 06bd 9f9b 5bbb 980a c8bc
00000220: 9b81 723a 3719 863c 4f35 583c 3e0d 953b
00000230: 56af a5bd 73c7 963d 3107 ec3c 373c 8cbd
00000240: ddbb 993d aed8 ac3d 110a cbbc c8b1 0f3d
00000250: 2f56 b5bd 2643 c73c fcca 813c d96e b53d
00000260: 5207 e53d ea63 e63d 82c0 6d3d 1466 b23d
00000270: a24c 54bc a80b 8cbd e76e c0bc a303 253d
00000280: 36a4 d33d 7e57 f83d 834a f4bc 11d3 41bd
00000290: 2281 0f3c 89fe 9ebd 6de0 04bd 12f1 c4bb
000002a0: 484a c13b f56b a33c 837d 6cbc 1e86 9cbc
000002b0: 8f41 503d b3e8 83bd b230 9f3c 23e4 663b
000002c0: 5543 6c3c e5d0 cfba c81d 15bd c01f 57bd
000002d0: a0f5 6cbd 0034 79ba 6105 103d f583 8d3c
000002e0: 1c80 c2bc 1688 b1bd 6fbc 31bc 6bd6 403c
000002f0: 7177 48be 5471 453e 676c 303c b3cd c2bc
00000300: 338a cf3d d36a 023e 1d53 05bd 55d8 303c
00000310: 5312 743d 222f a8bd 9b53 3bbc 5f6a 5cbc
00000320: 5b1f 743c a032 c63d cd1d 0b3d b211 603d
00000330: 3b51 773d d5dd 79bd 7acb 4bbd c4e5 c4bc
00000340: 0699 1b3d b0c4 15bd b089 0a3c d887 89bd
00000350: 3117 bb3d b10d 233c e7b8 293c daaa bbbd
00000360: de81 28bd 2e0e b539 da15 4dbc c08f b0bc
00000370: 58b3 eebc 4687 73bc 3a1e 633d 3fdb f1bc
00000380: afea 9f3d 8dcd dbbb 7881 613d b4a7 89bd
00000390: 768b 8bbd c3f7 e8bd 6ae1 57bc a525 9fbd
000003a0: 5752 753c a386 983d c8d3 e6bc da2d 9cbc
000003b0: 0c16 d1bd 000e 5cbe da58 573d e0ad 61bd
000003c0: ea55 72bc a2c2 003e fb08 2b3c 3981 c4bd
000003d0: fa99 9dbc cf87 2e3e 2173 30bb 7ca9 3fbd
000003e0: 3053 c138 1c7e 663d f92a 5c3d 7c00 67bc
000003f0: 757a 343d ce39 673d 8071 fbbc 6d88 8eba
-0.015784446 -0.056733336 0.00786027 -0.03481494 0.019461762 -0.29927185 -0.03990844 0.032779954
0.0050858604 0.066372335 -0.0961765 0.035322964 0.04089789 -0.23241772 0.0036632356 0.04356531
0.035525233 0.02467264 0.034295008 0.03146282 -0.0012296193 0.08443189 -0.0610414 0.058909263
0.14292982 0.13559084 -0.032741632 0.010108558 -0.06706115 -0.04994117 0.011935693 -0.011135551
0.04768075 0.038436156 -0.012534178 0.0064686057 0.06781182 0.08808229 -0.048578274 0.0044155493
0.06849311 5.7363945e-05 -0.024547854 -0.020415686 0.19739063 0.2001126 0.01786911 0.00749469
-0.030736508 -0.017930336 -0.019948728 -0.038661208 -0.093800925 -0.27325365 0.0013564213 -0.025250122
-0.025692172 0.031829912 -0.017827995 -0.049533468 0.0033249012 -0.00545581 -0.003481351 0.027014425
0.01609404 -0.008907652 0.015349934 0.027020384 0.14998618 0.20468146 -0.04390436 0.029474575
0.00935038 0.054765765 -0.004141665 0.029984457 -0.0944066 0.019388968 0.0069410065 0.050198335
-0.026669923 0.13901472 -0.02553537 0.013313878 -0.009617495 -0.041476935 0.038428843 -0.06436757
-0.070416905 0.12931798 -0.009575539 -0.02150842 0.09411575 -0.300769 0.005455161 -0.02968341
0.06644776 -0.15778697 -0.048644956 0.015032725 -0.06728631 -0.018406501 0.01204961 -0.030236047
-0.025144503 -0.06607222 0.02189171 -0.04277213 0.07558715 -0.13286974 7.7415534e-05 0.05418238
0.06516908 -0.0891972 0.006954768 0.030189782 0.1960858 -0.042454462 0.04831821 -0.012188148
0.07478334 0.058000658 0.047214262 -0.035320543 0.14650317 0.0010298921 0.006374758 -0.07668386
0.06849996 -0.02636593 0.021383503 -0.0008329553 0.09700441 -0.032815047 -0.0033509505 -0.024419114
0.000925088 0.016369445 0.0131963035 0.0045486977 -0.08090083 0.07362261 0.028812023 -0.068474226
0.07506535 0.08439766 -0.024785073 0.035081655 -0.08854329 0.024324011 0.01584386 0.08859033
0.11183037 0.11249526 0.058044918 0.08710876 -0.012957724 -0.06838161 -0.023490382 0.04028667
0.10334055 0.12126063 -0.029820686 -0.04732043 0.008758815 -0.077633925 -0.03244059 -0.006010183
0.0058987476 0.019948939 -0.014434221 -0.01910692 0.05084377 -0.06440868 0.0194324 0.0035231195
0.01442035 -0.0015855102 -0.036405355 -0.052520514 -0.057851434 -0.0009506345 0.03516138 0.017274836
-0.023742728 -0.086685345 -0.010848149 0.011769871 -0.19576813 0.19281512 0.010768033 -0.023779726
0.10133781 0.12736063 -0.032549966 0.010793765 0.059587788 -0.08212115 -0.011433507 -0.013453095
0.014900054 0.09677625 0.033963967 0.054704376 0.0603802 -0.06100257 -0.049754597 -0.024035342
0.03798773 -0.03656453 0.008455679 -0.06715363 0.09135283 0.009951995 0.010359026 -0.09163447
-0.041139476 0.00034533575 -0.012517417 -0.02155292 -0.029138252 -0.014863795 0.05544875 -0.02952349
0.07808434 -0.006707853 0.05505511 -0.0672144 -0.068137094 -0.11375382 -0.0131763015 -0.07770852
0.014973245 0.07447555 -0.028177157 -0.019064832 -0.10209283 -0.21489716 0.05257497 -0.05509746
-0.014790991 0.12574247 0.010439153 -0.0959496 -0.01923846 0.17043994 -0.002692409 -0.046792492
9.218452e-05 0.05627261 0.05375192 -0.014099237 0.044062097 0.05645161 -0.03069377 -0.0010874398

fc1.bias f4 [256]
00000000: 80e1 17be 932c 0c3e ec78 0b3d c5f4 ce3d
00000010: 7f67 c3bd 3e89 2bbe 6af3 82be cc63 6bbc
00000020: 883a 7dbe b735 27be 460f c03d daf9 d4bd
00000030: 65cd 123d d9d1 54be 30a5 183d d1ae f13d
00000040: f1d3 d83b 2a45 40bc 1d50 4abe 9354 2bbe
00000050: d3a7 3d3d 8110 50be 1537 9ebd 72a7 1fbe
00000060: 35b3 8cbd e40a 71be d953 b63d 1fc1 be3c
00000070: 731d 2ebe 202f ecbd 8674 7ebd 06e2 edbd
00000080: 64ed f7bd 04a7 0ebc b899 c8bd 6f7d ef3c
00000090: ae36 26be 40bd 563e 5eb7 08be ae3f cb3d
000000a0: c047 03be 4b83 2bbe b29f 93bd 4924 d7bd
000000b0: 2c6d a8bd ff38 36be 102a aebd 85ec 31be
000000c0: 7b5a 353e 0bd9 163e d8f9 c1bd fc5c 173e
000000d0: 3686 c9bd 483f 35be c808 193d d3e7 43bd
000000e0: 22bd 2b3e 9653 08be 0c74 4bbe 237b 0a3e
000000f0: cb4a 253d aa68 c63c e322 84bc 2760 49be
00000100: ffe4 4b3b cbc8 30bd e1d4 0dbe cf58 d93d
00000110: 21b8 6cbe 3485 07be 45c9 66bd 7f2c 54be
00000120: 97aa 5fbe 70d9 83bd 1d7f 54bd d75b 133e
00000130: 8e57 c83d 9cae 013e ac7b d63c e6fd 4f3a
00000140: 9382 afbd 7d33 a4bc df34 50be c881 72be
00000150: 2ec9 c93d 5945 f4bd c3e7 afbd eed5 473d
00000160: b6ec 17be e810 a23d 2f25 87bd d958 fe3d
00000170: e191 23be e7a3 133e 1270 14be bbcc 5cbe
00000180: 39f3 4d3e a50e c8bd 88a9 503e 7c9b 233d
00000190: 2727 ae3d 12bc 09bd 5311 543c f07c 9d3c
000001a0: 359d 96bd a719 073e 8778 f23d bb91 20bd
000001b0: be57 8a3c 6783 38bd 5934 4dbd 5314 55be
000001c0: a949 febd b6d3 6ebe e780 d3bd e693 8e3d
000001d0: 9125 a73d 04c3 72be b972 4abe 5f16 2c3e
000001e0: b5dc fc3b 351e 59ba 98df 753d abee 0d3e
000001f0: cb57 ae3d 29b8 f63d f789 cabd f2a9 e0bd
00000200: 464b 973d a70e 85be 6964 66be 83d3 cf3d
00000210: 8533 66be 6ca6 a63d bd0c 3e3e 9f52 363e
00000220: d5a0 b73d c8ad f1bc d018 0d3d 4ee9 9e3d
00000230: 7419 3bbd 9a40 15be ef92 043e 516f adbc
00000240: 54bd d23d 6b90 66be b6e1 2ebd f360 1abe
00000250: 039c b5bd 08f5 013e d0e2 773c 260f 3b3e
00000260: f1ae c03d b08d 3dbe 5ad0 fe3d 9785 853c
00000270: 0bc3 2b3e e3c0 fabb 7a32 d9bd 3992 de3d
00000280: 119c f1bd 94a7 5bbd fcfb 5fbd bba9 b3bc
00000290: 7228 70bd c1c0 433e 5e82 96bc b942 4d3d
000002a0: 9e34 883d 457b 363e d8e0 883d 0322 30be
000002b0: 9602 51be 80f4 74be 9133 89bd 39b9 6fbe
000002c0: 13bd 50bd 2d87 333e c6d2 64be 28a7 6a3d
000002d0: 71a9 53be e1e0 333e 0ee7 2e3e b124 8c3d
000002e0: ab44 643e 0c2f 4abe 5145 3dbe b12e 9ebd
000002f0: eb77 293c ecfa 553e f181 f43d ba73 993d
00000300: 274d 3dbd de1f debd 4a23 5a3e a5f2 8abe
00000310: f5e5 29be a094 e83d f898 313e e77f 5b3c
00000320: 7614 09bd 5325 b9bc 454e cc3c 1027 25be
00000330: 224f 243e e478 823e 88e7 ddbd 6346 d43d
00000340: 8bc6 60bd 8f3d 56be da89 06bd afdb 97bd
00000350: 1048 333e 9762 e6bc bc57 f7bd f3ee 57be
00000360: 2e57 483d 80e7 a53d ab80 79bc f1d3 4cbd
00000370: 0e52 e3bd 45a4 333d ad6f 0e3e 2330 02be
00000380: 6bab 7dbd 660a 65be bffc 333d 26ea a1bd
00000390: 7eb8 fbbd 8742 f7bd 7d41 193e 95c0 313e
000003a0: 30aa 2dbe 0f2f 90bd 04f0 5c3d 1fc7 9a3c
000003b0: 0786 17be e990 cfbc 4760 723d abb0 cc3d
000003c0: c6ab 15be deb5 52be f2d2 8e3d 087e d6bc
000003d0: 2ff8 cfbd 2372 5f3e e3aa 86bd b4ec 41be
000003e0: 7c25 abbd f7d3 e2bd 2ebf b5bd f2d1 64be
000003f0: 2639 4a3d fedc 4e3e 0e91 45be 8cc5 b93d
-0.14832115 0.13688879 0.034050867 0.1010528 -0.09541225 -0.16751572 -0.25576335 -0.014367055
-0.24729359 -0.16329084 0.09377913 -0.10399218 0.03584041 -0.20783176 0.03726691 0.11800922
0.0066170623 -0.01173524 -0.19757123 -0.16731481 0.046302628 -0.20318796 -0.0772535 -0.15591219
-0.068701185 -0.2353931 0.089027114 0.023285447 -0.17003421 -0.11532426 -0.062122844 -0.11615376
-0.121058255 -0.008706812 -0.097949445 0.029234616 -0.16231796 0.2097063 -0.13351199 0.09924255
-0.12820339 -0.16749303 -0.07208194 -0.10504968 -0.08223948 -0.1779518 -0.085041165 -0.17375381
0.17710297 0.14731233 -0.09471482 0.14781564 -0.09840052 -0.17699921 0.03736189 -0.047828507
0.16771367 -0.13313136 -0.19868487 0.13523535 0.04035453 0.02421983 -0.016129917 -0.19665585
0.0031111834 -0.04316024 -0.13850738 0.10612642 -0.23117115 -0.13234407 -0.05634429 -0.20720099
-0.21842419 -0.06437957 -0.051879037 0.14390503 0.09782325 0.12664264 0.026182018 0.0007934257
-0.08569827 -0.020044083 -0.20332669 -0.2368232 0.09852825 -0.119272895 -0.08589127 0.048788004
-0.14836392 0.07913381 -0.06598889 0.1241929 -0.15973617 0.14417993 -0.14495876 -0.21562473
0.20112313 -0.09768418 0.20377171 0.039943203 0.085035615 -0.033626623 0.012943584 0.019224614
-0.073542036 0.1319338 0.11839395 -0.03920148 0.016887542 -0.04504719 -0.05009875 -0.20808534
-0.12416393 -0.23322949 -0.103273205 0.06961803 0.08161462 -0.23707205 -0.19770326 0.16805409
0.00771674 -0.0008282394 0.06002769 0.13860576 0.08512839 0.120468445 -0.09889596 -0.109699145
0.07387404 -0.2598774 -0.22499241 0.101477645 -0.2248059 0.08137211 0.18559547 0.17804955
0.08966223 -0.02950181 0.03444749 0.07759343 -0.04567857 -0.14575425 0.12946676 -0.021171244
0.10290018 -0.22516029 -0.042695723 -0.15076046 -0.088676475 0.12691128 0.01512976 0.18267497
0.094083674 -0.1851108 0.12442084 0.016299052 0.16773622 -0.0076523884 -0.10605331 0.108677335
-0.117973454 -0.05362661 -0.05468367 -0.02193152 -0.05863232 0.19116499 -0.01837271 0.05011246
0.06650661 0.17820461 0.066835105 -0.17200474 -0.20411143 -0.23921394 -0.06699289 -0.234105
-0.050961565 0.17532034 -0.22346029 0.05728832 -0.20670106 0.17566253 0.17080328 0.06842936
0.2229182 -0.1974451 -0.18483473 -0.077237494 0.010343532 0.208965 0.11938847 0.07492776
-0.046216156 -0.10845922 0.21302524 -0.27138248 -0.16591628 0.11356473 0.17343509 0.0133971935
-0.03346678 -0.022600805 0.024939666 -0.16128182 0.16045812 0.25482857 -0.10835177 0.10364988
-0.054876845 -0.2092192 -0.03284631 -0.07414948 0.17507958 -0.028123183 -0.12077281 -0.21087246
0.048911266 0.08100796 -0.015228431 -0.05000681 -0.11099635 0.04385783 0.13909788 -0.12713675
-0.061931055 -0.22367248 0.04394221 -0.079059884 -0.122910485 -0.12073236 0.14966388 0.1735862
-0.16959453 -0.07040226 0.053939834 0.018893776 -0.14797221 -0.025337653 0.05917385 0.09994634
-0.14616308 -0.2057719 0.069738284 -0.026183143 -0.10154759 0.21820883 -0.06575563 -0.18937951
-0.08356759 -0.11075585 -0.08874355 -0.22345713 0.049370907 0.2020149 -0.19293615 0.09070882

fc2.weight f4 [128, 258]
00000000: 5374 c83c 1fb3 b83a a14b 2a3d 0ed1 bdbc
00000010: 050a 953d e23e b5bd e15e f43d e594 8a3d
00000020: 5017 5bbd 9d2d 7e3d cdfc e1bd 484b 51bd
00000030: ec1f e33c 31b1 2cbd e7ac b83c c8f1 d83d
00000040: 8c8e a6bd 4852 703d 18f5 eb3c 3625 3cbd
00000050: 06af 413c 0910 4ebd 2b55 493c 072c a2bd
00000060: 8065 e2bd d268 a1bc 5d31 e1bd 7b3f 423a
00000070: fae3 373c 4873 0a3d 0d9e a9bd 7ca9 18bd
00000080: f33e c43d 011c cdbd 9b27 79bd 509a 003e
00000090: 997d 83bc e3ed bd3d 6246 bbbd 6941 08be
000000a0: 5d51 ae3d f368 ec3c 7ca2 74be 8175 93bd
000000b0: fc59 88bc 85c8 b9bd 3421 7dbd f31f c0bc
000000c0: c71e 52bd 4cc7 f8bc fe43 fd3d 3a90 91bc
000000d0: 5230 2f3d 4aa9 393d 2a5a 89bd 7b00 263e
000000e0: bd7b d0bd 365c 0d3d 2e2a c83c 4ccc 6e3d
000000f0: 4450 7dbd c9cd 16bc c1ff b13d 6a20 e4bd
00000100: 1f67 d1bd e99d 17be 0556 31bd 925f d3bc
00000110: 57a0 613c 02ac e4bd 1acd 73bd 08ad d6ba
00000120: 6ff7 423d 46ad 40bb d5dd 14be ccf6 52bc
00000130: e52e 00bb dd4d 1a3d dd35 403d 15c7 12be
00000140: 3c0e d23d 3bd7 2f3d 6544 2fbb 359f 30bd
00000150: d9ad 043c 517b 0c3e acc1 b1bb da35 583d
00000160: 88d4 6cbc 6843 b6bd c02a db3d 7f14 85bd
00000170: 675d 1bbe e0da a5bd 1e9c d83d df5b cf3c
00000180: e67a 8e3d 505a 9dbd bce9 8abd 02d4 3abe
00000190: 4395 343d 6b06 97bd 57c0 76bd 2bb2 40bb
000001a0: 8c55 44bd 2633 b4bc 2468 00be dea5 1dbd
000001b0: 781c 103d 7043 493d b472 073d e166 823d
000001c0: 26e0 21bd c384 74bd 14e7 51bd 1c7b b33c
000001d0: 2019 31bd 6e80 2bbd a0ed b83d 5457 9e3d
000001e0: 7095 3cbd 6cab 7dbb 3a4c 90bc e89c e53c
000001f0: db8f b3bd 6c5a 43bd be63 433b 7667 28bc
00000200: 218d 89be 535f 3e3d 8a92 acbc 27ad a1bc
00000210: 1ca2 913d a183 d13d ca53 6dbd 264f 473d
00000220: 8cff c43d a77c bdbc 11f7 5f3d c923 9f3d
00000230: 6a89 88bc 5f02 e5bb 4758 2d3d ab97 913d
00000240: d95d 4bbd f325 eabd 1e5d 03be 63ce 3abd
00000250: f2fe 163d da9b b43c 836a f3bd 5ec9 9fbb
00000260: 0a02 033d c67d 373d 026d afbd 8d5f 1fbe
00000270: c31a 1a3c 1d51 e73c ed18 d53b cd44 0b3e
00000280: e95a d3bd 0e68 93bd 715b 6a3d 7f8c b0bd
00000290: 0835 afbd 84bc ec3b 4984 7dbd 0040 823d
000002a0: 513c 6a3d 6163 073d 8850 05bc 4010 69bd
000002b0: 462f 94bc a998 d2bc 01ff d5bc ca64 8d3c
000002c0: dcec 45bd 3a62 893d 86d6 883d 7ef9 883d
000002d0: 0183 b4bc 4b01 ec3b 0da4 a9bd 5474 cdbd
000002e0: 108c 16bd 19b8 69bc 8d88 aa3d 9c04 91bd
000002f0: c972 ccbd 6604 96bc 5f69 873b 8ac1 06bd
00000300: 3f8a 81bc 375e f8bd dc86 aebd 3cd6 e43d
00000310: c7e3 7a3d e60d af3d 5a98 df3d 4816 57bc
00000320: 17db b13d e20d a73c 8c38 0b3d bb3e 95bd
00000330: a074 933d 9aba 483d 64a4 4b3d 9cf7 b23b
00000340: a84e f0bd 6249 be3b 60b4 f43c 6432 493d
00000350: f7f7 cc3c da54 44bb 2281 a4bc 554b 113c
00000360: bb44 163d 45c2 d13c 5f55 13b9 8208 b2bc
00000370: 7697 15bd ccec 3fbd b601 cb3c 2215 203d
00000380: 7280 2abe 6dba 8abd 4ec1 e5bb 508e 08be
00000390: cfd6 773b 083b c3bc 249b abbd 215b 3fbd
000003a0: ca72 ea3d 6def 74bd 2266 a03d d8dd f13c
000003b0: 9abc c5bd b672 b2bb 8d91 3e3d d0aa 1a3d
000003c0: 7aac 93bc 1351 5dba f213 ac3c a80e c2bb
000003d0: 4545 583d 2dc1 463c fcb1 cabd 2a81 d03d
000003e0: 0689 ab3c 2a19 e13d cdb6 8e3d 65e7 95bb
000003f0: b0f9 863c 2ca8 7c3d 1d94 cc3c 3166 81bd
0.02446953 0.0014091468 0.04157603 -0.023170974 0.07277302 -0.088498846 0.11932159 0.06766681
-0.05348903 0.06205522 -0.11034546 -0.051097184 0.027725182 -0.04216117 0.022543384 0.10592991
-0.081326574 0.05867222 0.028803393 -0.045933925 0.011821514 -0.05030826 0.012288372 -0.07918554
-0.11054516 -0.019703303 -0.109957434 0.0007409972 0.011223787 0.033801347 -0.08282099 -0.037271008
0.09582319 -0.10015107 -0.060828786 0.12558866 -0.0160511 0.09273889 -0.09144284 -0.13306202
0.085116126 0.028858637 -0.23890108 -0.072001465 -0.01664447 -0.09071449 -0.061799243 -0.023452735
-0.051298883 -0.03036847 0.12366484 -0.017768968 0.04277069 0.045327462 -0.067066506 0.16211121
-0.10179851 0.034511767 0.024434175 0.0583003 -0.061844125 -0.009204336 0.08691359 -0.11138995
-0.10224747 -0.14806332 -0.043294925 -0.025802407 0.013771138 -0.111656204 -0.059521772 -0.0016378472
0.047599252 -0.0029400154 -0.14537747 -0.012876224 -0.0019559201 0.037671912 0.046926368 -0.14333756
0.10256621 0.04292987 -0.0026743647 -0.04312058 0.008098089 0.13718916 -0.005424699 0.05278573
-0.014454968 -0.088995755 0.10701513 -0.0649805 -0.15172349 -0.08098388 0.10576652 0.025312362
0.06957035 -0.07683241 -0.067828625 -0.18244937 0.04408766 -0.07374271 -0.060242023 -0.0029403071
-0.047933146 -0.021997046 -0.12539726 -0.03848826 0.0351834 0.04913658 0.033068374 0.06367279
-0.039520405 -0.059696924 -0.051245764 0.021909289 -0.04323685 -0.041870527 0.09029698 0.077315
-0.046040952 -0.0038706912 -0.017614473 0.02802892 -0.08767673 -0.047693655 0.002981409 -0.010278573
-0.26865485 0.046477627 -0.021065969 -0.019735886 0.07110998 0.10230184 -0.057941236 0.048659466
0.09619054 -0.023130728 0.05467898 0.07770497 -0.016667087 -0.006988808 0.042320516 0.071090065
-0.049650047 -0.114330195 -0.1282849 -0.045606982 0.03686423 0.022046972 -0.1188555 -0.0048762998
0.031984366 0.04479768 -0.085657135 -0.15563793 0.009405795 0.02823692 0.0065032155 0.13600464
-0.10320074 -0.07197581 0.05721611 -0.086205475 -0.08555037 0.0072246213 -0.061893735 0.06359863
0.05718643 0.03305376 -0.008136876 -0.056900263 -0.018088948 -0.02570756 -0.026122572 0.017259974
-0.04832159 0.06708188 0.06681542 0.06688212 -0.022035124 0.0072023026 -0.08283243 -0.100319535
-0.036754668 -0.014265084 0.08326826 -0.07080957 -0.09982831 -0.018312644 0.0041324343 -0.032899417
-0.015812991 -0.12127345 -0.08521816 0.111736745 0.06125238 0.08547573 0.10917731 -0.013127871
0.08684366 0.020392362 0.033989474 -0.072873555 0.07199979 0.049006082 0.049717322 0.0054616462
-0.117337525 0.0058070878 0.029871166 0.049120322 0.025020583 -0.0029957802 -0.020081107 0.008868058
0.03668664 0.02560533 -0.00014050816 -0.021732572 -0.036521398 -0.046856686 0.02478109 0.039082654
-0.1665056 -0.06773839 -0.007011569 -0.13335538 0.0037817245 -0.02383186 -0.083792 -0.046717767
0.114476755 -0.059798647 0.0783198 0.029524729 -0.096551135 -0.0054458035 0.046525527 0.037760556
-0.01802658 -0.0008442562 0.021005604 -0.0059221573 0.052800436 0.012131018 -0.09897229 0.10180886
0.020939361 0.10991128 0.0696846 -0.0045747035 0.016476482 0.06168382 0.02497297 -0.063183196

fc2.bias f4 [128]
00000000: 2ffd ac3d b4e5 773d 93e0 46bd 7717 093c
00000010: 71f8 fcbb c6f7 a3bc a8f7 d239 6946 cc3c
00000020: dd5d 0b3d 9bc1 e6bd 12de 383d 0f44 e7bd
00000030: bd52 f13d 3c32 e7bd 7be3 27bd b108 59bc
00000040: da79 353a 6a5a 3abd e5e3 5e3b a28b 22bd
00000050: b42d 40bc c167 80bb acb2 473c 55a8 76bd
00000060: 86ba 813b 870f 9dbd 0655 413d 7bbd 97bc
00000070: 21f4 47bd 62e4 04bd d06b 54bd 2aba ba3b
00000080: bf58 08bc 29be 16bd b891 96bd 3ef8 9d3c
00000090: e562 143d d2d5 343c 3aac 823d 4626 513a
000000a0: d81c 6bbd 4f4f d1bd 71cf 1fbd 87db e53c
000000b0: 1772 2a3c 77f1 45bd 4888 f8bd b71d 56bd
000000c0: 179a 8c3c 39b6 d6bc 59df dfbd f9ef 57bb
000000d0: dcf7 a2bd f489 23bd ddf9 4a3d e649 a4bd
000000e0: 77c8 603d e930 d5bd c280 643d f614 debd
000000f0: e665 bebb 1b3a 09bd f2bd 0dbd b903 213e
00000100: e309 47bc e5c3 773c ad72 ffbc 297c 2b3d
00000110: 3e71 90bd 640e d1bc f545 9c3b e5b7 cc3c
00000120: 4860 b1bd 73a1 20bd 8e83 073c ce03 b13c
00000130: eaf4 74bd 5de9 573d 9ac6 e03d b7db af3d
00000140: cdbd 66bd 1cb8 5cbd f555 ab3d 3480 33bd
00000150: 6112 05bd 0e0b d43c faf0 9ebd 6c70 8cbd
00000160: 0c90 b23d a5fc 8a3d a998 d73b beb4 25bc
00000170: c67d 5bbd 4cf2 db3d 162f 3d3d 6d1c f9bc
00000180: 6dc1 3abd 7645 3fbd f994 45bd 803c 773b
00000190: b98e fe3c 65c6 3c3d 0f38 1f3b 6c4d cf3c
000001a0: d1a0 e038 2c20 f9bd 362b 2cbd e0a7 993c
000001b0: 8df6 0e3c b06b 05bc d539 683d c926 08bd
000001c0: 2421 86bb 7bcb 023d 2c84 e73c e65e babc
000001d0: b43f 063d c971 e7bd b1cb ac3d 0c23 983c
000001e0: 6c89 9a3d dffd 0b3d 3af3 0cbd 229a 5dbd
000001f0: bd70 ea3c 2914 413d 0792 58bd d678 393d
0.084467284 0.060521796 -0.048554014 0.008367411 -0.007720046 -0.020015609 0.0004023884 0.024935918
0.034025062 -0.11267396 0.045133658 -0.11292278 0.11783359 -0.11288878 -0.040988427 -0.013246701
0.00069227593 -0.04549638 0.0034010347 -0.039683945 -0.0117296465 -0.0039186184 0.012188595 -0.060219128
0.003959003 -0.07668977 0.047200225 -0.018522969 -0.048816804 -0.032444365 -0.05186063 0.005698462
-0.00832194 -0.036802445 -0.073520124 0.01928341 0.036227126 0.011037307 0.06380506 0.00079784205
-0.057400554 -0.10220205 -0.03901619 0.02805878 0.010403178 -0.048325982 -0.121353686 -0.052274432
0.01716332 -0.026209937 -0.10931272 -0.0032949431 -0.07957432 -0.039926484 0.049554694 -0.080219075
0.05487868 -0.104097195 0.055786856 -0.10843842 -0.005810487 -0.03350268 -0.034604974 0.15724076
-0.012148353 0.0151223885 -0.031182611 0.041866455 -0.07052849 -0.025519557 0.0047690817 0.024990031
-0.08660942 -0.03921647 0.008271111 0.02160826 -0.05980388 0.052712787 0.1097538 0.08586829
-0.056333352 -0.053886518 0.083660044 -0.043823436 -0.03248823 0.025884178 -0.077608064 -0.0685738
0.08718881 0.06786469 0.006579478 -0.010113893 -0.053586744 0.10739574 0.046187483 -0.030409062
-0.04559462 -0.046697102 -0.048237775 0.003772527 0.031073915 0.04608764 0.0024294888 0.025305472
0.00010711107 -0.121643394 -0.042033397 0.018756807 0.0087257745 -0.0081433505 0.056695778 -0.033240113
-0.004093306 0.031932335 0.028261267 -0.02275033 0.032775596 -0.11301 0.084372886 0.0185714
0.075457424 0.034177657 -0.034411646 -0.05410207 0.02861821 0.047138367 -0.052873638 0.045281254

fc3.weight f4 [1, 128]
00000000: 9c98 3f3c abfc 913c 3cbe 0cbe 6361 a2be
00000010: 8d53 c33c ca00 90be 446a b7bd 85ef a33c
00000020: 1211 063d 4406 34bc 489c b0bd ba48 a6bc
00000030: 0a52 733c 2cf0 82bc 3a92 11be 5244 91bd
00000040: f5f5 0c3d 40fb 57bc 2154 cebd 312e 4dbc
00000050: a0b0 eb3d df80 31bd eab6 1b3c 2102 803d
00000060: 6b7a dc3c 9c63 723d c407 34be 8457 34bd
00000070: 96cd 09bd d0e2 4abd fc0d 58bb a13a a4bc
00000080: b02c cbbd 75fd bcbb e14d 84bc 6b66 ce3d
00000090: 51f0 bbbd 18f8 a63c b778 de3d 64fc a5bd
000000a0: 93ac d53d f76e 32be bf47 11be b06b 85bd
000000b0: a8a3 c0bd 6141 f83b 39c2 51bd fbcf d0bc
000000c0: 799a 03bd 4b8f a7bd d9a6 04bd 8ded dfbd
000000d0: d5e9 e1bd fe38 423c 8ad8 803c aa0c 583c
000000e0: 1d3a e63c 0e5c 57bc fd7b 3fbd d990 143d
000000f0: 68d1 92bd 1817 593d a293 eabc 3552 733d
00000100: f62f 55bd f2b8 c23c 923e 133d 23e4 22bd
00000110: f564 cbbd cd86 083d 8c07 88bd 28e7 82be
00000120: 2f57 b53c 790b 3cbe 338e bf3c 71c6 7b3c
00000130: db0e 1f3b d38d a8bd ed5e 123d 8f7f 3b3d
00000140: f961 10be 0ace 873d 107f 523c b186 6fbd
00000150: 9eeb 133d 531e 9b3d d900 10bc 55e2 35bd
00000160: 8adb 603c 3220 b4bd eee2 d7bc f21e 063b
00000170: 1e96 e7bd b41a 023d f5ae 1b3c c941 babd
00000180: 84bf 2cbb 9838 5fbd 1f8d c5bd 9a90 ecbb
00000190: d33c e93d fd11 29bd 179b 81be c505 49bd
000001a0: 0432 f03d a628 253e 9bb2 25bd 7e4c 46be
000001b0: e919 01bd 879d 383d b324 303d b8e6 01be
000001c0: 07a6 febb 0e9b 573c 2c5f 993c ae96 20be
000001d0: 378a 5b3d 630c 7c3d be02 86bd b174 763c
000001e0: 056a d13c fbe9 a5be 8741 c83b bc3e 7dbd
000001f0: 2e92 8abd 854d 0bbe 681f 1b3d 9ec3 393d
0.0116941 0.017820677 -0.13744444 -0.31714925 0.023843551 -0.28125602 -0.089558154 0.020011673
0.032731123 -0.010987822 -0.08623558 -0.02029835 0.014851103 -0.015983663 -0.14215937 -0.07093109
0.03441425 -0.013182461 -0.1007464 -0.01252322 0.11508298 -0.04333579 0.009504059 0.06250406
0.026913842 0.059177026 -0.17581087 -0.044028774 -0.033643328 -0.04953271 -0.003296732 -0.020047488
-0.09920633 -0.005767519 -0.016150417 0.100781284 -0.09176696 0.020381972 0.10862868 -0.0810478
0.104333065 -0.17425142 -0.14187525 -0.065146804 -0.09406215 0.007576153 -0.051210616 -0.025489798
-0.03212974 -0.08181628 -0.03238568 -0.10933981 -0.11030928 0.011854408 0.015728254 0.013186613
0.028103882 -0.013144506 -0.046749104 0.03627095 -0.07168847 0.05300054 -0.02863485 0.05940457
-0.052047692 0.02376983 0.035948344 -0.03976835 -0.099313654 0.03333168 -0.066420645 -0.25566983
0.022136299 -0.18363751 0.023383236 0.015367136 0.002427033 -0.08230176 0.03573506 0.045775946
-0.14099874 0.06631096 0.012847677 -0.05847806 0.036113374 0.07574143 -0.008789265 -0.0444053
0.013724217 -0.08795203 -0.026353326 0.0020465222 -0.113079295 0.031763747 0.009502162 -0.09094579
-0.002635927 -0.05449733 -0.09646057 -0.0072193863 0.113885544 -0.04127692 -0.25313637 -0.049077768
0.1172829 0.16128787 -0.040453535 -0.19365117 -0.03151885 0.045072105 0.04300375 -0.12685668
-0.007771257 0.0131595265 0.01872214 -0.1568248 0.05359861 0.06153525 -0.06543492 0.01504247
0.02556325 -0.32405075 0.006111327 -0.061827406 -0.06766163 -0.1360379 0.03787175 0.04535257
