project3-tennis/models/ddpg_agent1_critic_target.pth (torch_old, 159783 bytes, 5 tensors)

fc1.weight f4 [256, 24]
000000 0a 3c 21 bd 64 87 ab bc 13 82 d6 3c 49 3f 22 bd
       -0.0393639 -0.020938583 0.026185071 -0.039611135
000010 2c d1 18 bb ed 82 5d be f1 d0 b0 bc 28 42 e5 3c
       -0.0023318036 -0.21631975 -0.021584006 0.027985647
000020 e6 df 36 bd 8d ef aa 3b a7 91 86 bd 01 56 86 3c
       -0.04464712 0.005216545 -0.0657075 0.016398432
000030 ae e3 88 3c 60 dc cb bd 7b cf 0b 3d 69 da c9 3c
       0.016710129 -0.099541426 0.034133416 0.024640279
000040 ed ab 87 3b e1 0b 18 bd 6e 56 35 3d d2 24 e9 bb
       0.004140368 -0.037120704 0.04427188 -0.007114985
000050 94 3b 8d bd b9 eb 36 3e e4 29 51 bd 6e 90 a6 3c
       -0.06896129 0.17863359 -0.05106534 0.020332541
000060 be ff 88 3e 01 0e e3 3d b1 0d 1e bc b2 7b 4d bc
       0.26757616 0.110866554 -0.009646819 -0.012541698
000070 75 06 d9 bd dc 9c 16 be fe 7d 0f 3d a5 62 0a bd
       -0.10596935 -0.14708275 0.035032265 -0.03378548
000080 a1 cd bd 3c 2b ef f6 bd 6b 30 a9 3c ce 00 d9 3c
       0.02316934 -0.120573364 0.02065297 0.026489642
000090 ac 5b a2 3d 9c f8 61 3d bb 2c 7c bc 83 2e c8 3c
       0.07927641 0.055168733 -0.015391524 0.024436241
0000a0 e3 f6 71 3c 8a 95 0c be 11 86 c6 bb 35 af 92 bd
       0.014768335 -0.1372892 -0.0060584624 -0.07162324
0000b0 1a 1f 1f 3e b0 c5 eb 3d 9e ec 14 3d 22 0b 33 bd
       0.15539208 0.11512315 0.03635847 -0.04371179
0000c0 dc 71 14 3b 2c b1 98 bc 66 18 f5 bb 95 18 80 bc
       0.0022650873 -0.01863917 -0.007479715 -0.015636722
0000d0 9f 7a 6f bd dd c8 2b be d4 85 62 3c 23 cb 11 bb
       -0.05846655 -0.16775842 0.013825852 -0.0022246323
0000e0 0f 1c 94 bc 78 6c 4f bc 63 bd a7 ba a9 67 8d bd
       -0.018079786 -0.012660138 -0.001279753 -0.06904537
0000f0 0f fd 53 3d 35 a4 57 be 6b 16 56 3c fe d6 f5 3b
       0.051755007 -0.21058734 0.013066868 0.0075024357
000100 51 b0 22 3b 93 1b ac bd d6 ab 29 3d bb af d2 3d
       0.002482433 -0.08403697 0.04142364 0.10287424
000110 8f 1a 08 3e 93 25 6e bd a6 15 92 bc 4d b6 d7 3d
       0.13291381 -0.058141302 -0.017832588 0.10532818
000120 b3 a3 5d 3d 1c 27 a9 bc 67 fe c0 3b 87 72 10 bc
       0.054111194 -0.020648532 0.005889702 -0.008816368
000130 0f 10 b8 bd cb bd 11 3e b3 08 8b 3c 21 bc 3a 3c
       -0.08987438 0.14232557 0.016971922 0.0113973925
000140 d0 2d 80 3b 55 c0 c1 3c 00 6a 14 bd ce 64 06 3d
       0.0039117113 0.023651281 -0.036233902 0.03281098
000150 6c 33 e5 bc c0 cb 1d 3d 31 2d e3 3c 2a cc 37 bd
       -0.027978621 0.03852439 0.02773151 -0.04487244
000160 f2 d5 2a bd b0 58 d2 3b 09 cb 98 bc d8 71 34 bc
       -0.04170794 0.006419264 -0.018651502 -0.011013471
000170 09 69 cc 3d 98 40 d4 bd b3 45 6d bb e8 2f 9d bc
       0.09980971 -0.10363883 -0.0036204874 -0.019187883
000180 04 8b fa 3d 75 ed d2 bd 18 18 66 bd 0d 96 f9 3c
       0.122335464 -0.102991976 -0.05617532 0.030467058
000190 db 9a d9 3b 5d f5 5c 3d e7 1f 94 3b e6 84 72 bc
       0.0066407747 0.053944934 0.0045204046 -0.014802193
0001a0 8b b7 59 3c 42 95 ed bc 31 a5 ca bc ff 50 5d bd
       0.013288389 -0.029001836 -0.024736973 -0.054032322
0001b0 57 c7 e2 3d 31 43 52 3d 23 ae 3e bd 26 cf 2f 3d
       0.11073177 0.05133361 -0.04655279 0.04292216
0001c0 8a d0 fb 3d b0 c7 1f bd 0a 2e 41 3b d7 eb 61 bd
       0.12295635 -0.039008796 0.0029476904 -0.055156555
0001d0 d0 7d 38 3e f1 fd 0f 3d fc 7e 35 3d da c0 c7 bd
       0.18016744 0.035154287 0.044310555 -0.097535804
0001e0 2e 71 d6 3d 7d a0 a6 3d 7d 07 42 3c e0 14 9e 3c
       0.10470806 0.081360795 0.011842606 0.019297063
0001f0 fb 29 47 3e 64 87 0d bd 84 8c ed bc 3d c9 b4 bc
       0.19449608 -0.034552947 -0.028997667 -0.022068614
000200 b4 a4 af 3d ef 23 14 bd d2 da 8b 3c 63 2f 2b 3c
       0.085763365 -0.03616708 0.017072115 0.01044831
000210 86 03 cd 3d 6d bc c5 3c a7 18 fb bb 64 42 57 bc
       0.10010438 0.0241377 -0.007662851 -0.013138387
000220 b9 dd 89 bc be 51 2a bc f1 7d b7 bc d0 6e 25 3d
       -0.016829358 -0.010395465 -0.02239892 0.040388882
000230 f3 45 ee bd f5 2a 8d 3e 91 47 de bb fe ac 05 bd
       -0.116344355 0.27571836 -0.0067834337 -0.03263568
000240 20 b2 c3 3d d6 ca 50 3e f9 0c 20 bd 79 05 2e bd
       0.09555459 0.20389876 -0.03907487 -0.042485688
000250 60 6e 90 3c 0e 1d e2 bd 0a cf cb 3a 54 9a 34 3c
       0.017630756 -0.11040698 0.0015549373 0.011023123
000260 58 83 67 3d ab 19 37 3e 3f 52 0f 3d 5e 65 a1 3c
       0.056521744 0.17880885 0.034990545 0.019701656
000270 9b 91 de 3b 10 aa 3c bd ef a6 3e bd 2f 2f de bc
       0.00679226 -0.04606062 -0.04654592 -0.027122108
000280 2d c5 84 3d 06 ee 2c 3e 58 44 8b 3b e4 3b 86 bd
       0.06482921 0.16887674 0.0042500906 -0.06554392
000290 ce e0 36 3e 2a b1 48 bd be aa d5 3a bb 85 c6 bc
       0.17859194 -0.04899708 0.0016301495 -0.02423369
0002a0 2d 30 8a 3b 7f 07 52 bc 08 ce ba bc 6a 60 5e bc
       0.004217169 -0.01281917 -0.022803321 -0.013572792
0002b0 1f b8 70 3d a6 20 d5 bc 70 44 35 3c 40 68 14 3c
       0.05876934 -0.026016545 0.01106368 0.009058058
0002c0 6e 99 a4 3c 23 69 3c bd e2 36 60 bd ea 76 09 bd
       0.020092692 -0.045998704 -0.05473984 -0.03356067
0002d0 0f f1 ac bd ed c4 cc bb b1 db 89 3c c1 6b 14 3d
       -0.08444416 -0.0062490613 0.01682839 0.036235575
0002e0 db b9 6b bc 6d 36 0a be e2 12 38 bc d3 22 20 3d
       -0.014387573 -0.13497324 -0.011234971 0.03909571
0002f0 81 cf 73 be c7 11 e1 3d 60 16 2a 3c 4f 57 68 3b
       -0.23809625 0.10989719 0.010381311 0.003545243
000300 de 6c bb 3c 50 ed 52 bd ef c9 18 bd 5f 75 eb 3c
       0.02287906 -0.05149585 -0.037301954 0.02874249
000310 65 2c 21 3e 6d ab 9a bc c7 96 84 bc 4a 4a 93 3b
       0.15739591 -0.01888057 -0.016185177 0.00449494
000320 98 32 5a bd 78 55 75 bc cc 27 39 3d 99 cd 83 3d
       -0.053270906 -0.014973991 0.04520397 0.06435699
000330 ec 80 56 3d 08 4e 1f 3d fb c2 1d bd 34 a1 6b bc
       0.052369043 0.038892776 -0.038516026 -0.014381696
000340 7f a9 8f bb 28 ff b3 bd 51 d1 98 bc a0 ae 4c 3a
       -0.004384219 -0.087889016 -0.018654497 0.00078080036
000350 4c b4 85 bd b0 5a 80 3d a7 39 89 bc 2f 29 c2 bc
       -0.065285295 0.06267297 -0.016751124 -0.023701278
000360 b6 58 61 bd c7 07 42 3d b3 5b e3 bc 99 7d 6a 3d
       -0.055016242 0.0473707 -0.027753687 0.057248686
000370 5c 1e 55 bc a2 ae 2c bd b2 b7 24 3d 48 d8 49 3d
       -0.0130077265 -0.04215873 0.040214248 0.049278527
000380 1e d3 64 3d 34 2f 38 3d a0 06 49 3d 91 bb 3d 3c
       0.0558654 0.04496689 0.049078584 0.011580364
000390 69 89 28 bd 8f 20 07 be c7 e7 9c bc 6b 8f 8e 3a
       -0.04114667 -0.13196014 -0.019153489 0.0010876482
0003a0 cd db 2b bd 3d 7c e0 3d 23 20 27 bd 71 a4 3c 3c
       -0.041957665 0.109611966 -0.040802132 0.011513815
0003b0 45 04 70 bd 91 5f 3c be 0c a3 23 3d c3 dc c8 bc
       -0.05859782 -0.1839583 0.039950415 -0.02451933
0003c0 6c a5 8b bd 15 d6 84 3d 4a 1b b3 3c 50 29 b1 3a
       -0.06818661 0.064861454 0.021863598 0.001351634
0003d0 be 15 79 bd f5 08 bc 3d 50 0e 0f 3c 62 e1 4e 3d
       -0.06081175 0.09181396 0.00873144 0.05050791
0003e0 5a 55 62 bd 58 b4 c9 3c 60 74 21 3d 6e 49 ab 3b
       -0.05525718 0.024622127 0.039417624 0.0052272594
0003f0 93 5a 00 3d 0f cc bb bd 30 70 38 bd 0e 6a 95 3c
       0.03133638 -0.091697805 -0.045028865 0.018239047

fc1.bias f4 [256]
000000 b2 08 fc bd b3 f4 19 3e 27 e1 a5 3d c4 e3 b5 3d
       -0.12306346 0.15034752 0.08099585 0.088813335
000010 3b 18 f5 bd 72 86 12 be 9d df 6e be 55 ff 97 bd
       -0.11967512 -0.143091 -0.23327489 -0.074217476
000020 18 80 4f be e7 fe ee bd a3 6f 19 3e f6 54 3b bc
       -0.20263708 -0.116697125 0.14983992 -0.0114338305
000030 b2 6d 0b 3e 1e 27 52 be d0 43 a8 bc ba 28 b6 3d
       0.13616064 -0.20522735 -0.020540148 0.08894487
000040 b1 2b 72 3c 1b 33 1f bd 4f fe 23 be 30 fb 2f be
       0.014780925 -0.038867097 -0.1601498 -0.17185664
000050 d6 25 70 3d 1f 8f 41 be c3 e8 06 be 7c 56 1e be
       0.058629833 -0.18902253 -0.13174729 -0.15462679
000060 0f ae 36 bd 66 a4 8a be 21 df 6e 3c f4 b6 07 3c
       -0.04459959 -0.2707855 0.014579565 0.0082833655
000070 65 c1 48 be cf 30 06 be b9 a8 90 bd 13 49 fa bd
       -0.19605024 -0.13104557 -0.07063431 -0.12220969
000080 c2 4d ce bd 37 50 01 bd f2 94 a7 bd e2 77 17 3d
       -0.10073425 -0.03157064 -0.08182706 0.036979564
000090 57 9d 35 be 36 c7 8e 3e e2 ff 08 be 45 f7 b5 3d
       -0.17735802 0.2788636 -0.13378862 0.088850535
0000a0 5c 30 e7 bd 20 ef 29 be a1 4f 1d bc db ea fd bd
       -0.11288521 -0.16595125 -0.009601505 -0.12398311
0000b0 c4 4a b6 bd f2 f1 0c be 54 ab 13 be 6b 93 36 be
       -0.08900979 -0.1376417 -0.14420825 -0.17829673
0000c0 43 74 33 3e 50 00 2b 3e 47 0c 10 be 3d ac 11 3e
       0.17524819 0.16699338 -0.14067183 0.1422586
0000d0 de 6c ee bd be 24 37 be 68 bb 34 3b b4 f3 fa bd
       -0.116418585 -0.1788511 0.0027577523 -0.12253514
0000e0 fe aa 33 3e 42 6e 9e bd 61 fb 74 be c6 e5 1b 3e
       0.17545697 -0.07735874 -0.23924018 0.1522437
0000f0 75 25 3a 3d 7e ae 72 3d 8b e4 ee bc 67 21 66 be
       0.045445878 0.05924844 -0.029161712 -0.2247368
000100 59 7f 12 bb ac 59 cf bd 37 f1 d4 bd af 74 c6 3d
       -0.0022353737 -0.101245254 -0.103975706 0.096902244
000110 b2 e4 4f be 7e d6 ee bd c9 7e 98 bd 31 4d 2f be
       -0.20302084 -0.11662005 -0.07446057 -0.1711929
000120 49 40 55 be c9 a6 b5 bd 12 7d b1 bd 34 cf af 3d
       -0.20825304 -0.08869702 -0.086664334 0.08584443
000130 64 54 d6 3d 97 f7 f6 3d 4c 47 cc 3d 08 87 3a 3d
       0.10465315 0.12058943 0.09974536 0.045538932
000140 38 11 8f bd 8f cb 9c bd 56 65 6c be 58 17 4f be
       -0.06985706 -0.07656013 -0.23085532 -0.20223749
000150 26 7d f1 3d 76 3e 2e be 45 cd 24 be f2 fe 22 3d
       0.11791448 -0.17016014 -0.16093929 0.039793916
000160 af 23 ca bd ec a3 bc 3d 77 ae a3 bc 4d a8 0a 3e
       -0.09870087 0.09210953 -0.019980652 0.13540764
000170 12 5d e4 bd 95 5f c9 3d 8d 6a 1e be 2f 0e 4b be
       -0.11150564 0.09832684 -0.15470333 -0.1982963
000180 11 86 ec 3d e4 00 0f be d2 04 f1 3d 0c 9b b8 3d
       0.11549009 -0.13965183 0.117684975 0.09013948
000190 df d6 c4 3d c7 6f a6 bd 62 24 e8 3c ce 45 11 3d
       0.09611296 -0.081267886 0.028337661 0.03546696
0001a0 7c bb 4e bd 00 2c 02 3e 45 75 f3 3d 10 b6 54 bd
       -0.050471768 0.12712097 0.11887602 -0.05193144
0001b0 70 e5 eb bc 17 8a 33 bd 81 a6 20 bd a3 38 42 be
       -0.028795928 -0.043832865 -0.03922129 -0.18966918
0001c0 9e 5b a6 bd 77 39 7f be ea 72 71 bd 34 9a a5 3d
       -0.08122943 -0.24924265 -0.05894748 0.080860525
0001d0 4b 16 f8 3d cf 46 4b be ea 6c 23 be 8e c9 10 3e
       0.12113627 -0.1985123 -0.15959516 0.14139387
0001e0 a9 6d 8f bd 0a 4c a0 bb 81 5c cd 3d 8e 29 13 3e
       -0.07003338 -0.004891877 0.10027409 0.1437132
0001f0 07 4a 80 3d af 26 15 3d 7f 3b dd bd a3 86 21 bd
       0.062641196 0.036413845 -0.108023636 -0.03943504
000200 3b f6 b3 3d f9 a5 57 be 47 6c 63 be 4f 65 11 3e
       0.08787199 -0.21059407 -0.22209273 0.14198802
000210 3c 99 5f be 0f 55 78 3d cc c2 4f 3e 21 d9 d3 3d
       -0.21835798 0.060627993 0.20289153 0.103441484
000220 e1 d9 84 3d d0 4b b5 3c 49 13 87 bc f5 4c f2 3d
       0.064868696 0.022130877 -0.016488688 0.11831085
000230 43 40 d9 bc 7b a8 2b be b5 5f 07 3e 57 fb 76 3a
       -0.0265199 -0.16763489 0.13220103 0.0009421608
000240 67 43 f5 3d 92 90 49 be 4d 0b 95 bd 94 be 18 be
       0.119757466 -0.19684055 -0.07277546 -0.1491645
000250 b4 cc 44 bd 9d 07 5a 3e 88 ba 7b bd 93 5a 40 3e
       -0.048046783 0.21291967 -0.061457187 0.18784551
000260 b1 66 45 3e 85 95 18 be 3c 06 28 3e 7d 16 2b bd
       0.19277455 -0.14900787 0.16408628 -0.041769493
000270 16 8a 03 3e 49 8a 40 bd c0 1a 0a be ee c2 fb 3d
       0.12845644 -0.04700688 -0.13486767 0.12293039
000280 4a 3f 13 be 01 6e df bc 93 0c 40 bd 03 f7 ac bc
       -0.14379612 -0.027274134 -0.04688699 -0.021113878
000290 08 cf 9c bd 73 11 3d 3e fb 53 04 bd fe 8d c5 3d
       -0.076566756 0.18463688 -0.032306653 0.096462235
0002a0 3a c5 70 3d 9e 2a 17 3e b8 90 9e 3d 17 9f 4c be
       0.05878184 0.14762351 0.07742447 -0.19982563
0002b0 83 8e 1e be ad 42 83 be b7 2c 79 be 96 b0 66 be
       -0.15484051 -0.25636807 -0.24333464 -0.225283
0002c0 24 2c 27 bd 5f f6 12 3e 4f 59 1b be ac ab 38 3d
       -0.04081358 0.14351796 -0.15170787 0.045085594
0002d0 c2 da d1 bd 83 3a 2c 3e c1 18 0c 3e cd 67 a1 3d
       -0.10246803 0.16819195 0.13681318 0.078811266
0002e0 b2 65 53 3e 84 ab 06 be 3c 8c 61 be 34 8c 02 be
       0.20644262 -0.13151366 -0.22026151 -0.12748796
0002f0 19 a7 33 3c 01 9d 50 3e d3 8d 46 3d da 93 8b 3d
       0.010965132 0.20372392 0.048475098 0.0681531
000300 82 b1 3c bd 0e 4f 0d be c8 97 30 3e 8c 97 45 be
       -0.046067722 -0.13799688 0.172454 -0.19296092
000310 9a 4a 34 be c2 90 71 3d cd be 5d 3e 55 99 ce 3c
       -0.17606583 0.058975942 0.21654816 0.025219599
000320 c9 2c c3 bc 4d 66 65 3d 5a f2 03 3d 51 93 1c be
       -0.023825066 0.056005765 0.032213546 -0.15290572
000330 2c 9b 2c 3e 8c 39 69 3e 8a 4e c6 bd ab 90 fc 3d
       0.16856068 0.22775859 -0.09682949 0.12332281
000340 e6 4b c5 bd 6e bc 59 be 7f 42 61 3a 57 5a e9 bd
       -0.09633617 -0.21263286 0.00085929775 -0.11394184
000350 82 f3 34 3e e6 ec 25 bc e0 fd f2 bd 1b 77 55 be
       0.17671016 -0.010127282 -0.11864829 -0.20846216
000360 d7 e7 95 3d 8b 5c 46 3d 40 de 6a 3c 75 b7 c0 bd
       0.073196106 0.0484281 0.014335215 -0.09409992
000370 b7 88 d8 bd 50 04 0c 3d 83 f6 a8 3d de 24 2e bd
       -0.10572951 0.0341838 0.082501434 -0.042515628
000380 93 62 40 bd 94 f5 5f be d0 fe a3 3c 8f df 04 be
       -0.046969008 -0.21871024 0.020018965 -0.12975906
000390 a2 1f b4 bd 42 4c e7 bd df dd 25 3e 43 23 62 3d
       -0.08795096 -0.11293842 0.16197918 0.05520941
0003a0 2a 52 ae bd db cb d5 bd 74 2f 9f 3c 98 13 f9 3d
       -0.08511765 -0.10439273 0.019431807 0.1216194
0003b0 c2 9d e7 bd 5f e1 cf 3d fa af b5 3c 6f 30 94 3d
       -0.11309387 0.10150408 0.022178639 0.072358005
0003c0 97 ca 21 be 5d 40 56 be a0 05 34 3d df 9a a2 bd
       -0.15799938 -0.2092299 0.043950677 -0.079396956
0003d0 0b b4 0b be 95 e2 f5 3d 53 b0 a6 bd e4 76 30 be
       -0.136429 0.12006108 -0.081391 -0.17232853
0003e0 66 63 9d bd 8a 50 08 be 96 fd 04 be 4a 56 57 be
       -0.07684974 -0.13311973 -0.1298736 -0.2102901
0003f0 d4 68 99 3d 76 c5 2b 3e a9 eb 3f be 62 05 ac 3d
       0.074906975 0.16774544 -0.18742241 0.08399464

fc2.weight f4 [128, 258]
000000 7f 48 56 bd 6e 8b ae bd 1e 32 d8 3c f4 47 a7 3c
       -0.05231523 -0.08522688 0.026391085 0.020420052
000010 e5 86 0d 3d 5f 05 af bd 3a 2d 0c 3d 79 06 88 3d
       0.034552474 -0.08545946 0.03422282 0.066418596
000020 35 1b cf bc f7 1e f3 b8 a1 b7 82 bc 7c e6 e1 bd
       -0.025281528 -0.000115929106 -0.015956702 -0.110302895
000030 25 d4 c2 bd 18 f0 8f bd d4 72 f7 3d 42 21 e4 3d
       -0.095131196 -0.07028216 0.120824486 0.11139156
000040 2f 67 16 bd 00 4e a6 3a 4c 7d 5e bc fb 2e 82 bb
       -0.036719497 0.0012688041 -0.013579678 -0.0039728857
000050 e3 81 b3 3b f2 61 a8 bd b2 05 a6 3c 12 6a 6c 3b
       0.00547813 -0.082218066 0.020266388 0.0036073965
000060 64 cf 81 bd 37 6e 0d bd d3 ef 0a bd b5 0e 97 3d
       -0.06338385 -0.034528937 -0.03392012 0.07375852
000070 b9 7c 84 b9 56 e7 29 3c 02 fe 4a 3a 3f 70 8e 3d
       -0.00025269928 0.010370096 0.00077435386 0.06955003
000080 04 ab 3a b6 61 9e c2 be a3 7a e2 bd 4b 91 a6 3d
       -2.7815704e-06 -0.3801146 -0.11058547 0.08133181
000090 5c b6 49 bd 3f f0 36 3d a3 16 4a bd 74 17 98 bc
       -0.049246177 0.04466271 -0.049337994 -0.01856587
0000a0 9a dc b1 3c 98 13 cb 3c 02 db 18 3c 3e f2 b1 bc
       0.021711636 0.024789616 0.009329559 -0.021721955
0000b0 e8 7c 6f bd af 2c 84 bd 55 0c f7 bc 9e b8 08 bd
       -0.05846873 -0.06453835 -0.030157248 -0.03337919
0000c0 41 13 c1 bc ca 95 6f 3b 74 bf f0 bc 8f 37 bc 3c
       -0.023568751 0.0036557787 -0.029388167 0.022975711
0000d0 9b dc 28 3d d4 3f b1 bb ec 7c 0d bd cf 2e ba bd
       0.04122601 -0.0054092202 -0.034542963 -0.09090959
0000e0 b4 c6 48 bd 9d 80 f2 3c e3 90 9c bc 70 0a 82 3d
       -0.049017623 0.029602343 -0.019112056 0.06349647
0000f0 54 63 14 bd b5 87 b4 bd 9e c3 6f 3d ff 81 d9 bc
       -0.03622754 -0.088149466 0.058536164 -0.026551245
000100 66 fe a5 bc 2e b4 17 be 5c 67 8d 3c d8 c5 a5 3c
       -0.020262908 -0.14814827 0.0172612 0.02023594
000110 24 f0 48 3d e4 20 9e bd ca 84 8b bb 29 5c 69 bb
       0.04905714 -0.07721117 -0.004257773 -0.003560791
000120 59 f7 14 bc ab 8f 10 3d a5 99 9f bd d3 7f 44 3d
       -0.009092175 0.035293262 -0.07792977 0.047973465
000130 33 b6 eb 3c 89 b6 a2 3c 79 fc 68 3c 61 32 b3 bd
       0.028773403 0.01986243 0.01422035 -0.087498434
000140 6a 0d 96 3d 52 6e d7 3c 2b 07 5a bd fd a8 84 bd
       0.07326777 0.026297722 -0.053229492 -0.064775445
000150 55 c9 13 3d e2 f2 21 3d 04 39 96 3c cd 4a 87 3d
       0.036080677 0.03953827 0.018337734 0.06606064
000160 2a 98 50 be f6 0c 0d 3c 3f 78 1c 3d cc 87 e6 bd
       -0.20370546 0.008609047 0.038200613 -0.1125637
000170 24 03 b2 bd 48 e6 04 3d f1 a8 2e bd 06 ca 5c 3d
       -0.08692005 0.032446176 -0.042641584 0.053903602
000180 ba 1f ff 3c 0e 1f 73 bd e1 ad d5 bb 6b 2e 36 bd
       0.031143058 -0.059355788 -0.006520972 -0.04447786
000190 74 ec d1 3d ae 12 7f bd 8f 39 d3 3c 19 2b b1 bc
       0.10250178 -0.062273674 0.025784282 -0.021626996
0001a0 94 1d 6e 3c 33 6d e4 bd aa 9b c5 bd 28 dc d7 bd
       0.014533419 -0.111536406 -0.09648831 -0.10540038
0001b0 41 84 34 3d 0a c6 e6 3c 38 1d 11 3c 79 f4 e0 3c
       0.04407144 0.028170604 0.008857064 0.027460324
0001c0 1d e9 10 bd 41 b4 35 3c 63 73 5a bd 94 e4 4b 3e
       -0.035378564 0.011090339 -0.053332698 0.19911414
0001d0 01 e5 b2 bd 99 69 83 3c 45 04 07 3e b1 d8 81 3d
       -0.08735085 0.016041564 0.13185222 0.06340159
0001e0 5f 62 c1 bc b1 2b 21 3d 3b 3e 82 bd 67 27 4a bc
       -0.023606477 0.039348308 -0.06359526 -0.012338496
0001f0 cd 29 7e bd 6d a4 93 bc a3 74 04 3c 17 67 81 bc
       -0.062051583 -0.01802274 0.008084449 -0.015796227
000200 1b b6 14 bb 5a 21 f9 bd 4e a2 99 bc 29 7a 42 bc
       -0.002269155 -0.121645644 -0.01875415 -0.011869946
000210 42 6f 1c 3d 69 f1 08 3d e8 6a 8b 3c f7 ad 09 bd
       0.03819204 0.03343335 0.01701875 -0.03361317
000220 56 86 89 3d a8 91 3f bd ab 93 be 3c bb c1 ab 3d
       0.06715076 -0.046769768 0.023263773 0.083865605
000230 14 3e 18 bd 83 d5 e7 39 40 1d 99 3d 57 fb 5d 3d
       -0.037168577 0.00044218832 0.07476282 0.054194774
000240 3a 1a ac bc 20 05 0a be bd e5 14 3b cd d5 8a bd
       -0.0210086 -0.13478518 0.0022719942 -0.067790605
000250 76 dd 7a 3d 84 12 b2 3d d8 3f 3f bd 3f 61 82 3d
       0.061246358 0.08694938 -0.046691746 0.063662045
000260 8e 07 ea 3d 54 b2 35 bb 43 be 93 bd 73 dc e6 bc
       0.11427222 -0.00277247 -0.07214024 -0.02818129
000270 01 b9 d7 3c 38 6e 53 3c 48 6b 0c bd 14 c0 4f 3d
       0.026333334 0.012904696 -0.034282 0.05072029
000280 bf fa a8 3c 81 6c 31 3d 78 68 a4 3d b6 4e 0d be
       0.020627378 0.043316368 0.08027738 -0.13799557
000290 9a a8 cf bd b7 42 cd bd de 5a 6a bd 8c 9f 7e 3c
       -0.1013958 -0.100224905 -0.057215564 0.015540969
0002a0 c9 b1 99 3d c5 2d ed 3b 77 f6 88 bb 91 3c 31 be
       0.07504613 0.007238122 -0.0041797715 -0.1730826
0002b0 05 41 ae 3d 9c ce 0b bd b6 58 6e bd ba 59 eb 3c
       0.08508495 -0.034132585 -0.05819007 0.028729308
0002c0 8c f7 59 3d 02 30 83 3d f6 90 5e 3c 3b 51 94 3d
       0.053214595 0.06405641 0.013584366 0.07242056
0002d0 cc 39 92 bd d1 b9 1a bb e4 ed 38 bd 61 1c aa bd
       -0.0713993 -0.002360929 -0.045148745 -0.08306194
0002e0 a2 0a be bb 10 ae a6 bd 7e cd 4a bc 42 0a ba be
       -0.0057996074 -0.081386685 -0.012378095 -0.3633595
0002f0 dc d6 50 be 76 3b 3b 3d 3c 0e 8d 3c f7 ef a8 bd
       -0.20394462 0.045711003 0.017218702 -0.08248895
000300 ac 5c 19 bd e6 1d 53 3d 0f 23 0f be 2e df 58 3d
       -0.037441894 0.051542185 -0.13978218 0.052947216
000310 4a 95 1c 3d 8f 54 db 3d b6 49 b5 3d 8f ec 2e be
       0.03822831 0.10709488 0.0885195 -0.17082427
000320 73 5e ad 3d 43 b7 02 bd 61 b8 93 3d 6e 7e cc 3d
       0.084652804 -0.031913053 0.07212902 0.09985052
000330 51 32 0c bd 0f 57 37 bd ee 56 fd 3c 0c ba 66 bc
       -0.034227673 -0.04476076 0.03092524 -0.014082443
000340 55 52 51 bd b1 c3 78 bd 57 83 48 3d 23 6d a6 bc
       -0.05110391 -0.0607335 0.04895338 -0.020315712
000350 da 2b a3 3c f6 4f 57 bc b6 24 da 3c ad 32 b7 bc
       0.019918371 -0.013141623 0.026628833 -0.022363031
000360 fe 00 08 3c b8 04 34 bd e0 7f ac 3d 13 38 10 3e
       0.008301018 -0.043949813 0.08422828 0.1408389
000370 5c e7 21 bd 17 a9 54 bc 6b c5 b8 3d 30 64 41 3d
       -0.039527282 -0.012979767 0.090220295 0.047214687
000380 f2 0f 16 bd b6 6e 39 bd 46 f7 18 be 9e 04 04 be
       -0.0366363 -0.045271598 -0.14938077 -0.12892386
000390 69 1b 61 be 10 aa 43 bd 51 6d 5d bd 68 d4 81 bd
       -0.21983112 -0.047769606 -0.05405933 -0.063393414
0003a0 a2 d6 9b 3d e8 e7 ad 3b b7 0a 24 3d 3a dd 41 3c
       0.07609297 0.0053071864 0.04004928 0.01183253
0003b0 e5 3a ac bd 2a 4e bb 3c eb 71 bb be 85 e4 ad 3d
       -0.08409671 0.02286442 -0.3661035 0.08490852
0003c0 07 ff 21 bc fb 01 14 bd e4 17 14 3d fb 76 5e bc
       -0.009887463 -0.0361347 0.036155596 -0.013578172
0003d0 e8 b5 89 3d 0f c5 76 bd 96 d7 63 bd 4e 16 02 3e
       0.06724149 -0.060246523 -0.05562552 0.12703821
0003e0 b4 88 fa bc d3 4c 36 bd 15 c5 14 3d e2 7e d8 bd
       -0.030582763 -0.04450686 0.036320765 -0.10571076
0003f0 c7 1b 38 bd e6 a2 cc 3d 3f 7b 65 3b 95 07 d0 3c
       -0.044948366 0.09992008 0.0035016087 0.02539424

fc2.bias f4 [128]
000000 c6 0e 06 3e 17 d6 92 3b 17 69 91 bd c9 1f b5 bc
       0.13091573 0.004481088 -0.071001224 -0.022109883
000010 7b 1f be ba 85 61 a4 bc e6 ba fc bb c0 2e be 3c
       -0.0014505232 -0.020066032 -0.0077127097 0.023215652
000020 65 cb 76 ba 51 71 1b bd db b5 62 3d dd ca 51 bd
       -0.00094144634 -0.037949864 0.055349212 -0.051218856
000030 e2 ea 60 3d cc 02 04 be 56 49 b8 bd 34 70 4f bd
       0.0549115 -0.12891692 -0.08998363 -0.050644115
000040 e9 bd 4f bd 2a a1 ce 3c d8 8d 31 3d bb cb fc bc
       -0.05071822 0.025223333 0.043348163 -0.030858865
000050 8d 38 fa bd 77 7b 10 bd b4 d1 1a bd 56 e5 38 bd
       -0.122178175 -0.035273995 -0.037797645 -0.045140587
000060 3e 26 06 bd 8f 12 c0 bd 52 21 67 3c de 73 35 bc
       -0.032751314 -0.0937854 0.014107065 -0.011074988
000070 2b 12 22 bd be fc c5 3b a4 be 81 ba 5a 54 28 3d
       -0.039568108 0.006042092 -0.0009898734 0.04109607
000080 a3 c2 21 3b 90 d2 6a bb c8 aa 88 bd 3d 1a bd 3d
       0.0024682663 -0.0035831071 -0.06673199 0.0923352
000090 7e 60 cf 3c b8 67 9b bd 7e 53 bd 3d c1 7c 2e bd
       0.025314566 -0.07588142 0.092444405 -0.042599443
0000a0 7a 2a 56 3b 60 5f 84 bd cb e7 9e bc fa 20 24 3d
       0.0032679127 -0.06463504 -0.019397637 0.04007051
0000b0 05 5f 9c bc 2f 43 b3 bc d8 cf f4 bd 7a a6 9c bd
       -0.019088278 -0.021882622 -0.119537055 -0.076489404
0000c0 1d 5d 5a bd 01 b2 89 bc 70 90 72 bd 04 36 98 bc
       -0.053311456 -0.016808512 -0.059219778 -0.018580444
0000d0 21 5b 4c bd fe 68 47 bd 30 3d 26 3d ef fc 40 bd
       -0.049891595 -0.048684113 0.040585697 -0.047116216
0000e0 42 74 15 3d 36 69 c4 bc 56 93 92 3c 45 df 98 bd
       0.036487825 -0.02397595 0.01789252 -0.0746446
0000f0 cf 07 5f 3c 40 44 9b bd 59 ff 4a bc d3 e7 34 3d
       0.013612702 -0.07581377 -0.012389981 0.044166397
000100 67 4a a2 bd 6e b4 22 bd a4 03 96 bc c4 2e 8f 3d
       -0.07924347 -0.039722852 -0.018312283 0.06991342
000110 c9 10 94 bd 87 55 ed bd 01 c6 95 3c c9 57 01 3b
       -0.07229764 -0.11588579 0.018282892 0.0019736162
000120 8a fc 8a bd 59 17 56 bd 29 8a e3 3b a5 ee 29 bd
       -0.06786449 -0.05226836 0.00694396 -0.041487355
000130 ca 90 90 bb 9d ec 62 3d 84 c2 a7 3c 2d cb fb bb
       -0.0044117915 0.055401433 0.020478494 -0.0076841325
000140 84 26 31 bc fb 54 8c bc dd 6f bf bc 26 0c b9 bc
       -0.0108124055 -0.017130366 -0.02336877 -0.0225888
000150 e8 b7 e9 3b fa ee 11 3d 84 a5 9f bd ff 30 49 bd
       0.007132519 0.035628296 -0.077952415 -0.049118992
000160 93 1d f8 3d e3 5d 1b 3d cc 88 44 bc 93 f2 be bc
       0.12115016 0.037931334 -0.011995506 -0.023309028
000170 03 a5 b2 bd fa fe 88 3d 23 f3 32 bb 29 29 43 bd
       -0.0872288 0.06689258 -0.0027305565 -0.047646675
000180 02 4c 73 bd 58 06 99 bd 06 67 0b 3b 6b d3 ae 3c
       -0.05939866 -0.07471913 0.0021271124 0.021341046
000190 ec 9e 84 bd c8 ff 3c 3d 43 89 db bc 4d 53 05 3d
       -0.064756244 0.04614237 -0.02679885 0.032550145
0001a0 d7 5d 24 3c 86 39 a2 bd 82 7e 60 3d ad 29 e6 3b
       0.010032139 -0.07921128 0.054808147 0.007024011
0001b0 c9 1e db 3c cb 48 d0 3c dc ad 0e 3d 0a 4c 01 bd
       0.026748078 0.025425335 0.034833774 -0.031566657
0001c0 db a3 f7 bb a5 2a 76 3d 2a eb c0 bc a2 68 3b 3d
       -0.007557375 0.060099263 -0.023549635 0.045754083
0001d0 9b 9e e8 bc 0a c9 01 be 69 c9 1d 3d 91 10 8e bb
       -0.028395941 -0.12674347 0.038522158 -0.004335471
0001e0 c0 bc 99 3d d4 42 bd 3c 50 25 27 bd a0 43 be bc
       0.07506704 0.023103155 -0.04080707 -0.023225605
0001f0 ac 2a b3 b9 23 cf 17 3d 48 7e fc bc be 16 fb 3c
       -0.00034173334 0.037062775 -0.030821934 0.030650493

fc3.weight f4 [1, 128]
000000 7c 51 58 3c 32 1c 85 3d bf 1a 2f bd 5e 13 de be
       0.013203021 0.064995185 -0.042750116 -0.4337415
000010 74 45 b3 3b 81 c2 f3 bd 9e 79 07 be e0 1d c7 3c
       0.005470926 -0.11902333 -0.13229987 0.024306238
000020 fd ed 8a bd e1 5c 3b bd f9 74 9e bc 79 9a 9e bd
       -0.06783674 -0.045742873 -0.019342886 -0.07744307
000030 85 03 a3 bc 87 db 9c bd a1 17 eb bd 8b 19 46 bd
       -0.01989914 -0.07659059 -0.11479116 -0.048364203
000040 1a 7f 2f 3c 77 8d 41 bd 94 8d fa bd 89 a7 db bd
       0.010711456 -0.047254052 -0.12234035 -0.10725314
000050 cb 9d 01 be 2d de 40 bd b9 e7 0c 3d 25 ac 11 3d
       -0.1265785 -0.047086883 0.034400675 0.03556456
000060 5e c4 23 3b 65 00 b6 bc 56 a4 3a be e0 12 ab bd
       0.002498887 -0.022216985 -0.18226752 -0.083532095
000070 96 72 d9 bd d9 5c 13 be d8 73 23 3d 8e c9 6f bd
       -0.10617559 -0.14390887 0.0399054 -0.058541827
000080 bb 39 41 bd c6 1f 25 3c 97 bf d4 bd 0a 29 ad 3b
       -0.047174197 0.010078376 -0.10388105 0.0052844333
000090 6e 5b ab bd 47 cd 1b bc ec 48 4b 3d 6c d9 ca 3d
       -0.08367048 -0.009509391 0.04963009 0.09904751
0000a0 5d 00 2a 3d 53 9c 96 bd 76 fb ef bd 4e a6 29 be
       0.041504253 -0.07354035 -0.11717884 -0.16567346
0000b0 e9 27 a4 3d 73 17 0e 3c d0 88 a4 bd 0f 11 c0 bd
       0.08015425 0.008672583 -0.080339074 -0.09378254
0000c0 e6 49 2d be 3b 81 51 be 33 d5 83 bd 2e af e9 bd
       -0.16922721 -0.20459454 -0.06437149 -0.11410366
0000d0 d1 53 73 bd 63 a9 42 3d 42 b9 bb 3d 8c 47 f7 bc
       -0.059406105 0.04752482 0.091661945 -0.030185483
0000e0 2f dc 12 bd ff d0 2d bd f6 e5 e2 bd de 1e 91 bc
       -0.035854515 -0.042435642 -0.11079018 -0.017714914
0000f0 0c 8b 58 bd fd 01 89 3c d9 2a 8a bd d5 cb 3c be
       -0.05286698 0.01672458 -0.06746454 -0.18437131
000100 e1 b4 82 bc 8b f4 92 3d 56 09 b8 3c c5 df 3f bd
       -0.01595539 0.07175549 0.02246539 -0.046844263
000110 66 c0 07 bd 15 2f eb bd 23 cd 3b bd 15 c7 20 be
       -0.03314247 -0.114835896 -0.04584993 -0.15700944
000120 b4 5d ab bc e5 d9 f8 bd 21 6f 6b 3c 44 24 93 3d
       -0.020918705 -0.12150935 0.014369757 0.071846515
000130 7d 96 14 bd 93 5e 94 bd 23 17 0a 3e 28 9d 8f be
       -0.03627633 -0.07244601 0.13485388 -0.28049588
000140 a5 ed 5a 3c 37 6e d0 3c 80 71 8e bd af b6 89 bd
       0.013362323 0.02544318 -0.06955242 -0.06724297
000150 a1 51 a5 3d 6b 39 1b 3c 78 eb 13 be de 66 0a 3e
       0.0807221 0.009474139 -0.14445293 0.13515803
000160 15 c0 66 3c 77 16 be 3c 13 54 06 be d2 2e d0 3d
       0.014083882 0.023204071 -0.1311801 0.1016518
000170 4d 76 3f bd 3c 61 95 3c e6 27 41 bd a5 c1 da bc
       -0.04674368 0.018234842 -0.04715719 -0.026703665
000180 76 3d a4 bc 2c 0c 62 bd a1 c1 7d be 68 c0 96 bd
       -0.020048838 -0.05518739 -0.24780895 -0.07360917
000190 09 32 1a 3c d7 0c 0e bd 3a b1 dc bd 31 eb 38 bd
       0.009411343 -0.034680214 -0.10775991 -0.04514617
0001a0 9f b8 d9 b9 bf 59 ad 3d dc 42 01 3c d8 2d 04 be
       -0.0004152702 0.08464383 0.007889476 -0.12908113
0001b0 95 e4 0d bd 32 6f 05 3d 6b c5 46 bc 86 3d c0 bd
       -0.03464182 0.032576747 -0.012132029 -0.09386735
0001c0 8f 2e 0a 3d 71 5b 87 3c ec b2 40 3d be f8 69 3c
       0.033735808 0.016523095 0.047045633 0.014280496
0001d0 34 63 da bd c1 b8 94 bd 47 df a3 bc ce 40 5d 3c
       -0.10663453 -0.072618015 -0.020003928 0.01350422
0001e0 c8 ec 91 3c 7a 32 74 be 2a 9a 5f 3c b2 d7 dc bd
       0.017813101 -0.2384738 0.013647595 -0.10783328
0001f0 2f 54 67 3d 62 9e 11 3d 0f 18 0a bd cf bd 7a 3c
       0.056476768 0.035551436 -0.03371435 0.015304043
