project3-tennis/models/ddpg_agent0_critic_target.pth (torch_old, 159783 bytes, 5 tensors)

fc1.weight f4 [256, 24]
0	0xbc57cdcb	-0.013171623
1	0xbd570578	-0.05249545
2	0x3c1db2a0	0.009625107
3	0xbd13f3c5	-0.03612115
4	0x3c8af32b	0.016961655
5	0xbe9a32ab	-0.30116782
6	0xbd1c3d1f	-0.038144227
7	0x3d00eb8c	0.031474635
8	0x3bf6fe95	0.0075376728
9	0x3d8eeac8	0.06978375
10	0xbdc42ca8	-0.0957883
11	0x3d052c6a	0.03251306
12	0x3d1df3ea	0.038562693
13	0xbe6e9b30	-0.23301387
14	0x3b84cb94	0.0040525887
15	0x3d26ef3c	0.040755495
16	0x3d1a331e	0.037646405
17	0x3cca2081	0.024673702
18	0x3d09b682	0.03362132
19	0x3ce0421b	0.027375272
20	0xbb6ac3e0	-0.0035822317
21	0x3db1b6a3	0.08677413
22	0xbd7cca3d	-0.061716307
23	0x3d608d0a	0.054822005
24	0x3e129bcb	0.14317243
25	0x3e085d6f	0.13316892
26	0xbcfeaa83	-0.031087166
27	0x3c42460c	0.011857521
28	0xbd8a7f0e	-0.06762515
29	0xbd4ba80c	-0.04972081
30	0x3c5eaba8	0.013590731
31	0xbc19cb56	-0.009386858
32	0x3d44a62e	0.048010044
33	0x3d17a9b5	0.03702708
34	0xbc77b81a	-0.015119577
35	0x3bdb00fc	0.006683467
36	0x3d8a2261	0.067448385
37	0x3db383c5	0.087653674
38	0xbd519182	-0.051164158
39	0x3b97ba82	0.0046303878
40	0x3d8c8d5e	0.06862901
41	0xbadb7755	-0.0016743938
42	0xbcc7d928	-0.02439554
43	0xbcadb2f7	-0.021203501
44	0x3e4a588c	0.1976034
45	0x3e4b8ba7	0.19877492
46	0x3c93a2c9	0.018021958
47	0x3bdbc82f	0.0067072134
48	0xbcf9f33d	-0.030511493
49	0xbc95faea	-0.018308122
50	0xbca4ede4	-0.020132966
51	0xbd1dd277	-0.038530793
52	0xbdbf9d93	-0.09356227
53	0xbe8bd6f7	-0.27312443
54	0x3a99ad82	0.0011724683
55	0xbccdc739	-0.02511941
56	0xbcd0e2d6	-0.025498789
57	0x3d03107b	0.03199814
58	0xbc925a2b	-0.017865261
59	0xbd4794c3	-0.048725855
60	0x3b6c7180	0.0036078393
61	0xbbb32c12	-0.0054679
62	0xbb669557	-0.0035184228
63	0x3ce3ecff	0.02782297
64	0x3c85e31b	0.016343644
65	0xbc033e99	-0.00801053
66	0x3c72c1f6	0.014816752
67	0x3cdc20ad	0.02687105
68	0x3e195a78	0.14975917
69	0x3e51fcab	0.20506541
70	0xbd3604ec	-0.044438288
71	0x3cf03ba7	0.02932532
72	0x3c1a6184	0.009422664
73	0x3d6643ae	0.056216888
74	0xbbc56f95	-0.0060252645
75	0x3cefc241	0.029267432
76	0xbdc1b7db	-0.09458896
77	0x3c9a03b4	0.018800594
78	0x3ba5b9d7	0.005057554
79	0x3d4aad34	0.049481586
80	0xbcda8322	-0.026673857
81	0x3e0fbe33	0.14037399
82	0xbcd8eda5	-0.026480505
83	0x3c520840	0.01281935
84	0xbc1d247c	-0.009591218
85	0xbd2c0643	-0.04199816
86	0x3d19895e	0.03748452
87	0xbd84d6fc	-0.064863175
88	0xbd902283	-0.070378326
89	0x3e0541fd	0.13013454
90	0xbc16f99a	-0.009214783
91	0xbcb9e130	-0.022690386
92	0x3dc0a1d3	0.094058655
93	0xbe99fd02	-0.30075842
94	0x3bbe9514	0.0058161113
95	0xbcfcd99d	-0.030865485
96	0x3d8a96ee	0.06767069
97	0xbe20d4a1	-0.15706111
98	0xbd4983b5	-0.04919787
99	0x3c7a9bc5	0.015295927
100	0xbd8bfb29	-0.068350144
101	0xbca55b9f	-0.02018529
102	0x3c3c5fd5	0.0114974575
103	0xbcf58ace	-0.029973414
104	0xbcc55252	-0.024087105
105	0xbd8757f4	-0.066085726
106	0x3cad2790	0.021137029
107	0xbd2e02f5	-0.04248329
108	0x3d99179e	0.07475208
109	0xbe0bdfeb	-0.13659637
110	0xba319e87	-0.00067756366
111	0x3d5f1e8c	0.05447249
112	0x3d8766ba	0.066113904
113	0xbdb7b219	-0.08969516
114	0x3be0def8	0.0068625174
115	0x3cdfa757	0.027301474
116	0x3e47bac4	0.19504839
117	0xbd35484b	-0.044258397
118	0x3d45893d	0.048226584
119	0xbc770560	-0.015076965
120	0x3d9cfcdf	0.07665419
121	0x3d67c69f	0.056585904
122	0x3d446499	0.0479475
123	0xbd15b36a	-0.036548056
124	0x3e1395f9	0.14412679
125	0xb97365a3	-0.00023212149
126	0x3be8e5e5	0.0071074837
127	0xbd9f9068	-0.07791215
128	0x3d9030e6	0.07040577
129	0xbce8602d	-0.028366173
130	0x3cb10857	0.021610422
131	0xbb0ae880	-0.002119571
132	0x3dc1980f	0.09452831
133	0xbd0b2d99	-0.033979032
134	0xbb4cc1e8	-0.0031243507
135	0xbcd29575	-0.025706032
136	0x3b36e40d	0.0027906925
137	0x3c7a34b3	0.015271354
138	0x3c555b9e	0.0130223315
139	0x3ba98946	0.005173835
140	0xbda98149	-0.08276612
141	0x3d9296ab	0.07157644
142	0x3cea9ac9	0.02863826
143	0xbd8af4f8	-0.06785005
144	0x3d969a8a	0.07353695
145	0x3da91811	0.082565434
146	0xbcbcdaff	-0.023053644
147	0x3d129515	0.035786707
148	0xbdb832e2	-0.0899408
149	0x3cd03743	0.025416976
150	0x3c8ffb23	0.017575806
151	0x3db6e0ce	0.08929597
152	0x3de1dd74	0.11028567
153	0x3de43aca	0.111440256
154	0x3d740337	0.05957338
155	0x3db43c0e	0.08800517
156	0xbc6ca085	-0.014442568
157	0xbd89fa82	-0.06737234
158	0xbcb3ebcc	-0.021963023
159	0x3d28af1a	0.041182615
160	0x3dd0825f	0.10181116
161	0x3df6dc73	0.12053766
162	0xbcfa7a08	-0.030575767
163	0xbd3fa375	-0.046786744
164	0x3bef9778	0.0073117577
165	0xbd9c9ad1	-0.076467164
166	0xbd07f826	-0.033195637
167	0xbbb36f9f	-0.0054759528
168	0x3bc8530c	0.0061134156
169	0x3c9057b8	0.017619953
170	0xbc5e7962	-0.013578745
171	0xbc9fbf56	-0.019500416
172	0x3d51b3c6	0.051196836
173	0xbd82c304	-0.063848525
174	0x3ca633b7	0.020288331
175	0x3b4d1fd4	0.0031299489
176	0x3c70153c	0.0146535
177	0xbb6c688c	-0.0036073057
178	0xbd1203c7	-0.035648134
179	0xbd561993	-0.052270483
180	0xbd6abde7	-0.05731001
181	0xb9d4efea	-0.0004061454
182	0x3d132050	0.035919487
183	0x3c8f9206	0.017525684
184	0xbcc0eb18	-0.023549601
185	0xbdb4eaf2	-0.08833875
186	0xbc3a3cb5	-0.011367013
187	0x3c52b929	0.012861528
188	0xbe47c4bc	-0.19508642
189	0x3e45de3e	0.1932306
190	0x3c27ed45	0.010249441
191	0xbcb9dd30	-0.022688478
192	0x3dd95506	0.1061192
193	0x3dfedece	0.1244484
194	0xbcfd9592	-0.03095511
195	0x3c006149	0.007835695
196	0x3d5d0fb0	0.05397004
197	0xbda94c75	-0.08266536
198	0xbc213057	-0.009838185
199	0xbc867167	-0.016411496
200	0x3ca274cd	0.019831086
201	0x3dc2c46f	0.09510123
202	0x3d03064d	0.03198843
203	0x3d5bfec1	0.05370975
204	0x3d5ca27e	0.053865902
205	0xbd78c13a	-0.06073115
206	0xbd53e413	-0.05173118
207	0xbccd0dbd	-0.025030965
208	0x3d35e09f	0.04440367
209	0xbd1059a1	-0.035241727
210	0x3c1cebf0	0.009577736
211	0xbd869811	-0.06571973
212	0x3daba7ef	0.0838164
213	0x3c08fcbb	0.008361037
214	0x3c3c1ba1	0.011481197
215	0xbdb8bb41	-0.09020091
216	0xbd29aaad	-0.041422535
217	0xb9dcda7c	-0.00042124453
218	0xbc3155d0	-0.010823682
219	0xbc9c0727	-0.01904638
220	0xbcf890a1	-0.030342402
221	0xbc6c152d	-0.014409346
222	0x3d6a0f19	0.057143304
223	0xbcdd52d8	-0.027017042
224	0x3d9e408a	0.077271536
225	0xbc03a42c	-0.008034747
226	0x3d624b97	0.05524787
227	0xbd869637	-0.0657162
228	0xbd8f457e	-0.069956765
229	0xbde7aa7e	-0.11311816
230	0xbc54bcc0	-0.012984455
231	0xbd9c143f	-0.07621049
232	0x3c64e1e8	0.013969876
233	0x3d968e70	0.073513865
234	0xbceaa981	-0.028645279
235	0xbc943e74	-0.018096186
236	0xbdd49caf	-0.103814475
237	0xbe5b9d12	-0.21446636
238	0x3d556f13	0.05210788
239	0xbd5db6bb	-0.054129343
240	0xbc697fed	-0.014251691
241	0x3e01059b	0.12599795
242	0x3c07018c	0.008240115
243	0xbdc37b64	-0.09545019
244	0xbca077fb	-0.019588461
245	0x3e2e4faf	0.17022584
246	0xbba049b3	-0.004891598
247	0xbd3d9d54	-0.046292618
248	0x3a1f08de	0.000606669
249	0x3d68b95d	0.0568174
250	0x3d599ab2	0.053126045
251	0xbc4e42f3	-0.012589204
252	0x3d32665d	0.043554652
253	0x3d6629ff	0.056192394
254	0xbd004a33	-0.031320762
255	0x39dda551	0.00042275575

fc1.bias f4 [256]
0	0xbe19df61	-0.15026619
1	0x3e0c4ef4	0.13701993
2	0x3d0a0502	0.033696182
3	0x3dcec044	0.100952655
4	0xbdc4eb81	-0.09615231
5	0xbe2d41e7	-0.16919671
6	0xbe81e62d	-0.25370923
7	0xbc6c6925	-0.014429365
8	0xbe81e084	-0.25366604
9	0xbe25ff54	-0.16210681
10	0x3dbec4e5	0.093148984
11	0xbdd4d6e1	-0.103925474
12	0x3d1b073b	0.037848692
13	0xbe557282	-0.20844463
14	0x3d167963	0.036736857
15	0x3df3d7b8	0.119063795
16	0x3ba1fddf	0.004943594
17	0xbc4a944a	-0.012364456
18	0xbe4ac5d5	-0.1980203
19	0xbe2b0251	-0.16700102
20	0x3d3efdfb	0.046628933
21	0xbe506f59	-0.20354976
22	0xbd9e3d67	-0.07726555
23	0xbe1f502d	-0.15557928
24	0xbd8d2b83	-0.06893065
25	0xbe706e65	-0.23479612
26	0x3db66de8	0.08907682
27	0x3cbcc495	0.023042956
28	0xbe2e0c94	-0.16996986
29	0xbded16da	-0.11576624
30	0xbd7e0fa5	-0.06202664
31	0xbdf1cc37	-0.11806529
32	0xbdf91f48	-0.121641695
33	0xbc04039b	-0.0080575
34	0xbdc73618	-0.097271144
35	0x3ce90354	0.02844397
36	0xbe260b02	-0.16215137
37	0x3e57a7ae	0.21060058
38	0xbe08fe09	-0.13378157
39	0x3dcb5cc9	0.09929807
40	0xbe03d107	-0.12872706
41	0xbe2ad033	-0.16680984
42	0xbd95203e	-0.0728154
43	0xbdd84a3a	-0.105610326
44	0xbda6b12f	-0.08139264
45	0xbe365bf6	-0.17808518
46	0xbdac5285	-0.08414177
47	0xbe31ddcc	-0.17369765
48	0x3e3621ac	0.17786282
49	0x3e16c174	0.14722234
50	0xbdc0bddb	-0.09411212
51	0x3e174254	0.14771396
52	0xbdc8a63e	-0.09797333
53	0xbe355fa1	-0.17712261
54	0x3d232cd7	0.039837684
55	0xbd4396a0	-0.04775107
56	0x3e2bde91	0.16784121
57	0xbe0726a6	-0.13198337
58	0xbe4b1f97	-0.1983627
59	0x3e0ab214	0.13544494
60	0x3d253290	0.040331423
61	0x3ccde5c7	0.02513398
62	0xbc8e551e	-0.017374571
63	0xbe498dd2	-0.19683006
64	0x3b12499d	0.002232171
65	0xbd2d274e	-0.042273812
66	0xbe0e3789	-0.13888372
67	0x3dda1ba4	0.10649803
68	0xbe6d234f	-0.23158
69	0xbe07849e	-0.13234183
70	0xbd666f40	-0.05625844
71	0xbe538fa5	-0.20660265
72	0xbe5eba15	-0.21750672
73	0xbd842c4e	-0.06453763
74	0xbd53e7d8	-0.051734775
75	0x3e12bb0c	0.14329165
76	0x3dc909b4	0.09816304
77	0x3e03045d	0.12794633
78	0x3cdc28dd	0.026874954
79	0xbafaf780	-0.0019147247
80	0xbdad208a	-0.08453472
81	0xbca527e0	-0.020160615
82	0xbe4fef21	-0.20306064
83	0xbe7261b3	-0.23670082
84	0x3dc76fc2	0.09738113
85	0xbdf23e9f	-0.1182835
86	0xbdaf2241	-0.08551455
87	0x3d490bd7	0.049083557
88	0xbe1acc7d	-0.15117069
89	0x3da1ff13	0.0790998
90	0xbd887fca	-0.06664999
91	0x3dfe6002	0.12420656
92	0xbe23d6ce	-0.1599991
93	0x3e134b24	0.14384133
94	0xbe1482ab	-0.14502971
95	0xbe5ca395	-0.21546777
96	0x3e4d151c	0.20027584
97	0xbdc7099f	-0.09718632
98	0x3e50f78b	0.2040693
99	0x3d23567c	0.0398774
100	0x3daeffae	0.08544861
101	0xbd066e0f	-0.032819804
102	0x3c5ce47b	0.013482208
103	0x3ca1a44d	0.019731665
104	0xbd9633d3	-0.073341034
105	0x3e05f462	0.13081506
106	0x3df31b92	0.11870493
107	0xbd21fcee	-0.039547853
108	0x3c89131b	0.016732743
109	0xbd37d310	-0.04487902
110	0xbd4ed798	-0.050498575
111	0xbe52eb63	-0.20597605
112	0xbdfeafca	-0.12435873
113	0xbe6e3960	-0.23264074
114	0xbdd385c1	-0.10328246
115	0x3d90574c	0.070479006
116	0x3da711ec	0.08157715
117	0xbe738d17	-0.2378429
118	0xbe4bfcd1	-0.1992066
119	0x3e2b9603	0.16756444
120	0x3c082e8e	0.008311881
121	0xbaff9b96	-0.0019501324
122	0x3d751f09	0.05984405
123	0x3e0e1e71	0.138788
124	0x3daf1ec4	0.0855079
125	0x3df8a858	0.12141484
126	0xbdcce826	-0.10005216
127	0xbde0e616	-0.109813854
128	0x3d981f48	0.074278414
129	0xbe84d717	-0.2594535
130	0xbe672e45	-0.22576244
131	0x3dcf1ac0	0.10112524
132	0xbe659d3b	-0.2242326
133	0x3da719ba	0.08159204
134	0x3e3f209d	0.18664785
135	0x3e369969	0.17831959
136	0x3db71ecc	0.08941421
137	0xbcf5e6df	-0.030017314
138	0x3d136d9f	0.035993215
139	0x3d9f02e1	0.07764221
140	0xbd3b191a	-0.045678236
141	0xbe1586fc	-0.14602274
142	0x3e0425d9	0.12905063
143	0xbcb3552e	-0.021891203
144	0x3dcfed56	0.1015269
145	0xbe659689	-0.22420706
146	0xbd2d1d8b	-0.042264502
147	0xbe1a0b59	-0.15043391
148	0xbdb5635e	-0.088568434
149	0x3e02ceb4	0.12774163
150	0x3c72dc6c	0.0148230605
151	0x3e39ff3a	0.18163767
152	0x3dc07c98	0.09398764
153	0xbe3e11a1	-0.18561412
154	0x3dfdbe90	0.123898625
155	0x3c8fff2b	0.017577728
156	0x3e2b6523	0.167378
157	0xbbe9dcc7	-0.0071369144
158	0xbdd7a620	-0.10529733
159	0x3de2c737	0.110731535
160	0xbdef0a31	-0.11671866
161	0xbd60164e	-0.05470877
162	0xbd5fb224	-0.054613248
163	0xbca72ef2	-0.020408127
164	0xbd70f54c	-0.058827683
165	0x3e42718c	0.18988627
166	0xbc9ada83	-0.018903023
167	0x3d4e5871	0.050377313
168	0x3d8678d9	0.065660186
169	0x3e363501	0.17793657
170	0x3d870dd0	0.065944314
171	0xbe303c17	-0.17210422
172	0xbe503579	-0.20332898
173	0xbe775774	-0.24154454
174	0xbd891a6a	-0.06694491
175	0xbe6ff8aa	-0.23434702
176	0xbd55ca35	-0.052194793
177	0x3e332292	0.17493656
178	0xbe643464	-0.2228561
179	0x3d69dd76	0.057095967
180	0xbe51768d	-0.2045538
181	0x3e348fdc	0.17633003
182	0x3e2f7aad	0.17136641
183	0x3d8cab76	0.06868641
184	0x3e652b69	0.22379841
185	0xbe4a5499	-0.19758834
186	0xbe3c72e2	-0.184032
187	0xbd9e0e7f	-0.07717609
188	0x3c2edbd4	0.010672528
189	0x3e5668f0	0.20938468
190	0x3df3025f	0.118656866
191	0x3d994f61	0.074858434
192	0xbd373c8b	-0.044735473
193	0xbddec565	-0.10877494
194	0x3e5a9ced	0.21348925
195	0xbe8aeedc	-0.2713536
196	0xbe295616	-0.16536745
197	0x3dea3a55	0.11436907
198	0x3e3177c3	0.17330842
199	0x3c636fdd	0.013881651
200	0xbd0514b3	-0.032490443
201	0xbcb78c98	-0.022405908
202	0x3cc49553	0.023996985
203	0xbe25614d	-0.16150399
204	0x3e24bf75	0.1608866
205	0x3e82c208	0.2553866
206	0xbddd7364	-0.10813025
207	0x3dd2827f	0.102787964
208	0xbd6666c5	-0.056250352
209	0xbe55ca53	-0.20877962
210	0xbd058205	-0.0325947
211	0xbd99bfd9	-0.07507295
212	0x3e334a7c	0.17508882
213	0xbce81136	-0.02832852
214	0xbdf7959d	-0.12089083
215	0xbe5778af	-0.21042131
216	0x3d4d0036	0.05004903
217	0x3da4fb40	0.08055735
218	0xbc868b11	-0.016423734
219	0xbd4ced71	-0.05003113
220	0xbde1a7f1	-0.110183604
221	0x3d34820d	0.04406934
222	0x3e0f3dc8	0.13988411
223	0xbe0138b5	-0.12619288
224	0xbd7bce73	-0.061476182
225	0xbe64a9b6	-0.22330365
226	0x3d354206	0.044252418
227	0xbda188a0	-0.07887387
228	0xbdfc0c12	-0.1230699
229	0xbdf73581	-0.12070752
230	0x3e197c1e	0.14988753
231	0x3e31c241	0.17359258
232	0xbe2ebd53	-0.17064409
233	0xbd8f811a	-0.07007046
234	0x3d5e46f1	0.054266874
235	0x3c9acb76	0.018895846
236	0xbe19237f	-0.14954947
237	0xbcca82c5	-0.024720559
238	0x3d7399d2	0.059472866
239	0x3dcdcb28	0.100485146
240	0xbe165eb7	-0.14684568
241	0xbe520f3e	-0.20513627
242	0x3d8e84f2	0.06958951
243	0xbcd8639d	-0.026414687
244	0xbdcf2ee8	-0.101163685
245	0x3e6053a7	0.21906911
246	0xbd85aaf6	-0.06526749
247	0xbe405be3	-0.18785052
248	0xbdac237b	-0.08405205
249	0xbde0ad6b	-0.10970577
250	0xbdb5492f	-0.08851849
251	0xbe6462e6	-0.22303352
252	0x3d459449	0.04823712
253	0x3e4f7c65	0.20262296
254	0xbe45776e	-0.1928384
255	0x3db7a69c	0.08967325

fc2.weight f4 [128, 258]
0	0x3cbc87ee	0.023014035
1	0xba2d2cfa	-0.00066061283
2	0x3d3141c8	0.043275625
3	0xbcbe7cc1	-0.023252847
4	0x3d9796ff	0.07401847
5	0xbdb57d93	-0.08861842
6	0x3df1192a	0.11772378
7	0x3d8a2683	0.06745627
8	0xbd5b1981	-0.05349112
9	0x3d7dc205	0.06195261
10	0xbde1b0a4	-0.1102002
11	0xbd61c4ee	-0.055119447
12	0x3ce2f362	0.027703945
13	0xbd31f7ae	-0.043449096
14	0x3ca8c991	0.020603927
15	0x3ddd6753	0.10810723
16	0xbda68344	-0.08130506
17	0x3d6a162e	0.05715006
18	0x3cff7e13	0.031188047
19	0xbd3892f0	-0.045062006
20	0x3c428382	0.011872174
21	0xbd50565b	-0.050863605
22	0x3c373113	0.011181134
23	0xbda552ec	-0.08072457
24	0xbde3fac5	-0.11131815
25	0xbca62b21	-0.020284237
26	0xbde1ba9e	-0.110219225
27	0x3a6a2faf	0.0008933497
28	0x3c3bec3f	0.0114699
29	0x3cf8ca0f	0.030369787
30	0xbdac82c9	-0.08423383
31	0xbd18b952	-0.03728611
32	0x3dc4cbed	0.09609208
33	0xbdcf1b6c	-0.10112652
34	0xbd78449e	-0.060612313
35	0x3dffe700	0.12495232
36	0xbc871d28	-0.016493395
37	0x3dbaa495	0.09113423
38	0xbdbe980f	-0.093063466
39	0xbe08e380	-0.13368034
40	0x3db0e808	0.086380064
41	0x3ce16aac	0.027516685
42	0xbe6f0787	-0.23342715
43	0xbd9403d8	-0.07227296
44	0xbc8cba3a	-0.017178643
45	0xbdbf471a	-0.093397334
46	0xbd810257	-0.062992744
47	0xbcca5849	-0.0247003
48	0xbd4fca12	-0.05072982
49	0xbcecc815	-0.028904
50	0x3dfdfcae	0.124017105
51	0xbc9d0a17	-0.01916985
52	0x3d2f9e9c	0.04287587
53	0x3d3509e0	0.04419887
54	0xbd89044b	-0.06690272
55	0x3e26c621	0.16286518
56	0xbdcf7a3e	-0.10130738
57	0x3d15905e	0.036514632
58	0x3cbd3df9	0.02310084
59	0x3d6c4819	0.057685945
60	0xbd7c29d3	-0.061563324
61	0xbc16c53c	-0.009202298
62	0x3db1efe4	0.08688334
63	0xbde511b8	-0.1118502
64	0xbdd38649	-0.10328347
65	0xbe16e15b	-0.14734404
66	0xbd37d0da	-0.04487691
67	0xbcde6040	-0.027145505
68	0x3c5ad10a	0.013355503
69	0xbde2fa8c	-0.11082944
70	0xbd724668	-0.059149176
71	0xba5d0191	-0.00084307144
72	0x3d497a4f	0.04918891
73	0xbb463d15	-0.003024881
74	0xbe13086a	-0.14358678
75	0xbc5f74f9	-0.013638728
76	0xba997ce0	-0.0011710189
77	0x3d0ac519	0.033879373
78	0x3d42f674	0.047598317
79	0xbe12c8a7	-0.14334355
80	0x3dd41d0c	0.10357103
81	0x3d316c32	0.043316074
82	0xba222e12	-0.00061866746
83	0xbd3a86a6	-0.045538567
84	0x3c01c79a	0.007921124
85	0x3e0b41f0	0.13599372
86	0xbbba8070	-0.0056915805
87	0x3d50298c	0.050820872
88	0xbc69d73f	-0.01427251
89	0xbdb481c2	-0.08813812
90	0x3ddb35ec	0.10703644
91	0xbd824873	-0.06361475
92	0xbe1b3a6b	-0.15159003
93	0xbda55051	-0.0807196
94	0x3dd44b33	0.103659056
95	0x3cd26b48	0.025685921
96	0x3d9067ab	0.07051023
97	0xbd9f9e38	-0.0779385
98	0xbd9027fb	-0.07038876
99	0xbe391e75	-0.18078025
100	0x3d374848	0.044746667
101	0xbd9636a0	-0.07334638
102	0xbd72f8c9	-0.05931929
103	0xbb8369aa	-0.004010399
104	0xbd47da83	-0.048792373
105	0xbcb0616e	-0.021530833
106	0xbe031251	-0.12799956
107	0xbd218a29	-0.0394384
108	0x3d0e164a	0.034689225
109	0x3d486f39	0.048934195
110	0x3d089985	0.033349533
111	0x3d78d6da	0.060751773
112	0xbd25d91a	-0.040490247
113	0xbd7d698c	-0.061868235
114	0xbd5ad83a	-0.053428866
115	0x3cb37bdb	0.021909645
116	0xbd31fd55	-0.043454487
117	0xbd2fc105	-0.042908687
118	0x3db43fb6	0.088012144
119	0x3da25841	0.07926989
120	0xbd4155f6	-0.04720112
121	0xbba63efe	-0.005073427
122	0xbc9987bd	-0.018741483
123	0x3cf11d6e	0.029432978
124	0xbdb33fe9	-0.08752424
125	0xbd453adc	-0.048151836
126	0x3aba8162	0.0014229233
127	0xbc2867e3	-0.010278675
128	0xbe8ad436	-0.2711503
129	0x3d3e60f4	0.04647918
130	0xbcafef8a	-0.021476526
131	0xbca43304	-0.020043857
132	0x3d900426	0.07032041
133	0x3dd0d7f5	0.101974405
134	0xbd65b97a	-0.056085087
135	0x3d4a9e26	0.04946723
136	0x3dc4565e	0.09586786
137	0xbcbd7a7c	-0.023129694
138	0x3d6976e8	0.056998163
139	0x3d9d2d82	0.076746956
140	0xbc8887a0	-0.016666234
141	0xbbe4ffce	-0.006988502
142	0x3d2cf0d6	0.042221867
143	0x3d8e0225	0.06934003
144	0xbd4658f2	-0.04842467
145	0xbdea243a	-0.11432691
146	0xbe020a7a	-0.12699309
147	0xbd34f632	-0.044180103
148	0x3d2090af	0.03920048
149	0x3cb7377e	0.022365328
150	0xbdf4f1f0	-0.119602084
151	0xbba60bb0	-0.005067311
152	0x3d025cb2	0.031826682
153	0x3d33e258	0.04391703
154	0xbdafef25	-0.08590535
155	0xbe1da3b5	-0.1539448
156	0x3c358368	0.011078693
157	0x3ce425b4	0.02785001
158	0x3bdd7d72	0.006759339
159	0x3e0ada2f	0.13559793
160	0xbdd303fd	-0.10303495
161	0xbd965ce3	-0.073419355
162	0x3d728c8a	0.05921606
163	0xbdb1181a	-0.08647175
164	0xbdb2b5fa	-0.087261155
165	0x3bd9ff9c	0.0066527855
166	0xbd77d7da	-0.060508586
167	0x3d825bd5	0.06365172
168	0x3d6b5fc8	0.05746439
169	0x3d08a996	0.033364855
170	0xbc12a515	-0.008950491
171	0xbd690ee1	-0.056898955
172	0xbca9acd2	-0.02071229
173	0xbcd5bceb	-0.02609106
174	0xbcc0dff3	-0.023544287
175	0x3c8153c8	0.01578702
176	0xbd45eaab	-0.0483195
177	0x3d872820	0.0659945
178	0x3d88d9a7	0.06682139
179	0x3d871d33	0.06597366
180	0xbcb48195	-0.022034446
181	0x3c0a956c	0.0084584765
182	0xbdac350e	-0.08408557
183	0xbdcf16f3	-0.10111799
184	0xbd14501e	-0.03620922
185	0xbc69b6da	-0.014264787
186	0x3dabc318	0.083868206
187	0xbd9115b1	-0.070842154
188	0xbdc9282f	-0.098221175
189	0xbc997e09	-0.018736856
190	0x3b78b091	0.0037947039
191	0xbd02abaa	-0.031901993
192	0xbc818a8a	-0.01581313
193	0xbdf680a4	-0.12036255
194	0xbdaa983c	-0.08329818
195	0x3de2855f	0.11060595
196	0x3d797d57	0.06091055
197	0x3daec26a	0.08533175
198	0x3dde0526	0.10840826
199	0xbc6907c8	-0.014223047
200	0x3db372ee	0.087621555
201	0x3ca43613	0.020045316
202	0x3d067039	0.032821868
203	0xbd915371	-0.07095993
204	0x3d942562	0.07233693
205	0x3d427ff1	0.047485296
206	0x3d42c4ed	0.047551084
207	0x3bd2c794	0.006432483
208	0xbdf3df29	-0.11907799
209	0x3baa9f4e	0.005206979
210	0x3cea50ae	0.028602924
211	0x3d444634	0.047918513
212	0x3cc6ea2b	0.024281582
213	0xbb8a5739	-0.0042218235
214	0xbca36330	-0.019944757
215	0x3c0ad706	0.008474117
216	0x3d102159	0.035188053
217	0x3cc6ad66	0.024252605
218	0xbb1f2d34	-0.0024288418
219	0xbcb2f7dc	-0.021846704
220	0xbd12ba0c	-0.03582196
221	0xbd42d334	-0.0475647
222	0x3cc7b18d	0.024376655
223	0x3d172491	0.036900107
224	0xbe2a88cf	-0.16653751
225	0xbd8a8036	-0.067627355
226	0xbc02b3f3	-0.007977474
227	0xbe0a4142	-0.13501456
228	0x3b77d815	0.0037818004
229	0xbcd0434e	-0.025422718
230	0xbdaa9b9e	-0.08330463
231	0xbd3f30ad	-0.04667728
232	0x3de7bfd5	0.11315886
233	0xbd6eb904	-0.058281913
234	0x3da08b2e	0.078390464
235	0x3cf1e0b8	0.0295261
236	0xbdc060f2	-0.09393491
237	0xbbb27622	-0.0054462114
238	0x3d41691a	0.047219373
239	0x3d1b9b85	0.03799011
240	0xbc9b2ad9	-0.01894133
241	0xbae50b17	-0.0017474619
242	0x3ca81981	0.020519974
243	0xbc0e7d3d	-0.008696851
244	0x3d56b8cb	0.052422326
245	0x3c554511	0.013016955
246	0xbdcd3c73	-0.100212954
247	0x3dcf3d7f	0.10119151
248	0x3cb50545	0.02209724
249	0x3de117ca	0.109908655
250	0x3d8e9793	0.06962504
251	0xbb9f3e45	-0.004859718
252	0x3c73ef3a	0.014888579
253	0x3d7b4566	0.06134548
254	0x3cc43511	0.023951085
255	0xbd855e72	-0.06512155

fc2.bias f4 [128]
0	0x3dacf85c	0.08445808
1	0x3d7baa31	0.061441604
2	0xbd469feb	-0.048492353
3	0x3c033dd7	0.008010349
4	0xbc0148ed	-0.007890922
5	0xbca8c243	-0.020600444
6	0x3aa450b2	0.0012536256
7	0x3cd1452e	0.025545683
8	0x3d07b101	0.03312779
9	0xbde6c107	-0.11267286
10	0x3d373f3f	0.04473805
11	0xbde741f0	-0.112918735
12	0x3df1d005	0.11807255
13	0xbde77ab7	-0.11302703
14	0xbd2a27eb	-0.041541975
15	0xbc4d213a	-0.012520129
16	0x3a9f5a51	0.0012157654
17	0xbd3a59b2	-0.045495696
18	0x3b5ee548	0.0034011174
19	0xbd228bde	-0.03968417
20	0xbc486d77	-0.01223313
21	0xbb989cba	-0.004657355
22	0x3c42a6ab	0.011880557
23	0xbd77ccdc	-0.060498103
24	0x3b77f955	0.0037837822
25	0xbd9de3e0	-0.07709479
26	0x3d3ec6f7	0.046576466
27	0xbc97e277	-0.018540604
28	0xbd4c7f74	-0.049926236
29	0xbd0246c5	-0.031805772
30	0xbd545205	-0.051836032
31	0x3bc034c4	0.005865665
32	0xbbc59f6e	-0.0060309684
33	0xbd16bc64	-0.036800757
34	0xbd966e78	-0.07345289
35	0x3ca39fcb	0.019973656
36	0x3d11b1f3	0.035570096
37	0x3c27b93c	0.010237034
38	0x3d83e331	0.06439818
39	0x3a92a986	0.0011189438
40	0xbd67d2af	-0.056597408
41	0xbdd117af	-0.102095954
42	0xbd1e7fa2	-0.03869594
43	0x3ce645f8	0.028109536
44	0x3c1dbff2	0.009628283
45	0xbd45ee94	-0.04832323
46	0xbdf887de	-0.121352896
47	0xbd5792f8	-0.052630395
48	0x3c77320b	0.015087615
49	0xbccb7770	-0.024837226
50	0xbddfd78b	-0.109297834
51	0xbb4fa066	-0.0031681298
52	0xbda2f556	-0.0795695
53	0xbd27fd31	-0.041012947
54	0x3d4b2111	0.04959208
55	0xbda4492f	-0.08021771
56	0x3d62b27b	0.055345993
57	0xbdd944a4	-0.10608795
58	0x3d67bf16	0.056578718
59	0xbdda9a20	-0.10673928
60	0xbbbe64dd	-0.0058103637
61	0xbd0a38a2	-0.033745416
62	0xbd0e1582	-0.03468848
63	0x3e20fc61	0.15721275
64	0xbc38fcea	-0.011290768
65	0x3c6e58c5	0.0145475315
66	0xbd097720	-0.033560872
67	0x3d2b9f13	0.041899752
68	0xbd903d86	-0.07042985
69	0xbccf431c	-0.025300555
70	0x3bade32f	0.0053066234
71	0x3ccef5fe	0.025263783
72	0xbdb168be	-0.08662556
73	0xbd214ea9	-0.039381657
74	0x3c049b39	0.008093649
75	0x3caf89b0	0.02142796
76	0xbd74f1e3	-0.059800994
77	0x3d53acc4	0.051678434
78	0x3ddfecf5	0.10933868
79	0x3daf5ccb	0.08562621
80	0xbd6799b9	-0.056543086
81	0xbd5ec7ed	-0.054389883
82	0x3dab0f1f	0.083524935
83	0xbd337fc4	-0.04382302
84	0xbd0235da	-0.031789638
85	0x3cdbc38a	0.026826639
86	0xbd9eee13	-0.07760253
87	0xbd8c6fa3	-0.068572305
88	0x3db540bb	0.08850237
89	0x3d88b089	0.066742964
90	0x3bb952cc	0.005655622
91	0xbc25b478	-0.010113828
92	0xbd5b72f8	-0.05357644
93	0x3ddadc40	0.106865406
94	0x3d3acbf4	0.04560466
95	0xbcf898ec	-0.030346356
96	0xbd3abf42	-0.045592554
97	0xbd3f4386	-0.046695255
98	0xbd45a1f4	-0.048250154
99	0x3b5a0121	0.0033264833
100	0x3cf75d0e	0.03019574
101	0x3d3d0dc3	0.046155702
102	0x3b57ec1b	0.0032947126
103	0x3cd2832c	0.025697313
104	0x3a0b6598	0.0005317568
105	0xbdf9e025	-0.12200955
106	0xbd2c28d6	-0.04203113
107	0x3c9825fc	0.0185728
108	0x3c0d71a2	0.008633049
109	0xbc0403f1	-0.00805758
110	0x3d6abe7a	0.05731056
111	0xbd081dc9	-0.03323153
112	0xbb862255	-0.004093448
113	0x3d03bf44	0.032164827
114	0x3ce56de9	0.02800651
115	0xbcbc89fd	-0.023015017
116	0x3d0714f4	0.032978967
117	0xbde8572b	-0.11344751
118	0x3dadd561	0.084879644
119	0x3c96ac17	0.018392606
120	0x3d9775a1	0.07395483
121	0x3d08c293	0.033388685
122	0xbd0cf08b	-0.034409087
123	0xbd63f5e3	-0.055654418
124	0x3ce75d59	0.028242754
125	0x3d468339	0.048464987
126	0xbd587822	-0.052848943
127	0x3d3c2915	0.045937616

fc3.weight f4 [1, 128]
0	0x3c51e25b	0.012810315
1	0x3c8f5fd8	0.017501757
2	0xbe0c2237	-0.13684927
3	0xbea1587e	-0.31512827
4	0x3cc4f6c2	0.024043445
5	0xbe8e5062	-0.27795702
6	0xbdb0c7a8	-0.086318314
7	0x3cb0edff	0.02159786
8	0x3d0597ca	0.03261546
9	0xbc34087b	-0.01098835
10	0xbdb2900c	-0.08718881
11	0xbca64cd0	-0.020300299
12	0x3c7cefba	0.015438015
13	0xbc7c223c	-0.0153890215
14	0xbe11bbbe	-0.14231774
15	0xbd929acd	-0.07158432
16	0x3d08e1fa	0.033418633
17	0xbc57ffa2	-0.013183506
18	0xbdce56f2	-0.10075177
19	0xbc4d31f9	-0.012524121
20	0x3dec7272	0.11545266
21	0xbd3250ce	-0.043534093
22	0x3c1c607e	0.00954449
23	0x3d81baed	0.063344814
24	0x3cda1ea6	0.026625942
25	0x3d7899c0	0.060693502
26	0xbe33eceb	-0.17570846
27	0xbd367554	-0.044545487
28	0xbd077ca2	-0.033077843
29	0xbd4ea9d9	-0.050454948
30	0xbb535191	-0.0032244662
31	0xbc9e2f36	-0.019309621
32	0xbdcd11b5	-0.10013143
33	0xbbbd0163	-0.0057679876
34	0xbc78006a	-0.0151368175
35	0x3dcf1d50	0.10113013
36	0xbdbd96fd	-0.09257314
37	0x3ca87e64	0.02056808
38	0x3dddd40e	0.10831462
39	0xbdaa158b	-0.0830489
40	0x3dd67d0a	0.10473068
41	0xbe306c3e	-0.17228791
42	0xbe105333	-0.14094238
43	0xbd87f22b	-0.06637987
44	0xbdbed7f2	-0.09318532
45	0x3bf84575	0.0075766393
46	0xbd51c5dc	-0.051214084
47	0xbcd2ec1a	-0.025747348
48	0xbd00fb30	-0.03148955
49	0xbda509ad	-0.08058486
50	0xbd0b4708	-0.034003288
51	0xbde0b25a	-0.10971518
52	0xbde1eaba	-0.11031099
53	0x3c3c9a4f	0.011511399
54	0x3c690704	0.014222864
55	0x3c580f42	0.0131872315
56	0x3cddc7c0	0.027072787
57	0xbc4c5d6b	-0.012473444
58	0xbd3ba507	-0.04581168
59	0x3d15bc94	0.036556795
60	0xbd92d078	-0.071686685
61	0x3d5b7f74	0.053588346
62	0xbce8e880	-0.028431177
63	0x3d73025f	0.059328433
64	0xbd5b293e	-0.05350613
65	0x3cc06be9	0.023488956
66	0x3d0d42da	0.034487583
67	0xbd23ca70	-0.03998798
68	0xbdcab33b	-0.09897467
69	0x3d096a3f	0.03354859
70	0xbd8a0ec5	-0.06741098
71	0xbe8289cc	-0.25495756
72	0x3cb55219	0.022133874
73	0xbe3cb268	-0.18427432
74	0x3cc37e8e	0.023864057
75	0x3c6f0178	0.0145877525
76	0x3b1f0d53	0.0024269416
77	0xbda92fa5	-0.082610406
78	0x3d14533d	0.036212195
79	0x3d3daa02	0.04630471
80	0xbe0dd7e7	-0.13851891
81	0x3d887f29	0.06664879
82	0x3c4603a5	0.01208583
83	0xbd6f8b0e	-0.058482222
84	0x3d0e66cd	0.034766007
85	0x3d9c0470	0.07618034
86	0xbc1001b5	-0.0087894695
87	0xbd35e50d	-0.044407893
88	0x3c5b213f	0.013374626
89	0xbdaef58b	-0.08542927
90	0xbce3fb99	-0.027829932
91	0x3b061e6e	0.0020464915
92	0xbde9e2a4	-0.114201814
93	0x3cfcfb9b	0.030881694
94	0x3c14e6d2	0.009088235
95	0xbdb7bc70	-0.089714885
96	0xbb2cc12d	-0.002636026
97	0xbd5f3b38	-0.054499835
98	0xbdc46763	-0.09590032
99	0xbc03c36f	-0.0080422005
100	0x3de86dad	0.11349044
101	0xbd2a9b51	-0.041652028
102	0xbe820bb8	-0.25399566
103	0xbd4535e0	-0.048147082
104	0x3df0d2a9	0.1175893
105	0x3e258d37	0.1616715
106	0xbd25b477	-0.040455308
107	0xbe454a75	-0.19266684
108	0xbd01bede	-0.031676166
109	0x3d3b6b81	0.04575682
110	0x3d332134	0.043732837
111	0xbe01e84b	-0.12686269
112	0xbbfea64b	-0.0077712885
113	0x3c552a47	0.013010568
114	0x3c9a6c5f	0.018850503
115	0xbe20b47f	-0.15693854
116	0x3d5bbf47	0.053649213
117	0x3d7c9cc4	0.06167294
118	0xbd89c450	-0.06726897
119	0x3c7b804a	0.015350411
120	0x3cbf474c	0.023349427
121	0xbea47daf	-0.3212714
122	0x3bc8443c	0.00611165
123	0xbd73a221	-0.05948079
124	0xbd85b57f	-0.06528758
125	0xbe0bf862	-0.1366897
126	0x3d1b27f6	0.037879907
127	0x3d31bf07	0.04339507
