project2-reacher/models/ddpg_actor_local.pth (torch_old, 52527 bytes, 6 tensors)

fc1.weight f4 [128, 33]
000000 3f 8b 9a 3e 26 d4 ad 3f 8d 5d 91 3e 10 c0 d3 be
       0.3018436 1.3580368 0.28391686 -0.4135747
000010 77 e6 c7 3e 70 7f e4 be d9 ba 8a bd 76 1a a2 bc
       0.39043018 -0.44628477 -0.067739196 -0.019788008
000020 2b 25 81 be ea c9 cb 3e d9 f9 63 3e 54 3b c2 3d
       -0.2522367 0.39802486 0.22263278 0.09483972
000030 2b 94 3f 3e 99 ff 4b 3f 86 77 41 bf df 86 e8 bd
       0.18708865 0.79686886 -0.75573003 -0.113538496
000040 4c 38 a1 3e 97 77 b7 be 78 a8 11 bf ea b4 e5 be
       0.31488264 -0.35833427 -0.5689769 -0.4486459
000050 8b 0e b5 3e 5f 64 b4 3d f0 02 9f 3d 28 b6 e6 3e
       0.35362658 0.08808207 0.07764232 0.4506085
000060 9f fd bf bd cc 5f 47 3c dd 9a 16 bf 4d 36 06 3f
       -0.09374546 0.012168836 -0.5883005 0.52426606
000070 a1 61 1e 3f ed e8 88 3d 16 fb 05 bf 72 39 a2 bd
       0.6186772 0.06685052 -0.5233625 -0.07921113
000080 83 0a 1a c0 ab 9d 98 3d d2 b0 f5 3e 48 bf a3 3e
       -2.4068916 0.07451948 0.47986466 0.31981874
000090 64 05 8a be 53 86 c6 bd 9e a0 88 3d b9 e9 31 3f
       -0.26957238 -0.09693589 0.0667126 0.6949726
0000a0 e0 8a 18 bf 17 fd cb be 57 96 3a be b7 b5 0d bd
       -0.59586906 -0.3984153 -0.18221413 -0.034597125
0000b0 86 e7 a2 3d 2b 09 03 3e 97 a0 c5 be 22 74 22 3f
       0.07954316 0.12796466 -0.38599083 0.63458455
0000c0 32 cf 14 bd 08 3c 0a bf 45 71 d5 3d 58 b1 64 3e
       -0.03633041 -0.5399785 0.10421995 0.22333276
0000d0 f8 ce 49 bd ef 4f d8 3e 6f 51 70 bf c4 51 db 3c
       -0.049269646 0.42248484 -0.9387426 0.026772387
0000e0 c5 3d 3b 3e 7a f1 96 3e 69 c3 89 be e9 c6 89 be
       0.18285282 0.29481107 -0.269069 -0.2690957
0000f0 0c 37 db 3e 65 f1 07 bd d0 6e e9 3c 47 bb c0 be
       0.42815435 -0.033189196 0.028495222 -0.3764288
000100 52 2e 8e bd 9e c2 e8 bf 8c cc 86 3f 48 41 6a 3f
       -0.06942429 -1.8184392 1.0531173 0.9150586
000110 60 45 61 bf 9a 7e a8 be 14 76 4e 3f 9b aa f8 3e
       -0.8799648 -0.3290909 0.8064892 0.48567662
000120 cd 3b 8f be bb a8 d3 3d 62 7f 79 3f ed c4 de be
       -0.27975312 0.10334917 0.97459996 -0.43509617
000130 56 90 07 3c 7a ee 57 be c0 46 34 be 8b 11 97 be
       0.008274158 -0.21087065 -0.17605114 -0.29505572
000140 d6 3e 26 be 7e 4a 2b 3f cc 8c f6 3e 11 b2 08 3f
       -0.16234908 0.6691054 0.48154294 0.5339671
000150 2d 5d e1 3e 4a be ca 3d aa 2a d8 bd 8d d2 ca 3d
       0.440164 0.09899576 -0.105550125 0.099034406
000160 e6 d3 0a 3f a0 63 2d bf 26 e3 62 3e 58 b2 90 3e
       0.5422958 -0.6773014 0.22156963 0.28261065
000170 37 4c ba be 80 12 2b 3f ae 70 25 bf cc 65 c6 3c
       -0.36386272 0.66825104 -0.6462506 0.024218462
000180 b5 1f 4d bf 58 5b bb bc f1 48 95 be 11 a8 79 bf
       -0.80126506 -0.022870705 -0.29157212 -0.97522074
000190 0f 2b 22 3f 2b c6 33 3e c5 53 8d be 9a cb 0b bf
       0.6334695 0.17556064 -0.27602974 -0.54607546
0001a0 5f 83 ea bd 32 07 cf bc 68 4b 1c be 0f de c1 3e
       -0.11450838 -0.025271986 -0.1526314 0.3786473
0001b0 48 8c f5 be 4b 6a 3a be 22 78 b6 3e b3 7a 1c 3e
       -0.4795859 -0.1820461 0.3563853 0.15281181
0001c0 a2 38 b4 3e d2 c1 99 bc 1e 85 4f 3f 06 a2 db 3e
       0.35199457 -0.018769179 0.81062496 0.42897052
0001d0 04 5c ba ba 5f 2f 8a 3e 9b 22 d8 be a0 53 bc 3e
       -0.0014218097 0.26989266 -0.42213902 0.3678255
0001e0 51 be 93 bd de f2 c0 bd 7b 35 ce 3e 6f be ba 3c
       -0.07214034 -0.09421323 0.40275177 0.022795884
0001f0 de 6d 62 3f 9c 3d 0c 3f c6 e6 2a 3f 62 0a 91 be
       0.88448894 0.5478151 0.6675838 -0.28328234
000200 dc 4c 94 bd f4 42 3c bf 20 2c 84 bb 09 99 01 40
       -0.07241222 -0.7353966 -0.0040335804 2.0249655
000210 67 91 d2 be bf 1c fc 3c 1e a4 54 bf 37 46 24 be
       -0.41126558 0.030775426 -0.8306292 -0.1604241
000220 6c 46 cf be b0 d3 c6 3d e1 11 10 bf 53 3b 87 3e
       -0.40483415 0.09708345 -0.5627728 0.26412448
000230 18 d1 d1 3c a5 9b da 3e 5d 67 6a 3e cd cc a1 3e
       0.025612399 0.42696872 0.22890992 0.31601563
000240 63 f8 a1 be 8d 09 21 3c 28 b1 a1 3e 9a 8f 5e 3f
       -0.31634817 0.009828937 0.31580472 0.8693787
000250 ac 07 08 3f cd 47 00 bf e7 df a6 be 8b 0b 64 3c
       0.53136706 -0.5010956 -0.325927 0.013918768
000260 91 e3 41 3d dd 14 aa be 09 23 f3 bd 45 15 21 3e
       0.047336165 -0.33219042 -0.11871917 0.1573077
000270 e3 b1 98 3e 23 70 6b 3e 74 c2 a2 3e 8d 76 b0 3e
       0.29823217 0.22991996 0.3178898 0.34465447
000280 30 9c 23 bf 73 11 93 3d bd d7 b1 be ba 08 b4 bd
       -0.639102 0.071810625 -0.34734908 -0.08790727
000290 2a d1 4c 40 82 3e 6c 3f f7 cf ad bd 35 1d 1c bf
       3.2002664 0.9228288 -0.08486932 -0.60982066
0002a0 d9 0a 71 be 26 35 60 3f ef 29 93 3f 6f c9 8f bd
       -0.23539294 0.875811 1.1497172 -0.07020842
0002b0 c8 89 4b 3f 15 0e 59 3e 89 10 b9 be 91 74 a1 3e
       0.7950711 0.21196778 -0.36145428 0.31534246
0002c0 57 c5 82 3e b7 58 b2 be ee 02 3d 3e aa 0f d1 3e
       0.25541183 -0.3483331 0.18458149 0.40832263
0002d0 52 15 bd bc ae 3e 01 3f e8 52 8e bd 99 79 cf be
       -0.023081455 0.50486267 -0.06949407 -0.4052246
0002e0 78 d3 fc bc 06 0c d8 bd 44 77 29 3f 53 af 2b 3f
       -0.030862555 -0.10549168 0.6619761 0.670644
0002f0 ce cc cd 3d 38 05 56 be 94 be 99 3e 05 70 16 3f
       0.10048829 -0.20900428 0.30028212 0.5876468
000300 5c e6 1b 3f a5 85 11 be 94 38 c1 bc ac cd ff be
       0.60898376 -0.14211138 -0.023586549 -0.49961603
000310 fe 38 36 bd 86 a6 52 3f f3 d8 5f 3e 37 00 6c 3e
       -0.044487946 0.82285345 0.21860103 0.23046957
000320 c2 6f 6d be 01 6c 4e be 74 18 00 be 52 86 3a bf
       -0.23187163 -0.20158388 -0.12509328 -0.72861207
000330 9a f4 7d be 6f 2f e6 3e 9a 73 96 3d da 5f 4f bd
       -0.2480034 0.44958064 0.07346268 -0.05062852
000340 42 b3 ac bd 9a 09 d6 3e 94 bf 14 bf 5a 8a 2e bf
       -0.08432628 0.418042 -0.58104825 -0.6817986
000350 41 ed a8 3f fe bf 1e bd c8 2d 07 3e 81 be 09 bf
       1.3197404 -0.038757317 0.13201058 -0.5380631
000360 42 d8 df 3e 2f 82 93 bd b1 71 8d be 50 f0 90 3f
       0.4371968 -0.07202565 -0.27625802 1.1323338
000370 5f 97 0d be 88 fe f7 3e a1 5e c0 3e 83 9a 00 bd
       -0.13827275 0.4843638 0.37572196 -0.031397354
000380 06 3f 4c bd 54 7b 4b 3f b3 e0 e9 bd 48 b3 51 bc
       -0.04986479 0.7948506 -0.11419811 -0.012799092
000390 d3 70 44 bf ae 84 58 3d 81 30 df bf 93 43 38 bf
       -0.76734656 0.05286091 -1.7436677 -0.7197811
0003a0 b8 26 9d 3e 40 c8 4e 3f 27 a6 fb bd 61 fd a2 be
       0.30693603 0.8077431 -0.122875504 -0.31833938
0003b0 f0 fe a0 bf 7b 60 21 3f 87 0a 43 3e b3 48 4a 3f
       -1.2577801 0.6303784 0.19046985 0.7901718
0003c0 79 dc 42 bf 51 33 88 be 73 b1 25 bd 55 cc 17 be
       -0.76117665 -0.2660165 -0.040452432 -0.1482404
0003d0 ae 15 1c 3f 41 21 28 3f 3b db 8b 3e b6 a1 43 bf
       0.6097058 0.6567574 0.27315697 -0.76418626
0003e0 da a1 8a 3b 27 70 40 bd 05 37 cd 3e a5 ae fc be
       0.00423072 -0.046981957 0.4008104 -0.49351993
0003f0 46 d4 2e be d9 c3 03 bf 77 64 e1 3e f3 22 38 be
       -0.17073163 -0.51470715 0.4402196 -0.17982082

fc1.bias f4 [128]
000000 d4 3c ee be 5d 76 85 be 12 50 15 bf b2 0a 19 bf
       -0.46530783 -0.26066867 -0.583253 -0.59781945
000010 5a 7a ea be 51 e6 09 bf 71 b9 5f bf d6 ca 68 be
       -0.45796472 -0.5386706 -0.87392336 -0.22733626
000020 96 6f 1a 3e 0b 4f f3 be 79 cc f8 be 43 7a 9f be
       0.15081629 -0.47521242 -0.485935 -0.31147966
000030 96 0f 0e be fb 2f 1a be 38 d3 4d bf 1d e6 15 bf
       -0.13873133 -0.15057366 -0.8040042 -0.5855425
000040 a2 cd be be ce 84 a1 be 02 77 c9 be 97 2c 55 bb
       -0.3726626 -0.31546634 -0.39348608 -0.0032527798
000050 36 1e ad 3e c9 69 1e bf 0d 7f 1a bf c8 11 53 be
       0.33812112 -0.61880165 -0.60350114 -0.20612252
000060 02 57 2e bf 95 07 a5 be b6 6d c8 be b7 03 75 bf
       -0.68101513 -0.32232347 -0.39146203 -0.95708793
000070 3b fd 9a bf 75 13 22 bf b6 e4 5b 3e f7 5c 80 3d
       -1.210853 -0.6331094 0.21473965 0.06267732
000080 67 89 a0 3e c0 85 f9 be 30 0c 09 bf 62 49 8d be
       0.3135483 -0.48734856 -0.5353422 -0.2759505
000090 06 d1 20 bf 97 80 98 be 56 55 01 be a4 24 72 3e
       -0.62818944 -0.29785606 -0.1263021 0.2364679
0000a0 67 48 0b bf ed a8 3f bf b7 15 55 bf 11 92 bd be
       -0.5440735 -0.74867135 -0.8323626 -0.37025502
0000b0 c0 94 01 bf 57 f0 1a bf c6 a7 45 bf eb c0 20 bf
       -0.506176 -0.6052298 -0.77209127 -0.6279437
0000c0 71 93 e9 be 5c 3d ba be cf 39 03 bf 2b 4c d3 be
       -0.456203 -0.36374938 -0.51260084 -0.4126905
0000d0 21 fa 72 bf ff e6 7e bf d0 3e 3a bf 04 8b 0d bf
       -0.94912916 -0.9957122 -0.72752094 -0.55290246
0000e0 06 3d 4a be 7a be 36 bd 87 ca ea be c3 4f 0a be
       -0.19749841 -0.044615246 -0.4585764 -0.13506989
0000f0 ff 57 27 bf ae b1 4b bf 45 ce 1a bf dd 32 03 bf
       -0.65368646 -0.7956799 -0.6047099 -0.51249486
000100 81 39 2d bf c7 06 d2 bc c4 9d 58 bf 7c e1 f1 be
       -0.6766587 -0.025637997 -0.8461573 -0.47242343
000110 d2 c5 d3 3d 08 d1 6e be 0a 77 92 be 80 4c 88 bf
       0.103404656 -0.23321927 -0.28606445 -1.0648346
000120 97 26 59 bf 41 11 42 bf 46 e1 52 bf 74 ed 45 bf
       -0.8482451 -0.7580758 -0.8237499 -0.7731545
000130 4c ac 40 bf eb c0 4e bf 34 d1 93 bf 07 4d 78 be
       -0.75262904 -0.8076312 -1.1548219 -0.24248134
000140 74 91 38 bf 0a 9b 1b bf cf f5 0a bf e5 a5 11 be
       -0.72096944 -0.60783446 -0.54281324 -0.1422344
000150 bd 78 25 bf 4d 97 09 3e c7 78 ff 3e 3c 64 5d be
       -0.64637357 0.13436623 0.49896833 -0.21620268
000160 b3 71 37 bf c4 4d a2 3e be 09 0e bf 38 40 17 bf
       -0.71657866 0.31699955 -0.55483615 -0.59082365
000170 31 30 e7 bd dc f5 9d be 66 44 82 bf 44 e4 e3 be
       -0.11288489 -0.30851638 -1.0177124 -0.4451009
000180 98 f6 9a be 83 de c6 be 63 39 3f be 4d 5e f0 be
       -0.3026626 -0.38841638 -0.18674235 -0.46946946
000190 ff cf c6 bd 33 28 65 bf ff 8b 2d bf 61 a5 89 bf
       -0.09707641 -0.89514464 -0.6779174 -1.0753595
0001a0 5d 87 16 bf a7 b5 32 bf 33 de 2b bf f3 a0 eb be
       -0.588003 -0.6980843 -0.67135924 -0.46021232
0001b0 54 49 ec be 6c f4 35 bf f0 92 0f bf cc 57 ed be
       -0.46149695 -0.71076083 -0.56083584 -0.46356046
0001c0 e4 86 7a bf b3 7d 4f be 85 95 73 bf 1b 81 87 be
       -0.97862077 -0.20262794 -0.95150024 -0.26465687
0001d0 e7 43 12 bf 12 c2 79 be cf ab 24 be 70 bc 18 bf
       -0.5713486 -0.24390438 -0.16081165 -0.5966253
0001e0 ab 87 11 bf 5c f8 43 bf 3b cb 87 be 6f 34 6e bf
       -0.5684764 -0.7655084 -0.2652224 -0.9304876
0001f0 c9 3d 2b bf e8 dc b0 be d8 c2 ba be 4c 4b 50 bd
       -0.6689115 -0.34543538 -0.3647678 -0.05085306

fc2.weight f4 [64, 128]
000000 16 f0 ce be d7 1b de bd 79 4b 17 bc a7 96 ee be
       -0.40417546 -0.10845154 -0.009234303 -0.46599314
000010 7e 42 4c bf 9c 9c 18 bf fb 26 b7 3d ff 1c 19 3c
       -0.7978896 -0.59613967 0.08942982 0.009345292
000020 df 3a 1f bf 97 c0 4e 3e 3f 95 7f 3e 28 78 c4 be
       -0.62199205 0.20190655 0.24959277 -0.38372922
000030 5d 25 97 be d3 b0 bc 3d eb 30 86 bf 14 8e 08 bf
       -0.29520693 0.09213414 -1.0483679 -0.53341794
000040 bf d2 8c be f0 14 39 be 94 d5 95 bd 09 cb 1a bf
       -0.27504537 -0.18074393 -0.073161274 -0.6046606
000050 e4 7e 42 be 35 f9 11 be e9 d8 c2 be f3 6f 16 bf
       -0.18993717 -0.14255221 -0.38056114 -0.5876457
000060 64 8c 5f be 94 9e a1 be 84 c1 b2 be 6b 3e 92 3e
       -0.21830899 -0.31566298 -0.34913266 0.28563246
000070 d6 3f f7 3e 70 66 48 3e 63 4a 83 bf c7 d7 30 3f
       0.4829089 0.19570327 -1.0257076 0.6907925
000080 c4 b2 5a 3d 12 79 fb be 5c a9 fd bd 75 66 0f be
       0.05339314 -0.49115807 -0.12385818 -0.14003928
000090 c9 77 95 bf dd cb 70 be 75 3b 70 be 4d c2 ed 3e
       -1.167718 -0.23515268 -0.23460181 0.46437302
0000a0 20 8a ed be d7 e4 d4 be ab 86 ad bf 62 dc 7f bc
       -0.46394444 -0.4158084 -1.3556722 -0.015616508
0000b0 75 76 49 3d 57 c3 2d bf ee b5 c8 3e 62 17 d5 be
       0.049185235 -0.6787619 0.392013 -0.41619402
0000c0 4a 98 de 3d 35 69 fa be dd 15 6d be b8 ea 0b 3d
       0.108688906 -0.48908392 -0.23152871 0.034159392
0000d0 76 a9 bc 3e 9d aa 57 3f c5 dc 29 bf 53 c6 b4 bc
       0.36848038 0.8424471 -0.6635249 -0.022067225
0000e0 51 5c fc be e9 4c 8e bf ed 22 23 be 0f 99 2f bf
       -0.49289182 -1.1117221 -0.15931292 -0.68592924
0000f0 87 a1 58 be 86 af cf 3d 9c 88 c4 3d ec b0 00 bf
       -0.21155368 0.101409 0.09596369 -0.5026996
000100 dc 09 3a bd 10 af 65 bf 2b ef d1 be ce 2d a0 be
       -0.04541956 -0.8972025 -0.41002783 -0.31284946
000110 38 cf d7 bc 4b a1 9b bd b4 a0 d9 be 4b 9b 61 be
       -0.026343927 -0.075991236 -0.4250542 -0.22031896
000120 af b8 05 3f 42 78 6a 3e 5e 1c b2 be ea 69 7f bd
       0.5223493 0.22897437 -0.34787267 -0.062356867
000130 b0 7a dd be c9 7d 10 bf 1b 6e 96 3e 50 b1 ef be
       -0.43257666 -0.5644193 0.2938088 -0.46814966
000140 87 1a 63 be be 10 0c be 64 85 10 bf 7b a2 db be
       -0.22178088 -0.13678262 -0.5645354 -0.428974
000150 81 da 00 be 6a 4b a5 bf 23 b4 99 bf d1 f9 60 bf
       -0.12583353 -1.291364 -1.2008098 -0.8788119
000160 b9 f3 6e 3e 94 4d 65 bf 5a d3 35 bd b5 97 03 3e
       0.2333516 -0.895715 -0.044391014 0.1285084
000170 e0 b2 0d be f5 bb 4d bf c5 e6 28 3e 5e c6 9e bf
       -0.13837767 -0.80364925 0.16494282 -1.2404287
000180 41 d8 be be 66 b1 17 be ab 20 ac bf e7 2d 02 bf
       -0.37274364 -0.14813766 -1.344747 -0.5085129
000190 6b 55 89 3e 70 1f 8d 3d 9f 36 bd 3d e4 16 08 be
       0.2682298 0.06890762 0.09238934 -0.13289982
0001a0 7d 51 b8 be 1e d9 a1 bd 17 54 2d 3f 29 a4 0d bf
       -0.3599967 -0.0790274 0.67706436 -0.55328614
0001b0 2d 9e a3 be 68 ae f8 3b 3d 1d 11 bf 0d 4a b3 be
       -0.31956616 0.00758915 -0.5668524 -0.35017434
0001c0 10 44 ed bc 1e dc 25 be e1 ae 0c bf 44 2f 96 be
       -0.028963119 -0.1619725 -0.54954344 -0.29332936
0001d0 86 75 3a 3e 80 2c 2e 3f 8b ca 7e 3e 43 3d 75 bf
       0.18208894 0.6803665 0.24881952 -0.957966
0001e0 ac 4a 6b bd c9 66 2b be 92 b1 11 be 7e be 2d 3d
       -0.05744426 -0.16738428 -0.14227894 0.042417996
0001f0 fd 97 3a bd 3a 54 4a bf ea 9a a7 be 78 45 b8 3e
       -0.045555104 -0.7903477 -0.32735378 0.359905
000200 50 90 cc 3a 6f bb 91 be 59 d6 a1 bf 1d 7d eb be
       0.0015606973 -0.28463313 -1.2643539 -0.4599389
000210 d2 39 7f bc a8 34 1e 3f 24 fe c3 be 09 5b 7f bd
       -0.01557775 0.617991 -0.3827983 -0.062342677
000220 7f d8 06 bf 0b e1 f8 3e 96 b4 c8 bd 4b 58 94 bf
       -0.52674097 0.48609194 -0.09800069 -1.1589445
000230 ce c1 1c bf 28 10 90 3e c4 36 82 3e 66 47 d8 be
       -0.6123322 0.28137326 0.25432408 -0.42241973
000240 f1 22 c1 be 7d ca ec be 96 b2 44 3f ba 9f 0d bf
       -0.3772197 -0.46248236 0.76835 -0.5532185
000250 4c 07 96 be c7 73 26 3f eb 24 8d 3c cf 20 a1 bd
       -0.29302442 0.6502041 0.017229518 -0.07867586
000260 76 6b f5 be 13 c7 80 be 96 2b 0a 3f 0d cc 6f 3d
       -0.4793355 -0.25151882 0.53972757 0.058544207
000270 41 63 17 3f fc b3 82 bd 52 1f 3e 3f 27 ef 29 bf
       0.59135824 -0.063819855 0.7426654 -0.6638054
000280 39 88 45 3e bd 4a f2 3e d3 f0 ea 3e 6b 5f 01 3f
       0.19290246 0.47322646 0.4588686 0.5053622
000290 d5 5b 13 3f 0e 0b 4e 3c d0 86 90 bf bf 18 a7 bf
       0.57562 0.012575878 -1.1291142 -1.3054427
0002a0 5e f4 6c bf 55 74 1d bf cf cd 9c bf 4e ed a9 be
       -0.92560375 -0.61505634 -1.2250308 -0.33188862
0002b0 7a c3 23 bf 35 01 a6 bd fb 24 17 bf d5 ff 12 bf
       -0.6397015 -0.08105699 -0.590408 -0.5742162
0002c0 e1 fb 80 be a5 75 38 3f d6 f5 66 bf ad bc 1a 3f
       -0.25192168 0.7205451 -0.90218866 0.60444146
0002d0 24 a7 80 3e d6 2b dd be 4c a7 96 be a3 7b a0 3d
       0.25127518 -0.43197507 -0.29424512 0.07836082
0002e0 f1 8c 67 3f e8 ba 71 be e7 f8 0c bd 20 0c 1f 3f
       0.90449435 -0.23606455 -0.03441706 0.62127876
0002f0 7d 8f c4 be 02 52 13 bf ba 85 c1 3e bd 82 8a 3f
       -0.38390723 -0.5754701 0.37797338 1.0821148
000300 16 3b de 3d 39 0a 9e 3d 5f 5f ba 3e 73 4f 6f bf
       0.108511135 0.077167936 0.36400887 -0.93480605
000310 68 8c 93 3e f3 c7 89 3e 9f f1 19 bf a8 06 b9 be
       0.2881806 0.26910362 -0.6013431 -0.3613789
000320 2a 0d 16 be ea e8 d8 bf 72 7d 46 bf e6 15 d6 be
       -0.14653459 -1.694608 -0.77535164 -0.41813582
000330 06 83 70 be 7c dc c8 3e 52 80 96 bd 32 6d 9f 3d
       -0.23487481 0.39230716 -0.07348694 0.07784499
000340 71 94 0f bf 8d db 9b 3e 87 68 5b 3d 9b 59 35 bf
       -0.5608588 0.3044094 0.053566482 -0.7083985
000350 5b 09 8f be 1d bf 4d be b1 fd 68 bf 31 54 89 3e
       -0.27936825 -0.20092435 -0.910121 0.26822045
000360 4e 0f 40 bd bc 1c 80 bf 16 0d 9f 3d ea e6 40 bf
       -0.046889596 -1.0008769 0.07766168 -0.75352347
000370 22 22 81 bf 73 dd 36 3f 1e 2b 0b be 35 f8 69 37
       -1.0088542 0.71431655 -0.13590667 1.3945672e-05
000380 84 c2 9f 3e 5d 8b 44 3e e1 07 22 3f 2b 52 49 be
       0.3120309 0.19193788 0.6329327 -0.19660251
000390 8e 0b b5 be 13 da 94 bf 7c a6 96 be a3 7e 9f 3f
       -0.35360378 -1.1629051 -0.29423892 1.2460521
0003a0 4c f5 0a be 9a c7 c4 3d d2 a7 56 3e ea e2 8f 3e
       -0.13570136 0.096083835 0.20962456 0.2810281
0003b0 7a 6c a9 3e e7 ab 0a bf e6 a1 42 3f 49 ba 6c bf
       0.33090574 -0.5416855 0.7602829 -0.9247175
0003c0 af f2 70 be da 6e 60 bf a2 f5 58 3e 65 bc 33 be
       -0.23530076 -0.87669146 0.21187451 -0.17552336
0003d0 04 a1 09 bf 5f 49 05 3f 29 dc 3c bd 80 61 35 3e
       -0.53761315 0.5206508 -0.0461084 0.17712975
0003e0 68 46 5f be e6 ac 17 3f 07 46 8b 3c 94 7d c3 3e
       -0.21804202 0.592482 0.017001165 0.38181746
0003f0 47 c9 1f 3f 6d 4e f1 be f3 29 d8 bd 8f 5b 1d bf
       0.624165 -0.47130147 -0.10554876 -0.6146783

fc2.bias f4 [64]
000000 66 18 74 be 7c be d4 be a2 fc 15 bf 4b 96 05 bf
       -0.23837432 -0.41551578 -0.5858861 -0.52182454
000010 59 25 0f bf e2 d1 36 be dc dc d1 bc 44 98 b6 3e
       -0.55916363 -0.17853501 -0.02561801 0.35663044
000020 f7 1d 80 bf 6d 24 9b be ab 23 c1 be 7f e5 2c 3e
       -1.0009145 -0.30301228 -0.37722525 0.16884421
000030 66 82 74 be 5c 31 0e 3e 6a 77 02 bf be ee db 3e
       -0.23877868 0.13886017 -0.5096346 0.42955583
000040 3c fc a9 3e f8 19 1a bf 1b 5d d8 bd 3f b7 de be
       0.33200252 -0.60195875 -0.105646335 -0.4349918
000050 73 61 7b bd 61 1e 72 be a9 ff 6f bf bb 12 05 bf
       -0.06137223 -0.23644401 -0.9374948 -0.51981705
000060 13 86 fd bd cb 8d ac be 8b 4c 68 bf 07 54 0a bf
       -0.12379088 -0.3370193 -0.90741795 -0.54034466
000070 d7 e0 97 3d 71 4d 72 bf fc 1b 6a bf 1a b3 f2 bd
       0.07415932 -0.94649416 -0.9144895 -0.11850567
000080 20 a5 8c 3d 87 f5 38 bf 31 1b 65 bf 13 43 df be
       0.068674326 -0.72249645 -0.89494616 -0.4360586
000090 0d ce 0a 3e 13 28 d1 be 8d b7 c3 be 50 7e bd be
       0.13555165 -0.40850887 -0.38225976 -0.3701043
0000a0 73 76 00 bf a5 2c 08 bf 51 43 fa be f2 08 a5 bd
       -0.5018074 -0.5319312 -0.48879483 -0.08058347
0000b0 9b 6a 8c bd 9d b4 79 3e b3 4a 0b 3f f6 e0 d8 be
       -0.06856271 0.24385305 0.54410857 -0.42359132
0000c0 20 21 5a be fc 29 f6 bd a0 c0 6c 3e 81 d8 11 be
       -0.21301699 -0.12019727 0.23120356 -0.14242746
0000d0 5e 3c c4 be c7 fc 98 bd 37 81 6e bf 47 25 89 be
       -0.38327307 -0.074700885 -0.93165916 -0.26786253
0000e0 22 5c e6 be d9 9e fe be 30 d8 9a 3e ea 27 1a bf
       -0.44992167 -0.49730566 0.30243063 -0.60217154
0000f0 61 80 7c be 52 fd bb be 31 cc fc be 8a 7d 11 bf
       -0.24658348 -0.36716706 -0.49374536 -0.5683218

fc3.weight f4 [4, 64]
000000 75 87 aa be cf 82 02 bd 42 99 bb bc e6 62 a3 3d
       -0.3330647 -0.03186303 -0.022900227 0.07977848
000010 23 71 33 3f 12 ed 11 3f c3 74 85 3c c5 5b c2 3d
       0.7009451 0.57002366 0.016291028 0.0949016
000020 ab d7 f9 3e 9d 6a bb 3c bc de ab be a7 3c 8e bc
       0.48797354 0.022877986 -0.3356837 -0.017362906
000030 9c 0f 2d bc c9 f5 17 bd ac f5 56 3e 9d 14 15 be
       -0.010562804 -0.037099633 0.20992154 -0.14558645
000040 bb 0f 8c bc 37 73 de bb 3f 36 1a 3f ca e5 46 bf
       -0.017097345 -0.006788637 0.6023902 -0.7769438
000050 ec a9 42 40 40 d5 0f 3c ec 08 29 bf 38 a9 fe be
       3.0416212 0.00877887 -0.6602924 -0.4973848
000060 8b f7 4f bc 6d 1f 89 3d 5a 57 56 3e 24 db eb bd
       -0.012693296 0.06695447 0.2093176 -0.11516407
000070 93 a3 a1 3e be 20 df 3e 0c 2f d9 3c 0d d9 f1 3f
       0.3157011 0.43579668 0.026511692 1.8894364
000080 7a ed c7 be d8 66 c3 3e 8d 3c a5 3e 57 08 a3 3c
       -0.39048368 0.381644 0.3227276 0.019901438
000090 87 de e2 3e 6c f7 eb 3e 6d 31 64 bf 80 68 14 3d
       0.443104 0.46087205 -0.8913792 0.03623247
0000a0 ed 4e c8 3f 4d 2c 26 3d 61 bb bf 3e 63 ea 38 3e
       1.5649086 0.040569592 0.37447646 0.18058161
0000b0 4d df e7 3c e7 92 cf bc d7 c2 33 3d 1d 03 97 3f
       0.02830472 -0.025338603 0.043886986 1.1797825
0000c0 84 88 84 bd 15 27 2c 3d 81 90 d6 3e a4 3e ab bc
       -0.06471351 0.04202946 0.41907123 -0.020903893
0000d0 1c bd 51 bc 9a 7f 27 40 6d 3d ba 3e 36 d4 a3 bf
       -0.012801435 2.6171632 0.3637499 -1.2799137
0000e0 1c cb 16 40 9c c4 f8 bd 06 88 8c 3d 35 39 a3 bc
       2.3561468 -0.12146875 0.06861882 -0.01992474
0000f0 a3 3a 63 3e e8 31 49 3f 4a 8a 37 bf f4 d8 cf bd
       0.22190337 0.78591776 -0.7169539 -0.101488024
000100 b8 0a f4 3e 5f 4c f2 3d 0f 7d 3a 3e 3a d8 3d bf
       0.47664428 0.11830973 0.18211769 -0.7415806
000110 0f 1f ee be b5 dd 98 3c ea 5e 2b 3d 74 03 4f 3d
       -0.4650807 0.018660406 0.041838564 0.050540403
000120 5c 8f 68 bf f4 45 e8 3b e9 5b 49 be 94 30 5e be
       -0.9084375 0.007088417 -0.19663967 -0.21698219
000130 0e 2f 5d 3e 33 50 57 be 14 08 24 3f f0 c1 65 3d
       0.21599981 -0.21026687 0.64074826 0.056093156
000140 a9 03 08 3d 68 27 d8 3d c7 fb 0b 3f 23 13 86 3f
       0.033206616 0.10554391 0.54681057 1.047459
000150 8e c6 54 bf f2 00 35 be 8b a5 cf 3e cd ec 83 3e
       -0.8311547 -0.17676142 0.40555987 0.25766602
000160 37 33 ce bc 60 d9 84 be 8a b1 df 3e 2f ed b4 3e
       -0.025170906 -0.25947094 0.4369014 0.35337207
000170 e0 2b ce 3e a9 f7 6b 3d d6 b4 76 be cf 51 bc bd
       0.4026785 0.057609234 -0.24092421 -0.09195291
000180 e2 d9 a0 ba af f1 00 3e f9 db c0 3d 0e ba 86 3e
       -0.0012271965 0.12592195 0.094169565 0.26313823
000190 f9 28 c2 bd ca 53 c4 3e 52 16 1f 3f ae bf 22 ba
       -0.09480471 0.38345176 0.62143433 -0.0006208372
0001a0 65 2b 9f 3e f2 d0 82 bc 62 e1 62 3d 24 f6 e5 bd
       0.31087795 -0.015968774 0.055390723 -0.11228588
0001b0 a0 25 f1 3c 2e 5e 52 bd 92 a8 84 3d c5 6a 4c 3f
       0.029436886 -0.051359348 0.06477465 0.7985042
0001c0 1c 21 4a be 35 5b 92 bd 93 7f 0e be fd b0 ce be
       -0.19739193 -0.071463026 -0.13915853 -0.40369406
0001d0 3b e8 0b be 30 6e 24 3e e4 67 9a be 3c 35 7e 3e
       -0.13662808 0.16057658 -0.30157387 0.24824995
0001e0 1b 66 a9 bd 5b 3a 80 bf c3 f4 2d bf de 4c 36 ba
       -0.08271428 -1.0017809 -0.679516 -0.0006954203
0001f0 dc 59 88 3e ef 40 ba bd 77 cc 6c 3d a0 e5 92 be
       0.26631057 -0.09094416 0.05781218 -0.28690815
000200 b4 5b 34 be ca c9 cf 3c 92 8d 62 3c f1 cb 04 3d
       -0.17613107 0.025364775 0.013827698 0.032421056
000210 1e c1 9c 3f ee f1 ca be d8 33 c4 3c 4a ea 53 be
       1.2246435 -0.39637703 0.023950502 -0.20694843
000220 f2 3a e5 3d 9f 41 f9 be e1 25 a2 bd d1 4a 53 bc
       0.111928836 -0.48682877 -0.07917381 -0.012896256
000230 a7 ae f8 bd c5 fd cc bf 96 2c 47 be f1 4b 85 3b
       -0.12142687 -1.6014944 -0.19450602 0.004067891
000240 62 07 e9 bd 7c 80 8d bd 66 eb e7 3c 96 13 56 be
       -0.11378361 -0.06909272 0.028310489 -0.20905909
000250 f2 2a a3 3d 9a d8 64 c0 08 c2 09 bc 84 84 d4 3b
       0.079671755 -3.5757203 -0.008408077 0.0064855237
000260 8d 4b c3 bd b3 16 62 40 3e 60 c3 3d b6 58 31 be
       -0.095358945 3.5326355 0.09539841 -0.17318997
000270 a0 10 71 3d ba e2 6f be 19 59 ab be 10 09 ae bb
       0.058853745 -0.23426333 -0.33466414 -0.005311139
000280 39 af 77 3c d5 9f 32 bf e9 02 1b 3d 93 da ea 3b
       0.01511746 -0.69775134 0.037844572 0.0071671694
000290 5c fb 4c 3f 2a b7 5e bf 4a 64 cf 3d 77 55 fd bc
       0.80071044 -0.86998236 0.101265505 -0.030924542
0002a0 ca 26 cd 3e 6a b0 d4 3c 8c 3b b3 3d 5f fd cd 3c
       0.40068656 0.025963027 0.08751592 0.02514523
0002b0 29 56 a9 3d 7b a6 bc bc 0f af 23 3e b1 a6 32 c0
       0.08268387 -0.023028603 0.15984748 -2.791424
0002c0 d6 fc 6c 3c ab 0a 1f 40 b1 14 4d 3c 3c bb 78 bd
       0.014464578 2.4850261 0.01251714 -0.060725436
0002d0 08 9e 64 be 2e 03 79 3d 07 ec 5d bf 90 ab 74 3c
       -0.22325909 0.060794048 -0.86688274 0.014933482
0002e0 47 84 b3 3b 9a 74 2a bf e6 a8 d1 3c 31 f9 06 3f
       0.005478415 -0.6658417 0.025593232 0.52723986
0002f0 44 f4 fe 3c a4 a7 b2 3d 4f 92 80 3d ee 53 d1 bc
       0.031122334 0.08723381 0.06277906 -0.025552716
000300 57 46 14 c0 f8 46 50 3d 72 5d 8c 3d 3a 67 d5 3f
       -2.3167932 0.05084893 0.06853761 1.6672127
000310 98 91 75 3e 05 f1 1c 3e bf 37 c8 bd c3 35 91 bc
       0.23981321 0.15326317 -0.09776258 -0.01772583
000320 6b e1 bc 3c 58 f0 bb 3c e9 eb b9 3f 5d ea d2 bc
       0.023056706 0.022941753 1.4525119 -0.025746519
000330 05 36 e2 ba a3 22 52 bb 2d 9a 0e 40 0a 08 72 3c
       -0.0017258531 -0.0032064102 2.2281601 0.0147724245
000340 e1 03 27 bd 91 fd 1c bf 77 8b 04 3d b5 16 16 3f
       -0.040775184 -0.6132441 0.032359567 0.586284
000350 75 11 46 3c 10 04 c4 3b ef e6 4d bf 4d 14 cc 3d
       0.012089123 0.0059819296 -0.804305 0.099648096
000360 8a f8 8a 3c 36 9d 07 bd 81 2f 06 c0 9c e9 f1 3c
       0.016964216 -0.033108912 -2.0966494 0.029530339
000370 f2 a3 d5 bc 08 b1 3d c0 fd e6 01 3f 67 29 29 3b
       -0.026079152 -2.9639301 0.50743085 0.0025812031
000380 7c 9e 33 bc 06 20 76 3f d8 3f 1e c0 d1 2a 94 3c
       -0.010963079 0.96142614 -2.4726467 0.018086823
000390 bf cb 08 3c 5e 02 3f 3c ac b8 c1 3e 57 66 a2 be
       0.008349358 0.011658279 0.37836206 -0.31718704
0003a0 3a c1 14 3c 2e 86 a6 3f 44 b8 4d c0 70 ce b7 bf
       0.009079272 1.3009698 -3.2143717 -1.4359875
0003b0 19 14 0b 3e 93 f1 b5 3d 2a 6e 6f 3d c1 a8 75 bd
       0.13581885 0.08883967 0.05845467 -0.05997539
0003c0 2b 8c 84 3d 94 b7 57 3c 2f b1 86 c0 3c b5 6b c0
       0.064720474 0.013166327 -4.209129 -3.6829367
0003d0 9c 7c 99 bf 20 62 9b bb 9d 11 27 bf c6 cb 7e 3c
       -1.1991153 -0.004741922 -0.6526125 0.015551513
0003e0 41 7c 80 3a 3a 24 09 40 9f bb a1 bc 5e 0a 40 bc
       0.0009802656 2.142836 -0.019742785 -0.011721222
0003f0 9c 86 91 bf 19 7c 89 3c 87 03 10 3c 6e 58 00 40
       -1.1369205 0.016782807 0.0087899035 2.0053973

fc3.bias f4 [4]
000000 d4 93 d3 bc c5 2e 7d 3c ca 69 f3 3d de 94 5f 3d
       -0.025827326 0.015453045 0.11885412 0.05458533
