project2-reacher/models/ddpg_actor_target.pth (torch_old, 52527 bytes, 6 tensors)

fc1.weight f4 [128, 33]
0.27598807 1.3655077 0.26935318 -0.4184123 0.36185914 -0.46559545 -0.080536224 -0.0099979
-0.24769573 0.39722764 0.22626477 0.072220765 0.19089338 0.75686145 -0.74831784 -0.12896192
0.31928742 -0.39162168 -0.568504 -0.44712862 0.39411473 0.07897333 0.092914626 0.4417522
-0.11670893 0.012315449 -0.6032473 0.526887 0.6159405 0.0668512 -0.5259828 -0.07921187
-2.3997192 0.082623355 0.4799251 0.3251534 -0.2734273 -0.08669511 0.0870305 0.69952005
-0.5839336 -0.44842345 -0.21334136 -0.0710884 0.09458631 0.10005366 -0.37966856 0.62823516
-0.03617808 -0.5114787 0.07946155 0.22633345 -0.03830185 0.4419042 -0.94092673 0.0013890011
0.19776726 0.29952917 -0.27575415 -0.26360548 0.43303716 -0.04934232 0.028495222 -0.3813106
-0.06942429 -1.8361112 1.1017973 0.90715706 -0.87862533 -0.3250342 0.85937595 0.52374333
-0.27656433 0.115074165 0.98224884 -0.43084082 0.007191931 -0.2137457 -0.21001168 -0.2865651
-0.18986064 0.66092867 0.43640062 0.5094875 0.4859197 0.14021721 -0.13007273 0.089533545
0.5077257 -0.6557388 0.23137468 0.25234348 -0.36680278 0.666037 -0.6599231 0.024218462
-0.7990529 -0.022870785 -0.29817873 -0.9623254 0.6339301 0.1530389 -0.27941045 -0.53772867
-0.15343769 -0.046167642 -0.14769438 0.3737911 -0.49819228 -0.20081767 0.30421072 0.14581004
0.35886654 -0.020697683 0.7899738 0.44087085 0.046771556 0.26854932 -0.40667427 0.3517352
-0.0674487 -0.13371141 0.4049089 0.015360954 0.8579444 0.53788364 0.67237306 -0.29182193
-0.07241222 -0.74018776 -0.0040335804 2.0950878 -0.4245205 0.022738175 -0.83241254 -0.15069781
-0.4278069 0.11912647 -0.5646642 0.26533717 0.013563404 0.46501064 0.26756138 0.3106623
-0.30765122 0.009275015 0.31356996 0.8679628 0.53225 -0.508632 -0.31709927 0.001182453
0.07288419 -0.30537963 -0.09666086 0.17905277 0.29411057 0.23790838 0.3269735 0.33338267
-0.64730024 0.071810625 -0.336077 -0.08790727 3.1641247 0.91912764 -0.07112958 -0.6232942
-0.2443136 0.8760313 1.183772 -0.08695123 0.79615086 0.15562956 -0.34158847 0.32642418
0.2658142 -0.33119646 0.17970972 0.40897626 -0.037006512 0.5279512 -0.11789207 -0.35971668
-0.06076707 -0.13696493 0.6395078 0.69603276 0.07405716 -0.22950779 0.30164608 0.5739164
0.6170804 -0.15701357 -0.023586549 -0.5077105 -0.044487946 0.816148 0.22020444 0.23458502
-0.23435852 -0.20251493 -0.119270466 -0.7304273 -0.25069967 0.47305542 0.041401375 -0.021616567
-0.05787908 0.4144369 -0.60897094 -0.6807176 1.3226126 -0.048891246 0.11544389 -0.49820814
0.39987278 -0.080283955 -0.2379706 1.1122508 -0.12671778 0.50818026 0.35640213 -0.013713339
-0.034933414 0.79520506 -0.1246453 -0.012799092 -0.7676993 0.05286091 -1.7455873 -0.7311014
0.30653712 0.8330713 -0.115738936 -0.33220792 -1.2170829 0.6577971 0.18629071 0.82207537
-0.7551816 -0.26782697 -0.070180655 -0.14066114 0.59599954 0.65395623 0.30574125 -0.7086919
-0.0261257 -0.041610863 0.37459737 -0.48743838 -0.16411227 -0.51139784 0.4396976 -0.20626491
00000000: 4f4e 8d3e f5c8 ae3f a9e8 893e 233a d6be
00000010: 9a45 b93e 8762 eebe 2df0 a4bd 3bce 23bc
00000020: f3a3 7dbe 6c61 cb3e f4b1 673e 7be8 933d
00000030: 8e79 433e acc1 413f c291 3fbf 980e 04be
00000040: a479 a33e a382 c8be 7a89 11bf 0bee e4be
00000050: 68c9 c93e c5bc a13d 064a be3d 582d e23e
00000060: 1705 efbd bdc6 493c 6a6e 1abf 11e2 063f
00000070: 47ae 1d3f 48e9 883d cfa6 06bf d539 a2bd
00000080: 0095 19c0 6f36 a93d beb8 f53e 827a a63e
00000090: aafe 8bbe 358d b1bd 0c3d b23d bf13 333f
000000a0: ac7c 15bf c297 e5be 2876 5abe cc96 91bd
000000b0: 78b6 c13d efe8 cc3d eb63 c2be 05d4 203f
000000c0: 772f 14bd 45f0 02bf bdbc a23d f5c3 673e
000000d0: 67e2 1cbd 4441 e23e 93e0 70bf 250f b63a
000000e0: 8083 4a3e e35b 993e a62f 8dbe 4cf7 86be
000000f0: 0cb7 dd3e 2c1b 4abd d06e e93c 253b c3be
00000100: 522e 8ebd b105 ebbf b207 8d3f 723b 683f
00000110: 97ed 60bf e26a a6be 1000 5c3f 0b14 063f
00000120: d799 8dbe 01ac eb3d a974 7b3f 2b97 dcbe
00000130: 4aaa eb3b 27e0 5abe 4d0d 57be a9b8 92be
00000140: d46a 42be 9f32 293f e76f df3e c66d 023f
00000150: 78ca f83e 1a95 0f3e c931 05be 5d5d b73d
00000160: 50fa 013f 7fde 27bf 7ced 6c3e 2a33 813e
00000170: 93cd bbbe 6781 2a3f b8f0 28bf cc65 c63c
00000180: bb8e 4cbf 835b bbbc e2aa 98be f55a 76bf
00000190: 3e49 223f 3bb6 1c3e e30e 8fbe 96a8 09bf
000001a0: c51e 1dbe 481a 3dbd 323d 17be 8c61 bf3e
000001b0: 0f13 ffbe 26a3 4dbe 82c1 9b3e 3a4f 153e
000001c0: 5bbd b73e 308e a9bc b93b 4a3f d3b9 e13e
000001d0: 8893 3f3d 4c7f 893e 9c37 d0be a316 b43e
000001e0: 8b22 8abd a5eb 08be 3850 cf3e 83ac 7b3c
000001f0: 3fa2 5b3f beb2 093f a420 2c3f af69 95be
00000200: dc4c 94bd f27c 3dbf 202c 84bb eb15 0640
00000210: c05a d9be 6945 ba3c fd18 55bf 8750 1abe
00000220: 8209 dbbe 94f8 f33d d58d 10bf 46da 873e
00000230: 0a39 5e3c e015 ee3e cefd 883e 210f 9f3e
00000240: 7684 9dbe 3cf6 173c 3e8c a03e cf32 5e3f
00000250: 8941 083f b535 02bf d65a a2be 8afc 9a3a
00000260: 4e44 953d b85a 9cbe 21f6 c5bd 9c59 373e
00000270: a995 963e 419e 733e 1269 a73e 22b1 aa3e
00000280: 78b5 25bf 7311 933d 4912 acbe ba08 b4bd
00000290: 0581 4a40 f34b 6b3f 63ac 91bd 3590 1fbf
000002a0: 582d 7abe 9643 603f d785 973f 7d13 b2bd
000002b0: 8bd0 4b3f 5b5d 1f3e afe4 aebe 1221 a73e
000002c0: cc18 883e 9592 a9be d305 383e 5665 d13e
000002d0: 2494 17bd cf27 073f 6671 f1bd c92c b8be
000002e0: e4e6 78bd 8940 0cbe c8b6 233f 342f 323f
000002f0: 48ab 973d 1704 6bbe 5b71 9a3e 2fec 123f
00000300: fbf8 1d3f 2ac8 20be 9438 c1bc 51f9 01bf
00000310: fe38 36bd 13ef 503f 467d 613e 0e37 703e
00000320: aefb 6fbe 1360 4fbe 1344 f4bd 49fd 3abf
00000330: b55b 80be 5234 f23e 7d94 293d 3a15 b1bc
00000340: 9d12 6dbd 1331 d43e 85e5 1bbf 8243 2ebf
00000350: 5f4b a93f 3042 48bd d96d ec3d 2315 ffbe
00000360: 20bc cc3e ea6b a4bd 91ae 73be 3c5e 8e3f
00000370: 4ec2 01be 1a18 023f 577a b63e eaad 60bc
00000380: 5716 0fbd 8f92 4b3f 0946 ffbd 48b3 51bc
00000390: f187 44bf ae84 583d 686f dfbf 7629 3bbf
000003a0: 6ff2 9c3e 2944 553f 8908 edbd 2817 aabe
000003b0: 5fc9 9bbf 6465 283f fec2 3e3e 8873 523f
000003c0: 9553 41bf 9e20 89be e0ba 8fbd 7909 10be
000003d0: 6d93 183f ad69 273f 1e8a 9c3e d56c 35bf
000003e0: 9005 d6bc 2770 2abd 3acb bf3e 8691 f9be
000003f0: 0c0d 28be f8ea 02bf 0b20 e13e 1c37 53be

fc1.bias f4 [128]
-0.4679288 -0.265549 -0.58103776 -0.60260814 -0.4466943 -0.54676646 -0.87427723 -0.21901564
0.15098502 -0.47446036 -0.4682824 -0.3160878 -0.1459599 -0.1347864 -0.80466807 -0.56888807
-0.38137245 -0.28852952 -0.37718418 0.014057348 0.3412951 -0.61582166 -0.63141304 -0.20343526
-0.6726936 -0.31977183 -0.38761163 -0.97024095 -1.217615 -0.63311887 0.21623701 0.07315334
0.31053743 -0.48134774 -0.51946735 -0.26589423 -0.6446236 -0.30802214 -0.114561066 0.25043643
-0.54164463 -0.73695546 -0.83582246 -0.36299384 -0.49922478 -0.6233015 -0.8026367 -0.6171729
-0.44312176 -0.33944386 -0.50666195 -0.40951344 -0.9226326 -0.9841213 -0.72409064 -0.56449044
-0.2024076 -0.042441607 -0.45317042 -0.1633803 -0.6557927 -0.80000764 -0.59987175 -0.5077822
-0.6650732 -0.027411336 -0.8348484 -0.46128452 0.11089184 -0.22620891 -0.28188252 -1.053191
-0.84246916 -0.74943364 -0.80265665 -0.81592 -0.7483422 -0.7988889 -1.1486382 -0.23569891
-0.71164626 -0.6209026 -0.5286555 -0.14037292 -0.63105905 0.11436908 0.49862018 -0.22801626
-0.728825 0.32651445 -0.5550608 -0.63951886 -0.10866688 -0.29479903 -1.0199457 -0.42180333
-0.30555975 -0.387584 -0.18902215 -0.450921 -0.094833106 -0.907302 -0.6659172 -1.0814536
-0.57625616 -0.70457625 -0.6605173 -0.44850925 -0.4509224 -0.70563173 -0.5549746 -0.46360037
-1.0386595 -0.19003469 -0.97727346 -0.26011977 -0.5672183 -0.23184095 -0.17137437 -0.59699476
-0.57840294 -0.77440673 -0.24720801 -0.9222158 -0.6563287 -0.3434203 -0.40145865 -0.02928025
00000000: 5d94 efbe 0af6 87be e4be 14bf 8744 1abf
00000010: 1eb5 e4be e3f8 0bbf a2d0 5fbf a345 60be
00000020: d19b 1a3e 78ec f2be b6c2 efbe 43d6 a1be
00000030: 8376 15be 7205 0abe bafe 4dbf a6a2 11bf
00000040: 4043 c3be 24ba 93be 491e c1be ca50 663c
00000050: 3bbe ae3e 7da6 1dbf 49a4 21bf 5551 50be
00000060: a635 2cbf 22b9 a3be 0875 c6be b661 78bf
00000070: cfda 9bbf 1414 22bf 3c6d 5d3e 6bd1 953d
00000080: c3fe 9e3e 3673 f6be d0fb 04bf 4a23 88be
00000090: 0d06 25bf 14b5 9dbe fe9e eabd 3439 803e
000000a0: 39a9 0abf 1da9 3cbf 76f8 55bf 54da b9be
000000b0: 649a ffbe b090 1fbf 9979 4dbf 0bff 1dbf
000000c0: dbe0 e2be 96cb adbe 99b4 01bf bfab d1be
000000d0: a631 6cbf 60ef 7bbf 015e 39bf 7282 10bf
000000e0: f043 4fbe 40d7 2dbd f405 e8be 2a4d 27be
000000f0: 08e2 27bf 4dcd 4cbf 3291 19bf 04fe 01bf
00000100: 3d42 2abf bd8d e0bc a0b8 55bf 7c2d ecbe
00000110: 431b e33d 4fa3 67be e852 90be f6ce 86bf
00000120: 0fac 57bf e2da 3fbf e87a 4dbf 22e0 50bf
00000130: 5b93 3fbf fc83 4cbf 9406 93bf 0e5b 71be
00000140: 732e 36bf 79f3 1ebf f855 07bf ebbd 0fbe
00000150: 168d 21bf 563a ea3d 254b ff3e 187d 69be
00000160: 4694 3abf e72c a73e 7718 0ebf 82b7 23bf
00000170: be8c debd e6ef 96be 958d 82bf 9bf6 d7be
00000180: 5472 9cbe 6971 c6be 068f 41be 1edf e6be
00000190: dc37 c2bd f244 68bf 8d79 2abf 126d 8abf
000001a0: 8685 13bf 1c5f 34bf a917 29bf 01a3 e5be
000001b0: 4ddf e6be 48a4 34bf d112 0ebf 075d edbe
000001c0: cbf2 84bf 7498 42be 982e 7abf 6b2e 85be
000001d0: 3835 11bf b767 6dbe c37c 2fbe a6d4 18bf
000001e0: 3712 14bf 853f 46bf 1924 7dbe 5616 6cbf
000001f0: 2805 28bf c9d4 afbe fd8b cdbe 23dd efbc

fc2.weight f4 [64, 128]
-0.4041694 -0.10845577 -0.009233717 -0.46598023 -0.7979078 -0.59614354 0.08943419 0.009347393
-0.6219527 0.20192078 0.2496051 -0.38372475 -0.29521072 0.09213879 -1.0482805 -0.5334386
-0.27503428 -0.18076086 -0.07316192 -0.6046671 -0.18992521 -0.1425538 -0.38056567 -0.58761996
-0.21829738 -0.31565538 -0.3491238 0.28564402 0.48293793 0.19570692 -1.0257494 0.6908565
0.053397134 -0.4911933 -0.12385633 -0.14003547 -1.1678488 -0.23515081 -0.23459946 0.46440065
-0.46392384 -0.41582224 -1.355606 -0.0156140085 0.04918378 -0.67875665 0.3920397 -0.4161799
0.10869419 -0.48907733 -0.23152979 0.034159493 0.36846578 0.84249264 -0.6634977 -0.02206611
-0.49289206 -1.1117007 -0.15930292 -0.68590933 -0.21154706 0.10141488 0.09596843 -0.50268227
-0.04541673 -0.8972105 -0.41001076 -0.31282413 -0.02634466 -0.07598573 -0.4250313 -0.22030906
0.5224116 0.22898163 -0.3478721 -0.062356576 -0.43257138 -0.56437385 0.29383975 -0.46812603
-0.22176939 -0.13677208 -0.56449306 -0.42896527 -0.12583448 -1.2913513 -1.2007511 -0.87885195
0.23336263 -0.89572036 -0.04438927 0.12851672 -0.13836652 -0.80363 0.16493563 -1.240329
-0.37272757 -0.1481269 -1.3447578 -0.508464 0.26823923 0.06891503 0.09239211 -0.13289772
-0.359972 -0.07903305 0.67708766 -0.55328727 -0.31958932 0.007592095 -0.5668177 -0.35016692
-0.028961712 -0.16197026 -0.5495321 -0.29330337 0.18210198 0.6804255 0.24883023 -0.9579484
-0.057442248 -0.16737945 -0.14228556 0.04241484 -0.045559023 -0.790338 -0.32733804 0.35991237
0.09897789 -0.24918514 -1.2729396 -0.391903 -0.029374938 0.63436174 -0.42596295 -0.046555974
-0.5368882 0.47165585 -0.0559291 -1.1476055 -0.590928 0.2679658 0.17583011 -0.39355326
-0.30095333 -0.48793474 0.79611653 -0.53286904 -0.28356034 0.6093923 0.006773144 -0.10846458
-0.43070364 -0.2275317 0.57390743 -0.008226933 0.612914 0.009344837 0.7639082 -0.6294885
0.15858185 0.49268153 0.4323931 0.5882526 0.59891045 -0.015634371 -1.0872736 -1.2700573
-0.9661972 -0.594958 -1.1367314 -0.2884213 -0.64959395 -0.0804767 -0.57611614 -0.5450421
-0.28755438 0.74204636 -0.9155928 0.6233916 0.23951787 -0.44507214 -0.34678477 0.06894946
0.83329767 -0.28068706 -0.085491635 0.57628983 -0.32764325 -0.5428885 0.385696 1.0154716
0.1402636 -0.023590297 0.34080118 -0.9863707 0.25268334 0.2617918 -0.6825274 -0.41451433
-0.051331323 -1.7047819 -0.7383069 -0.41814685 -0.21416 0.39605355 -0.17734873 0.074887745
-0.6659887 0.26907402 0.051862773 -0.6848266 -0.18298991 -0.2257936 -0.87170714 0.24807486
-0.02299932 -0.96342826 0.099983424 -0.75274307 -1.0324675 0.66608876 -0.17061596 -0.035219233
0.2399397 0.17199302 0.6243979 -0.2269442 -0.340918 -1.1629611 -0.21091387 1.2344518
-0.14260067 0.13291174 0.21238382 0.3225876 0.3702378 -0.5303097 0.76247233 -0.8926976
-0.20976266 -1.0194786 0.2063591 -0.16176543 -0.38624027 0.522341 -0.05014715 0.19529611
-0.22146729 0.5961418 0.11405137 0.30479047 0.5806284 -0.4407137 -0.25368935 -0.7870707
00000000: 4bef cebe 0f1e debd 0449 17bc f694 eebe
00000010: b043 4cbf dd9c 18bf 4629 b73d cf25 193c
00000020: 4b38 1fbf 52c4 4e3e 7b98 7f3e 9277 c4be
00000030: dc25 97be 43b3 bc3d 0e2e 86bf 6f8f 08bf
00000040: 4bd1 8cbe 6019 39be ebd5 95bd 77cb 1abf
00000050: c17b 42be a0f9 11be 81d9 c2be 436e 16bf
00000060: 5989 5fbe 959d a1be 5bc0 b2be ef3f 923e
00000070: a443 f73e 6567 483e c24b 83bf f9db 303f
00000080: f4b6 5a3d b07d fbbe 63a8 fdbd 7565 0fbe
00000090: 127c 95bf 60cb 70be d73a 70be ecc5 ed3e
000000a0: 6d87 edbe a7e6 d4be 7f84 adbf e6d1 7fbc
000000b0: ee74 493d ffc2 2dbf 6db9 c83e 8815 d5be
000000c0: 0f9b de3d 5868 fabe 2516 6dbe d3ea 0b3d
000000d0: 8ca7 bc3e 99ad 573f fcda 29bf fdc3 b4bc
000000e0: 595c fcbe 354c 8ebf 4e20 23be c197 2fbf
000000f0: cb9f 58be 9bb2 cf3d 198b c43d c9af 00bf
00000100: e506 3abd 96af 65bf eeec d1be 7c2a a0be
00000110: c2d0 d7bc 689e 9bbd b49d d9be b398 61be
00000120: c4bc 053f 297a 6a3e 4b1c b2be 9c69 7fbd
00000130: ff79 ddbe ce7a 10bf 2a72 963e 37ae efbe
00000140: 8417 63be fb0d 0cbe 9e82 10bf 56a1 dbbe
00000150: c1da 00be 004b a5bf 36b2 99bf 71fc 60bf
00000160: 9df6 6e3e ee4d 65bf 86d1 35bd e399 033e
00000170: f4af 0dbe b2ba 4dbf e3e4 283e 1ac3 9ebf
00000180: 26d6 bebe 94ae 17be 0621 acbf b22a 02bf
00000190: a756 893e 5323 8d3d 1338 bd3d 5716 08be
000001a0: 404e b8be 14dc a1bd 9e55 2d3f 3ca4 0dbf
000001b0: 36a1 a3be 1cc7 f83b f71a 11bf 1449 b3be
000001c0: 1d41 edbc 88db 25be 23ae 0cbf dc2b 96be
000001d0: f178 3a3e 5e30 2e3f 5acd 7e3e 1b3c 75bf
000001e0: 9048 6bbd 8565 2bbe 4eb3 11be 2fbb 2d3d
000001f0: 199c 3abd 9753 4abf da98 a7be 6f46 b83e
00000200: ecb4 ca3d 642a 7fbe afef a2bf 83a7 c8be
00000210: b6a3 f0bc 8865 223f d117 dabe 7ab1 3ebd
00000220: 8171 09bf e07c f13e e915 65bd bde4 92bf
00000230: 0f47 17bf d032 893e cf0c 343e d07f c9be
00000240: 8e16 9abe 95d2 f9be 4bce 4b3f 1b6a 08bf
00000250: d22e 91be 2201 1c3f 40f1 dd3b ad22 debd
00000260: 3085 dcbe 12fe 68be 99eb 123f 42ca 06bc
00000270: efe7 1c3f 161b 193c 7d8f 433f 2926 21bf
00000280: 4863 223e c140 fc3e a162 dd3e b997 163f
00000290: 3252 193f a713 80bc c82b 8bbf 3d91 a2bf
000002a0: b358 77bf 2b4f 18bf 6a80 91bf f5ab 93be
000002b0: ca4b 26bf f8d0 a4bd 597c 13bf e187 0bbf
000002c0: 543a 93be c0f6 3d3f 4a64 6abf 9896 1f3f
000002d0: 2c44 753e 7fe0 e3be c68d b1be 6035 8d3d
000002e0: ff52 553f 37b6 8fbe 3d16 afbd bb87 133f
000002f0: dbc0 a7be befa 0abf f279 c53e f9fa 813f
00000300: 43a1 0f3e 7040 c1bc 7e7d ae3e ca82 7cbf
00000310: b65f 813e 9309 863e 1eba 2ebf 393b d4be
00000320: cb40 52bd 4b36 dabf ae01 3dbf 5817 d6be
00000330: c24c 5bbe 88c7 ca3e e89a 35be bf5e 993d
00000340: 3c7e 2abf 12c4 893e 0f6e 543d cc50 2fbf
00000350: b561 3bbe 7036 67be 3328 5fbf 5607 7e3e
00000360: 1269 bcbc 3ca3 76bf 1cc4 cc3d c5b3 40bf
00000370: e527 84bf cb84 2a3f f3b5 2ebe 0b42 10bd
00000380: c1b2 753e f01e 303e 8ad8 1f3f 0f64 68be
00000390: ce8c aebe e9db 94bf cef9 57be 8402 9e3f
000003a0: e905 12be 041a 083e 257b 593e 342a a53e
000003b0: cf8f bd3e 60c2 07bf 6331 433f d487 64bf
000003c0: 06cc 56be 467e 82bf cd4f 533e d6a5 25be
000003d0: 49c1 c5be 24b8 053f 1967 4dbd b4fb 473e
000003e0: 52c8 62be c09c 183f c493 e93d 7f0d 9c3e
000003f0: 10a4 143f 3aa5 e1be 92e3 81be 777d 49bf

fc2.bias f4 [64]
-0.2383695 -0.3922957 -0.5748456 -0.52191275 -0.55720526 -0.17847434 -0.04219125 0.35453227
-1.0080469 -0.2901261 -0.37722775 0.16708867 -0.22464521 0.1328105 -0.4763627 0.406976
0.33345157 -0.59012264 -0.1091446 -0.4349854 -0.058094557 -0.24443312 -0.92728263 -0.52245384
-0.123789266 -0.3289607 -0.91931444 -0.5367384 0.080181696 -0.9844171 -0.88754135 -0.12156659
0.078928314 -0.7119877 -0.88979816 -0.4215223 0.12115896 -0.38035542 -0.39610535 -0.38671663
-0.5017882 -0.52752924 -0.49610278 -0.0795437 -0.068557404 0.24762376 0.54804856 -0.41743484
-0.21001409 -0.11664229 0.23680548 -0.13187256 -0.3837521 -0.07814934 -0.9573254 -0.2690883
-0.45452875 -0.49572283 0.34008878 -0.58987933 -0.31395233 -0.352367 -0.44271725 -0.5683078
00000000: 2217 74be fbda c8be 1529 13bf 139c 05bf
00000010: 01a5 0ebf fac1 36be bbd0 2cbd 4185 b53e
00000020: ae07 81bf 688b 94be ff23 c1be 4b19 2b3e
00000030: 6509 66be 7aff 073e d0e5 f3be 295f d03e
00000040: 2aba aa3e 4712 17bf 3487 dfbd 68b6 debe
00000050: 8ff4 6dbd ad4c 7abe 6562 6dbf 89bf 05bf
00000060: 3a85 fdbd 896d a8be 3158 6bbf b067 09bf
00000070: 4d36 a43d c202 7cbf e935 63bf e8f7 f8bd
00000080: 2ba5 a13d d344 36bf d0c9 63bf c5d1 d7be
00000090: 3022 f83d f2bd c2be 52ce cabe b9ff c5be
000000a0: 3175 00bf 280c 07bf 2f01 febe cfe7 a2bd
000000b0: d367 8cbd 1591 7d3e e94c 0c3f 05ba d5be
000000c0: ef0d 57be 27e2 eebd 237d 723e 9a09 07be
000000d0: 287b c4be c30c a0bd 4713 75bf f1c5 89be
000000e0: feb7 e8be 62cf fdbe 1e20 ae3e 5502 17bf
000000f0: 5cbe a0be 7369 b4be d6ab e2be 9f7c 11bf

fc3.weight f4 [4, 64]
-0.33308992 -0.05540062 -0.019387526 0.076986514 0.7011144 0.5699318 0.0067675505 0.05700688
0.49562863 0.06281762 -0.33571258 -0.023032254 0.0051256064 -0.039203487 0.21890359 -0.16063553
-0.022200773 0.027313339 0.6158174 -0.77692676 3.044073 0.016219707 -0.6618639 -0.4975473
-0.012692694 0.084779955 0.21194342 -0.1098466 0.2717517 0.38736972 0.0716396 1.9581499
-0.42575946 0.44333157 0.36762404 0.014430796 0.6003138 0.41085285 -1.0287703 0.025683686
1.5649401 0.11132457 0.34948394 0.16367199 0.02830605 -0.022314359 0.03233518 1.1673976
-0.109793186 0.17288324 0.42459694 -0.046265494 -0.0029059013 2.620226 0.3852447 -1.2640789
2.352624 -0.1225986 0.08222093 0.032524027 0.27943894 0.79873896 -0.7411349 -0.10148939
0.47667935 0.124813706 0.23818718 -0.7448838 -0.4612471 0.018661149 0.058733888 0.059278198
-0.8654219 0.0040214923 -0.1966308 -0.24608935 0.31541926 -0.20880906 0.6891211 0.06785246
0.04138219 0.083770655 0.5815743 1.0475651 -0.83384347 -0.16635211 0.3224571 0.25745547
-0.02517118 -0.22836256 0.4275356 0.3603437 0.39056665 0.072484754 -0.24104495 -0.09195717
-0.009074575 0.15097429 0.11169394 0.2494603 -0.08008678 0.43385905 0.5469892 0.052493498
0.31085715 0.09921123 0.0881354 -0.104311824 0.029438553 -0.04522042 0.04390549 0.76199377
-0.20795234 -0.05010835 -0.11030592 -0.3935043 -0.13269927 0.16789526 -0.33199632 0.21505557
-0.08746534 -1.0029197 -0.6582108 -0.007821757 0.20290431 -0.07763533 0.06738978 -0.28692552
-0.17614144 0.035943832 0.011249129 0.02883535 1.2293152 -0.39644596 0.027170517 -0.2295275
0.10927964 -0.47712144 -0.07918206 -0.011862731 -0.07107101 -1.5105975 -0.19402908 -0.0020106125
-0.112934254 -0.02900835 0.03869649 -0.20905854 0.080598064 -3.5307422 -0.003899256 0.0015951862
-0.095357485 3.5627956 0.10297068 -0.17232941 0.07239897 -0.19611458 -0.3349834 -0.005817254
0.0072934013 -0.6365546 0.053540736 0.011223275 0.71203816 -0.85819316 0.10734209 -0.017530767
0.40071228 0.02337536 0.06954282 0.014134728 0.08269133 -0.030580495 0.1409126 -2.8223207
0.012628731 2.4795215 0.022295509 -0.03397489 -0.22765689 0.05888843 -0.86073786 0.007932465
0.0027970632 -0.66661966 0.010600097 0.46329427 0.02868623 0.057355985 0.05617172 -0.025553027
-2.3168623 0.03619846 0.05226935 1.6662402 0.23642924 0.15325297 -0.08742289 -0.012104447
0.02320798 0.03667636 1.4526434 -0.02028579 0.010981162 -0.00480716 2.2428498 0.019949917
-0.038542543 -0.62108916 0.0364023 0.58624905 0.012309595 -0.003727545 -0.78165644 0.10223357
0.01696426 -0.01857434 -2.0967991 0.025560578 -0.00872109 -2.9645143 0.53597736 0.00056447886
-0.012172514 0.9692516 -2.4735413 0.018846117 0.013887444 0.0056792023 0.29037195 -0.3862684
0.009080046 1.1215463 -3.19336 -1.6399001 0.13581839 0.09398364 0.04372228 -0.11821482
0.065687545 0.016674114 -4.166386 -3.7318254 -1.2094686 -0.0007583961 -0.5996458 0.011838457
-0.00012681453 2.1493068 -0.020907441 -0.012178817 -1.0805693 0.0025584542 0.014029663 2.0054836
00000000: c38a aabe c3eb 62bd 97d2 9ebc 1bab 9d3d
00000010: 3c7c 333f 0de7 113f 54c2 dd3b 0c80 693d
00000020: 09c3 fd3e 86a6 803d 85e2 abbe 23ae bcbc
00000030: b4f4 a73b d693 20bd 4328 603e a47d 24be
00000040: 65de b5bc 39c0 df3c 36a6 1d3f ace4 46bf
00000050: 18d2 4240 31df 843c ea6f 29bf 85be febe
00000060: 04f5 4fbc 1da1 ad3d b207 593e 41f7 e0bd
00000070: 0a23 8b3e 5355 c63e c8b7 923d a8a4 fa3f
00000080: 25fd d9be 5bfc e23e 3839 bc3e 256f 6c3c
00000090: 2aae 193f 4e5b d23e bfae 83bf 9866 d23c
000000a0: f54f c83f 23fe e33d 8fef b23e a199 273e
000000b0: 17e2 e73c 9acc b6bc e571 043d 496d 953f
000000c0: 40db e0bd 4e08 313e c564 d93e e380 3dbd
000000d0: ef70 3ebb c8b1 2740 cb3e c53e 56cd a1bf
000000e0: 6491 1640 fa14 fbbd 7263 a83d ea37 053d
000000f0: 9f12 8f3e 287a 4c3f 04bb 3dbf abd9 cfbd
00000100: 510f f43e 549e ff3d 57e7 733e b4b0 3ebf
00000110: 9428 ecbe 44df 983c f292 703d b2cd 723d
00000120: 4a8c 5dbf b9c6 833b 9659 49be d9fe 7bbe
00000130: a27e a13e 0bd2 55be 3e6a 303f 3bf6 8a3d
00000140: 5f80 293d f38f ab3d 0ee2 143f 9d16 863f
00000150: c476 55bf 3558 2abe 1919 a53e 34d1 833e
00000160: ca33 cebc e0d7 69be f2e5 da3e f87e b83e
00000170: 5af8 c73e e372 943d 7dd4 76be 0a54 bcbd
00000180: 87ad 14bc 0199 1a3e cbbf e43d 8572 7f3e
00000190: 8a04 a4bd c622 de3e 7c07 0c3f 6c03 573d
000001a0: ab28 9f3e 422f cb3d 5580 b43d 70a1 d5bd
000001b0: 1f29 f13c 0c39 39bd 3ed6 333d 0612 433f
000001c0: 75f1 54be 6a3e 4dbd 12e8 e1bd 6579 c9be
000001d0: 51e2 07be bcec 2b3e 6cfb a9be 8737 5c3e
000001e0: 0721 b3bd ac5f 80bf 8180 28bf d426 00bc
000001f0: 26c6 4f3e 46ff 9ebd a703 8a3d e7e7 92be
00000200: 6c5e 34be d739 133d 444e 383c 1d38 ec3c
00000210: 335a 9d3f f7fa cabe b494 de3c 4209 6bbe
00000220: 01ce df3d 4349 f4be 342a a2bd e65b 42bc
00000230: ad8d 91bd 425b c1bf 8faf 46be 7bc4 03bb
00000240: 134a e7bd eba2 edbc 3680 1e3d 7113 56be
00000250: 9910 a53d aef7 61c0 a98a 7fbb 9115 d13a
00000260: c94a c3bd d804 6440 4be2 d23d 1f77 30be
00000270: e945 943d 43d2 48be f282 abbe aa9e bebb
00000280: 7cfd ee3b 3ef5 22bf 884d 5b3d d4e1 373c
00000290: 2248 363f 8cb2 5bbf 2bd6 db3d af9c 8fbc
000002a0: 292a cd3e af7d bf3c 776c 8e3d 5995 673c
000002b0: 125a a93d f283 fabc 654b 103e e7a0 34c0
000002c0: bde8 4e3c 7bb0 1e40 12a5 b63c 4129 0bbd
000002d0: e31e 69be ff34 713d 5159 5cbf 2bf7 013c
000002e0: ef4e 373b 96a7 2abf 07ac 2d3c e834 ed3e
000002f0: 62ff ea3c 1cee 6a3d 5114 663d 9554 d1bc
00000300: 7947 14c0 d644 143d 6318 563d 5c47 d53f
00000310: 821a 723e 59ee 1c3e c60a b3bd bb51 46bc
00000320: a91e be3c f339 163d 38f0 b93f 632e a6bc
00000330: 55ea 333c 6185 9dbb da8a 0f40 026e a33c
00000340: c9de 1dbd b3ff 1ebf 941a 153d 6b14 163f
00000350: 2fae 493c d449 74bb a31a 48bf d55f d13d
00000360: a2f8 8a3c 3729 98bc f531 06c0 6b64 d13c
00000370: e7e2 0ebc 9aba 3dc0 d035 093f 89f9 133a
00000380: 396f 47bc df20 783f 804e 1ec0 2c63 9a3c
00000390: 2988 633c 9a18 ba3b a2ab 943e f9c4 c5be
000003a0: 79c4 143c d48e 8f3f 0360 4cc0 3fe8 d1bf
000003b0: fa13 0b3e 7f7a c03d 2216 333d 9d1a f2bd
000003c0: 3187 863d 2798 883c 0953 85c0 3ad6 6ec0
000003d0: decf 9abf 1acf 46ba 6382 19bf 16f6 413c
000003e0: 84f9 04b9 3e8e 0940 1546 abbc a989 47bc
000003f0: 1850 8abf bdab 273b acdc 653c d859 0040

fc3.bias f4 [4]
-0.030302892 -0.009821677 0.12515037 0.055974137
00000000: c53d f8bc 19eb 20bc 6b27 003e 2345 653d
