project2-reacher/models/ddpg_critic_target.pth (torch_old, 170023 bytes, 5 tensors)

fc1.weight f4 [256, 33]
0	0xbd0cb93c	-0.03435634
1	0x3ad4e128	0.0016241418
2	0xbbcc9306	-0.0062431125
3	0x3c77bda4	0.015120897
4	0xbc1a3d33	-0.009414005
5	0xbbf2768b	-0.0073993853
6	0xbc88726c	-0.016656123
7	0xbc05ff1e	-0.0081785
8	0xbc4d5158	-0.012531601
9	0x3c4188f4	0.011812437
10	0x3b13433a	0.002247049
11	0xbbb3653f	-0.005474716
12	0x3c8de961	0.017323198
13	0xbc476c3a	-0.012171799
14	0x3c7f9323	0.015599045
15	0xbc160d51	-0.009158448
16	0xbd015fe8	-0.031585604
17	0xbca74245	-0.020417342
18	0x3d04fa0b	0.032465022
19	0x3c79887c	0.015230294
20	0x3c9ed59c	0.019388966
21	0x3acd3bc4	0.001565807
22	0xbca3e4aa	-0.020006496
23	0x3d0bc3ba	0.034122206
24	0x3c2d284a	0.010568688
25	0x3cdcb1d4	0.026940264
26	0x3c839ab2	0.016064975
27	0xbc0c8859	-0.00857743
28	0xbd13b1e5	-0.036058325
29	0x8000203d	-1.1565e-41
30	0x3c0c880d	0.008577359
31	0x80003284	-1.8122e-41
32	0x3c6aa168	0.014320709
33	0xbc0140f9	-0.007889026
34	0x3d3d3f93	0.046203207
35	0x3c785a9c	0.015158322
36	0xbd004566	-0.031316184
37	0xbb83369b	-0.004004312
38	0x3bee949f	0.0072809006
39	0x3bc048f0	0.00586807
40	0x3c539174	0.012913097
41	0xbc339ec5	-0.010963147
42	0x3c03ad41	0.008036912
43	0x3cc4673c	0.023975007
44	0x3960ae26	0.0002142718
45	0xbc9f5b8f	-0.019452838
46	0x3d0a443e	0.033756487
47	0x3d98cb1c	0.07460615
48	0xbd0f8f41	-0.035048727
49	0x3aade94a	0.0013268378
50	0x3a4ad7b1	0.0007737829
51	0xbc5f9ebc	-0.013648685
52	0x3b9db5cf	0.004812933
53	0xbb3f1688	-0.0029157717
54	0xbcee6b6e	-0.02910396
55	0xbc1bc688	-0.009507783
56	0x3c95dfb5	0.018295148
57	0x3cf6c591	0.030123504
58	0x3b955b02	0.004557968
59	0xbcc4ce15	-0.024024049
60	0x3ca2bed5	0.019866386
61	0x3c72bedf	0.014816015
62	0x000002fe	1.073e-42
63	0xbca2bf0f	-0.019866494
64	0x8000292d	-1.4771e-41
65	0x3c75cccb	0.01500244
66	0xbdc03afe	-0.09386252
67	0xbbaa31fa	-0.005193946
68	0xbc95abd1	-0.018270405
69	0x3c9d8ddc	0.019232683
70	0xbd0a8d90	-0.03382641
71	0x3cfc433f	0.030793784
72	0x3bcbfaf8	0.006224986
73	0xbb8959d6	-0.0041916175
74	0x3b3ba2f1	0.0028631056
75	0xbbd72335	-0.0065654763
76	0x3bd3f0a5	0.006467896
77	0x3c5acddb	0.013354744
78	0xb9931a21	-0.00028057492
79	0x3b14785b	0.0022654745
80	0x3b13c769	0.0022549278
81	0xbbcad79b	-0.006190253
82	0x3c853a98	0.016263291
83	0x3c970f1e	0.018439826
84	0xbc99d115	-0.018776456
85	0x3c4cfea0	0.012511879
86	0x3c9d87e1	0.019229831
87	0x3c9d99c4	0.01923836
88	0xbd095a6f	-0.03353351
89	0x3c194856	0.009355625
90	0x3b601e21	0.0034197646
91	0xbca4e038	-0.020126447
92	0x3d66b9a1	0.056329373
93	0xbcaea824	-0.02132041
94	0x3d0e23f5	0.03470226
95	0x80001915	-8.998e-42
96	0x3caea955	0.021320978
97	0x0000253f	1.3361e-41
98	0xbd1ec5ac	-0.038762733
99	0xbc33b899	-0.0109693045
100	0x3cd9314c	0.026512764
101	0x3d314dc1	0.043287043
102	0xbc707254	-0.014675695
103	0x3bbe00dc	0.0057984423
104	0x3c3b593a	0.0114348475
105	0x3c0d165c	0.008611288
106	0xbc0a8d49	-0.008456537
107	0x3c741a09	0.014898785
108	0x3a26f70a	0.0006369209
109	0xba6e64cf	-0.0009094001
110	0x3bbb8347	0.0057224366
111	0x3bf3bbef	0.007438175
112	0xbd2a9850	-0.041649163
113	0x3cafbb2b	0.021451553
114	0x3c0f1b97	0.008734605
115	0xbc69887e	-0.014253734
116	0x3b05578d	0.0020346374
117	0x3c355565	0.011067723
118	0x3c36cce7	0.011157251
119	0xbcffd5f1	-0.031229945
120	0x3cbd5764	0.02311296
121	0x3c37f96c	0.0112289
122	0xbd8a6fc5	-0.067595996
123	0xbb55762b	-0.0032571654
124	0x3c02213e	0.007942496
125	0xbc96b3bd	-0.018396253
126	0x3ca18aa5	0.019719431
127	0xbcd1d21e	-0.025612887
128	0x00001d3b	1.0486e-41
129	0xbca18aa5	-0.019719431
130	0x80000d9e	-4.885e-42
131	0xbd75c64f	-0.060003575
132	0xbcc8fd4c	-0.024534844
133	0x3d41d052	0.04731781
134	0xb996d6f6	-0.00028770388
135	0xbc9243ca	-0.01785459
136	0x3b78bdea	0.0037954994
137	0xbbae4d8b	-0.0053193024
138	0xba2d57a3	-0.0006612485
139	0x3bba4dc8	0.005685542
140	0xbc3a5a9b	-0.011374141
141	0xbbb0e9bc	-0.005398957
142	0x3c04089b	0.008058692
143	0xbb2c6afa	-0.002630888
144	0xbc7a9c37	-0.015296034
145	0x3d0ab9e2	0.033868678
146	0x3d1ebe56	0.038755737
147	0x3b999634	0.004687095
148	0x3ba9d4d5	0.0051828423
149	0xbb122fdd	-0.002230636
150	0xbd070c5f	-0.032970782
151	0x3c35156e	0.0110524725
152	0xbc04eca2	-0.008113058
153	0xbd0692d5	-0.032854874
154	0xbb73c160	-0.0037194118
155	0xbc6b7da4	-0.014373217
156	0x3c382942	0.011240305
157	0xbc8ffe04	-0.017577179
158	0x3c86211b	0.016373208
159	0x3cb0d4be	0.021585818
160	0x3cb4af71	0.022056313
161	0x00003108	1.7589e-41
162	0xbcb0d554	-0.021586098
163	0x80001363	-6.955e-42
164	0x3cb53aea	0.022122819
165	0x3d03fbb0	0.03222245
166	0xbcb654f0	-0.022257298
167	0xbce33337	-0.027734382
168	0x3c43c658	0.011949144
169	0x3c470252	0.012146549
170	0xbc132c28	-0.008982696
171	0x3add0deb	0.001686511
172	0xbcadc8a2	-0.021213833
173	0x3b9dec8f	0.0048194597
174	0x3ace789d	0.0015752498
175	0x3c4fd7f4	0.012685765
176	0xbcf34874	-0.029697634
177	0x3c325019	0.010883355
178	0xbadf60f0	-0.001704244
179	0xbbe293f2	-0.006914609
180	0x3c4541f4	0.01203965
181	0xba994e8a	-0.001169638
182	0x3af9e47d	0.0019065287
183	0xbc1cde0d	-0.009574425
184	0xbcf731f1	-0.030175181
185	0x3c1bd798	0.009511851
186	0x3bbbc690	0.0057304576
187	0x3d104081	0.035217766
188	0xbced8756	-0.028995197
189	0xbcbd819d	-0.023133093
190	0x3b4fcd1c	0.0031707948
191	0xbc77bf1d	-0.015121249
192	0xbc8195a9	-0.015818434
193	0x3c0ddd03	0.00865865
194	0x80001209	-6.47e-42
195	0x3c8197c9	0.015819447
196	0x000018cd	8.897e-42
197	0xbc211dab	-0.009833734
198	0xbcb0068b	-0.021487495
199	0x3c4135f2	0.011792647
200	0xbb7af7f2	-0.003829476
201	0xbcc0f010	-0.02355197
202	0x3be4cdf3	0.006982559
203	0x3d02e989	0.031960998
204	0xbc351ee9	-0.011054733
205	0x3b5c4735	0.0033611779
206	0x3ce7592d	0.028240765
207	0xbb3ec0f6	-0.0029106713
208	0xbb8317b1	-0.004000627
209	0xbc5dc3fe	-0.013535498
210	0x3c3f24cd	0.011666489
211	0x3d61947a	0.05507324
212	0xbb4d4fd4	-0.00313281
213	0x3c1d340c	0.0095949285
214	0x3d13f659	0.036123607
215	0x3cdd51b6	0.027016502
216	0xbd022451	-0.031772915
217	0xbace3d92	-0.0015734902
218	0xbc5c7bd0	-0.013457254
219	0x3cf9ef71	0.030509682
220	0x3c36b2da	0.01115104
221	0x3c9e8489	0.019350307
222	0xbb61f326	-0.0034477203
223	0x3cbb71df	0.022881446
224	0xbd124f1e	-0.035719983
225	0x3d3d797d	0.04625844
226	0x3c252267	0.010079003
227	0x8000185a	-8.736e-42
228	0xbd3d84b9	-0.046269152
229	0x80001b66	-9.829e-42
230	0xbe175861	-0.14779808
231	0xbc869501	-0.016428472
232	0x3cd439f7	0.025906546
233	0x3b257261	0.0025245177
234	0xbc5436fb	-0.0129525615
235	0x3ac5ba90	0.0015085507
236	0xbbd60794	-0.006531665
237	0x3bede487	0.0072599086
238	0xbca7ab3e	-0.020467397
239	0x3c6a0639	0.01428371
240	0x3c8607dc	0.01636117
241	0xbba4986d	-0.0050230534
242	0x3ce7dca3	0.02830345
243	0x3a5b1ef9	0.00083588023
244	0x3ca4158c	0.020029806
245	0xbd020ac7	-0.03174856
246	0xbcd60f60	-0.026130378
247	0xbc88f59b	-0.016718676
248	0x3cd7fabe	0.02636468
249	0x3bd71dbf	0.0065648253
250	0x3cef79f8	0.029232964
251	0x3c7036cc	0.014661502
252	0xbc141845	-0.009038989
253	0x3ca9127e	0.0206387
254	0xbd30be56	-0.04315027
255	0x3b768f36	0.0037621981

fc1.bias f4 [256]
0	0x3c0c8c86	0.008578425
1	0xbca27837	-0.019832714
2	0x3caea719	0.021319913
3	0xbca18a9d	-0.019719416
4	0xbcb0d466	-0.021585654
5	0x3c74d57b	0.014943476
6	0xbd3fd5d1	-0.04683477
7	0xbc660022	-0.014038118
8	0xbc77e090	-0.0151292235
9	0x3bfd778c	0.0077351984
10	0xbd22de20	-0.039762616
11	0x3d0914dd	0.033467162
12	0xbcccfce4	-0.025022931
13	0x3c1a1f99	0.0094069475
14	0xbc29d98c	-0.010366809
15	0x3cc2d12a	0.023781378
16	0xbd00707b	-0.03135727
17	0xbd69e74a	-0.05710534
18	0xbd2f08ba	-0.04273293
19	0xbbb8d822	-0.0056409994
20	0x3c9a7330	0.018853754
21	0xbc50d7c2	-0.012746753
22	0xbcb3076c	-0.021854125
23	0x3ce2fd9f	0.027708827
24	0x3ce2e024	0.02769477
25	0xbd1257ba	-0.035728194
26	0x3cdf7743	0.027278548
27	0x3d62098a	0.05518488
28	0x3afb834a	0.0019188907
29	0xbd059b78	-0.03261897
30	0x3b8024b0	0.0039106235
31	0xbb2123e4	-0.0024588043
32	0x3c8bbc77	0.01705764
33	0x3c09a3da	0.008400882
34	0xbc76a5cd	-0.015054178
35	0xbb8c9180	-0.004289806
36	0x3a30208f	0.0006718719
37	0xbd1684fb	-0.036747914
38	0xbd084555	-0.033269245
39	0x3c5b8849	0.013399192
40	0xbc1f73c3	-0.00973219
41	0xbd05fb38	-0.032710284
42	0xbcdb7110	-0.02678731
43	0xbd410e1f	-0.047132608
44	0x3d1b822a	0.03796593
45	0xbc84f3d8	-0.016229555
46	0x3d2b6a29	0.04184929
47	0x3bf7c6b5	0.0075615295
48	0x3c9344b9	0.017977105
49	0xbd1b3f03	-0.03790189
50	0xbd06ea2e	-0.032938175
51	0x3d3ad8bb	0.045616847
52	0xbccf4bbf	-0.025304673
53	0xbd0715bb	-0.03297971
54	0xbc3b6f7d	-0.011440155
55	0xbcd8dde4	-0.026472993
56	0x3c49a379	0.012307041
57	0xbd1be8ac	-0.03806369
58	0x3bcf92d2	0.006334641
59	0xbd040ca0	-0.032238603
60	0x3c571387	0.013127214
61	0xbcaff93d	-0.02148115
62	0x3d16fff4	0.03686519
63	0xbc9018a9	-0.017589884
64	0xbd9696cc	-0.07352981
65	0xbbe57ce2	-0.0070034126
66	0xbb83fa35	-0.0040276297
67	0xbb816e7a	-0.0039499374
68	0xbc83010e	-0.015991714
69	0xbcb97137	-0.022636993
70	0xbd107713	-0.035269808
71	0xbd0c8004	-0.034301773
72	0x3c97d8fb	0.018536082
73	0x3ba83f24	0.00513448
74	0xbb5abaf4	-0.0033375593
75	0xbc2ce252	-0.010552006
76	0xbbc9f231	-0.0061629047
77	0xbd1265a7	-0.035741474
78	0xbd11f0dc	-0.035630092
79	0xbd11c7c8	-0.035590917
80	0x3c248e58	0.010043703
81	0x3d804409	0.06262977
82	0xbc5b151b	-0.013371731
83	0xbc43023f	-0.011902391
84	0xbc585dd7	-0.013205967
85	0x3b71788d	0.0036845536
86	0x3cf3fc8e	0.029783513
87	0x3c9e55c9	0.019328015
88	0x3c8ad813	0.016948735
89	0xbc30d02e	-0.010791821
90	0xbb7e9d58	-0.0038851108
91	0xbc6caa70	-0.014444932
92	0x3ca5f022	0.020256106
93	0xbc7ead21	-0.015544207
94	0xbd10050a	-0.035161056
95	0x3bf0fca2	0.007354335
96	0x3c5dfba7	0.013548768
97	0xbc402c33	-0.011729288
98	0xbd5def8b	-0.054183524
99	0xbc8f0d9a	-0.01746254
100	0x3c35c3d9	0.011094057
101	0xbd009aaa	-0.0313975
102	0xbd04221e	-0.0322591
103	0x3d3ee9bb	0.04660962
104	0x3c0de8c7	0.0086614555
105	0xba19d025	-0.0005867503
106	0xbc0134c1	-0.007886113
107	0xbca083f2	-0.019594166
108	0xbca15496	-0.019693654
109	0xbd73b678	-0.059500188
110	0xbd0d085e	-0.034431808
111	0x3c31c02b	0.010849039
112	0x3c36fd89	0.011168846
113	0x3ca4a40b	0.020097753
114	0x3c245a26	0.010031259
115	0x3d0602af	0.032717403
116	0x3aab1b6c	0.0013054437
117	0x3d15863b	0.036504965
118	0xbcb98d2b	-0.022650322
119	0xbc1ca0a2	-0.009559782
120	0x3c025231	0.007954166
121	0x3c8a6d52	0.016897831
122	0x3c886d02	0.016653541
123	0xbc9c5274	-0.019082285
124	0xbd719188	-0.05897668
125	0xbcddd294	-0.02707795
126	0xbc8014c3	-0.0156349
127	0xbd2e45d6	-0.04254707
128	0x3ae5bd3f	0.0017527713
129	0xbd365cc5	-0.044522066
130	0x3c88387a	0.016628493
131	0xbc7981b5	-0.0152286785
132	0xbd1f399f	-0.03887331
133	0xbd031875	-0.032005746
134	0x3d606710	0.054785788
135	0x3d097dec	0.033567354
136	0xbd14cbc4	-0.03632714
137	0xbbbb4601	-0.005715132
138	0xbaf955bc	-0.0019022743
139	0xbcb5cc1b	-0.022192052
140	0x3ba6aae5	0.00508629
141	0x3ba7eec5	0.005124899
142	0xbd040b08	-0.032237083
143	0xbd2b89c3	-0.041879427
144	0x3c67c57f	0.014146208
145	0xbbc2fee8	-0.0059507973
146	0x3d6a36e8	0.05718127
147	0xbce259f8	-0.027630791
148	0xbc2428f2	-0.010019528
149	0xbcf51f63	-0.029922193
150	0x3c001eff	0.00781989
151	0x3caa6d82	0.02080417
152	0xbc333815	-0.010938664
153	0xba8e0bd1	-0.0010837262
154	0x3ccef4a2	0.025263134
155	0x3b210170	0.0024567507
156	0xbc588f55	-0.013217767
157	0xbb858a13	-0.0040752976
158	0xbc106595	-0.008813282
159	0xbd0278c8	-0.031853467
160	0xbc56f56f	-0.013120039
161	0xbc443a55	-0.011976798
162	0xbd81f97d	-0.06346414
163	0xbc0d0f0d	-0.008609545
164	0xbc85f453	-0.016351854
165	0x3d01f72b	0.03172986
166	0x3d1301d5	0.03589042
167	0x3cfb2697	0.03065805
168	0x3c9cc966	0.019139003
169	0xbca3ee7a	-0.020011175
170	0x3cd5d311	0.02610162
171	0xbc2bf07f	-0.01049435
172	0x3c8fb6e1	0.017543258
173	0xbdbfcfe6	-0.09365825
174	0xbae85074	-0.0017724172
175	0xbbdcb347	-0.0067352387
176	0x3cccd1c7	0.025002373
177	0xbc6117c9	-0.013738581
178	0x3ce89b30	0.028394312
179	0xbd1135c6	-0.035451673
180	0xbcfce4b9	-0.030870782
181	0xbd08f315	-0.033434946
182	0x3d4a5837	0.049400534
183	0x3d1731f4	0.036912873
184	0xbafeb7e0	-0.0019433461
185	0xbca8ce3d	-0.020606155
186	0xbd067e19	-0.0328351
187	0x3acd1b8e	0.0015648471
188	0xbb1b325d	-0.0023681142
189	0x3d849b77	0.06474965
190	0xbc69780f	-0.014249816
191	0xbd7c3e33	-0.061582755
192	0x3cfa20f1	0.030533286
193	0x3d509a4e	0.050928406
194	0x3d66a23e	0.05630707
195	0x3984118a	0.0002519007
196	0x3b1648e8	0.002293164
197	0x3bacf069	0.0052776826
198	0x3c7704bb	0.015076811
199	0x3c96745d	0.018366033
200	0xbc94681d	-0.018116051
201	0x3a2eee65	0.0006673097
202	0x3ba40e6e	0.005006603
203	0xbd1a72f5	-0.037707288
204	0x3d49f320	0.049304128
205	0xbd5868de	-0.052834384
206	0x3c26ed02	0.010188343
207	0x3c737be0	0.014861077
208	0x3cc666d2	0.02421895
209	0xbcb11296	-0.021615308
210	0x3c983de1	0.018584194
211	0xbca17801	-0.019710543
212	0x3b111b7e	0.002214163
213	0xbb302db0	-0.00268827
214	0x3d09ff9f	0.033691045
215	0x3d3cedc4	0.04612519
216	0xbccc8031	-0.02496347
217	0x3c109cd8	0.008826457
218	0xbc517061	-0.012783141
219	0x3d3731f1	0.044725362
220	0xbcd01b9d	-0.025403792
221	0xba875c51	-0.0010327195
222	0x3d26a506	0.040684722
223	0xbd7eda51	-0.06221992
224	0xbbf35414	-0.0074257944
225	0xbd37e8f0	-0.04489988
226	0xbd46d060	-0.048538566
227	0x3ca95e00	0.020674706
228	0x3b41b845	0.0029559296
229	0x3d1921fc	0.037385926
230	0xbd34dcb1	-0.04415578
231	0xbc2139c5	-0.0098404335
232	0x3c89f2e6	0.016839456
233	0xbcb2e015	-0.021835366
234	0xbd1f58a3	-0.03890289
235	0xbcb1a2be	-0.021684047
236	0x3d6d8964	0.057992354
237	0x3d345bd9	0.044032905
238	0xbcdf4416	-0.027254146
239	0xbd5466b7	-0.05185577
240	0xbd6b885f	-0.0575031
241	0x3ccfa242	0.025345925
242	0xbc9af208	-0.018914238
243	0xbc24bbf1	-0.010054574
244	0xbc542cac	-0.012950104
245	0xbbd679d9	-0.006545287
246	0xbc9e04e3	-0.01928944
247	0xbc0acba6	-0.008471405
248	0xb9a8f3aa	-0.00032225
249	0xbd92ba74	-0.07164469
250	0xbc9bead5	-0.019032875
251	0xbd1a93c0	-0.03773856
252	0x3c3d42b0	0.011551544
253	0xbcf462c6	-0.029832255
254	0x3d8b33e3	0.06797006
255	0x3ca3532c	0.01993712

fc2.weight f4 [128, 260]
0	0xb8d3cb43	-0.000100991245
1	0xb492cff7	-2.7345934e-07
2	0xb992249a	-0.0002787456
3	0xb90dcc57	-0.0001352293
4	0x369e2a28	4.7136746e-06
5	0xb98be157	-0.00026680037
6	0xb88aa5b2	-6.611216e-05
7	0xb95bb559	-0.00020953025
8	0xb80d0a64	-3.3626697e-05
9	0xb8c47702	-9.368175e-05
10	0xb67ea0c9	-3.7942539e-06
11	0x3597c2ee	1.1307109e-06
12	0xb4c71a01	-3.708556e-07
13	0xb8d1618e	-9.9840676e-05
14	0xb83cff5a	-4.5060508e-05
15	0xb98aeb07	-0.0002649652
16	0x36ff88dd	7.615525e-06
17	0x376010c9	1.33553485e-05
18	0x3558ae3c	8.0719815e-07
19	0xb880bc01	-6.138534e-05
20	0xb8a2e3a3	-7.7671626e-05
21	0x35a849f6	1.2538501e-06
22	0xb89e0f30	-7.536856e-05
23	0xb9b3a115	-0.00034261556
24	0xb9986bb0	-0.00029071933
25	0xb741f07e	-1.155969e-05
26	0xb702ef15	-7.804269e-06
27	0xb99c6800	-0.00029832125
28	0xb8787fdb	-5.9246882e-05
29	0xb8332319	-4.2709613e-05
30	0xb82896db	-4.0194816e-05
31	0xb889e725	-6.575723e-05
32	0xb8da36b3	-0.000104052386
33	0x36d2b0fa	6.2790905e-06
34	0xb7fed077	-3.0376234e-05
35	0xb836d4cf	-4.3590375e-05
36	0xb918eb4a	-0.00014583502
37	0x371a54cb	9.198858e-06
38	0xb45ba76f	-2.0456876e-07
39	0xb8ca0e69	-9.634795e-05
40	0xb8f76c62	-0.00011798066
41	0xb8f5ffef	-0.00011730182
42	0xb712513b	-8.721191e-06
43	0xb8b6ddff	-8.719786e-05
44	0xba08b8b7	-0.0005215513
45	0xb8a9b8df	-8.092983e-05
46	0xb9a155ee	-0.00030772336
47	0xb88c35d1	-6.685744e-05
48	0xb924b844	-0.00015708903
49	0x36f7921b	7.3781825e-06
50	0xb6acd88e	-5.1512097e-06
51	0xb9cea2b8	-0.00039412617
52	0xb7e12473	-2.6839063e-05
53	0xb8c8975e	-9.5649375e-05
54	0x36fa36f0	7.456976e-06
55	0xb72d4df0	-1.032975e-05
56	0xb79dfe1a	-1.8834184e-05
57	0xb7a9d3ba	-2.0244963e-05
58	0xb9ab4416	-0.0003266639
59	0xb7ffa9f3	-3.0477508e-05
60	0x393905ac	0.00017645088
61	0xb8f08518	-0.000114688824
62	0xb99e45f5	-0.0003018823
63	0xb7d809f6	-2.5753845e-05
64	0x36d35621	6.2983167e-06
65	0xb859cc64	-5.1927185e-05
66	0xb88ab99d	-6.614926e-05
67	0xb819ceed	-3.6670757e-05
68	0x356ca215	8.815271e-07
69	0x374157c3	1.152413e-05
70	0xb8bd5e34	-9.029769e-05
71	0xb947f568	-0.0001906954
72	0xb9714f45	-0.00023013081
73	0xb8e48282	-0.00010896196
74	0xb9256ed0	-0.00015776907
75	0xb635bcbe	-2.7080964e-06
76	0xb7e2510c	-2.697904e-05
77	0xb8504ec8	-4.9664435e-05
78	0xb7e203c3	-2.6943051e-05
79	0x3475fcc6	2.2909362e-07
80	0xb97e1871	-0.00024232433
81	0xba3f3f10	-0.0007295469
82	0xb9541890	-0.00020227046
83	0xb826e891	-3.979408e-05
84	0xb95e448b	-0.00021197104
85	0xba0cdb7c	-0.0005373282
86	0xb88d2e16	-6.731988e-05
87	0xb8f63181	-0.00011739415
88	0xb9001667	-0.00012215377
89	0xb618e7ba	-2.2784648e-06
90	0xb2c3eac6	-2.280775e-08
91	0xb82a2967	-4.0569717e-05
92	0xb93d0a65	-0.00018028317
93	0xb9327eb0	-0.00017022598
94	0xb845ce09	-4.7160345e-05
95	0xb91dc45a	-0.00015045833
96	0xba0fe28d	-0.0005488776
97	0x374beaf3	1.2154446e-05
98	0xb71fd6bf	-9.527138e-06
99	0xb8fb57c7	-0.000119849625
100	0xb971f0a0	-0.00023073191
101	0xb7b9d383	-2.2152211e-05
102	0x35076ebe	5.045257e-07
103	0xb940136e	-0.00018317785
104	0xb94acbd0	-0.00019340147
105	0xb7e387fd	-2.7123833e-05
106	0xb8953320	-7.1143964e-05
107	0xb94e6f61	-0.00019687183
108	0xb698a891	-4.5495767e-06
109	0x37042a96	7.877728e-06
110	0xb830f3dc	-4.218878e-05
111	0xb8f72c58	-0.000117861375
112	0x36944b23	4.419491e-06
113	0xb932c060	-0.00017047068
114	0xb93d32ff	-0.00018043442
115	0xb8bb0a25	-8.9187444e-05
116	0xb75ec1b7	-1.3277334e-05
117	0xb955d1a3	-0.00020391359
118	0x38f65bcc	0.000117472926
119	0xb7841c04	-1.5748672e-05
120	0xb94d5b92	-0.00019584436
121	0xb9004b4a	-0.00012235079
122	0xb9047a9c	-0.00012634177
123	0xb7fbbc27	-3.0009147e-05
124	0xb7eeb370	-2.8455368e-05
125	0xb892cc8d	-6.999923e-05
126	0xb7d3f16f	-2.5265586e-05
127	0xb86c5e09	-5.635436e-05
128	0xb80e6350	-3.394793e-05
129	0xb5d346a3	-1.5741283e-06
130	0xb9c85be2	-0.0003821543
131	0x35c1a7e5	1.4428484e-06
132	0xb8d8fc69	-0.00010346698
133	0xb6ce4bb0	-6.1480896e-06
134	0xb9cd9154	-0.00039208925
135	0xb9dedde1	-0.00042508452
136	0xb683f799	-3.9329284e-06
137	0xb8f2e974	-0.00011582943
138	0xb9113e24	-0.00013851427
139	0xb8b014a7	-8.396181e-05
140	0xb8566b40	-5.112146e-05
141	0xb98afdd0	-0.00026510516
142	0xb6c865e1	-5.9723247e-06
143	0xb69208a8	-4.352147e-06
144	0xb9745a13	-0.00023303209
145	0xb7ce5e11	-2.4600917e-05
146	0xb9c6289d	-0.00037795762
147	0xb5717ead	-8.9963834e-07
148	0xb94b7226	-0.00019402112
149	0xb88dc650	-6.7603425e-05
150	0xb832cec5	-4.2631076e-05
151	0xb8ff3ae7	-0.00012170319
152	0x361b8275	2.3172736e-06
153	0xb5e506e4	-1.7063835e-06
154	0xb83fbee0	-4.5715715e-05
155	0xb858e0fc	-5.1707946e-05
156	0xb9d8500d	-0.00041258373
157	0xb8ca2bc5	-9.640263e-05
158	0xb91e753b	-0.00015111726
159	0xb5721d00	-9.0194226e-07
160	0xb8b2349c	-8.497501e-05
161	0xb72058df	-9.557435e-06
162	0xb7ba116c	-2.218104e-05
163	0x37934552	1.7556045e-05
164	0xb959d91a	-0.0002077561
165	0xb985d426	-0.000255258
166	0xb97fc65a	-0.00024392587
167	0xb90a7a33	-0.00013206228
168	0xb93d17c4	-0.00018033298
169	0xb8a53f9a	-7.87966e-05
170	0xb84a704a	-4.826513e-05
171	0xb94db163	-0.00019616405
172	0xb996d101	-0.0002876595
173	0xb7b90a15	-2.2058413e-05
174	0x37c0bc09	2.2975744e-05
175	0xb738d589	-1.1016972e-05
176	0xb97e96b8	-0.00024279475
177	0x374b0d5c	1.2102853e-05
178	0xb9a64c75	-0.00031718952
179	0xb7a9de06	-2.0249758e-05
180	0xb90f8f89	-0.00013691014
181	0xb87b36aa	-5.9893973e-05
182	0xba04d48e	-0.00050670735
183	0xb9d3b4f2	-0.0004037987
184	0xb5ff87e1	-1.9038526e-06
185	0x370c4a03	8.3618825e-06
186	0xb72265cf	-9.679657e-06
187	0xb976ceba	-0.000235374
188	0xb906a67c	-0.00012841256
189	0xb9f66913	-0.00046999063
190	0xb408600c	-1.2700929e-07
191	0xb608091d	-2.0270884e-06
192	0xb9b5f2ca	-0.00034703902
193	0xb9f83706	-0.00047343242
194	0xb9a52f2c	-0.00031506398
195	0xb8c5201a	-9.3996714e-05
196	0xb72c206e	-1.02595495e-05
197	0x34e726ec	4.3055422e-07
198	0xb8ca6311	-9.650563e-05
199	0xb92d7039	-0.00016540372
200	0xb886442f	-6.402318e-05
201	0x370232bc	7.760416e-06
202	0xb8d0f734	-9.964258e-05
203	0x36184c2e	2.2694107e-06
204	0xb94d44fc	-0.00019576022
205	0xb952e721	-0.00020113263
206	0xb9492b5a	-0.00019185003
207	0xb9180271	-0.00014496759
208	0xb9596b9d	-0.00020734822
209	0xb5e88a5c	-1.7325615e-06
210	0xb8c739b5	-9.499808e-05
211	0x3533bf03	6.6960655e-07
212	0xb858d705	-5.1698666e-05
213	0xb0382178	-6.698637e-10
214	0xb971fc0d	-0.00023077447
215	0xb903a812	-0.00012555745
216	0xb747545c	-1.1880966e-05
217	0xb9081be3	-0.0001298036
218	0xb80d8583	-3.3741362e-05
219	0xb99b469b	-0.0002961651
220	0xb83f5dba	-4.562524e-05
221	0xb7443096	-1.1693823e-05
222	0xb9f50cd7	-0.00046739608
223	0x380ac282	3.3082913e-05
224	0xb75257a3	-1.253738e-05
225	0xb6fb7e7b	-7.495107e-06
226	0xb86669e7	-5.4934902e-05
227	0xb8dabacd	-0.000104298444
228	0xb5a7ea36	-1.2510634e-06
229	0xb951c5ea	-0.00020005522
230	0x37bee66e	2.2757067e-05
231	0xb69279ba	-4.36531e-06
232	0xb92e96a2	-0.00016650048
233	0xb9277833	-0.00015971139
234	0xb834ff0c	-4.3152875e-05
235	0xb7aa690a	-2.0314492e-05
236	0xb9d4c83f	-0.00040584986
237	0xb9bfcec2	-0.00036584405
238	0xb8d9b6be	-0.00010381405
239	0xb6c7e9ac	-5.957865e-06
240	0xb594caac	-1.1085845e-06
241	0xb9c5982b	-0.00037688142
242	0xb8a067db	-7.648739e-05
243	0xb900e45a	-0.00012292099
244	0xb9325f27	-0.0001701085
245	0x37c0a699	2.2965762e-05
246	0xb8f8c5fc	-0.00011862439
247	0xb94c63a7	-0.0001949208
248	0xb86e408b	-5.6803732e-05
249	0xb6be8df0	-5.678965e-06
250	0xb8bcad54	-8.9968235e-05
251	0x3613ce0c	2.2024642e-06
252	0xb91e4783	-0.00015094694
253	0xb7e084aa	-2.6764657e-05
254	0xb9aa5cea	-0.00032494153
255	0xb928e293	-0.00016106134

fc2.bias f4 [128]
0	0xba6a64f3	-0.0008941434
1	0xb99320e5	-0.00028062533
2	0x3dc77601	0.09739304
3	0xbcf3d06f	-0.029762475
4	0x3d8acafd	0.06776998
5	0xb9a2133f	-0.00030913387
6	0xb9fbcb68	-0.00048026
7	0x3dd20662	0.10255124
8	0xb9d06834	-0.0003975049
9	0xb8189d6e	-3.6386242e-05
10	0xb8d4ddcc	-0.00010150261
11	0x3e040370	0.12891936
12	0xb8aaa271	-8.136489e-05
13	0xb907753b	-0.00012918275
14	0xb7a3eba7	-1.9540848e-05
15	0xbd665581	-0.056233887
16	0xb9d3a135	-0.00040365165
17	0xb76407f6	-1.3591713e-05
18	0x3d47e31b	0.04880057
19	0x3df3fc48	0.11913353
20	0xb88cfdd2	-6.722998e-05
21	0x3d801738	0.062544286
22	0xbcedf03c	-0.029045217
23	0xbd300a65	-0.042978663
24	0x3d9ff16f	0.07809722
25	0xba0f1ab1	-0.00054589944
26	0x3dbc2bb8	0.09188026
27	0x3d84bcbb	0.0648131
28	0xbd532df0	-0.05155748
29	0xbd15ec79	-0.03660247
30	0x3d9b62e3	0.075872205
31	0x3dbd2c2f	0.09236943
32	0xb8959c67	-7.134006e-05
33	0xb8ed5568	-0.00011316949
34	0x3d8e595c	0.06950638
35	0xbd60ea1c	-0.054910764
36	0x3df36278	0.11884016
37	0xb8b555c6	-8.646729e-05
38	0xb87f2da2	-6.0839237e-05
39	0xbd5133a6	-0.051074646
40	0xb96dc2a5	-0.00022674592
41	0xb8519382	-4.996686e-05
42	0x3dca7f34	0.09887543
43	0xb927521d	-0.0001595695
44	0xbd235471	-0.03987545
45	0x3d45ad20	0.048260808
46	0x3db59fd0	0.088683724
47	0xbc86e0f5	-0.01646469
48	0x3d8efe9f	0.06982159
49	0xb96a0311	-0.00022317121
50	0xb7ffe517	-3.0505047e-05
51	0xb8ce77fe	-9.845196e-05
52	0xb78fdd8f	-1.71501e-05
53	0xba17eacc	-0.00057951803
54	0xbd087280	-0.03331232
55	0x3cf8ce36	0.030371767
56	0x3db7e10b	0.089784704
57	0x3c2850ec	0.0102731995
58	0xb96fdf71	-0.00022876055
59	0xb9fb5f46	-0.00047945435
60	0xbd75c5e5	-0.06000318
61	0xb8a8296b	-8.018579e-05
62	0x3dea7fc6	0.11450152
63	0x3dadd99d	0.08488772
64	0xb864e89c	-5.457607e-05
65	0x3d873d5a	0.06603499
66	0xb8016819	-3.0852945e-05
67	0x3dc54147	0.09631591
68	0xb6f11110	-7.184346e-06
69	0xb9bfd785	-0.00036590933
70	0xb8442cad	-4.677165e-05
71	0xb8106570	-3.4426746e-05
72	0x3dcc8fc7	0.09988361
73	0x3dc78f42	0.09744121
74	0xb7870f5b	-1.6100405e-05
75	0xb7768537	-1.4693759e-05
76	0xb9073a5b	-0.00012896342
77	0xb9a7b5a0	-0.00031988043
78	0x3de450fe	0.111482605
79	0x3cec95f1	0.028880091
80	0x3dc2d9e0	0.095142126
81	0x3d1c2bdd	0.03812777
82	0xb9b0a6cc	-0.0003369361
83	0x3da663c0	0.081244946
84	0xb75a548f	-1.30135e-05
85	0x3dbf2663	0.093334936
86	0xb8c642ff	-9.453855e-05
87	0xb8358551	-4.3277923e-05
88	0x3dfa8419	0.12232227
89	0xb894e269	-7.099362e-05
90	0xb9270316	-0.0001592751
91	0xb88eefaf	-6.815732e-05
92	0xbd0a7b5a	-0.033809043
93	0xb753aac9	-1.2616344e-05
94	0x3bf94251	0.0076067825
95	0x3dd968a8	0.10615665
96	0xba1a1bf6	-0.00058788003
97	0xba0d63ca	-0.0005393593
98	0x3e1d9b46	0.15391263
99	0xb98f14fb	-0.00027290717
100	0xbd2a474c	-0.0415719
101	0x3d8cadae	0.06869064
102	0xb8bc7d60	-8.9878915e-05
103	0x3d5aef35	0.05345078
104	0xb7ed6015	-2.8297343e-05
105	0xbcbedb3e	-0.023297902
106	0x3df82362	0.12116124
107	0xbcd43e48	-0.025908604
108	0xb885f8aa	-6.3882515e-05
109	0xb9097d0b	-0.0001311192
110	0x3d50e03f	0.050995108
111	0x3d1a4079	0.037659142
112	0x3d7bb944	0.06145598
113	0xb7a88aaf	-2.009174e-05
114	0xb99317cd	-0.00028055758
115	0xb9689197	-0.0002217948
116	0xb960560f	-0.00021394364
117	0x3d92b8fc	0.07164189
118	0xb857afac	-5.14236e-05
119	0xb8e6671d	-0.00010986461
120	0xb7104065	-8.598062e-06
121	0x3da533a2	0.08066489
122	0x3d5afdad	0.05346458
123	0xb6bf2a39	-5.697159e-06
124	0x3dc5f551	0.09665931
125	0xb70b2000	-8.292496e-06
126	0xb8e85b12	-0.00011079585
127	0xbcbf95eb	-0.023386916

fc3.weight f4 [1, 128]
0	0xb967feff	-0.0002212487
1	0xb9cc541c	-0.00038972578
2	0x3e48bd45	0.1960345
3	0xbebace3d	-0.36485472
4	0x3e8eb99e	0.2787599
5	0xba293de6	-0.0006456062
6	0xb94cba86	-0.00019524441
7	0x3ec18919	0.3779991
8	0xbaa5f77e	-0.0012662259
9	0x3a092317	0.0005231364
10	0x3a712aae	0.000919978
11	0x3e917653	0.28410587
12	0x37509f6d	1.2434885e-05
13	0xb9b23de7	-0.00033996927
14	0x38e07490	0.00010702864
15	0xbe4bc0e5	-0.19897802
16	0xbaa4a057	-0.0012559992
17	0xb9eb83bc	-0.00044920843
18	0x3e4590d0	0.19293523
19	0x3e95b714	0.2924124
20	0x39d66ab5	0.00040896764
21	0x3e6ac715	0.22927506
22	0xbe346496	-0.17616495
23	0xbe75df24	-0.24010903
24	0x3e644724	0.22292763
25	0x37969a98	1.7953382e-05
26	0x3ecbebf2	0.3982845
27	0x3e9bcbe4	0.30428994
28	0xbe7107fe	-0.23538205
29	0xbe59f990	-0.21286607
30	0x3e52db65	0.20591505
31	0x3e770342	0.24122337
32	0xb9f93ab7	-0.00047536727
33	0x3a4777f7	0.0007609124
34	0x3e4b798e	0.19870588
35	0xbe24adb7	-0.16081892
36	0x3ec460ba	0.38355047
37	0xb82e32d1	-4.153216e-05
38	0x3af193b7	0.0018430863
39	0xbe7e1ef4	-0.24816495
40	0xbaa48463	-0.0012551661
41	0x3a195b48	0.0005850089
42	0x3e972795	0.29522386
43	0xba535b83	-0.00080626475
44	0xbe2ef05a	-0.17083874
45	0x3e3bc0fa	0.18335333
46	0x3ead209e	0.33813947
47	0xbe9d50c0	-0.3072567
48	0x3e7ff6a5	0.24996431
49	0xb988770d	-0.0002602864
50	0x3812c5dd	3.4993387e-05
51	0xb9cc450a	-0.0003896135
52	0xb7899d90	-1.6405043e-05
53	0x38b514e6	8.634645e-05
54	0xbe2febc4	-0.17179781
55	0x3e1b88d7	0.15188919
56	0x3df9a06d	0.12188802
57	0x3e392665	0.18081053
58	0xba97c9c3	-0.0011580515
59	0x398cbc5f	0.00026843228
60	0xbe907d66	-0.2822067
61	0xb9e906d0	-0.000444463
62	0x3e14d406	0.14534006
63	0x3e7493fa	0.23884574
64	0xb85db6e7	-5.2860847e-05
65	0x3e80fb2f	0.25191638
66	0xba1ad810	-0.00059068296
67	0x3e1dd44f	0.1541302
68	0x3716ef57	8.996422e-06
69	0xba4b2304	-0.0007749053
70	0xba66033a	-0.00087742845
71	0xb9236eb0	-0.00015586126
72	0x3ead365e	0.3383054
73	0x3e911aff	0.2834091
74	0x36304fad	2.627242e-06
75	0x392e4985	0.00016621321
76	0xba52096e	-0.00080122694
77	0xba0fbcaf	-0.0005483133
78	0x3e7f9236	0.24958119
79	0x3e6345ca	0.22194591
80	0x3e96ead5	0.29476038
81	0x3e2fbb43	0.17161278
82	0x3a6fe9c1	0.00091519585
83	0x3e8fdaf4	0.28096735
84	0xb63e0e72	-2.8320615e-06
85	0x3ec9bba7	0.3940098
86	0xba9ff600	-0.0012204051
87	0x3a793dbb	0.0009507795
88	0x3e3f7996	0.18698725
89	0xba167b90	-0.0005740458
90	0xba492817	-0.00076735154
91	0x3a6a91d5	0.0008948122
92	0xbe92acd7	-0.2864749
93	0xb952d84c	-0.00020107738
94	0x3e6945b1	0.22780491
95	0x3ea3bca0	0.31979847
96	0x3a0fb937	0.0005482616
97	0xba46a11d	-0.00075771083
98	0x3e626777	0.22109781
99	0xb83b0aa4	-4.4594184e-05
100	0xbe19bbfd	-0.15013118
101	0x3ea2e6e6	0.31816787
102	0xb9b40469	-0.0003433556
103	0x3e423c4c	0.18968314
104	0x36083ba6	2.03003e-06
105	0xbe2381ec	-0.1596753
106	0x3eda80b4	0.42676318
107	0xbdbac151	-0.091189034
108	0x3a3506ec	0.00069056335
109	0x39b1a61a	0.00033883826
110	0x3e1160bb	0.14197056
111	0x3e01014f	0.12598155
112	0x3e9d5caf	0.30734774
113	0xb8ab2d3b	-8.16234e-05
114	0x3ad156cd	0.0015971303
115	0x39b26d39	0.00034032183
116	0x394dc45e	0.00019623476
117	0x3e5d53df	0.21614026
118	0xb805524d	-3.178632e-05
119	0xb8aa9d30	-8.13551e-05
120	0xb60d14d9	-2.1022772e-06
121	0x3e772ac6	0.2413741
122	0x3e8933aa	0.2679723
123	0x38e5eef7	0.000109640816
124	0x3ebdec5c	0.3709439
125	0xb8a1d2bc	-7.7163306e-05
126	0xb9f80c97	-0.00047311626
127	0xbe8db439	-0.2767656
