project2-reacher/models/ddpg_critic_local.pth (torch_old, 170023 bytes, 5 tensors)

fc1.weight f4 [256, 33]
000000 65 ea 0f bd e0 1e f2 3a 3a 83 d8 bb 33 1f 79 3c
       -0.035135645 0.0018472336 -0.0066074403 0.015205192
000010 0b 85 29 bc d4 fd 19 bc af 01 8e bc d7 e0 07 bc
       -0.010346661 -0.009398896 -0.017334787 -0.008293352
000020 52 30 4a bc fe c3 31 3c bb 04 da 3a a2 24 eb bb
       -0.012340622 0.010849951 0.001663349 -0.007175998
000030 f0 eb 8e 3c 99 bb 4d bc 0e dd 85 3c e9 29 1c bc
       0.017446488 -0.012556934 0.016340759 -0.009531477
000040 d7 0c 01 bd f8 3f a0 bc af d8 06 3d ec f9 6e 3c
       -0.031506386 -0.019561753 0.03292149 0.014585953
000050 6d 6b a8 3c 5b 79 05 3b ba 28 a5 bc ab 18 0c 3d
       0.020559037 0.0020366523 -0.020161022 0.034203213
000060 8b a9 1a 3c 2a 09 d6 3c bb a2 81 3c b9 ec 0c bc
       0.009439836 0.026127417 0.015824666 -0.008601361
000070 bc d1 13 bd 2d 32 02 80 71 ec 0c 3c 68 40 06 80
       -0.03608869 -2.0167e-40 0.008601294 -5.74118e-40
000080 5e 0b 67 3c 2e 8b 09 bc 6e 9f 3f 3d 55 79 5e 3c
       0.014101831 -0.008394999 0.046782903 0.0135787325
000090 7f c2 00 bd fe 4a 7e bb 6c 67 dd 3b ea b3 bc 3b
       -0.031435486 -0.0038802023 0.0067567136 0.005758752
0000a0 83 94 2c 3c 37 68 48 bc 09 d3 f4 3b f4 0e cd 3c
       0.010533455 -0.012231878 0.0074714464 0.025031544
0000b0 9f bb e0 b9 c8 dc 8c bc c3 bf 0c 3d e5 05 9b 3d
       -0.00042864398 -0.01719512 0.034362566 0.07569484
0000c0 c6 a7 13 bd 80 6c 80 b9 7d 7b 4e 3a 16 99 84 bc
       -0.036048673 -0.000244949 0.00078766776 -0.016186278
0000d0 e0 fc ab 3b 0f 6c 88 bb cc fd e0 bc fd 7e 1a bc
       0.005248651 -0.004163272 -0.02746477 -0.00942969
0000e0 e3 b9 a1 3c 38 19 f1 3c 98 1c 9a 3b 1d 82 ba bc
       0.019741958 0.02943097 0.0047031157 -0.022767121
0000f0 68 fc a3 3c 09 1d 69 3c 4e 37 05 80 9d fc a3 bc
       0.020017818 0.014228114 -4.79017e-40 -0.020017916
000100 07 9d 07 80 c0 2e 70 3c 64 ff c1 bd e8 ec b3 bb
       -6.99179e-40 0.014659584 -0.0947254 -0.005490888
000110 3c 8d 96 bc 17 4e 9f 3c b2 ef 0c bd 21 19 f5 3c
       -0.018377893 0.019446416 -0.03440828 0.029919209
000120 a0 44 ca 3b c2 0c 8e bb 04 32 2d 3b 4a 9e e5 bb
       0.0061727315 -0.004335017 0.0026427517 -0.007007395
000130 7c eb ca 3b c0 d1 45 3c 0d ea 13 ba 2d 1d ec 3a
       0.0061926227 0.012073934 -0.0005642481 0.0018014066
000140 cb 07 03 3b 69 21 cc bb 93 36 7f 3c d6 d0 9c 3c
       0.0019993659 -0.0062295687 0.015576976 0.01914255
000150 ba dd 94 bc 48 b8 53 3c 21 41 95 3c d4 f9 a5 3c
       -0.018172134 0.012922354 0.018219532 0.020260729
000160 11 2d 06 bd d2 ab 16 3c c7 fe 7a 3b 22 ed a5 bc
       -0.032757822 0.009196239 0.0038298832 -0.020254675
000170 99 c4 65 3d 03 52 b2 bc 92 1a 0e 3d 6f 56 00 80
       0.056095693 -0.021767622 0.03469331 -3.1007e-41
000180 26 53 b2 3c 2c d3 06 00 21 44 1e bd 6a 79 2e bc
       0.021768164 6.26767e-40 -0.03863919 -0.010649065
000190 16 2c d9 3c 87 92 32 3d b6 48 72 bc dd 52 c1 3b
       0.02651028 0.04359677 -0.014787843 0.0058997707
0001a0 fc ca 13 3c b2 19 0f 3c c6 de 03 bc 14 29 5b 3c
       0.009020563 0.008734154 -0.008048719 0.013376493
0001b0 a9 66 94 3a 2d a3 46 ba fc 3f c9 3b 52 a7 ea 3b
       0.0011322099 -0.00075774157 0.0061416607 0.0071610594
0001c0 af c8 29 bd 09 a6 ab 3c 4f b1 10 3c 20 09 64 bc
       -0.041451152 0.020953195 0.008831336 -0.013918191
0001d0 73 ad fa 3a 7f 3e 33 3c 2a 64 24 3c 0d 46 fd bc
       0.0019125178 0.010940193 0.010033647 -0.030917192
0001e0 87 8c c6 3c d6 ec 4a 3c 59 37 8c bd 2c 6e 17 bb
       0.02423693 0.012385568 -0.06846494 -0.002310644
0001f0 8a 82 09 3c 8b 53 93 bc 55 05 a3 3c 49 1f cf bc
       0.008392939 -0.017984172 0.019900003 -0.025283473
000200 3c f9 07 80 55 05 a3 bc a5 6b 02 80 f9 56 79 bd
       -7.32257e-40 -0.019900003 -2.22287e-40 -0.06087396
000210 ab 48 c9 bc d6 c9 41 3d 14 ab 20 ba 0d f4 90 bc
       -0.024570784 0.047311626 -0.0006129008 -0.017694497
000220 2c fb 38 3b 38 77 5c bb e5 e4 b8 ba b0 10 eb 3b
       0.0028225882 -0.0033640396 -0.0014106302 0.00717362
000230 b3 03 56 bc e5 4b 8d bb ab 67 05 3c fc 7f 93 bb
       -0.013062405 -0.004312026 0.008142392 -0.004501341
000240 41 de 66 bc df 46 0a 3d 5d 98 20 3d e3 dd 8b 3b
       -0.014091075 0.033758994 0.039207805 0.0042683943
000250 6e 8a d7 3b 46 82 b6 ba ce 40 f5 bc bd ce 17 3c
       0.0065777814 -0.0013924323 -0.029938128 0.009265599
000260 dd 89 2b bc d3 e9 0b bd 33 60 9d bb d6 bb 48 bc
       -0.010469881 -0.03415854 -0.0048027276 -0.012251815
000270 29 d8 46 3c bd 76 8f bc 0c 99 89 3c 71 9b ad 3c
       0.012136498 -0.017512674 0.016796611 0.021192284
000280 99 df b9 3c 98 dd 06 00 f7 9b ad bc df e9 06 00
       0.022689627 6.30506e-40 -0.021192534 6.3491e-40
000290 54 b1 af 3c 26 5b 05 3d 92 9b b7 bc a8 3b e0 bc
       0.021446861 0.03255763 -0.022413049 -0.027372196
0002a0 67 48 41 3c 72 e7 44 3c 74 4f eb bb 29 23 d9 3a
       0.011797047 0.0120180715 -0.0071811024 0.0016566265
0002b0 b7 15 a5 bc 73 b1 7e 3b 54 61 04 3b 85 b6 5c 3c
       -0.020151956 0.0038863092 0.0020199614 0.01347125
0002c0 b6 f8 02 bd 3f 4e 3c 3c dc d7 c9 ba 8c 13 00 bc
       -0.03197547 0.011493265 -0.0015399414 -0.00781716
0002d0 85 91 4b 3c ca 2a 82 bb ef 71 03 3b 33 df 35 bc
       0.012424831 -0.003972386 0.0020056923 -0.011100578
0002e0 71 8e e4 bc 94 6a 1d 3c ad 65 cb 3b 6a f0 11 3d
       -0.027899953 0.00960793 0.006207189 0.035629667
0002f0 5b 39 eb bc ad 91 a7 bc 27 49 33 3b fd 30 79 bc
       -0.028713873 -0.020455206 0.0027356835 -0.015209434
000300 82 2b 81 bc 00 05 14 3c 22 e6 05 80 a9 2d 81 3c
       -0.015767816 0.009034395 -5.41734e-40 0.015768843
000310 46 8e 01 00 5a fd 14 bc fe 0c b6 bc ae ba 3b 3c
       1.42874e-40 -0.009093607 -0.022222992 0.011458082
000320 e4 40 b9 bb 18 c5 bb bc 8d 0c d4 3b 70 dd 03 3d
       -0.0056534875 -0.02292113 0.0064712227 0.0321936
000330 e9 26 4e bc d8 df 80 3b 34 45 e5 3c 1c 71 4a bb
       -0.012582519 0.0039329343 0.0279871 -0.0030890172
000340 77 ae 76 bb f7 63 85 bc 9e ef 35 3c 36 a5 62 3d
       -0.003764061 -0.016283019 0.0111044925 0.05533334
000350 ad 23 5b bb a9 78 0c 3c 02 89 0e 3d d4 b1 df 3c
       -0.0033438012 0.0085736895 0.03479863 0.027306475
000360 7b c1 06 bd 9b 28 b9 ba 6d 45 54 bc 5c 9b ef 3c
       -0.03289936 -0.0014126481 -0.0129560055 0.029248886
000370 c7 57 29 3c 4e 5e 9a 3c 2a ab 61 bb de 1a ba 3c
       0.010335869 0.018843796 -0.0034434297 0.02271789
000380 b7 d8 12 bd 81 dc 3b 3d 58 14 24 3c 1e a9 05 00
       -0.035851207 0.045864586 0.010014616 5.19845e-40
000390 b4 e7 3b bd 45 b0 07 00 13 be 19 be 1b 1a 80 bc
       -0.045875266 7.06082e-40 -0.15013914 -0.015637448
0003a0 fd e1 d2 3c 63 8a 3d 3b b9 85 57 bc 85 71 18 3b
       0.025742525 0.0028921596 -0.013154441 0.0023261022
0003b0 d7 68 0a bc 92 fc f9 3b 4b e3 96 bc ae 77 5e 3c
       -0.008447847 0.0076289857 -0.018418929 0.013578339
0003c0 d6 99 9c 3c d3 c5 2b bb 60 94 e6 3c 12 90 25 ba
       0.019116323 -0.0026210442 0.028146923 -0.00063157186
0003d0 19 db a4 3c 7d 38 04 bd a3 41 d4 bc e0 7d 84 bc
       0.020124005 -0.032280434 -0.025910204 -0.016173303
0003e0 ee 41 ce 3c 3c 7d fd 3b 25 b8 e7 3c 6e e2 69 3c
       0.025177922 0.0077358764 0.02828605 0.014275176
0003f0 bd 15 49 bc 06 4d 95 3c 3a 2c 30 bd d4 30 4e 3b
       -0.012273249 0.018225204 -0.043010928 0.003146221

fc1.bias f4 [256]
000000 ef f0 0c 3c 46 b7 a3 bc f4 50 b2 3c 4d 05 a3 bc
       0.008602365 -0.019984853 0.021767117 -0.019899989
000010 20 9b ad bc 10 4b 74 3c e3 35 3e bd 8e 47 6b bc
       -0.021192133 0.014910474 -0.04643811 -0.014360322
000020 02 40 74 bc 0c 17 d5 3b 50 d3 22 bd 36 19 06 3d
       -0.014907839 0.0065029915 -0.039752305 0.032738887
000030 bf 58 d2 bc eb 3b 1d 3c 37 f1 31 bc 97 f4 c6 3c
       -0.025677083 0.009596805 -0.010860733 0.024286551
000040 8a 5a 00 bd 46 ee 67 bd ed e0 2e bd 62 fe c3 bb
       -0.031336345 -0.05662372 -0.042694975 -0.0059812525
000050 0a 50 98 3c d8 b4 4c bc fc 13 b0 bc eb e8 e5 3c
       0.018592853 -0.012494288 -0.021493904 0.028065166
000060 af 84 e3 3c 00 e9 17 bd aa d6 da 3c c4 a3 62 3d
       0.02777323 -0.03708744 0.026713688 0.05533196
000070 b1 66 23 3b 22 c8 07 bd 86 ca 65 3b c8 94 1c bb
       0.0024933035 -0.033149846 0.003506334 -0.0023892391
000080 36 5c 8e 3c d1 7c 19 3c 4f d9 70 bc 55 fb 86 bb
       0.017377954 0.009368137 -0.014700248 -0.0041193166
000090 28 6c 35 3a 27 e1 12 bd c6 73 07 bd 0a cf 59 3c
       0.00069207186 -0.035859253 -0.033069395 0.013293991
0000a0 5f 19 25 bc cb cc 04 bd a9 4a d7 bc 1a b7 40 bd
       -0.01007685 -0.03242187 -0.026280718 -0.04704962
0000b0 38 25 1c 3d d7 78 7c bc df c7 2b 3d a4 13 fb 3b
       0.038121432 -0.01540967 0.04193866 0.0076622535
0000c0 86 3d 96 3c d4 33 1c bd 98 33 08 bd 25 98 3b 3d
       0.018339884 -0.038135365 -0.03325233 0.045799393
0000d0 37 b0 d1 bc 6f 58 04 bd 7c 00 41 bc 53 f5 d2 bc
       -0.025596721 -0.0323109 -0.011779901 -0.025751745
0000e0 ba bc 41 3c 9f 5b 1b bd 72 6a d2 3b 66 75 02 bd
       0.011824781 -0.037929174 0.0064213807 -0.03185024
0000f0 5d 7c 5b 3c 35 fc ad bc a5 a8 18 3d a8 55 8e bc
       0.01339635 -0.021238426 0.037270207 -0.017374828
000100 1c 49 97 bd 0d 47 e2 bb 7b a5 7d bb 88 a9 86 bb
       -0.073869914 -0.0069054426 -0.003870337 -0.004109565
000110 fd 9f 88 bc fb aa bd bc 3a f8 11 bd 1d 20 0d bd
       -0.01667785 -0.023152819 -0.035637118 -0.034454454
000120 f5 fc 97 3c 37 e4 a6 3b af 63 43 bb bc cc 28 bc
       0.018553236 0.0050931233 -0.0029814055 -0.010302719
000130 36 0e c3 bb 40 8b 15 bd 40 5e 12 bd ee 78 0b bd
       -0.005952622 -0.036509752 -0.035734415 -0.034050874
000140 c0 62 2b 3c d9 c6 80 3d 00 70 66 bc 68 4b 41 bc
       0.010460556 0.06287927 -0.014064789 -0.011797763
000150 e2 4a 5f bc e6 e5 6b 3b ad 81 f4 3c 81 e6 9c 3c
       -0.013628693 0.0035995184 0.02984699 0.019152882
000160 17 f9 8c 3c d6 3e 30 bc bd 7a 63 bb 5b 1b 73 bc
       0.017208619 -0.010757169 -0.003471061 -0.014838065
000170 1b 6e a5 3c b6 21 80 bc 50 3b 10 bd f1 f6 f3 3b
       0.020194104 -0.015641075 -0.035212815 0.007445209
000180 77 18 5d 3c 80 ba 49 bc 73 7f 61 bd 7d 32 90 bc
       0.013494602 -0.0123125315 -0.055053186 -0.0176022
000190 40 61 37 3c 2e 2a 01 bd e0 43 02 bd 1a 27 3f 3d
       0.01119262 -0.031534366 -0.031803012 0.04666815
0001a0 ef 5a 14 3c 80 3a d5 b9 39 e1 ff bb 1a 4a a4 bc
       0.009054883 -0.00040670112 -0.007808831 -0.020054866
0001b0 6f 0b 99 bc 43 42 70 bd 21 8c 0d bd 88 62 2c 3c
       -0.01868221 -0.058656942 -0.034557465 0.010521539
0001c0 82 4b 43 3c 43 14 a5 3c 08 e6 1f 3c e9 c2 06 3d
       0.011919858 0.020151263 0.009759434 0.032900725
0001d0 de 40 29 3b f4 35 14 3d 27 dd b6 bc 51 a8 18 bc
       0.0025826017 0.036184266 -0.02232225 -0.0093174735
0001e0 6d c4 00 3c f8 2c 85 3c 96 8f 8b 3c 19 94 9e bc
       0.007859332 0.016256794 0.01703624 -0.019357728
0001f0 f9 87 70 bd a6 7a e1 bc 8c 12 7e bc d2 b3 2f bd
       -0.058723424 -0.027524304 -0.015507352 -0.0428961
000200 38 4f 0d 3b e3 4e 35 bd 93 13 8b 3c a1 5f 7c bc
       0.002156211 -0.044264685 0.016977107 -0.015403659
000210 57 ce 22 bd b0 4c 05 bd 5a 79 61 3d d6 dc 09 3d
       -0.039747562 -0.032543838 0.05504737 0.03365787
000220 0a b1 12 bd 22 77 6f bb 2b a6 da ba fd cb b2 bc
       -0.03581337 -0.0036539515 -0.0016681602 -0.021825785
000230 ae 1d a0 3b b7 00 a8 3b 42 3e 05 bd 38 3b 2b bd
       0.0048863506 0.0051270383 -0.032530077 -0.041804522
000240 c5 3c 6a 3c 08 15 c4 bb ac 0d 6b 3d 7c fa e8 bc
       0.014296715 -0.0059839524 0.057386085 -0.028439753
000250 89 9c 30 bc 19 22 f6 bc cb 7e fd 3b 10 da ac 3c
       -0.010779508 -0.030045556 0.007736062 0.021100074
000260 6f 59 20 bc 0d 8d b6 ba 19 d2 cd 3c 1b 06 2e 3b
       -0.009786948 -0.0013927534 0.025124596 0.0026553932
000270 88 21 53 bc e8 d3 72 bb 94 c9 0f bc d5 aa 00 bd
       -0.012886412 -0.0037052575 -0.008776087 -0.031412918
000280 98 1c 58 bc a8 c0 47 bc 26 86 81 bd ea 55 0b bc
       -0.013190411 -0.012191929 -0.06324415 -0.00850437
000290 39 79 84 bc 8b ae 03 3d 1e 69 13 3d 61 e2 fc 3c
       -0.016171085 0.03214888 0.03598892 0.030869665
0002a0 76 9f 9c 3c f7 62 a5 bc ce bc d6 3c 3d 6c 26 bc
       0.019119006 -0.020188792 0.026213076 -0.010157642
0002b0 bb 20 8f 3c 3a b7 c0 bd a7 5e ab ba 6e 89 c2 bb
       0.017471662 -0.09409948 -0.0013074473 -0.005936793
0002c0 78 b0 cb 3c a1 c2 55 bc ee f7 ea 3c 8e f4 11 bd
       0.02486442 -0.013046891 0.028682675 -0.035633616
0002d0 ca 1a ff bc 15 3d 08 bd 7a 5e 4b 3d 3a 1a 17 3d
       -0.031140704 -0.033261377 0.049650647 0.036890246
0002e0 06 6a fe ba b8 91 a9 bc 11 f2 08 bd 25 bf c4 3a
       -0.001941026 -0.020699367 -0.033433978 0.0015010579
0002f0 13 c5 15 bb 67 e1 84 3d 32 00 47 bc d9 f7 7d bd
       -0.002285306 0.064883046 -0.012146043 -0.062003944
000300 e5 53 fb 3c 1a a4 50 3d 75 b4 67 3d d2 a1 a0 38
       0.030679652 0.05093775 0.05656858 7.659536e-05
000310 09 d3 f3 3a 91 98 8f 3b fa 67 7a 3c ff bd 96 3c
       0.0018602322 0.004382201 0.015283579 0.018401144
000320 22 1a 97 bc 51 5b 16 3a 7b d8 ab 3b f2 53 17 bd
       -0.018445078 0.0005735653 0.0052443123 -0.03694529
000330 09 0a 4b 3d 9c 67 59 bd d4 97 26 3c 21 7e 70 3c
       0.049570117 -0.053077325 0.010168035 0.014678509
000340 80 65 c7 3c 49 20 ba bc a9 60 9a 3c 1a 38 a0 bc
       0.024340391 -0.022720473 0.01884492 -0.019558001
000350 d7 0f 15 3b 56 ab 17 bb 5a 8a 0b 3d 88 bc 3c 3d
       0.0022745037 -0.0023142896 0.03406749 0.046078235
000360 a1 3e d2 bc dd 3c 0d 3c 73 44 57 bc e1 4d 37 3d
       -0.02566463 0.008620468 -0.013138878 0.044752005
000370 1a 5b cf bc ce 3c a0 ba 7a d3 26 3d f6 e9 7e bd
       -0.025311995 -0.0012225152 0.040729024 -0.06223484
000380 29 bf f9 bb c0 dd 37 bd 0e fb 44 bd 6b 41 ac 3c
       -0.007621665 -0.04488921 -0.048090987 0.021027287
000390 3f c9 50 3b 63 e3 19 3d 7a 56 31 bd 4a 02 21 bc
       0.0031858233 0.03757037 -0.04329536 -0.009827206
0003a0 0d 29 8a 3c b6 42 b5 bc 91 01 21 bd 15 48 b7 bc
       0.016865278 -0.022126537 -0.039308134 -0.022373239
0003b0 6c 99 6e 3d 05 b7 34 3d b1 82 dd bc ed 2c 56 bd
       0.058251783 0.044119854 -0.027039858 -0.05228894
0003c0 12 79 68 bd eb 66 d0 3c 75 32 9b bc 7c 4b 25 bc
       -0.056756087 0.0254397 -0.018944958 -0.010088798
0003d0 48 9d 56 bc bc d1 c9 bb ee f3 9d bc e5 da 09 bc
       -0.013099022 -0.0061590355 -0.019281354 -0.008414005
0003e0 76 31 db 38 de f6 91 bd 24 ec 9b bc 8a 31 21 bd
       0.000104519466 -0.07127164 -0.019033499 -0.039353885
0003f0 f6 06 3d 3c d4 6e f6 bc 9c 98 8b 3d 9b d9 a4 3c
       0.011537304 -0.030082144 0.06816217 0.020123294

fc2.weight f4 [128, 260]
000000 ce 83 bf af 75 43 ec a6 d3 e2 f1 b8 1b 8f 89 b1
       -3.483635e-10 -1.6394074e-15 -0.00011534025 -4.003494e-09
000010 6f 66 a4 26 da cb 26 b8 cc 2f db 2a 87 e8 b3 b2
       1.1407551e-15 -3.9767336e-05 3.893538e-13 -2.0944084e-08
000020 50 71 c1 aa 1d f7 93 b5 81 de 26 a8 9a 60 a5 a8
       -3.4362313e-13 -1.1024273e-06 -9.263099e-15 -1.8360574e-14
000030 e5 e2 99 a8 be 63 16 b8 76 ec cb 2a d7 39 19 b8
       -1.7084812e-14 -3.585568e-05 3.6224122e-13 -3.653191e-05
000040 a2 cb 20 ae 6b 32 12 2a f3 ab af 27 4f 4d a4 2b
       -3.656065e-11 1.2984897e-13 4.8758685e-15 1.1674358e-12
000050 c6 af b2 b0 2c 62 ae 28 cb 18 92 aa a4 b6 c6 b9
       -1.3001162e-09 1.9360456e-14 -2.5952013e-13 -0.0003790158
000060 a2 a7 cd b7 a0 ba 37 a9 a5 c4 80 a9 2f 4c d4 b9
       -2.4515964e-05 -4.0796034e-14 -5.718454e-14 -0.00040492552
000070 d8 49 50 b0 d0 85 8a a9 3a fe ec af 79 49 56 ab
       -7.57749e-10 -6.151644e-14 -4.310879e-10 -7.6130037e-13
000080 e3 eb 4b b1 c7 87 95 29 04 d6 93 2a 58 b8 00 2b
       -2.9674474e-09 6.640483e-14 2.626095e-13 4.5730563e-13
000090 f2 b6 cd b4 63 4c c8 27 da 79 84 a6 77 40 4d b6
       -3.8317336e-07 5.559397e-15 -9.192368e-16 -3.0584904e-06
0000a0 c8 9f eb b6 66 76 b9 aa 47 c0 5d 29 66 06 ef 2b
       -7.0221467e-06 -3.2944757e-13 4.9238632e-14 1.6983747e-12
0000b0 f8 29 e9 b9 60 98 7a ab 88 59 e0 b8 2a 15 18 b0
       -0.00044472492 -8.9029305e-13 -0.00010697829 -5.5327354e-10
0000c0 72 8d 3d b6 1e 4e 53 29 51 bc e3 a7 58 87 f3 b7
       -2.8245527e-06 4.6919167e-14 -6.320933e-15 -2.9030882e-05
0000d0 bf 3a 2e aa 10 b2 63 ad 83 5d 0a 2a a1 9c b2 a9
       -1.5474686e-13 -1.2942994e-11 1.2289306e-13 -7.931959e-14
0000e0 81 0d 3a aa f6 45 26 aa d5 be 3a b9 2e 09 9b aa
       -1.6524804e-13 -1.4768034e-13 -0.00017809433 -2.75399e-13
0000f0 ed 8f b2 36 7d 44 10 ab 39 39 65 b9 f2 1b 80 2a
       5.3215686e-06 -5.1254124e-13 -0.00021860459 2.2756759e-13
000100 d4 10 9a a8 3e 16 4c 2b 9b 31 f4 aa 90 91 19 2b
       -1.7104733e-14 7.2506226e-13 -4.3377528e-13 5.455853e-13
000110 1f 3e 69 a8 a8 38 91 a9 0f 1b 27 b0 25 c8 c4 b1
       -1.2947569e-14 -6.449122e-14 -6.07927e-10 -5.7271046e-09
000120 87 d9 12 b7 63 f3 38 b3 1c 52 e4 b8 c2 82 04 29
       -8.752925e-06 -4.3062197e-08 -0.00010887181 2.9423302e-14
000130 fb 66 5c 2a 4d 1c 5c 2b d9 bd 22 aa 07 2c 18 27
       1.9575654e-13 7.8198976e-13 -1.4454357e-13 2.1118105e-15
000140 c4 b3 2b b7 bc c0 16 ba a8 52 18 b4 ce 08 11 2a
       -1.0234249e-05 -0.00057507656 -1.4186173e-07 1.2881642e-13
000150 dc f4 a8 b3 38 16 bb b9 83 66 b0 b8 13 a8 f7 b8
       -7.867649e-08 -0.00035683974 -8.411428e-05 -0.00011809184
000160 fd 6f 9b b1 e6 90 23 27 3c 48 67 a5 f0 46 2f 29
       -4.5238253e-09 2.2699344e-15 -2.006053e-16 3.8919334e-14
000170 d2 7f a0 b6 4a 1a 10 b7 08 20 7c aa f9 4d 5c b4
       -4.783252e-06 -8.58919e-06 -2.2393209e-13 -2.0517463e-07
000180 52 32 0c b9 d3 75 1f 29 15 d7 02 29 ef da 44 b6
       -0.00013370186 3.540729e-14 2.9052353e-14 -2.9333712e-06
000190 35 2b 49 b9 1a b5 2e a9 55 e0 a4 27 a2 40 6f b9
       -0.0001918495 -3.8792842e-14 4.5762365e-15 -0.00022816894
0001a0 95 b5 a3 b7 11 93 86 2a 02 42 47 b5 30 2c d0 b7
       -1.951567e-05 2.390523e-13 -7.422933e-07 -2.4816109e-05
0001b0 ca 78 d7 a9 3a ec d5 a9 0a d3 b5 aa 48 3f 78 b4
       -9.5688716e-14 -9.500079e-14 -3.2298497e-13 -2.3119821e-07
0001c0 d9 4c 35 a9 b7 40 2f b7 cc 21 c1 b7 62 6b 0a b9
       -4.0256728e-14 -1.044588e-05 -2.302313e-05 -0.00013200709
0001d0 48 a3 ff a9 ae 31 b0 b7 a8 53 c5 36 3d 5b 14 2a
       -1.13525996e-13 -2.1003969e-05 5.8807964e-06 1.3176695e-13
0001e0 e1 bb ac b6 8a a1 8d b4 55 45 2e b9 53 0a 38 a9
       -5.1478714e-06 -2.6380832e-07 -0.00016619761 -4.0865162e-14
0001f0 9a 1d c9 aa a2 4a e9 aa 8a ae d6 29 2f e5 db aa
       -3.5725313e-13 -4.14409e-13 9.533787e-14 -3.9061243e-13
000200 56 6d 3a 2c 0c 38 c7 26 bf ef 45 b9 d6 2c fa 28
       2.6492883e-12 1.382359e-15 -0.00018876696 2.777502e-14
000210 d3 6c f8 2a e8 41 d8 a8 73 f6 0d ba 2d eb f5 b8
       4.4129162e-13 -2.40094e-14 -0.0005415447 -0.00011726315
000220 c9 3e d1 28 63 a0 17 2c f7 f7 ee b6 3e 0b 94 b6
       2.323089e-14 2.1547423e-12 -7.1218196e-06 -4.4120525e-06
000230 d5 57 1c ab b4 5a 9f b7 fa 33 58 a8 08 10 20 29
       -5.5544225e-13 -1.8996514e-05 -1.2001679e-14 3.554104e-14
000240 c5 b0 e2 b6 27 5e 4a 2a 46 44 09 ba 4e 7e 7d 26
       -6.7559035e-06 1.797387e-13 -0.0005236309 8.7948183e-16
000250 8b 66 12 b4 a1 95 7d ad f7 40 08 ab e8 a0 3c b9
       -1.3634615e-07 -1.4414609e-11 -4.8407063e-13 -0.0001798902
000260 41 bf cd a8 86 db 74 b4 24 95 71 2a 23 8f 8c aa
       -2.2842515e-14 -2.2804133e-07 2.1456843e-13 -2.4968317e-13
000270 7a 73 a2 b8 f2 e2 41 b0 08 c8 b5 b2 53 35 61 28
       -7.746271e-05 -7.05355e-10 -2.1162137e-08 1.2501572e-14
000280 a4 74 de ab c0 08 a1 29 76 29 66 aa 81 91 81 2e
       -1.5806423e-12 7.151354e-14 -2.0442488e-13 5.8920875e-11
000290 4a be 07 b4 21 9c c4 b9 75 7e b7 b9 0f ba 27 b5
       -1.2642082e-07 -0.00037500358 -0.00034998698 -6.24831e-07
0002a0 aa 3a 0e b8 6e 11 5c 2b 85 56 d7 b7 7b 26 37 b7
       -3.3910073e-05 7.818389e-13 -2.5670286e-05 -1.0916609e-05
0002b0 f2 6d 45 b6 25 56 54 aa 6a 00 d7 34 83 c3 ac 29
       -2.9419284e-06 -1.885927e-13 4.0047172e-07 7.67225e-14
0002c0 d3 42 55 b9 0f 2b fb 29 4e b2 80 b7 88 c7 33 aa
       -0.00020338157 1.11541086e-13 -1.5341819e-05 -1.596762e-13
0002d0 79 f1 bc b2 ff 11 83 b5 0e b7 2c ba c4 68 09 ba
       -2.199589e-08 -9.765498e-07 -0.00065885566 -0.00052417465
0002e0 11 d8 a0 24 f5 79 b4 29 0b 24 b5 28 b9 4a ef b8
       6.975497e-17 8.014762e-14 2.0110668e-14 -0.00011410326
0002f0 06 d1 85 b4 ea 01 8e b8 63 2c ab a6 fa ff 64 27
       -2.4925265e-07 -6.771444e-05 -1.187754e-15 3.1780121e-15
000300 39 84 b3 b7 37 00 93 b9 33 3d 69 b8 3a 8a 9d 2b
       -2.1400034e-05 -0.00028038185 -5.5608525e-05 1.1193887e-12
000310 a5 a0 88 a9 80 5d 7d 29 ad a1 a5 b3 27 24 34 b9
       -6.0674806e-14 5.6258383e-14 -7.71282e-08 -0.00017179605
000320 d8 a6 c9 2a 00 cf 3f a9 71 9f 27 ad 0b 4e b6 a8
       3.5820544e-13 -4.2590063e-14 -9.528254e-12 -2.0239905e-14
000330 ae 3f a5 b9 51 a4 06 b6 3c f3 66 b2 16 ef 2d b3
       -0.00031518698 -2.00632e-06 -1.3443067e-08 -4.049715e-08
000340 07 ff c9 b7 17 93 8c 27 61 f1 c6 2c 19 aa ff a7
       -2.4079824e-05 3.901728e-15 5.654297e-12 -7.096114e-15
000350 f2 be 32 b5 d3 be 06 00 3a c3 00 b7 47 e2 b8 b5
       -6.658803e-07 6.19468e-40 -7.674849e-06 -1.3774924e-06
000360 4e fb ef a9 8c 20 62 b3 a8 d6 31 b4 7c fd 0c b8
       -1.06573265e-13 -5.2649327e-08 -1.6562501e-07 -3.3614677e-05
000370 b2 4d b4 aa be 07 9a 29 d0 93 f9 b9 2d 0c bd 2a
       -3.2028335e-13 6.840317e-14 -0.0004760311 3.3581593e-13
000380 19 84 aa a9 d7 8b 27 29 12 ad a1 2a 99 03 66 b1
       -7.572432e-14 3.720274e-14 2.8719437e-13 -3.347145e-09
000390 18 db e7 b0 92 c2 90 b7 30 79 7f 29 74 f6 9d 27
       -1.6869732e-09 -1.7256742e-05 5.6726488e-14 4.384346e-15
0003a0 8f 6c 8c b8 9c 86 4e b0 50 85 19 2b c0 f2 c2 a9
       -6.695941e-05 -7.5133655e-10 5.454153e-13 -8.657441e-14
0003b0 f2 cf f7 b9 cd 88 76 b9 8c b6 e4 ab 61 7d 84 a9
       -0.00047266443 -0.0002351135 -1.6251041e-12 -5.8837273e-14
0003c0 a0 e3 ac 28 b5 0d 08 b9 aa 04 c1 2b ea cf 27 ae
       1.9194553e-14 -0.00012975077 1.3714769e-12 -3.815607e-11
0003d0 65 8d b8 b6 50 d6 c0 29 74 2d 1e b4 f0 d4 a9 b6
       -5.500088e-06 8.56369e-14 -1.4731432e-07 -5.0613817e-06
0003e0 d0 fb df 27 48 05 07 a9 db c6 44 b5 47 1d fc a8
       6.216795e-15 -2.9980602e-14 -7.330506e-07 -2.7990317e-14
0003f0 d4 b1 51 b7 fa 7c 23 2a 36 d4 ff b9 1c fe 13 b6
       -1.2498775e-05 1.4520668e-13 -0.000487955 -2.2052618e-06

fc2.bias f4 [128]
000000 a2 3c c8 ba b5 1e 84 b8 5a e0 c7 3d ce a7 f3 bc
       -0.0015276859 -6.29997e-05 0.097595885 -0.029743101
000010 f6 16 8b 3d 7f 72 b2 b8 8b 63 42 bb c7 86 d2 3d
       0.06791489 -8.509028e-05 -0.0029661383 0.10279613
000020 df 27 3c b8 98 96 7c a2 37 79 43 aa 9d 50 04 3e
       -4.4859826e-05 -3.4232092e-18 -1.7361534e-13 0.12921377
000030 80 78 4a b7 fe 52 01 b9 1e 0e 77 b4 21 fa 67 bd
       -1.2068194e-05 -0.00012333316 -2.3008803e-07 -0.056635026
000040 9a ae b2 b8 61 a3 e5 9e 1b de 48 3d d8 9a f4 3d
       -8.5202235e-05 -2.431389e-20 0.04903994 0.119435966
000050 4b aa ec a4 48 ac 80 3d 59 fe eb bc 50 20 32 bd
       -1.0263717e-16 0.0628286 -0.028807806 -0.043487847
000060 68 4b a0 3d 0b f8 ee b9 58 eb bc 3d 86 1b 85 3d
       0.078268826 -0.00045579704 0.09224576 0.0649939
000070 7d 0c 54 bd 42 c4 15 bd 57 ba 9b 3d b0 9c bd 3d
       -0.051769722 -0.03656412 0.07603901 0.092584014
000080 26 9c ce ab 51 ee 0d b2 3a aa 8e 3d 15 e4 60 bd
       -1.468052e-12 -8.261467e-09 0.06966062 -0.054905016
000090 11 0a f4 3d 63 69 14 b5 fc d5 d0 aa 1b 1d 52 bd
       0.119159825 -5.5287654e-07 -3.7096704e-13 -0.05129729
0000a0 39 d0 8d b2 0b 11 9d a1 e4 0d cb 3d 34 15 26 b3
       -1.6509249e-08 -1.0643245e-18 0.09914759 -3.866917e-08
0000b0 89 8c 21 bd ef 61 46 3d f4 f6 b5 3d ea d7 83 bc
       -0.039440665 0.04843324 0.08884993 -0.016094167
0000c0 16 5b 8f 3d 37 1b 9c b5 e0 19 9b 96 a3 3c 11 ae
       0.06999795 -1.1630826e-06 -2.505793e-25 -3.302304e-11
0000d0 4c 29 8e 9e 17 7d 0f b9 66 c4 08 bd a5 c1 f8 3c
       -1.5051915e-20 -0.00013684142 -0.033390425 0.030365774
0000e0 36 75 b8 3d 32 cd 28 3c f9 b4 1f b5 78 5b 2e b8
       0.09006731 0.010302829 -5.9495466e-07 -4.157002e-05
0000f0 c1 a7 76 bd 2a 25 ee b2 ea fa ea 3d c9 66 ae 3d
       -0.060218576 -2.7723747e-08 0.11473639 0.085156985
000100 df 76 09 b0 d8 9e 87 3d 07 38 b5 ab 31 cb c5 3d
       -5.0009236e-10 0.06622094 -1.2876374e-12 0.09657896
000110 d4 2f 09 ad 0c 9f d9 b7 5b 67 52 b1 26 c3 3b ae
       -7.798168e-12 -2.5942478e-05 -3.0617773e-09 -4.2692204e-11
000120 79 34 cd 3d 71 18 c8 3d 87 cf ea 9d 25 9e f4 8d
       0.10019774 0.09770287 -6.2153863e-21 -1.5075733e-30
000130 be b3 72 b1 9a 17 b6 b8 cf eb e4 3d 1c ef e8 3c
       -3.5317806e-09 -8.6828324e-05 0.111777894 0.028434329
000140 c7 3f c3 3d 96 b0 1c 3d 72 8e 68 b5 6f 02 a7 3d
       0.09533649 0.038254343 -8.663402e-07 0.08154761
000150 77 b0 90 8d e9 90 bf 3d bf 77 33 ab 8c e9 fa a4
       -8.917168e-31 0.09353811 -6.3759756e-13 -1.0881586e-16
000160 d2 0b fb 3d f1 85 3b a8 6b ac 58 b3 33 27 2b a4
       0.12258114 -1.0409629e-14 -5.0448232e-08 -3.7112917e-17
000170 1b 1a 0a bd 06 51 89 ad 8b 46 fa 3b 1f 0e da 3d
       -0.033716302 -1.5611078e-11 0.007637804 0.10647225
000180 fb 94 65 ba 12 52 c8 ba 4d dd 1d 3e 1a ed 87 b9
       -0.00087578566 -0.0015283248 0.15416451 -0.0002592586
000190 01 c2 2a bd 84 fc 8c 3d fd 9f 8d b2 3e 23 5b 3d
       -0.041688923 0.06884101 -1.6487315e-08 0.053500406
0001a0 59 84 04 99 8d 0c c0 bc 70 cd f8 3d 36 7b d1 bc
       -6.8509674e-24 -0.023443485 0.12148559 -0.025571447
0001b0 b0 dc 11 a9 2f cc 17 b4 1f 26 51 3d 16 ac 1b 3d
       -3.2387884e-14 -1.4137252e-07 0.051061746 0.03800591
0001c0 3b f9 7c 3d ab 6f 8f a2 a8 f7 31 b7 dc 96 08 b6
       0.061761122 -3.887846e-18 -1.0607684e-05 -2.035339e-06
0001d0 ea 5e a3 b9 cf 0d 93 3d 4a 11 b5 a5 6c f2 04 b0
       -0.000311605 0.07180368 -3.141021e-16 -4.836582e-10
0001e0 5f 8e a0 84 0c c8 a5 3d 3c c7 5b 3d 5e 11 d9 92
       -3.7746566e-36 0.080947965 0.0536568 -1.3698907e-27
0001f0 9e 40 c6 3d 0f 8d 08 b6 4c c8 2e af d4 6b c0 bc
       0.096802935 -2.0347686e-06 -1.5896368e-10 -0.023488916

fc3.weight f4 [1, 128]
000000 2a 32 1c ba eb 6a 8b ba 9d c5 48 3e 62 bc b9 be
       -0.0005958403 -0.0010636722 0.19606633 -0.36276537
000010 f4 8d 8e 3e 83 28 46 ba de b8 1a bb d6 87 c1 3e
       0.27842677 -0.00075591373 -0.0023608725 0.37798947
000020 37 ac fc ba 0b 4c 27 39 6d 3a 57 39 9f 7a 91 3e
       -0.0019277398 0.0001595469 0.00020525763 0.28413865
000030 af 21 84 b5 72 0c f3 b9 ec 98 c2 32 c2 b0 49 be
       -9.84457e-07 -0.00046357844 2.2654113e-08 -0.19696334
000040 96 fe 11 bb 96 a3 40 b9 b5 86 44 3e ae b9 95 3e
       -0.002227699 -0.00018371487 0.19192012 0.29243225
000050 a0 19 de 38 9e bb 69 3e 2f c9 2f be eb 04 72 be
       0.00010590558 0.22825477 -0.17166589 -0.23634689
000060 a5 33 64 3e 78 a0 23 b7 58 01 cc 3e 67 b7 9b 3e
       0.22285326 -9.752919e-06 0.39844775 0.30413362
000070 3d 7e 6e be bc c2 5d be 97 e2 52 3e ac 0d 77 3e
       -0.23290344 -0.21656317 0.2059425 0.24126309
000080 53 0c 6d b9 28 09 67 39 1d 5c 4b 3e ee c6 22 be
       -0.00022606672 0.00022033288 0.19859357 -0.15896198
000090 42 62 c4 3e fe d2 08 b8 b3 9f b3 3a b6 3b 7a be
       0.38356215 -3.262143e-05 0.001370421 -0.2443684
0000a0 9d d9 90 ba 99 e8 85 39 e1 26 97 3e ab ef 22 ba
       -0.0011051182 0.00025541036 0.2952185 -0.0006215523
0000b0 09 6d 2b be 09 87 3b 3e 46 11 ad 3e 16 b1 9d be
       -0.16740812 0.1831323 0.3380224 -0.30799168
0000c0 31 da 7f 3e 9a 9d 9f b9 9b cb 20 b6 3e a6 9b b9
       0.24985577 -0.00030444266 -2.3960372e-06 -0.00029687764
0000d0 7f b1 73 b6 68 27 d3 38 01 f7 2c be df e6 1a 3e
       -3.6313138e-06 0.00010068604 -0.168911 0.15127133
0000e0 63 c1 f9 3d d1 66 37 3e b5 6f 98 ba ef 44 0a 3a
       0.12195089 0.17910315 -0.0011629971 0.0005274554
0000f0 cb 22 90 be 54 9b d9 b9 75 db 14 3e 10 8e 74 3e
       -0.28151545 -0.00041505194 0.14536841 0.23882318
000100 53 e0 14 b8 d4 e6 80 3e 82 9a 72 b9 0d d8 1d 3e
       -3.5494868e-05 0.25176108 -0.00023136477 0.15414448
000110 8a 43 c6 ac a9 15 28 ba f4 ef 2f ba d2 8e cb b8
       -5.634997e-12 -0.0006411919 -0.0006711476 -9.706397e-05
000120 68 34 ad 3e 1b 1b 91 3e 9c 71 be 1c e6 ca 4d 36
       0.33829045 0.28340992 1.2602513e-21 3.0665483e-06
000130 e9 d5 12 ba f3 bd 42 ba 8e 97 7f 3e e1 82 61 3e
       -0.0005601333 -0.00074288173 0.24960157 0.22022583
000140 46 e1 96 3e 5d f4 2e 3e 74 03 77 3a 09 d0 8f 3e
       0.29468745 0.17085405 0.0009422817 0.28088406
000150 3c 5e 02 80 98 d7 c9 3e 6b c0 19 ba 46 8a ee 39
       -2.17476e-40 0.39422297 -0.00058651593 0.0004549792
000160 17 82 3f 3e f8 9c 1a b9 44 3d 42 ba 4b 61 b3 39
       0.18701969 -0.0001474506 -0.0007409642 0.0003421403
000170 28 4c 91 be a9 45 f6 b8 de 14 68 3e 13 bc a3 3e
       -0.28378415 -0.00011743169 0.2266421 0.31979427
000180 22 bb 03 3b 87 0d 51 bb 28 74 62 3e 19 e9 fa b8
       0.0020100554 -0.0031898932 0.22114623 -0.00011964347
000190 9b 84 19 be a8 ed a2 3e e1 bb 82 b9 bb 73 40 3e
       -0.14991991 0.31821942 -0.00024935513 0.18794148
0001a0 e4 fc 9f 32 da b7 20 be c0 81 da 3e 87 e4 b7 bd
       1.8625038e-08 -0.15695134 0.42677116 -0.08979135
0001b0 28 f5 a7 39 03 d0 09 39 a8 5d 11 3e 64 ae 00 3e
       0.00032035378 0.00013142829 0.14195883 0.12566525
0001c0 02 35 9d 3e 18 4d b8 b5 eb cf 23 3b 49 88 59 39
       0.30704504 -1.3731506e-06 0.0024995755 0.00020745503
0001d0 56 da 8a 3a d7 30 5d 3e 0c 33 0f b0 cf 3c 8b b6
       0.0010593634 0.21600662 -5.209564e-10 -4.149602e-06
0001e0 a9 2c 0a 00 7e e4 76 3e 77 4c 88 3e a4 55 b9 37
       9.34376e-40 0.241106 0.26620838 2.2093598e-05
0001f0 09 f7 bd 3e 99 74 94 b6 1d 48 3c b8 29 4a 8d be
       0.37102535 -4.4243175e-06 -4.4889854e-05 -0.27595642
